MACE_models/mace02_com3_compiled.model (torch, 527883 bytes, 51 tensors)

r_max f8 []
4.0
00000000: 0000 0000 0000 1040

weight f8 [48]
0.5570441728222417 1.1647688994747085 -1.4737977025292759 -0.18964364163900937 -1.1854563212565814 1.2626534462797483 1.196278691610057 -0.11809893321830994
0.027088413237451866 -1.5196156562968337 -0.34253689471612847 -0.07290375280888205 0.43840608857650665 0.22130953914441148 0.10343167391939945 -0.5336782584692983
0.37490799788070395 1.2061847709291569 -0.4421486195358829 1.3142186366210682 0.18172485384448722 -0.9038680084496077 -1.8278086474648105 1.00250369090733
-0.46395057363725234 1.1551958596163667 1.152254003254904 -0.88453005790291 -0.7964018008115568 -1.2681105349724344 -1.9816211083502324 1.6158278845478984
-2.2307223973247776 -0.4917715571600974 -0.6311296760808495 1.9513292103366693 -1.8392992555606218 -0.6975173592930991 -1.4644232771014551 0.6591136892551538
-0.6575925151022586 1.3906676052996658 -0.3299010512296185 0.5394780211708737 0.6336928932082586 -1.9845744108833856 0.1963005376726036 -1.3484355294187054
00000000: 645d 164d 4ed3 e13f c044 aab6 e4a2 f23f
00000010: e487 54e6 ac94 f7bf 14f0 5d2b 3e46 c8bf
00000020: c322 2a0c a1f7 f2bf 5b40 9f19 d433 f43f
00000030: adde 1520 f523 f33f 1c79 dd4f bb3b bebf
00000040: 8f51 d2a3 10bd 9b3f 388d a481 5850 f8bf
00000050: acaa 1ede 1fec d5bf 7fdf 1102 d2a9 b2bf
00000060: 806a 3369 d80e dc3f 9e83 75f8 de53 cc3f
00000070: 20b7 da88 7f7a ba3f a6c7 566d e413 e1bf
00000080: 7403 7a1d 7efe d73f 062f 0167 884c f33f
00000090: d633 38b9 294c dcbf 944c 011f 0a07 f53f
000000a0: 34f4 1090 c242 c73f 8b22 069a 7cec ecbf
000000b0: 5351 c347 b43e fdbf 760f 694f 410a f03f
000000c0: 46e0 2ebf 5db1 ddbf 316e 58a7 ae7b f23f
000000d0: 64a3 cae4 a16f f23f 19b4 e0fa 114e ecbf
000000e0: aec1 1ea1 1f7c e9bf f8b6 b645 2e4a f4bf
000000f0: 20d7 d655 b8b4 ffbf c491 0157 6eda f93f
00000100: 94b7 f7fb 84d8 01c0 5dc2 c668 2f79 dfbf
00000110: 9fac c9dc 3632 e4bf 0c02 62fa a438 ff3f
00000120: 4f0a 630e c56d fdbf ebcb d1ec 0f52 e6bf
00000130: 2a6e 2a1a 476e f7bf 1f4c 7697 7517 e53f
00000140: beac 4e75 ff0a e5bf 33e6 c5ac 2c40 f63f
00000150: 739f 7c4c 191d d5bf cfde 3a69 6743 e13f
00000160: da2f 8151 3647 e43f cd8f f318 d1c0 ffbf
00000170: adda be42 6020 c93f 73e2 3922 3193 f5bf

output_mask f8 [16]
1.0 1.0 1.0 1.0 1.0 1.0 1.0 1.0
1.0 1.0 1.0 1.0 1.0 1.0 1.0 1.0
00000000: 0000 0000 0000 f03f 0000 0000 0000 f03f
00000010: 0000 0000 0000 f03f 0000 0000 0000 f03f
00000020: 0000 0000 0000 f03f 0000 0000 0000 f03f
00000030: 0000 0000 0000 f03f 0000 0000 0000 f03f
00000040: 0000 0000 0000 f03f 0000 0000 0000 f03f
00000050: 0000 0000 0000 f03f 0000 0000 0000 f03f
00000060: 0000 0000 0000 f03f 0000 0000 0000 f03f
00000070: 0000 0000 0000 f03f 0000 0000 0000 f03f

bessel_weights f8 [8]
0.7853981633974483 1.5707963267948966 2.356194490192345 3.141592653589793 3.9269908169872414 4.71238898038469 5.497787143782138 6.283185307179586
00000000: 182d 4454 fb21 e93f 182d 4454 fb21 f93f
00000010: d221 337f 7cd9 0240 182d 4454 fb21 0940
00000020: 5e38 5529 7a6a 0f40 d221 337f 7cd9 1240
00000030: 75a7 bbe9 bbfd 1540 182d 4454 fb21 1940

r_max f8 []
4.0
00000000: 0000 0000 0000 1040

prefactor f8 []
0.7071067811865476
00000000: cd3b 7f66 9ea0 e63f

p f8 []
5.0
00000000: 0000 0000 0000 1440

r_max f8 []
4.0
00000000: 0000 0000 0000 1040

atomic_energies f8 [3]
-10.707211383396714 -48.847445262804705 -102.57117256025786
00000000: 7a18 469c 176a 25c0 bb72 1c16 796c 48c0
00000010: 87ab 5a17 8ea4 59c0

weight f8 [256]
-1.2159957923711724 -0.4728348546373606 -1.3907677575840207 -1.4814435670436124 0.6953216956972047 0.3119294344345289 1.0096419913549994 -1.4887649073918683
0.48713926337554064 2.3170308068616867 0.5789697321609516 -0.34717238208035206 -1.5968762802831198 -1.0513190218708786 0.048877358308621055 0.7425843505124501
1.8682029479688695 -1.1702808452708282 -0.17544714248775098 1.0034744481271936 -1.332769553028103 -0.5153728980519104 -0.38459739290744815 0.7640357685501378
-0.07728517141168564 1.0483297143585222 -0.6479636517380601 -0.13586665200985557 1.4057242661213494 -0.8308760988000287 -0.2708450069498759 0.5628463115327623
-0.03806804217555365 -0.33842744922376755 -1.9155914665112082 1.7050727250059932 0.42674441736802576 -0.7259669069030713 -0.5416777839817257 -0.9111737521548237
0.3566025060756502 0.6600051980477097 1.4823391393083793 0.21775084057657174 0.48932945485913043 -0.3115298872389901 -0.7268737090507222 -0.6246831035122505
2.566541662441064 0.7194808387203218 0.04271539292594673 3.199626474813695 -0.31105094682612305 0.10636141385063126 -0.13966742143640323 0.13256090960503822
-0.6400817246397884 -0.06836674886513558 -0.013951224998820438 0.8216199315288529 -0.7973440718369105 1.5755602398430086 -0.16235400828171093 2.322486267419285
1.2445670581183936 -1.9671434217431023 0.05078915839643709 0.30521001364697753 1.0329771688271896 3.229316151155943 0.4223550782066133 -0.42633152984365086
-0.12140014552769483 -1.483705700386558 -0.9380617505166243 -0.9977531561473172 0.37095884518096023 -0.34482082519023916 -1.244557256152059 0.4971892314670467
1.72718954789948 -0.115518007522041 -0.054029621565547345 -1.7490571026591237 0.9798544438072312 2.5050265440535506 -1.557872062558875 0.15726613700708228
0.2753173529540675 0.10629711729706054 -0.09828619429675443 -0.18278605093395775 0.17147595458688586 0.481760012331532 0.7791335304559526 -0.11325188679610916
-0.19765246150464696 -1.988854610043862 0.4932351356876511 0.12112040367026669 -0.43608723328199905 1.895909812555881 0.773802349396017 1.3541418165184282
0.7988163024775063 0.356763532673654 0.7771303551904054 -1.2678841864784631 0.15106014695617034 1.8539403383579185 -0.133099104508695 0.8711008743492962
-0.43950765008226506 0.07966308200489802 0.17675141469138503 1.180063177207647 -0.3246646069130302 0.19563758324555186 -0.9458470638690296 2.049940371892072
-0.8441609167146972 -0.09668125554005498 1.7490101361620218 0.2497504146502295 -0.09873397199947752 -2.0418850752586293 -0.7344591535260503 1.8768679486507687
-0.7739934120945712 -0.8737463698206102 0.4174902650106121 1.7800703719618842 0.5592416397916887 0.34829897504767554 0.7437038044095983 0.19165922779151878
0.4731908522537261 -0.09704665225329291 2.1152523588826213 -0.3897406431143423 1.9638735658241977 -0.007502433458405037 -0.1995992003175062 -1.4640378040858337
-0.5835434584191813 -0.7851890754074352 -0.7222094258582777 -0.2821599275834763 1.7169788366507985 -0.687748879019972 -0.26309084855562054 0.015531708367000406
0.1675566683571297 -0.3784053249433228 0.19850527285439687 -0.515764678472872 1.4856112120599585 -0.960436424448498 1.1335605511078135 1.1414851656839409
0.8084639121083488 -0.25146462483774873 1.1753389902155642 0.6738160096524216 0.5393769271201752 -2.3521454982797954 -0.2339671965319795 1.0345302651045507
-0.9302109607681254 3.7868693254947328 -0.12003211796176373 1.3723694076923856 -1.5056112797610048 -0.4192782343708578 1.1967407653450715 1.9744921195869485
-1.7357301803181509 0.8711771817374744 2.5056766470771086 -0.515497356045826 0.3265193231449605 -0.643531446309226 0.5734269475154782 -0.3689599004782185
-1.2739077917591428 0.3286678938416691 -0.8479421310400782 -1.2393513239638292 -0.49798480584576627 0.19758413349978704 0.5824851423208077 -0.8874366816654898
0.777102944228899 0.5193028655805915 1.4286912832591452 -0.675221217144653 -2.0993937964067917 -0.3793562010175633 1.259889963703118 -0.923180185553343
0.6023658593182806 0.5797974324470219 -2.550793887731101 1.1516033123857854 1.165488962643324 -0.6448716239426177 1.603003699598538 -0.6195734689754793
-0.7293722660862999 -0.08054210982300775 1.7893399281113662 -0.5995613017320787 1.8968445807138345 -0.8777034474834776 1.244343376644057 0.07321577739298735
-0.4513715595716075 -0.3734092134652366 1.2976054010116125 0.06182358741674272 2.2641991142649727 -1.0308729221120534 -0.9250719365698924 -1.3699881256842423
0.6034555588436238 0.18699826931194816 1.2735368817863484 1.4602223714115066 0.8096003063923561 0.9932528470790771 0.4420332651772826 -1.3894459266824961
0.2040418374553892 0.4772996679381699 0.9360417774532125 0.44031768738221877 0.4267084874918696 0.9481229194400231 0.7289960822376078 0.3069813208367759
-1.5984788086697128 -0.41828185845682064 -1.8855470308775686 -0.007196925433414241 -0.26688870967093015 -1.881870265390547 2.0126347020808986 -0.6580865880039732
-1.0420141986767095 1.7680734085105496 0.14076046340196582 1.7603982836414647 1.1857149222959258 0.582681444566054 -0.04649323351597368 -0.16481095324862177
00000000: b7ec 0401 b874 f3bf 5fe3 441f ed42 debf
00000010: 5879 32b1 9540 f6bf 7f26 752b feb3 f7bf
00000020: 1100 e748 1340 e63f c896 e3df a6f6 d33f
00000030: cd9b 585c 7e27 f03f 81e3 ca26 fbd1 f7bf
00000040: 1be9 3229 4a2d df3f 0e5d 9a72 4789 0240
00000050: 532a 2088 eb86 e23f 8402 c782 1238 d6bf
00000060: a22f 7924 ce8c f9bf f391 09e5 33d2 f0bf
00000070: 009b e6fe 7306 a93f b01d 7f41 40c3 e73f
00000080: c712 3dc6 28e4 fd3f d32c 5968 78b9 f2bf
00000090: 6dad 944d 0d75 c6bf 433f 1139 3b0e f03f
000000a0: 8bc3 b52a 0653 f5bf 1916 cc4d ef7d e0bf
000000b0: bf84 2a62 3e9d d8bf c6b4 dc23 fb72 e83f
000000c0: 46cf ad03 f6c8 b3bf 9b84 e960 f5c5 f03f
000000d0: 43c6 a644 1ebc e4bf 73ea 7f15 1464 c1bf
000000e0: edf4 62ba d87d f63f 59f9 eb78 8996 eabf
000000f0: 729d c84b 8655 d1bf 5da3 9644 d602 e23f
00000100: 7860 5588 a77d a3bf ac06 9f9a cba8 d5bf
00000110: db98 d23c 43a6 febf cb3c 7356 fa47 fb3f
00000120: e128 16d1 c74f db3f 1f10 64f3 1e3b e7bf
00000130: 007b e5a5 6c55 e1bf 8150 4fdb 5528 edbf
00000140: 4d0f 5151 93d2 d63f e0c1 9938 c31e e53f
00000150: 7f90 ce3e a9b7 f73f 26f8 7971 42df cb3f
00000160: efb9 657d 2c51 df3f 02c1 5a0d 1bf0 d3bf
00000170: 063e 16a7 8c42 e7bf 615d 7e6b 67fd e3bf
00000180: f70b c0fe 4688 0440 bae0 0cae fc05 e73f
00000190: c032 4ebf cade a53f b9ec e5c3 d598 0940
000001a0: 9f83 003b 42e8 d3bf e176 0b6a 803a bb3f
000001b0: 7d68 b13f 9fe0 c1bf c1a6 bd81 c1f7 c03f
000001c0: 9f0b 43ab 8c7b e4bf 4e75 82b6 7b80 b1bf
000001d0: d660 dfb8 7592 8cbf d50f f5e1 b54a ea3f
000001e0: 405e 06b7 d783 e9bf e70e 70a7 7e35 f93f
000001f0: 1ee4 f821 04c8 c4bf adcc 1fae 7394 0240
00000200: 48c2 c425 bfe9 f33f bed9 6e61 6b79 ffbf
00000210: e6ad 9b5c 0901 aa3f 80a1 c194 8f88 d33f
00000220: 090a 5a11 1387 f03f 6346 cdb4 a3d5 0940
00000230: 719a 0c98 dd07 db3f fea7 7b0a 0449 dbbf
00000240: 2766 c576 1414 bfbf dfc8 4030 42bd f7bf
00000250: 011e 8313 9a04 eebf b445 e406 98ed efbf
00000260: a8b4 0d2b cabd d73f f0fe ca5d 8b11 d6bf
00000270: ecc2 92de b4e9 f3bf fbc1 44c8 f2d1 df3f
00000280: 6a8a e381 91a2 fb3f e0ff 6790 9692 bdbf
00000290: fe4f 4743 c5a9 abbf 851e ec4c 23fc fbbf
000002a0: 26c1 dfb4 f75a ef3f 4293 525b 4b0a 0440
000002b0: cfad 8041 0bed f8bf a959 9bf9 4b21 c43f
000002c0: 6760 bdac cc9e d13f fc2f 73b2 4936 bb3f
000002d0: f721 27b6 4829 b9bf 4592 7687 8865 c7bf
000002e0: 9a22 8090 ecf2 c53f d401 5ff2 27d5 de3f
000002f0: 8ecf 1071 a9ee e83f ade4 ff5d 13fe bcbf
00000300: 2b74 1105 ad4c c9bf 0e32 2a36 59d2 ffbf
00000310: b60f 411a 2a91 df3f 9261 a42c bf01 bf3f
00000320: 468e 496d dae8 dbbf ed7c 1187 a555 fe3f
00000330: d929 0725 fdc2 e83f a07b 019c 90aa f53f
00000340: 8ee1 d434 e78f e93f 0848 4fb6 36d5 d63f
00000350: 66b1 887a 40de e83f 27a6 c0ed 4049 f4bf
00000360: 29ee 735b f055 c33f 0db8 1f58 bda9 fd3f
00000370: 0cf1 7e36 6409 c1bf 871c dbf0 0ee0 eb3f
00000380: 2d7d dcb1 e420 dcbf c0db e8bb cc64 b43f
00000390: 8d84 cf54 ca9f c63f 9321 15ed 89e1 f23f
000003a0: dd0c 370f 4ec7 d4bf 5e3d f4fe a60a c93f
000003b0: 2fb9 ca0f 6144 eebf 5436 4023 4766 0040
000003c0: 6d3b 3bc1 5d03 ebbf f545 ae4e 1ac0 b8bf
000003d0: a603 730d f2fb fb3f 04e7 8a53 d2f7 cf3f
000003e0: 7fef bd2c a146 b9bf 1669 a3d7 c755 00c0
000003f0: 248d 947b b080 e7bf bdd9 a5af a607 fe3f
00000400: 1380 08d5 8dc4 e8bf 8f1a 6cf2 baf5 ebbf
00000410: e99c a716 29b8 da3f 427a 0212 2b7b fc3f
00000420: 55ef 2eb9 4ee5 e13f 75d8 c3c8 874a d63f
00000430: 3e33 bbeb 6bcc e73f 08ac ab21 4a88 c83f
00000440: 418d cc48 c248 de3f c13a 9da5 0cd8 b8bf
00000450: 7080 c16d 09ec 0040 6647 06bd 82f1 d8bf
00000460: f019 2bb0 066c ff3f de1c 8225 dfba 7ebf
00000470: cff1 d572 778c c9bf 4080 8ae7 b26c f7bf
00000480: 5790 b654 63ac e2bf 2ba5 01d7 4420 e9bf
00000490: 5f93 1df1 561c e7bf d89d 4d83 e80e d2bf
000004a0: cc6d f5cc be78 fb3f cc0b e8ef 0902 e6bf
000004b0: 0117 9bff 7ad6 d0bf 1ff1 e59b 16cf 8f3f
000004c0: 1909 6935 7f72 c53f 80e2 d0f7 ca37 d8bf
000004d0: e320 7feb 9e68 c93f 5422 4fed 2481 e0bf
000004e0: 24e5 2543 10c5 f73f 5697 1c2b e5bb eebf
000004f0: 63b3 7063 1023 f23f e9b4 f7f2 8543 f23f
00000500: ea0c d0b5 efde e93f cbdb f114 ff17 d0bf
00000510: 3e08 cb41 30ce f23f d14e 9f97 e68f e53f
00000520: 1057 c666 9342 e13f de5c b4a8 31d1 02c0
00000530: 3488 b818 a3f2 cdbf 438a 759b 6f8d f03f
00000540: a127 dcc6 49c4 edbf bccd 1925 824b 0e40
00000550: 298a 1dc5 6cba bebf 701d c19f 39f5 f53f
00000560: ddfe 70da fb16 f8bf 8b09 2360 74d5 dabf
00000570: 4a27 0fa5 d925 f33f e25e 7d0c 8597 ff3f
00000580: a458 7202 8dc5 fbbf 51af 12f8 aee0 eb3f
00000590: 7e60 ac32 a00b 0440 7485 ac4f f47e e0bf
000005a0: bbdb 9a4d b1e5 d43f 0510 7b42 cf97 e4bf
000005b0: b92b 4778 8359 e23f 21b8 85fc 099d d7bf
000005c0: ff99 fb22 ed61 f4bf 0be4 d20f e508 d53f
000005d0: 41f7 3689 5722 ebbf f8dc ca0d 62d4 f3bf
000005e0: 67cc c0a9 fbde dfbf da87 cbd7 6f4a c93f
000005f0: 908f 95e1 b7a3 e23f f3c4 a09c e165 ecbf
00000600: 72d4 62fe 06de e83f 3d68 0c0b 219e e03f
00000610: 52da 1a64 ebdb f63f 8073 a686 699b e5bf
00000620: 8bf0 87f9 8ecb 00c0 64ef 393b 5f47 d8bf
00000630: c69d ea60 8228 f43f ca89 282c b18a edbf
00000640: 6af7 3fc4 9446 e33f 7445 5558 b38d e23f
00000650: 5b22 35a0 0668 04c0 7498 4a98 f76c f23f
00000660: c46e 26c1 d7a5 f23f 6776 ded0 c9a2 e4bf
00000670: 9e48 1235 e7a5 f93f ac01 57bd 8bd3 e3bf
00000680: f566 ae81 0457 e7bf 3402 a45f 689e b4bf
00000690: 1ba5 8ae7 22a1 fc3f ee5d dc2e 9b2f e3bf
000006a0: 0a2c fcb3 7959 fe3f 4be5 508a 2516 ecbf
000006b0: 10e3 ba99 d4e8 f33f b03f 74e9 44be b23f
000006c0: ad17 ad89 45e3 dcbf f6ed f6c1 efe5 d7bf
000006d0: 5153 87e1 fdc2 f43f ba11 275c 57a7 af3f
000006e0: a933 db6c 141d 0240 02da ec9a 747e f0bf
000006f0: 7d7b 4076 309a edbf f68d 3bab 78eb f5bf
00000700: 1d54 3a08 824f e33f cb3c 8d2d 8fef c73f
00000710: de5a 9835 6860 f43f 8b99 2122 125d f73f
00000720: 0d2d d9e6 3ee8 e93f 00a2 db31 bac8 ef3f
00000730: b68d 6be4 454a dc3f 7796 eaa6 2b3b f6bf
00000740: 917d 71fd 0a1e ca3f 0ee9 0be8 138c de3f
00000750: 813d bbe2 0df4 ed3f fc0b ca3c 2a2e dc3f
00000760: 5001 ad1d 314f db3f 76a7 72e0 0557 ee3f
00000770: c4ec 8397 ef53 e73f 7a84 5efb 94a5 d33f
00000780: 095e e983 5e93 f9bf e041 a545 21c5 dabf
00000790: 6306 0b5d 332b febf 9f69 e4f5 857a 7dbf
000007a0: 8654 ed61 b414 d1bf 04ad d2fe 231c febf
000007b0: 78db 0139 e019 0040 ae39 ad9a 0b0f e5bf
000007c0: bb8b 9414 17ac f0bf 52ae a757 074a fc3f
000007d0: bdcc 7059 7004 c23f 41cb 0264 972a fc3f
000007e0: 303e da35 b0f8 f23f 2eb6 8c8e 53a5 e23f
000007f0: 916f df0a f6cd a7bf 6ada 1c7b 8618 c5bf

output_mask f8 [16]
1.0 1.0 1.0 1.0 1.0 1.0 1.0 1.0
1.0 1.0 1.0 1.0 1.0 1.0 1.0 1.0
00000000: 0000 0000 0000 f03f 0000 0000 0000 f03f
00000010: 0000 0000 0000 f03f 0000 0000 0000 f03f
00000020: 0000 0000 0000 f03f 0000 0000 0000 f03f
00000030: 0000 0000 0000 f03f 0000 0000 0000 f03f
00000040: 0000 0000 0000 f03f 0000 0000 0000 f03f
00000050: 0000 0000 0000 f03f 0000 0000 0000 f03f
00000060: 0000 0000 0000 f03f 0000 0000 0000 f03f
00000070: 0000 0000 0000 f03f 0000 0000 0000 f03f

output_mask f8 [144]
1.0 1.0 1.0 1.0 1.0 1.0 1.0 1.0
1.0 1.0 1.0 1.0 1.0 1.0 1.0 1.0
1.0 1.0 1.0 1.0 1.0 1.0 1.0 1.0
1.0 1.0 1.0 1.0 1.0 1.0 1.0 1.0
1.0 1.0 1.0 1.0 1.0 1.0 1.0 1.0
1.0 1.0 1.0 1.0 1.0 1.0 1.0 1.0
1.0 1.0 1.0 1.0 1.0 1.0 1.0 1.0
1.0 1.0 1.0 1.0 1.0 1.0 1.0 1.0
1.0 1.0 1.0 1.0 1.0 1.0 1.0 1.0
1.0 1.0 1.0 1.0 1.0 1.0 1.0 1.0
1.0 1.0 1.0 1.0 1.0 1.0 1.0 1.0
1.0 1.0 1.0 1.0 1.0 1.0 1.0 1.0
1.0 1.0 1.0 1.0 1.0 1.0 1.0 1.0
1.0 1.0 1.0 1.0 1.0 1.0 1.0 1.0
1.0 1.0 1.0 1.0 1.0 1.0 1.0 1.0
1.0 1.0 1.0 1.0 1.0 1.0 1.0 1.0
1.0 1.0 1.0 1.0 1.0 1.0 1.0 1.0
1.0 1.0 1.0 1.0 1.0 1.0 1.0 1.0
00000000: 0000 0000 0000 f03f 0000 0000 0000 f03f
00000010: 0000 0000 0000 f03f 0000 0000 0000 f03f
00000020: 0000 0000 0000 f03f 0000 0000 0000 f03f
00000030: 0000 0000 0000 f03f 0000 0000 0000 f03f
00000040: 0000 0000 0000 f03f 0000 0000 0000 f03f
00000050: 0000 0000 0000 f03f 0000 0000 0000 f03f
00000060: 0000 0000 0000 f03f 0000 0000 0000 f03f
00000070: 0000 0000 0000 f03f 0000 0000 0000 f03f
00000080: 0000 0000 0000 f03f 0000 0000 0000 f03f
00000090: 0000 0000 0000 f03f 0000 0000 0000 f03f
000000a0: 0000 0000 0000 f03f 0000 0000 0000 f03f
000000b0: 0000 0000 0000 f03f 0000 0000 0000 f03f
000000c0: 0000 0000 0000 f03f 0000 0000 0000 f03f
000000d0: 0000 0000 0000 f03f 0000 0000 0000 f03f
000000e0: 0000 0000 0000 f03f 0000 0000 0000 f03f
000000f0: 0000 0000 0000 f03f 0000 0000 0000 f03f
00000100: 0000 0000 0000 f03f 0000 0000 0000 f03f
00000110: 0000 0000 0000 f03f 0000 0000 0000 f03f
00000120: 0000 0000 0000 f03f 0000 0000 0000 f03f
00000130: 0000 0000 0000 f03f 0000 0000 0000 f03f
00000140: 0000 0000 0000 f03f 0000 0000 0000 f03f
00000150: 0000 0000 0000 f03f 0000 0000 0000 f03f
00000160: 0000 0000 0000 f03f 0000 0000 0000 f03f
00000170: 0000 0000 0000 f03f 0000 0000 0000 f03f
00000180: 0000 0000 0000 f03f 0000 0000 0000 f03f
00000190: 0000 0000 0000 f03f 0000 0000 0000 f03f
000001a0: 0000 0000 0000 f03f 0000 0000 0000 f03f
000001b0: 0000 0000 0000 f03f 0000 0000 0000 f03f
000001c0: 0000 0000 0000 f03f 0000 0000 0000 f03f
000001d0: 0000 0000 0000 f03f 0000 0000 0000 f03f
000001e0: 0000 0000 0000 f03f 0000 0000 0000 f03f
000001f0: 0000 0000 0000 f03f 0000 0000 0000 f03f
00000200: 0000 0000 0000 f03f 0000 0000 0000 f03f
00000210: 0000 0000 0000 f03f 0000 0000 0000 f03f
00000220: 0000 0000 0000 f03f 0000 0000 0000 f03f
00000230: 0000 0000 0000 f03f 0000 0000 0000 f03f
00000240: 0000 0000 0000 f03f 0000 0000 0000 f03f
00000250: 0000 0000 0000 f03f 0000 0000 0000 f03f
00000260: 0000 0000 0000 f03f 0000 0000 0000 f03f
00000270: 0000 0000 0000 f03f 0000 0000 0000 f03f
00000280: 0000 0000 0000 f03f 0000 0000 0000 f03f
00000290: 0000 0000 0000 f03f 0000 0000 0000 f03f
000002a0: 0000 0000 0000 f03f 0000 0000 0000 f03f
000002b0: 0000 0000 0000 f03f 0000 0000 0000 f03f
000002c0: 0000 0000 0000 f03f 0000 0000 0000 f03f
000002d0: 0000 0000 0000 f03f 0000 0000 0000 f03f
000002e0: 0000 0000 0000 f03f 0000 0000 0000 f03f
000002f0: 0000 0000 0000 f03f 0000 0000 0000 f03f
00000300: 0000 0000 0000 f03f 0000 0000 0000 f03f
00000310: 0000 0000 0000 f03f 0000 0000 0000 f03f
00000320: 0000 0000 0000 f03f 0000 0000 0000 f03f
00000330: 0000 0000 0000 f03f 0000 0000 0000 f03f
00000340: 0000 0000 0000 f03f 0000 0000 0000 f03f
00000350: 0000 0000 0000 f03f 0000 0000 0000 f03f
00000360: 0000 0000 0000 f03f 0000 0000 0000 f03f
00000370: 0000 0000 0000 f03f 0000 0000 0000 f03f
00000380: 0000 0000 0000 f03f 0000 0000 0000 f03f
00000390: 0000 0000 0000 f03f 0000 0000 0000 f03f
000003a0: 0000 0000 0000 f03f 0000 0000 0000 f03f
000003b0: 0000 0000 0000 f03f 0000 0000 0000 f03f
000003c0: 0000 0000 0000 f03f 0000 0000 0000 f03f
000003d0: 0000 0000 0000 f03f 0000 0000 0000 f03f
000003e0: 0000 0000 0000 f03f 0000 0000 0000 f03f
000003f0: 0000 0000 0000 f03f 0000 0000 0000 f03f
00000400: 0000 0000 0000 f03f 0000 0000 0000 f03f
00000410: 0000 0000 0000 f03f 0000 0000 0000 f03f
00000420: 0000 0000 0000 f03f 0000 0000 0000 f03f
00000430: 0000 0000 0000 f03f 0000 0000 0000 f03f
00000440: 0000 0000 0000 f03f 0000 0000 0000 f03f
00000450: 0000 0000 0000 f03f 0000 0000 0000 f03f
00000460: 0000 0000 0000 f03f 0000 0000 0000 f03f
00000470: 0000 0000 0000 f03f 0000 0000 0000 f03f

weight f8 [8, 64]
1.861749682695493 -1.0174221614872787 -2.0622957731673845 -0.8264279792542992 0.8285185457844008 -1.2521870469039569 0.9005148829970587 0.5830005085330604
0.8194771688668586 -0.37355855346677097 -0.9521963012817359 -0.08570600798789783 -0.3094800118048962 -1.5729993464947738 -0.8144067888522911 1.3383675866697733
-1.0812970761653051 -0.1843135996647797 -0.1862421664720117 0.19073557086367898 -0.6228624092597645 1.0573322226603619 0.15312547498382084 -0.9384050849567264
-0.3697880637274998 0.5973910015095757 1.8208205787714968 1.767184549799647 -0.5771203332833255 -1.0639220569978922 -0.40552888211114313 -0.15584694146827743
-0.9141741788949165 -2.206867518015064 -0.5336613825173991 0.18440820145856943 1.1844207559514814 -0.027915714334041976 0.770008081700949 -0.1392027192234487
-0.048478158117037276 -0.4568757970161182 -2.680167623015172 -0.5271389618704693 0.11892828503931872 -1.759388887046089 0.8237493101187239 0.8225251095741073
1.6444715480504004 -1.2508374791661903 2.256798326662132 1.2661886078745388 -0.43288885038012137 -0.11204442917710507 -0.8542621372681277 1.238433031424377
0.4678344349764815 -1.931774416394127 -0.49626223861892854 0.6412928984538484 -2.1913596342006305 -0.5967110530438707 -1.1760311530688556 0.40348121959196015
-0.7247513426415102 -2.51303677353464 -1.201985513459308 1.9463533948484695 -0.9790050224039194 -0.18384156765005807 2.341151780453966 1.746643438892906
-0.8015676402757306 1.089802700839232 1.5288380621339157 -1.4085686131418351 0.3518953783641165 3.6198756465150166 -0.3300040860845109 -0.7642874016026834
-0.6669498604592394 0.045907092212305184 1.7647840499927703 -1.1505143518045997 1.4620763408005555 -0.29289742627754933 -1.2443043996793144 0.20162978850991542
0.90738191133663 0.2097962185731323 0.695802201967767 1.1061344963967488 -0.6107254277660717 1.8129231679184694 -0.27853720992631487 0.7349650990303666
-1.0489969307510405 0.030123633473139087 -0.46061684173879486 -0.6091952248407281 0.3685610970582036 0.9226087916987766 0.5553006982843441 -0.26372639142059495
-0.2890732754856211 -0.09710040986442328 -0.4243541454699994 1.8360441661061113 -0.2416238039839467 -1.8128268234616465 -1.2371167094885125 0.4873091484755691
-0.8535585406133278 -0.2864266130396679 0.6887224443458372 -0.558769307004426 -1.7571385584931505 -0.2584152785964047 -0.3541666283831487 1.5845996585660906
0.23175440059451616 -0.4951856679748179 -0.9683725743665462 -0.8602696410566145 0.2403745983437877 0.3903893322842317 0.10721858973979341 -1.6657256169279984
0.20797651800147088 0.014594715264771735 1.3383494458927843 0.5644768014651397 -1.096291048282738 0.3377252366214829 -0.18049427364089582 -0.36477612661452613
1.035718399947966 -0.18437455475876643 2.536013800301324 -1.3084217953324473 -0.10115954444575036 1.7207297611520995 0.1582291182410358 -0.7048371475605277
0.097252431632993 -0.5805582017729418 -1.3440583522365182 -0.1380093752294788 -0.393381478868115 1.1711377226801658 0.8884893203943547 -0.6498712162202146
0.4224906346023052 0.38726097703329315 -0.37597352822626096 0.8535150882584396 -0.9222138372099798 -0.5953339777276324 -0.18920127382791038 -1.5748452414057497
1.9770996436635777 0.061426023818542466 -0.22929871090101486 1.1068303760409994 1.0851143657773106 -0.5467529431187791 0.4204719417006327 2.6014139498897144
-0.5623042608590367 0.029443700225224616 -1.9850736058101675 0.21536283133175108 0.5578237631106948 0.28819993015213075 -0.3908832976924921 0.0703034804490723
0.4109643779153774 -0.6269850028439411 -0.9246829584174548 -0.061348721391479406 -1.0257582134002003 -0.529323456237919 -0.053440645838109445 -2.2664633575954594
-1.1529045131232798 1.2061614029607854 1.8997665013877476 0.8477982096452394 1.2383035277847605 0.1988482421943967 0.9603587971885286 0.9964046736075987
1.1492195291157732 -0.3441205473581989 0.9771023063169149 -0.5068330559684217 0.47695809797625527 0.469033601234489 -0.30942627387056454 0.8334293427537753
0.28620035936911553 -2.1981122690312542 -1.319704605936111 1.4762869850973188 -0.13895397766868425 0.3965354638938336 0.731279564339391 -0.7368861240994852
0.9983686593550267 -0.05359241703513957 -1.3456014902594786 -0.4764258182136542 0.5469779359973711 0.5529261847414295 1.996866817409386 0.4555299693650881
-1.8884028885646114 0.21954399452609366 -0.2030980582143499 0.9521940659169775 -1.218755770591532 -0.5187479401419101 -0.37108757881873017 2.144626395583832
0.5664517846300253 2.6527070474370618 -0.7915887302555017 -2.144079296685351 -2.5488988175566996 -0.7532026194613316 0.5646458446213996 -0.7408723763118451
-0.4594743099171021 0.5626945672157425 -0.8085806572335527 0.8001636050777636 -0.47256078110888955 -0.020186509974499837 0.03558262014206813 0.9433294815430625
-1.3164940089673367 -0.4425593078546928 -0.17972450287942132 0.7877498292887548 -1.1198447532352995 0.07895887122282425 -2.5630073466731407 2.292700105965784
1.5893722513893809 -1.4914301262361243 1.0247944301363312 -0.42103033638951 -0.8122586029094601 -0.29012222213242167 1.7487661498867342 1.8294665226786624
00000000: 913f 0809 bac9 fd3f 1104 dd75 5c47 f0bf
00000010: af76 23ed 947f 00c0 ccb0 ec16 1972 eabf
00000020: 59c0 4853 3983 ea3f 46d6 ee48 f508 f4bf
00000030: 8713 8196 04d1 ec3f 796d b6ae f0a7 e23f
00000040: 2b42 032f 2839 ea3f 6df9 9122 62e8 d7bf
00000050: 2d12 ac60 6478 eebf d7f4 6035 d4f0 b5bf
00000060: 2def 5d40 85ce d3bf d930 dd5c 012b f9bf
00000070: d959 78d3 9e0f eabf b55e 6c21 f469 f53f
00000080: 1b3f b629 fe4c f1bf 8556 6289 9697 c7bf
00000090: ce15 1187 c8d6 c7bf dc8d 85ef 056a c83f
000000a0: eab5 b525 7dee e3bf f854 5531 d5ea f03f
000000b0: 8eb7 9e95 9d99 c33f 7741 c919 6a07 eebf
000000c0: 254a 0a8e 9baa d7bf e910 cdbb d31d e33f
000000d0: 6451 5bc2 1422 fd3f ec2c 764e 6346 fc3f
000000e0: 42df a90f c577 e2bf afc8 8422 d305 f1bf
000000f0: 180d 9069 2ff4 d9bf 2ed9 64e6 caf2 c3bf
00000100: 3671 2635 ea40 edbf cbd5 4328 aaa7 01c0
00000110: ad9c 2109 c113 e1bf 657a 301d b09a c73f
00000120: 4d3e b82d 63f3 f23f 2acf 6fe0 ef95 9cbf
00000130: f1f5 11fd e7a3 e83f 1b1c 4a0b 65d1 c1bf
00000140: 22b1 5d0f 21d2 a8bf 9129 a1fb 733d ddbf
00000150: 8e2f 05b9 fb70 05c0 37cb 3587 52de e0bf
00000160: 7f30 d086 1572 be3f cef0 2cf6 7426 fcbf
00000170: d8ff 6183 275c ea3f b44e b82d 2052 ea3f
00000180: 6e43 e165 c14f fa3f f113 1a29 6e03 f4bf
00000190: 7873 f547 ec0d 0240 fc38 56fc 4e42 f43f
000001a0: d4e1 cb6f 73b4 dbbf 65c0 0397 f1ae bcbf
000001b0: afe2 b88c 1d56 ebbf ba0f 8427 9fd0 f33f
000001c0: 02aa 8ad7 fff0 dd3f a098 5a4a 8ce8 febf
000001d0: 3bea 46b1 c2c2 dfbf c285 40af 7885 e43f
000001e0: 7154 558f e787 01c0 5186 3fc7 4118 e3bf
000001f0: 6120 d80a 06d1 f2bf 84a6 ace4 a2d2 d93f
00000200: 7813 4cba 2931 e7bf 27d0 1f06 b31a 04c0
00000210: 0a2d 6929 553b f3bf f352 1575 4324 ff3f
00000220: cf06 3b57 0254 efbf 4be7 59d8 1e88 c7bf
00000230: f72c e0c8 adba 0240 8d16 fd63 40f2 fb3f
00000240: 5884 102e 71a6 e9bf cd26 f3f4 d46f f13f
00000250: 46ec 5be6 1e76 f83f 31dc f93d 7f89 f6bf
00000260: cbfe 6b31 7485 d63f 69f3 ea5c 81f5 0c40
00000270: c1e0 5175 c91e d5bf 631b 54da 0a75 e8bf
00000280: 76d0 d73b a757 e5bf 14a1 6967 2281 a73f
00000290: c38a 3333 8e3c fc3f 3345 a9bc 8168 f2bf
000002a0: 58e6 3f29 aa64 f73f 1275 bcd8 d4be d2bf
000002b0: dd43 eeba abe8 f3bf 7855 c641 01cf c93f
000002c0: 8f87 45ca 4509 ed3f 0e4c cc3c 9ada ca3f
000002d0: 8cf6 bdfa 0244 e63f 0106 f015 bab2 f13f
000002e0: 8fe8 620d 108b e3bf beed 45b9 bb01 fd3f
000002f0: 2591 d6bb 8dd3 d1bf ad2d 0187 d584 e73f
00000300: ace1 7201 b1c8 f0bf a650 6ad2 bad8 9e3f
00000310: cd50 d00f bf7a ddbf d93f f2fb 867e e3bf
00000320: ec57 9c48 8196 d73f 7425 6bdf 0286 ed3f
00000330: 9978 52f8 05c5 e13f 5496 8fa8 e4e0 d0bf
00000340: 10ef 1632 2d80 d2bf b2bf cb8c 92db b8bf
00000350: 9acd 2d4a 9e28 dbbf 58ff f6d8 6f60 fd3f
00000360: c1e8 0560 87ed cebf f744 01b3 5601 fdbf
00000370: a769 09e4 3acb f3bf 9ba0 efb5 1230 df3f
00000380: bffb 2400 5a50 ebbf 2667 ed49 d054 d2bf
00000390: d391 cfa6 030a e63f 86f6 722b 70e1 e1bf
000003a0: 734c 3452 3d1d fcbf 2cee 963c e089 d0bf
000003b0: 965f 8f81 aaaa d6bf bdb4 ec2b 855a f93f
000003c0: bdf6 a0d1 20aa cd3f a095 593a 1fb1 dfbf
000003d0: b3ec 277b e8fc eebf df8d c232 5487 ebbf
000003e0: 777d 5647 98c4 ce3f 2b8e b789 23fc d83f
000003f0: bba5 7470 ad72 bb3f f70a 8de7 cfa6 fabf
00000400: ac7d 937b f99e ca3f 3d92 0d86 d5e3 8d3f
00000410: edaa cb1b e169 f53f 3997 34a7 3110 e23f
00000420: c559 747b 688a f1bf 2cae 944f 4a9d d53f
00000430: f692 33b5 6f1a c7bf c3f0 8af7 7d58 d7bf
00000440: 7a45 fa74 4d92 f03f ada4 73dd 9599 c7bf
00000450: abfd 739a c149 0440 3539 45b1 4bef f4bf
00000460: 27a0 1287 97e5 b9bf 3e6f 16ee 1b88 fb3f
00000470: 9861 0f0c da40 c43f 98e8 38a2 068e e6bf
00000480: 5ff7 510d 89e5 b83f 6442 41cb ee93 e2bf
00000490: 0a58 ac54 4381 f5bf dd74 938c 4aaa c1bf
000004a0: 85cd a582 292d d9bf 265f a0e8 fabc f23f
000004b0: 720c be27 816e ec3f d3e1 88b8 becb e4bf
000004c0: 88ec 9e28 160a db3f 0500 d843 e2c8 d83f
000004d0: 7e2f f945 f30f d8bf 39cd d6df fe4f eb3f
000004e0: 7989 d797 c682 edbf 7135 91d7 f90c e3bf
000004f0: c3e8 b951 bf37 c8bf 2d95 81ec 9032 f9bf
00000500: 3d7e 673c 33a2 ff3f e210 d956 3b73 af3f
00000510: 4ddb 2a00 a959 cdbf 2f0c b5c4 93b5 f13f
00000520: ecee 96e1 a05c f13f 1ffb 3507 007f e1bf
00000530: 7959 9f25 03e9 da3f 7813 f11d b2cf 0440
00000540: 0050 5981 65fe e1bf 8b8a 2946 7d26 9e3f
00000550: 2db8 918a dcc2 ffbf c902 ac5e 0291 cb3f
00000560: 2abf 6f38 b1d9 e13f ec9f ad1e de71 d23f
00000570: a814 0961 3b04 d9bf afe0 52ad 68ff b13f
00000580: 05ec bd88 3d4d da3f 9d82 49da 4210 e4bf
00000590: b349 32b7 0097 edbf 613e 0e80 1969 afbf
000005a0: 1884 c271 8169 f0bf 8685 b1be 37f0 e0bf
000005b0: 8bb8 4d84 925c abbf 89a3 738a b721 02c0
000005c0: 9667 b400 4c72 f2bf f49f 36e6 6f4c f33f
000005d0: 8bf2 178f 7165 fe3f b413 01b6 2921 eb3f
000005e0: 2ab6 255c 17d0 f33f 59c7 8bf4 db73 c93f
000005f0: 5638 4b5f 42bb ee3f f43c d70d 8ce2 ef3f
00000600: d5a0 5704 3463 f23f cf3e 3230 1206 d6bf
00000610: 3c46 4f0e 6c44 ef3f c350 fdf4 f937 e0bf
00000620: 4fb4 1742 7b86 de3f 3abe 8182 a504 de3f
00000630: 8e05 b3db a3cd d3bf 88ef 5403 74ab ea3f
00000640: cb00 e64f 1b51 d23f 9c67 a3e2 bb95 01c0
00000650: c504 ae93 821d f5bf 060e 081a df9e f73f
00000660: f538 de72 3ec9 c1bf 7f34 4848 d660 d93f
00000670: 1844 a266 a466 e73f 8545 7c35 9294 e7bf
00000680: a0ff a8d4 a2f2 ef3f 5983 f51c 7770 abbf
00000690: 2cd0 a16d 9587 f5bf e3a6 0cb7 c27d debf
000006a0: d7c0 57df d780 e13f b820 1241 92b1 e13f
000006b0: cbda b39e 2af3 ff3f 0157 312c 6727 dd3f
000006c0: 38e9 80f2 e536 febf 4dea 4282 041a cc3f
000006d0: ccb3 f4fe 1dff c9bf c3e0 91b0 5f78 ee3f
000006e0: d107 080d 0680 f3bf 1ddc b847 9599 e0bf
000006f0: f39b be1d e6bf d7bf 0a5e 39e2 3128 0140
00000700: bde5 377e 5f20 e23f 20e3 f478 be38 0540
00000710: a38b 8ae3 b154 e9bf a75a da0b 1327 01c0
00000720: b5c0 3110 2564 04c0 6d22 3b61 3c1a e8bf
00000730: 2414 8f29 9411 e23f 1f9d 58fc 39b5 e7bf
00000740: 438d 9cef 0668 ddbf f982 7a09 9801 e23f
00000750: a5e1 df8a e4df e9bf 4245 68b4 f09a e93f
00000760: 8608 0f93 6f3e debf 11b7 a4c0 c5ab 94bf
00000770: 7ee1 a19b e237 a23f 1790 124f c12f ee3f
00000780: 7450 9e05 5c10 f5bf ecae 7146 e452 dcbf
00000790: ac17 1467 3601 c7bf 7031 4721 3f35 e93f
000007a0: 84e2 fb54 e2ea f1bf 2490 a109 a636 b43f
000007b0: 74f3 eafe 0981 04c0 2d45 3527 7357 0240
000007c0: 4e32 0e99 116e f93f bd40 07d6 e5dc f7bf
000007d0: 9def 28d8 8e65 f03f 3fad 5a39 29f2 dabf
000007e0: 4881 ecc0 05fe e9bf cab3 f9cb 5c91 d2bf
000007f0: 81d8 e136 f2fa fb3f d581 40b0 7e45 fd3f

weight f8 [64, 64]
1.0180694098619743 -0.7902013222823563 -1.3306937786545778 -1.3083897158651003 -1.0532477936265965 -2.2695451793220665 0.12613265066660323 -1.6531246392792762
0.1489450071205033 -1.6273470326522776 0.8729992996690886 1.5697731829228332 0.46982890056915116 0.26240588085764155 1.2417786226262317 0.7382125269642775
0.808628661232459 1.3875604413102698 -2.8641355094172085 0.45345080286251743 0.8206833700695408 -0.274472598504031 -0.5408970286370105 0.6032847302525077
0.54813136385271 1.7789958437254596 -0.5895709861148967 1.9547774039467496 0.9132364776119545 -2.33601356238835 0.42962488116496095 0.790982848824167
0.48266564687606744 0.46386465784957737 -0.4401981433983015 0.33338316655866496 -0.025930180744850276 -0.5616278391799666 0.3459393164258988 -0.28592475271180817
0.34436814546721034 1.2613700385740043 -0.43962108376655074 1.3539058834738622 2.5994025117684 0.15808678245238625 1.3521529872837486 -1.1235247339718204
0.28089963687336983 0.10566050727918429 -0.48643891348872953 -0.46461073445201917 0.7889411086350301 2.6298277674369483 0.022392754017461932 1.005200041417376
2.335227344113184 -0.6708963058431396 -0.7770432674265657 -1.0872486925283509 -1.2544468922639103 0.31226555977897646 0.08424654151584536 0.5534982921301155
-2.2674287521171075 -0.2787465523982618 -0.38460002737835525 0.6880591254512387 -2.729747049456398 0.4113596859679266 0.17080073400758705 1.6244670939132035
-1.330667450054302 0.18547846539913232 0.2551988516864596 -0.9461673205324201 -0.6602613279086672 0.9596941805985617 2.107015724722903 -0.8173322047906654
1.4113977837492735 -0.01119208286149119 -1.0271720841370582 -0.032692481086892815 0.08807316552032879 0.4286328608073259 0.1581106777880528 -1.3993148079099471
-1.1525021464316534 0.43486207791735293 0.02276079408886948 -2.035552508059091 -0.36315102695913437 1.289607107960533 0.5944191456130604 0.5385079728233007
-1.032087011377931 -1.276706886259082 -1.7359466189607837 0.18279814385942017 0.15200078976315218 0.8891976756036363 1.2571577563440428 -0.05505672568910622
-1.4333716549770885 -0.08571757793225897 0.13205974258773778 0.10504561729668865 0.27515882292305405 0.7870769548726688 -0.9087448814832838 1.2140238523509495
1.4789691657353732 -0.7957696986023173 1.1027447921563465 -1.4491941923227551 -0.6441134993025226 0.05371551193407941 -1.0280516393666927 -0.6457470000664528
1.0422621551345932 1.1589610666483354 0.3817950792218721 1.5102020430283032 -1.138564473646655 1.8321470836267486 1.3007460218276943 -0.5332864052860604
-0.34885854998040977 1.0411632249322789 0.38273460396246517 -1.3036744167840144 0.8942447534451566 -0.44379820135370673 -0.06511476521919898 0.8746060367158149
0.7042294762921395 0.061976907889348336 -1.757154109460464 0.11456510405117404 -0.6886626428758876 -0.47023625073799563 2.956741707093487 -0.07016260748593406
-0.3966057926955206 0.859004401405445 0.5654787910523469 0.40011349188396694 -0.8779904274557457 -0.9254552716190827 -1.2675555188435272 -1.5220668752287272
-1.5502155736715275 1.538926321414009 -1.848444578820905 0.5299613776155607 -0.5410482204434306 0.6269200523541529 1.6192036229603919 1.0382106379777478
-0.41650745789457616 -2.195961955986363 0.3890933314947093 -0.7702841767416542 -0.2201236395807398 -0.6471849875893236 -0.29907834740522404 -0.9854666999660235
-1.1120330118133366 -2.174997404079924 0.04672556137519777 -0.08195616784149236 0.3936126665542552 1.2959103495384803 1.9135842924263229 -0.8408673828921384
-0.584824869627097 -1.3634007461196362 1.0767958443272792 -0.46887526717331846 -0.8306136142508748 0.6786749091922314 -0.3607037059157103 -0.9690970643999891
0.13713980059300462 2.1838080157845057 -0.8199312191457523 1.5059550171753233 1.0664321342510488 1.163105925160449 -0.21049630581642675 -0.21770797115433768
-0.8704912217043327 2.0753658120707335 0.027720983456106494 -1.3191539911360421 0.3385575110235628 -0.4033870870841004 -0.2628833730509487 -0.38581481728498523
-0.5315486185773382 -0.09872489151359438 0.17806415063627512 -3.046495110007522 -1.312074461584769 0.7438998756021767 1.607861550597539 -0.18912081999439767
-1.3515990580017665 -0.24193477808886193 0.01184154979213722 0.1809292285565857 -0.5475764441876576 1.6542859784913433 -0.10946920569351674 0.23812462427177622
-1.3819662985708783 3.265718109492878 -0.45283956194611624 0.17611909666553024 0.44469166611617317 -0.305669050886146 -0.10955177177847379 1.220476708689971
-1.8673808570360986 -0.8881195486658753 -0.3016539280345765 1.2805102997901654 -0.2326168620478887 1.288995673491117 0.6288600872539728 0.6036127448688298
-0.10563052068673556 0.33644002844700127 0.21019512611994381 0.15954169177291241 2.1141278071072214 -1.8332052584573617 -1.7434746719596594 -0.27645259975294195
0.1787111509586879 2.6580549856429143 -0.45813088591712686 -1.1154701961374145 -0.7027687560954722 -0.8401229718800123 -0.9341726426747254 0.6888871326454299
1.2047970754258686 -0.6082707743645859 0.6114230780826252 0.021722923807125583 -0.5266194196400266 1.2630107725775894 -0.4054374109042114 0.0979163557240104
00000000: a8a4 4626 034a f03f 7aad 8e48 5449 e9bf
00000010: 42fe 448f 854a f5bf 6f03 010e 2aef f4bf
00000020: c15d c35b 1ada f0bf a2dc 8f4d 0728 02c0
00000030: ba11 c95c 1d25 c03f 1ea9 5ed2 3273 fabf
00000040: 1416 3e47 a110 c33f 30bf c70a 9d09 fabf
00000050: f74e 303a 9cef eb3f 8da9 2c7c ca1d f93f
00000060: bc3f aa3c ad11 de3f f5f1 2309 42cb d03f
00000070: 51d3 d042 53de f33f 11e4 99e0 6f9f e73f
00000080: eb40 d336 49e0 e93f 3c6a ca93 7233 f63f
00000090: dd12 c2e0 bfe9 06c0 d7ec 2884 5605 dd3f
000000a0: 563b 5ac5 0943 ea3f d744 8e84 f590 d1bf
000000b0: 32fc 0f49 074f e1bf e08a 53c7 1b4e e33f
000000c0: b518 35c9 4a8a e13f 1955 8858 c476 fc3f
000000d0: 2116 01f9 c3dd e2bf bf93 ceab c446 ff3f
000000e0: 4d71 9bb4 3b39 ed3f 6bc3 ebe0 27b0 02c0
000000f0: 6fb0 895b f97e db3f d8b1 6c43 bb4f e93f
00000100: b310 0f74 fee3 de3f 8dfc ce63 f5af dd3f
00000110: bbf5 69d5 342c dcbf 3e02 5a59 2656 d53f
00000120: 542f 1df9 708d 9abf a5a2 39f2 daf8 e1bf
00000130: 08ca 9ca8 de23 d63f 12e7 8055 974c d2bf
00000140: b536 a4b0 200a d63f 1246 7d59 922e f43f
00000150: ce33 5a78 c022 dcbf 981d 3637 99a9 f53f
00000160: f97b 498b 93cb 0440 fb0b 480c 303c c43f
00000170: 9128 b92b 6ba2 f53f 427f 4a12 f5f9 f1bf
00000180: e014 7578 42fa d13f 7f2c 3e27 910c bb3f
00000190: 3de5 3bae d021 dfbf b8e2 75a9 2ebc ddbf
000001a0: 87d6 816c 013f e93f fc08 fa23 e309 0540
000001b0: 2f82 b048 20ee 963f 2635 7da3 4c15 f03f
000001c0: 4c87 7dac 8bae 0240 dc4f 9387 fb77 e5bf
000001d0: 1492 a5d7 89dd e8bf cc72 90e2 5e65 f1bf
000001e0: 2f7a 8de7 3612 f4bf d7bd baaf 28fc d33f
000001f0: e395 9c6c 2e91 b53f 04e7 e20c 42b6 e13f
00000200: 15d3 82af b123 02c0 1917 9bc7 fbd6 d1bf
00000210: 0d5e e86e 499d d8bf b8e0 3092 9404 e63f
00000220: 4c24 fe9e 85d6 05c0 3a01 8893 b753 da3f
00000230: 4202 5967 ccdc c53f e090 1c35 d1fd f93f
00000240: eb5b bdf3 694a f5bf 7e32 8023 c2bd c73f
00000250: 1816 7e90 2d55 d03f d861 47b0 0047 eebf
00000260: ddcc 455d dc20 e5bf 88a2 fa91 d0b5 ee3f
00000270: a9bd 6e0f 2bdb 0040 3564 31de 9527 eabf
00000280: a499 add7 1595 f63f b8ef e9ee dfeb 86bf
00000290: a7b9 cbfe 4b6f f0bf 6fc5 2fa2 11bd a0bf
000002a0: 4ca4 9085 f68b b63f fa22 ca85 b86e db3f
000002b0: 19c1 1f7f f83c c43f 0782 8cec 9763 f6bf
000002c0: 6be6 3717 a670 f2bf 993d bbc0 c7d4 db3f
000002d0: 4b82 f808 9b4e 973f 903c dbc0 cf48 00c0
000002e0: 4a17 13ce dd3d d7bf f712 1610 3ba2 f43f
000002f0: 87c7 d04c 7b05 e33f a429 7d12 753b e13f
00000300: dbe9 87ab 6d83 f0bf d4f8 3033 646d f4bf
00000310: 0a9d 40f6 6fc6 fbbf b8a6 d2f8 ed65 c73f
00000320: 4adc 7f0a c374 c33f dfb2 0caf 4e74 ec3f
00000330: 0091 9673 511d f43f 4ce4 8428 6530 acbf
00000340: 673d d21d 17ef f6bf 6f50 e951 96f1 b5bf
00000350: 5c29 c469 55e7 c03f ec9d e002 45e4 ba3f
00000360: 8a43 6ac0 339c d13f d0a0 9302 bc2f e93f
00000370: 6519 4c25 7014 edbf 8694 6646 a46c f33f
00000380: 6803 6a92 dba9 f73f a0a1 d403 f276 e9bf
00000390: 4d55 22b9 d7a4 f13f 1745 d93f e62f f7bf
000003a0: 9653 cde9 939c e4bf efeb 167e 9980 ab3f
000003b0: b9dd 9a46 e672 f0bf 19d1 d89c f5a9 e4bf
000003c0: bc95 e214 1bad f03f 5478 69c2 1a8b f23f
000003d0: e106 c2a0 546f d83f 0c8b 129e c929 f83f
000003e0: 8832 ab61 8f37 f2bf f637 da75 7950 fd3f
000003f0: cb6e 820f dbcf f43f 6a5c c3a6 ae10 e1bf
00000400: 4422 c6cf b253 d6bf cb1c 0ec5 9aa8 f03f
00000410: 423e c447 b97e d83f e881 8bb4 d9db f4bf
00000420: 3954 552c a79d ec3f 689e 3592 3067 dcbf
00000430: de69 1a7b 5cab b0bf e583 92cc c5fc eb3f
00000440: eeb9 3141 0c89 e63f 97e1 fbf0 6fbb af3f
00000450: 99a2 a2a0 4d1d fcbf 18a2 297f 2354 bd3f
00000460: a91f 243d 8609 e6bf e10d 94c9 5918 debf
00000470: 647c 3532 68a7 0740 30de 8d38 2df6 b1bf
00000480: bb02 4243 fd61 d9bf 9401 65cc f67c eb3f
00000490: a8d8 44fa 6618 e23f b61e 959e 759b d93f
000004a0: 9ef3 8361 7f18 ecbf e478 b05f 549d edbf
000004b0: 95c1 b44b e847 f4bf afea b6cb 625a f8bf
000004c0: 97b4 6ad8 aecd f8bf fbd3 d634 719f f83f
000004d0: 8911 689f 3a93 fdbf e40f 2090 71f5 e03f
000004e0: 10a2 8b5b 4450 e1bf 8e2a 42a4 ba0f e43f
000004f0: a2df e20e 42e8 f93f 5e94 07c2 829c f03f
00000500: 97a0 8ce5 0ea8 dabf e1c5 8180 5491 01c0
00000510: 3722 77b7 e7e6 d83f fe69 7700 2ba6 e8bf
00000520: c9b2 89ec 022d ccbf e210 854a bdb5 e4bf
00000530: bb04 4382 1924 d3bf f0d5 f475 f188 efbf
00000540: 79f8 9c20 e3ca f1bf ef43 fb09 6566 01c0
00000550: 3dc8 fcab 69ec a73f adae 9554 14fb b4bf
00000560: 8c14 892e f330 d93f 1d0d 9d7d 0cbc f43f
00000570: 06c4 2190 0a9e fe3f 5d6f b9b6 62e8 eabf
00000580: 72f2 1da5 e2b6 e2bf 3ad0 fe4c 7dd0 f5bf
00000590: 81ab 7d47 8e3a f13f 1b69 9a68 0d02 debf
000005a0: 593c 9a00 6394 eabf bd15 7371 b4b7 e53f
000005b0: f80d 1dff c415 d7bf 01ec c7d8 d702 efbf
000005c0: fe71 4307 cc8d c13f fd4b 4456 7078 0140
000005d0: cd69 6665 e03c eabf fb3d c049 6418 f83f
000005e0: 1230 4024 1b10 f13f 3691 65f5 149c f23f
000005f0: ec86 b4fe 8af1 cabf afdb 17d4 dadd cbbf
00000600: 319b 1568 10db ebbf 6ba4 1064 599a 0040
00000610: 3980 6db5 e362 9c3f 2613 2537 411b f5bf
00000620: c053 6a1f edaa d53f 22ea a912 18d1 d9bf
00000630: 9f9f 7ac8 14d3 d0bf 4e47 a3a1 30b1 d8bf
00000640: b4c1 a03f 7202 e1bf 051f 5ad4 0846 b9bf
00000650: 2452 c95b ceca c63f f53f 07d4 385f 08c0
00000660: 36c6 66ca 41fe f4bf d3b6 a61c 07ce e73f
00000670: 19ff 8408 cdb9 f93f a02f 6f6c 1c35 c8bf
00000680: 7dc0 7655 26a0 f5bf 120e d403 b8f7 cebf
00000690: 2ebf bae8 6140 883f f540 c55f b028 c73f
000006a0: 1812 fb08 bf85 e1bf 7aa0 fd92 f477 fa3f
000006b0: a36c 5f82 2c06 bcbf f64d cf20 de7a ce3f
000006c0: d793 88b1 881c f6bf 9bd0 f1d0 3020 0a40
000006d0: af2f 39c9 52fb dcbf f393 3010 128b c63f
000006e0: 2a74 b108 d475 dc3f 9124 3dec 1490 d3bf
000006f0: 03e5 01bd 950b bcbf 7ba6 d595 1287 f33f
00000700: 0b58 e2bf cae0 fdbf b2a9 0eb0 796b ecbf
00000710: 9594 e746 4c4e d3bf 7fa3 3c5e f87c f43f
00000720: ad35 7fab 63c6 cdbf 0847 65ed b99f f43f
00000730: 237f 9030 9f1f e43f 2022 d5ac cb50 e33f
00000740: 5c19 cf0f 9a0a bbbf 08b1 cfc1 3b88 d53f
00000750: 4b5c 3b84 ace7 ca3f 97af 41b6 dc6b c43f
00000760: bbb7 f8d6 bbe9 0040 a0df 7e09 cf54 fdbf
00000770: 7c89 97b2 45e5 fbbf e950 b53e 66b1 d1bf
00000780: 9a27 66ca 01e0 c63f d372 1255 b243 0540
00000790: df4c 1335 0452 ddbf 9a2a c146 f7d8 f1bf
000007a0: b794 02e7 147d e6bf b2f9 1a92 49e2 eabf
000007b0: 0a63 a306 bee4 edbf 5f1d 2b07 5d0b e63f
000007c0: 2d54 544c d946 f33f 9045 6045 f476 e3bf
000007d0: 114e 8c21 c790 e33f 1de8 4cbd 883e 963f
000007e0: 755b 19f8 10da e0bf 8a76 abc8 4a35 f43f
000007f0: e524 1ac1 aff2 d9bf 2300 94d9 0b11 b93f
