MACE_models/mace02_com1_gen1_compiled.model (torch, 531304 bytes, 51 tensors)

r_max f8 []
000000 00 00 00 00 00 00 10 40
       4.0

weight f8 [48]
000000 3d 6f 76 ee 44 98 ef 3f 52 e6 c5 99 9f 93 ac 3f
       0.9873375565980279 0.05581377746689199
000010 ee 69 9f e2 84 03 e7 3f 65 87 39 e9 1f a8 e0 3f
       0.7191795755600745 0.5205230288668018
000020 78 19 87 de d7 af dc 3f 1c 8e 1a ff 9c b8 d7 3f
       0.44823261958335747 0.3706428996322033
000030 7f ee 49 d7 0f 5d df 3f 58 ef f7 dd 2b 4b f1 bf
       0.49005504631325175 -1.0808523817676896
000040 68 c6 d5 62 9e 68 db bf 67 51 30 22 43 d5 a2 3f
       -0.42826041843281937 0.03678331177084964
000050 c5 46 51 e8 48 fe ee bf 80 60 89 d3 98 f1 d4 3f
       -0.9685406243754292 0.3272459092891111
000060 28 db b3 a0 96 18 f0 3f 6b ba 9d 42 ee 1d f3 3f
       1.006003024811159 1.1948073007767117
000070 91 5e 85 02 01 ed f3 3f e0 53 98 61 20 85 e4 3f
       1.2453622911906772 0.6412507921364714
000080 1f 1b 71 9f e7 ec f8 bf 3f c9 32 01 3d f7 eb bf
       -1.5578380802341554 -0.8739304564863132
000090 7c 5b f3 f8 21 eb f6 3f 4a 6f 62 0e a9 ed e0 bf
       1.432405445540751 -0.5290112763354753
0000a0 da 55 72 28 46 35 f0 bf 6b 75 f6 42 69 9a d2 3f
       -1.0130063610025588 0.290674510377207
0000b0 13 d7 69 ed 9c be f5 bf 99 b0 fa e3 bf 64 b7 3f
       -1.3590363763773368 0.09138106647395929
0000c0 b7 1f 41 de 2e 87 de bf 26 61 1d de 7a 48 df 3f
       -0.47700092033891955 0.4887988251771439
0000d0 79 8c 85 d6 1e ed df bf 4b e6 dc 05 41 72 a8 3f
       -0.49884768437750143 0.04774668881004781
0000e0 72 ab 23 d2 f9 2d ca bf e5 cd 48 f9 9e ec f6 3f
       -0.2045280719824763 1.4327687966987182
0000f0 23 f5 d1 62 80 3f ec bf 18 81 7e 84 01 12 f5 3f
       -0.882751648910617 1.3168959785035153
000100 e8 60 6d 42 1b 12 e3 3f 10 b2 59 58 c9 29 a9 bf
       0.595960263958685 -0.049146930727918314
000110 4e 05 ba db f8 48 d2 3f 20 7c a4 9a 66 dd f2 bf
       0.28570386369400047 -1.1790529289935492
000120 46 66 62 e5 89 88 c0 3f 0d 4c cd 10 af 50 f8 3f
       0.1291668291130909 1.5196982055974815
000130 e6 48 c0 69 fe ee d1 bf 98 73 6a 54 79 3d fb bf
       -0.28021202399499 -1.702508287190744
000140 dd e0 88 91 a2 c8 e2 bf 2d 86 0d 00 75 a6 db bf
       -0.5869915811990968 -0.43203473096045536
000150 72 ae c5 f6 13 db d7 bf 60 36 e5 17 96 0d e0 bf
       -0.3727464589962671 -0.5016584841448086
000160 0e b2 fe 7c 56 2b d8 3f cf 85 7e a7 6e 9c e7 bf
       0.3776451321271289 -0.737845732819716
000170 92 72 bf cf 3c d7 fa 3f fa 7a 7c 32 ad 17 f0 3f
       1.6775482287550045 1.005780408107681

output_mask f8 [16]
000000 00 00 00 00 00 00 f0 3f 00 00 00 00 00 00 f0 3f
       1.0 1.0
000010 00 00 00 00 00 00 f0 3f 00 00 00 00 00 00 f0 3f
       1.0 1.0
000020 00 00 00 00 00 00 f0 3f 00 00 00 00 00 00 f0 3f
       1.0 1.0
000030 00 00 00 00 00 00 f0 3f 00 00 00 00 00 00 f0 3f
       1.0 1.0
000040 00 00 00 00 00 00 f0 3f 00 00 00 00 00 00 f0 3f
       1.0 1.0
000050 00 00 00 00 00 00 f0 3f 00 00 00 00 00 00 f0 3f
       1.0 1.0
000060 00 00 00 00 00 00 f0 3f 00 00 00 00 00 00 f0 3f
       1.0 1.0
000070 00 00 00 00 00 00 f0 3f 00 00 00 00 00 00 f0 3f
       1.0 1.0

bessel_weights f8 [8]
000000 18 2d 44 54 fb 21 e9 3f 18 2d 44 54 fb 21 f9 3f
       0.7853981633974483 1.5707963267948966
000010 d2 21 33 7f 7c d9 02 40 18 2d 44 54 fb 21 09 40
       2.356194490192345 3.141592653589793
000020 5e 38 55 29 7a 6a 0f 40 d2 21 33 7f 7c d9 12 40
       3.9269908169872414 4.71238898038469
000030 75 a7 bb e9 bb fd 15 40 18 2d 44 54 fb 21 19 40
       5.497787143782138 6.283185307179586

r_max f8 []
000000 00 00 00 00 00 00 10 40
       4.0

prefactor f8 []
000000 cd 3b 7f 66 9e a0 e6 3f
       0.7071067811865476

p f8 []
000000 00 00 00 00 00 00 14 40
       5.0

r_max f8 []
000000 00 00 00 00 00 00 10 40
       4.0

atomic_energies f8 [3]
000000 7a 18 46 9c 17 6a 25 c0 bb 72 1c 16 79 6c 48 c0
       -10.707211383396714 -48.847445262804705
000010 87 ab 5a 17 8e a4 59 c0
       -102.57117256025786

weight f8 [256]
000000 41 d8 69 cf f9 bb 00 40 18 a2 bf 47 ef 9f c8 bf
       2.0917850689102413 -0.19238081935260776
000010 20 00 e4 55 6b 29 dd 3f 10 3a 60 ec ab 26 d3 bf
       0.45565303218609365 -0.29923532565672506
000020 5f 85 b5 01 18 53 c5 3f af bb ae ba e1 6a e4 3f
       0.16659832080317025 0.6380470892089444
000030 76 5d e0 49 ce a3 e9 3f 94 06 e3 62 3c f0 d6 3f
       0.8012458269976566 0.3584128347102731
000040 52 12 07 fe f8 df e6 3f a1 dc 3f 36 79 71 e2 3f
       0.7148404084660547 0.5763517436561366
000050 5b 6c de 7d a0 33 d0 bf a3 a4 7c 7b 82 f7 e8 3f
       -0.2531510571658992 0.7802135860303178
000060 fd 3b a5 c8 9f 7e c6 bf 61 98 2f 3b b7 3c 99 3f
       -0.17573926255360553 0.02464567469350987
000070 8c 79 97 5e f5 f4 04 c0 9a 17 90 53 5e 92 01 c0
       -2.619608630178112 -2.1964689758633087
000080 92 49 67 58 bb 15 d1 bf d3 ec 54 0e 52 67 e7 bf
       -0.2669514048876859 -0.7313623695294161
000090 4d 2a 68 54 67 49 db 3f c0 84 06 3a 0f e0 ba 3f
       0.42635520212994465 0.10498137632977755
0000a0 0e da b7 cb 1d ae d4 bf ad b8 d5 de 3b d2 f3 bf
       -0.32312722105362546 -1.2388266281591698
0000b0 e4 42 aa 62 40 18 d1 bf 79 b9 32 07 65 30 cc bf
       -0.2671051944280818 -0.22022688724014097
0000c0 d3 9a 52 60 de 47 d7 bf ff 80 34 78 30 61 d8 bf
       -0.36376151472579216 -0.38093196619776387
0000d0 39 4d 4a d5 a9 7f a9 3f a3 f0 df 63 3f 18 d4 3f
       0.0498021195282043 0.3139799571361072
0000e0 88 53 eb 69 42 b3 fe 3f 44 34 7c e0 c2 fe cc bf
       1.9187645089598124 -0.22652469597997726
0000f0 86 2c 7a 19 3f 87 be 3f 4c 45 bf 31 30 d9 c0 bf
       0.11925119754794097 -0.13162805966434588
000100 12 da 99 0c 55 0d eb 3f 9a 9a ec 59 48 38 f0 bf
       0.8453774686921085 -1.0137408745446579
000110 41 cf 16 f4 37 27 84 bf bf e1 64 ee 0e a1 f8 bf
       -0.0098404284825403 -1.5393208801525444
000120 0e 19 c8 29 cb dc f2 3f 3f 85 40 6a 85 27 d0 bf
       1.17890468903494 -0.2524121797196876
000130 00 a2 36 24 26 20 f0 3f b4 73 0f 3f f0 ad ee bf
       1.0078488745294862 -0.958732722439541
000140 d1 40 49 25 b8 f6 fa 3f 3e 14 47 e8 8e a3 b5 3f
       1.685234208725934 0.08452695055810097
000150 15 d9 1f 4e c3 d6 f3 bf db 36 c1 a7 17 36 d3 bf
       -1.2399323512777916 -0.30017653829859875
000160 55 7b ef e4 e6 cb f1 bf 1d cc eb 72 1d 1f fa bf
       -1.1122807448188798 -1.6325964440445724
000170 45 e9 1c 89 9f 03 04 c0 8e e2 53 c0 1d ef ca bf
       -2.501769133753586 -0.21042224780082502
000180 a1 0a 7f 17 28 ec ec bf ae bf 4e 68 ca ac f6 3f
       -0.9038277110015153 1.4171852182880502
000190 6b fe 67 45 9c 43 e0 bf 6e 69 73 12 0d cc f3 3f
       -0.5082532268133496 1.2373171540008019
0001a0 16 6e 2f 11 f9 f5 fa 3f 77 0c f9 f6 61 22 cc 3f
       1.685051982049918 0.21979927596303003
0001b0 6f b6 39 ca a9 23 d8 3f c7 8b a4 ae f6 bf c8 bf
       0.37717671154573557 -0.19335826423147592
0001c0 27 c7 61 b0 73 1f e8 3f 64 35 e9 3a 50 5f f5 bf
       0.7538393444976678 -1.335769872780781
0001d0 42 dd a6 4f 70 60 e6 bf 72 19 4f 2b 90 51 e6 3f
       -0.699272304124783 0.6974564405325465
0001e0 4b 93 0c a2 f6 88 ed bf f9 27 8f 7f 12 b5 e9 3f
       -0.92296916628093 0.8033535472288796
0001f0 5b 09 b4 dc e6 33 01 c0 96 ff c6 6d 94 8b c7 bf
       -2.1503426783030313 -0.18394713745328478
000200 39 41 70 33 48 75 e6 3f e0 2a d6 c2 31 63 b0 3f
       0.7018166546495542 0.06401358610871055
000210 9c 88 df 1f 10 48 f8 3f 72 54 7d e9 69 45 f0 3f
       1.5175935025259042 1.0169467087446518
000220 0f 18 69 94 6c 99 fa 3f cb b3 e4 43 63 04 e6 bf
       1.6624570653234547 -0.6880356145899155
000230 39 93 04 2a 2c 73 f3 bf 20 52 13 2a 9a 83 da 3f
       -1.2156182900736907 0.41428236111576844
000240 8e 1e 52 77 cb f7 e4 3f 5a fe 88 7e fc c2 c3 3f
       0.6552483873828849 0.15438800981972883
000250 6d 2f 91 c8 88 5c ad 3f 19 83 3e ad 6d 9a 97 bf
       0.0573466057618067 -0.023050035189615323
000260 f9 a4 7f 19 cb f0 f8 3f fa dd a0 5d e4 74 bf 3f
       1.5587874408759588 0.12287738118981642
000270 f9 b9 f1 33 1f 6d dc 3f 06 a2 ae 10 64 c9 e9 bf
       0.4441602713840492 -0.8058338476012643
000280 1f 26 c7 77 48 4a 9d bf 5e 77 b6 e8 5a f7 f4 3f
       -0.028603679953255075 1.3103894319860596
000290 d9 82 6f cf 59 68 e6 3f e4 62 d1 f7 8c c8 e1 3f
       0.7002381373859762 0.5557312812989861
0002a0 e0 ac bc e9 fb ef e3 3f 61 b3 9d 55 6d ad ef 3f
       0.6230449261833222 0.9899202987850054
0002b0 25 fd ca dc b2 a4 db bf 96 22 0a 5a 1f 6d e1 bf
       -0.4319274097615156 -0.5445706137262103
0002c0 cc 42 e3 77 f1 cd f6 3f 2e 0a c0 a2 38 82 ed bf
       1.4252791102518811 -0.9221461466516467
0002d0 b1 4f 4a 6b 13 60 e4 bf 0f 55 10 3c ed 9c 00 c0
       -0.6367280097497227 -2.0766243641361437
0002e0 ab b6 b2 e5 34 5e db 3f 13 39 90 42 cf f8 da bf
       0.42762491637663896 -0.42143613338784397
0002f0 29 ba 42 65 a4 98 e8 bf 71 c9 7b e4 2a f7 f0 3f
       -0.7686330774066096 1.0603436398638133
000300 d9 72 61 2a 64 fa ec 3f 7a 58 96 37 d1 c5 d8 bf
       0.9055653407809486 -0.387073807033978
000310 f0 03 27 22 c6 dc e5 bf e4 14 ca c5 54 8f f1 3f
       -0.6831999461211336 1.0974929548404413
000320 db 39 4f 08 3a e0 df bf 1f 97 39 e1 25 4c f1 bf
       -0.498060711016391 -1.0810908124780736
000330 b4 ce 24 79 8e 0e fc 3f 22 be 98 56 56 4e e2 3f
       1.7535538417986745 0.5720626536694378
000340 1e 9c 57 8e 88 f4 f8 bf 7e 84 c2 f8 9e 31 e3 bf
       -1.5597005424731445 -0.5998072489347945
000350 45 46 00 57 4a f0 c7 3f ac 27 a9 10 30 42 f0 3f
       0.18702058075045805 1.016159119683361
000360 36 c8 58 48 df 4c e4 bf 26 30 b4 34 e1 8b f9 3f
       -0.6343838131927046 1.5966503199333686
000370 28 ec 05 30 17 dc e2 3f dc 28 76 87 26 b9 f6 bf
       0.5893665254546976 -1.4202027598826623
000380 4a ab a4 de b1 27 f2 bf fc 7d 73 0a 47 2c eb bf
       -1.134691114139701 -0.8491549686549997
000390 b3 88 44 33 81 6c ea bf 41 c6 da 08 71 16 fd 3f
       -0.8257452012369612 1.8179788919336632
0003a0 85 43 b8 14 bf 65 e6 3f 83 12 90 92 fc 3d fc bf
       0.699920216053315 -1.765133450041646
0003b0 48 a6 ec e5 2b 71 e3 bf d9 19 ff 80 d9 75 f6 bf
       -0.6075648775778939 -1.403771881001026
0003c0 10 5b 07 6b 00 ca d0 3f 20 ed 48 a5 d1 7e ff bf
       0.2623292012407754 -1.968461652416245
0003d0 62 d9 9d cc 64 cd f1 3f 99 02 d6 80 60 55 f6 3f
       1.112644957812869 1.3958439858107907
0003e0 58 76 90 1a 47 ef cc 3f 48 69 f3 6e c4 18 ea 3f
       0.22605217740140193 0.8155233542450242
0003f0 9a df 6a 3c 41 e2 e0 3f c4 9b 39 ef da f4 e7 3f
       0.5276189975765988 0.7486395523418357
000400 33 45 cf b4 c4 98 ef bf 41 5b c1 2c 16 e5 d5 bf
       -0.9873984843672247 -0.3421073376716102
000410 c1 ea a6 f5 f0 59 e2 3f 4a 2e a0 0d 70 09 f3 bf
       0.5734791562930114 -1.189804127908149
000420 86 1c 39 81 a1 4e ef bf f1 4d 86 48 03 14 df bf
       -0.9783484958542352 -0.48559648592455945
000430 fc 84 20 46 43 0e f2 3f 4c 80 fa 5a ca e6 ed 3f
       1.1284821261727407 0.9344226624416563
000440 5e dc e1 b1 72 4b dc 3f ba ce f4 21 af e1 ed bf
       0.4421049821025401 -0.9337993300636847
000450 f3 ce 58 5b 39 cd 03 40 29 75 54 c8 c9 4f 00 c0
       2.475207055709569 -2.038959088399356
000460 13 37 e3 a0 ed 86 d8 bf 6b 9d 42 0a 51 a1 f0 3f
       -0.38323536597896285 1.0393839264669065
000470 6e e0 60 24 c2 d7 e6 3f 70 d6 61 58 b0 b8 c9 bf
       0.7138376913562874 -0.20094875636611986
000480 b1 4e a9 b0 d6 ba d3 bf fa 38 e3 67 cd ed d2 bf
       -0.30827872516713756 -0.2957643045928219
000490 0f 21 5b e8 70 df bf 3f d9 31 71 7d b0 e3 eb 3f
       0.12450318978074314 0.8715441179315874
0004a0 43 27 31 a6 45 c3 e0 bf 6f d0 8f f4 ff 86 ed 3f
       -0.5238369222581486 0.9227294708821442
0004b0 d1 da 17 d9 bb 6c e0 3f 73 e3 76 2f c4 e9 d6 bf
       0.5132731666661475 -0.35801796565242866
0004c0 37 10 46 15 31 86 e4 3f d4 e5 08 46 14 a4 fc bf
       0.641380826521078 -1.7900583968861286
0004d0 f5 51 14 6f e6 5b b8 3f 04 86 1a be d8 08 bc bf
       0.09515228473566835 -0.10950998917771676
0004e0 66 62 18 49 56 b5 04 c0 b0 37 be 47 a7 c2 e0 3f
       -2.588543482834484 0.5237614060622402
0004f0 54 34 e3 b5 a0 d5 ee 3f 62 b8 1d 82 e0 ef f2 3f
       0.9635776092997141 1.1835637171421003
000500 f1 a5 cb 00 fe 03 d6 3f df f9 89 2d fe d7 f8 3f
       0.34399366452870966 1.5527326372972465
000510 8f 9e ff 0e 61 68 eb bf f7 20 26 37 de 2a cb 3f
       -0.8564915936412535 0.2122457284242569
000520 31 b6 fe 5c 27 b2 e1 bf c0 5d 2c 83 4a 3d ea bf
       -0.5529972854907951 -0.8199818193415283
000530 91 06 81 a6 bc 41 fd bf 9a 2e 57 a2 0b b3 b0 bf
       -1.8285490516722442 -0.0652320166911359
000540 18 fd 21 9d 1c 8a c1 bf f9 16 6d 2b 9e a8 da 3f
       -0.13702733681200452 0.4165416168292349
000550 07 87 1c 93 27 f0 e6 bf a6 bc 36 57 c5 c9 e2 bf
       -0.7168157456655714 -0.5871302321810574
000560 56 48 9c f5 d4 58 c0 bf 1f ef b2 4c 8e 7e c5 bf
       -0.12771093361567648 -0.16792467827860322
000570 a4 a4 ad 69 79 ac de bf df 6e 35 21 af cb da bf
       -0.47927699394365164 -0.4186818908981262
000580 e8 66 18 f2 84 73 ff 3f 69 c8 dc cd 40 e9 00 c0
       1.9657029587601134 -2.113893135357149
000590 35 71 31 13 45 f7 f0 3f ec b8 2a 8e 0c 32 ee bf
       1.0603686094028266 -0.9436095024773556
0005a0 3b f9 9f 75 36 3f ee bf bb ce 70 04 72 c2 b8 3f
       -0.9452163979874862 0.09671700104154983
0005b0 a2 c5 15 01 8f 22 01 40 65 93 ed df ea 0f e3 bf
       2.1418743214387215 -0.595693051680979
0005c0 f1 d1 3b 5c cf 98 e7 bf 34 a3 6f b5 c9 27 02 40
       -0.7374035645903502 2.2694276976293626
0005d0 39 6e e9 11 44 01 ec bf cb 64 02 59 64 f0 a4 bf
       -0.8751545286026562 -0.04089654528179095
0005e0 95 e1 36 06 ef 81 e2 3f 07 32 75 45 c0 ed 05 40
       0.5783610459684946 2.741089384688397
0005f0 27 2c a6 af 3b ba f9 bf 4f 9a a7 a3 79 18 f4 bf
       -1.607967077378598 -1.255975379253545
000600 67 e9 ae 2e ba 20 d8 3f 35 eb f4 1f c2 61 cb 3f
       0.3769975143328765 0.21392084656130242
000610 18 54 ae b0 01 5c d7 bf 35 76 33 64 1a f3 f0 3f
       -0.3649906373405556 1.0593513406851234
000620 28 8f 33 fa ac 8a f6 bf 2a d3 c7 12 b5 1f b5 bf
       -1.4088563703052817 -0.08251506527433308
000630 a5 75 ab 57 be 1b c5 3f 6f a7 93 36 e7 23 d7 bf
       0.16490916519880475 -0.36156635598910375
000640 73 77 4a 43 ae 73 ed 3f 08 12 5b 8b 25 b2 b7 3f
       0.9203711809420682 0.09256205227126924
000650 9d a3 e4 9a e9 17 d4 bf f8 1b 68 f1 14 25 ac bf
       -0.3139595043781414 -0.05497041174753997
000660 c7 11 c7 72 61 11 e1 bf 7c 33 f3 b1 6c 37 08 c0
       -0.5333716623068135 -3.0270627882331933
000670 1b 2c 4c c6 19 c1 e1 3f c5 cf 10 dc b3 e1 a8 bf
       0.554821860599421 -0.04859697400425448
000680 25 30 98 50 47 d6 f8 bf 40 e6 66 98 4d 55 ea bf
       -1.5523141048643165 -0.8229129768944361
000690 43 a3 60 83 97 15 f7 3f 3b b5 e9 71 76 06 f1 3f
       1.4427714473660707 1.0640778016780377
0006a0 4d 3f ef 11 5a 89 e4 bf c2 4d b1 84 ff fe b6 bf
       -0.6417665815624588 -0.0898284625011945
0006b0 50 fd e4 cf 09 4b f7 3f e0 f2 65 f4 81 35 d9 3f
       1.4558199044111753 0.39389084689154963
0006c0 f0 4c a5 d2 2d 7f d7 bf d5 f4 c6 91 a9 a5 f2 3f
       -0.3671373898589101 1.1654449171467622
0006d0 87 9c 99 ce db 69 e9 bf 06 9a 7c 9d cf 0a e6 3f
       -0.7941721949727175 0.6888197017586328
0006e0 36 aa 24 6e 6f 5e ee bf 2a e9 82 34 3e c3 e1 3f
       -0.9490277434572991 0.5550833726513578
0006f0 53 08 d5 31 79 1c e5 bf 69 9b b3 d5 a2 e3 af bf
       -0.6597257588657705 -0.062283600412959945
000700 78 e9 d0 72 bb fb cb 3f 2e 44 b9 6e d2 08 09 40
       0.21861975771191644 3.129307618168716
000710 28 1b d7 3d 04 65 f2 3f 7e bb d0 fc 33 6e f3 bf
       1.1496622481951793 -1.214405047950748
000720 6d 13 ec 00 5b 82 f6 3f 9b c5 17 be d4 27 e5 3f
       1.4068250690481492 0.6611121857405807
000730 4e 19 47 9a f6 17 dc bf d9 d5 3c 23 b6 3c e0 3f
       -0.43896260324654157 0.5074110687480086
000740 90 46 46 8a a6 60 e5 bf 3f 24 4a c1 3d 79 c1 3f
       -0.6680481625246149 0.1365124887272788
000750 66 c2 4f f6 3e da c5 bf 0c d2 c7 c2 15 e9 f6 bf
       -0.17072283770496027 -1.4319055183997333
000760 39 56 17 62 59 ba 9b 3f d0 cd c3 29 ca e6 e3 3f
       0.027078053104409448 0.6219225707740694
000770 e5 5c 44 ad 73 f5 f0 bf 6c bf 3c 1b 37 87 f2 3f
       -1.059924771141419 1.1580115379292364
000780 83 30 af 1f a5 72 ec bf ed a9 d9 43 d2 73 d7 bf
       -0.8889947527727745 -0.36644417406083
000790 e7 a8 89 2b 20 f5 ca 3f 86 92 f7 a7 ec 26 f7 bf
       0.21060564161172765 -1.4470030366148037
0007a0 b3 a6 c1 3e 78 b0 af 3f 9f 12 46 58 00 16 eb 3f
       0.06189323202199883 0.8464357112976194
0007b0 21 42 6b e5 c7 12 e7 3f a7 e8 a6 25 90 3c d9 bf
       0.7210425835456286 -0.39432147671653656
0007c0 02 dd 80 29 16 04 e3 3f 97 2e 59 85 19 f7 cb bf
       0.5942488489735356 -0.21847838412428608
0007d0 c9 e4 56 52 45 e3 f0 bf 74 98 95 48 6d ab f4 bf
       -1.0554860321411061 -1.291852267773291
0007e0 d1 a4 ba 55 31 77 d1 bf 59 fe f5 b0 1f 6a c9 bf
       -0.27289994594555106 -0.1985511411730723
0007f0 1c 3f c1 2e a3 e0 f7 bf 2b e6 b4 f7 0a 45 df bf
       -1.492343123089035 -0.488589040661824

output_mask f8 [16]
000000 00 00 00 00 00 00 f0 3f 00 00 00 00 00 00 f0 3f
       1.0 1.0
000010 00 00 00 00 00 00 f0 3f 00 00 00 00 00 00 f0 3f
       1.0 1.0
000020 00 00 00 00 00 00 f0 3f 00 00 00 00 00 00 f0 3f
       1.0 1.0
000030 00 00 00 00 00 00 f0 3f 00 00 00 00 00 00 f0 3f
       1.0 1.0
000040 00 00 00 00 00 00 f0 3f 00 00 00 00 00 00 f0 3f
       1.0 1.0
000050 00 00 00 00 00 00 f0 3f 00 00 00 00 00 00 f0 3f
       1.0 1.0
000060 00 00 00 00 00 00 f0 3f 00 00 00 00 00 00 f0 3f
       1.0 1.0
000070 00 00 00 00 00 00 f0 3f 00 00 00 00 00 00 f0 3f
       1.0 1.0

output_mask f8 [144]
000000 00 00 00 00 00 00 f0 3f 00 00 00 00 00 00 f0 3f
       1.0 1.0
000010 00 00 00 00 00 00 f0 3f 00 00 00 00 00 00 f0 3f
       1.0 1.0
000020 00 00 00 00 00 00 f0 3f 00 00 00 00 00 00 f0 3f
       1.0 1.0
000030 00 00 00 00 00 00 f0 3f 00 00 00 00 00 00 f0 3f
       1.0 1.0
000040 00 00 00 00 00 00 f0 3f 00 00 00 00 00 00 f0 3f
       1.0 1.0
000050 00 00 00 00 00 00 f0 3f 00 00 00 00 00 00 f0 3f
       1.0 1.0
000060 00 00 00 00 00 00 f0 3f 00 00 00 00 00 00 f0 3f
       1.0 1.0
000070 00 00 00 00 00 00 f0 3f 00 00 00 00 00 00 f0 3f
       1.0 1.0
000080 00 00 00 00 00 00 f0 3f 00 00 00 00 00 00 f0 3f
       1.0 1.0
000090 00 00 00 00 00 00 f0 3f 00 00 00 00 00 00 f0 3f
       1.0 1.0
0000a0 00 00 00 00 00 00 f0 3f 00 00 00 00 00 00 f0 3f
       1.0 1.0
0000b0 00 00 00 00 00 00 f0 3f 00 00 00 00 00 00 f0 3f
       1.0 1.0
0000c0 00 00 00 00 00 00 f0 3f 00 00 00 00 00 00 f0 3f
       1.0 1.0
0000d0 00 00 00 00 00 00 f0 3f 00 00 00 00 00 00 f0 3f
       1.0 1.0
0000e0 00 00 00 00 00 00 f0 3f 00 00 00 00 00 00 f0 3f
       1.0 1.0
0000f0 00 00 00 00 00 00 f0 3f 00 00 00 00 00 00 f0 3f
       1.0 1.0
000100 00 00 00 00 00 00 f0 3f 00 00 00 00 00 00 f0 3f
       1.0 1.0
000110 00 00 00 00 00 00 f0 3f 00 00 00 00 00 00 f0 3f
       1.0 1.0
000120 00 00 00 00 00 00 f0 3f 00 00 00 00 00 00 f0 3f
       1.0 1.0
000130 00 00 00 00 00 00 f0 3f 00 00 00 00 00 00 f0 3f
       1.0 1.0
000140 00 00 00 00 00 00 f0 3f 00 00 00 00 00 00 f0 3f
       1.0 1.0
000150 00 00 00 00 00 00 f0 3f 00 00 00 00 00 00 f0 3f
       1.0 1.0
000160 00 00 00 00 00 00 f0 3f 00 00 00 00 00 00 f0 3f
       1.0 1.0
000170 00 00 00 00 00 00 f0 3f 00 00 00 00 00 00 f0 3f
       1.0 1.0
000180 00 00 00 00 00 00 f0 3f 00 00 00 00 00 00 f0 3f
       1.0 1.0
000190 00 00 00 00 00 00 f0 3f 00 00 00 00 00 00 f0 3f
       1.0 1.0
0001a0 00 00 00 00 00 00 f0 3f 00 00 00 00 00 00 f0 3f
       1.0 1.0
0001b0 00 00 00 00 00 00 f0 3f 00 00 00 00 00 00 f0 3f
       1.0 1.0
0001c0 00 00 00 00 00 00 f0 3f 00 00 00 00 00 00 f0 3f
       1.0 1.0
0001d0 00 00 00 00 00 00 f0 3f 00 00 00 00 00 00 f0 3f
       1.0 1.0
0001e0 00 00 00 00 00 00 f0 3f 00 00 00 00 00 00 f0 3f
       1.0 1.0
0001f0 00 00 00 00 00 00 f0 3f 00 00 00 00 00 00 f0 3f
       1.0 1.0
000200 00 00 00 00 00 00 f0 3f 00 00 00 00 00 00 f0 3f
       1.0 1.0
000210 00 00 00 00 00 00 f0 3f 00 00 00 00 00 00 f0 3f
       1.0 1.0
000220 00 00 00 00 00 00 f0 3f 00 00 00 00 00 00 f0 3f
       1.0 1.0
000230 00 00 00 00 00 00 f0 3f 00 00 00 00 00 00 f0 3f
       1.0 1.0
000240 00 00 00 00 00 00 f0 3f 00 00 00 00 00 00 f0 3f
       1.0 1.0
000250 00 00 00 00 00 00 f0 3f 00 00 00 00 00 00 f0 3f
       1.0 1.0
000260 00 00 00 00 00 00 f0 3f 00 00 00 00 00 00 f0 3f
       1.0 1.0
000270 00 00 00 00 00 00 f0 3f 00 00 00 00 00 00 f0 3f
       1.0 1.0
000280 00 00 00 00 00 00 f0 3f 00 00 00 00 00 00 f0 3f
       1.0 1.0
000290 00 00 00 00 00 00 f0 3f 00 00 00 00 00 00 f0 3f
       1.0 1.0
0002a0 00 00 00 00 00 00 f0 3f 00 00 00 00 00 00 f0 3f
       1.0 1.0
0002b0 00 00 00 00 00 00 f0 3f 00 00 00 00 00 00 f0 3f
       1.0 1.0
0002c0 00 00 00 00 00 00 f0 3f 00 00 00 00 00 00 f0 3f
       1.0 1.0
0002d0 00 00 00 00 00 00 f0 3f 00 00 00 00 00 00 f0 3f
       1.0 1.0
0002e0 00 00 00 00 00 00 f0 3f 00 00 00 00 00 00 f0 3f
       1.0 1.0
0002f0 00 00 00 00 00 00 f0 3f 00 00 00 00 00 00 f0 3f
       1.0 1.0
000300 00 00 00 00 00 00 f0 3f 00 00 00 00 00 00 f0 3f
       1.0 1.0
000310 00 00 00 00 00 00 f0 3f 00 00 00 00 00 00 f0 3f
       1.0 1.0
000320 00 00 00 00 00 00 f0 3f 00 00 00 00 00 00 f0 3f
       1.0 1.0
000330 00 00 00 00 00 00 f0 3f 00 00 00 00 00 00 f0 3f
       1.0 1.0
000340 00 00 00 00 00 00 f0 3f 00 00 00 00 00 00 f0 3f
       1.0 1.0
000350 00 00 00 00 00 00 f0 3f 00 00 00 00 00 00 f0 3f
       1.0 1.0
000360 00 00 00 00 00 00 f0 3f 00 00 00 00 00 00 f0 3f
       1.0 1.0
000370 00 00 00 00 00 00 f0 3f 00 00 00 00 00 00 f0 3f
       1.0 1.0
000380 00 00 00 00 00 00 f0 3f 00 00 00 00 00 00 f0 3f
       1.0 1.0
000390 00 00 00 00 00 00 f0 3f 00 00 00 00 00 00 f0 3f
       1.0 1.0
0003a0 00 00 00 00 00 00 f0 3f 00 00 00 00 00 00 f0 3f
       1.0 1.0
0003b0 00 00 00 00 00 00 f0 3f 00 00 00 00 00 00 f0 3f
       1.0 1.0
0003c0 00 00 00 00 00 00 f0 3f 00 00 00 00 00 00 f0 3f
       1.0 1.0
0003d0 00 00 00 00 00 00 f0 3f 00 00 00 00 00 00 f0 3f
       1.0 1.0
0003e0 00 00 00 00 00 00 f0 3f 00 00 00 00 00 00 f0 3f
       1.0 1.0
0003f0 00 00 00 00 00 00 f0 3f 00 00 00 00 00 00 f0 3f
       1.0 1.0
000400 00 00 00 00 00 00 f0 3f 00 00 00 00 00 00 f0 3f
       1.0 1.0
000410 00 00 00 00 00 00 f0 3f 00 00 00 00 00 00 f0 3f
       1.0 1.0
000420 00 00 00 00 00 00 f0 3f 00 00 00 00 00 00 f0 3f
       1.0 1.0
000430 00 00 00 00 00 00 f0 3f 00 00 00 00 00 00 f0 3f
       1.0 1.0
000440 00 00 00 00 00 00 f0 3f 00 00 00 00 00 00 f0 3f
       1.0 1.0
000450 00 00 00 00 00 00 f0 3f 00 00 00 00 00 00 f0 3f
       1.0 1.0
000460 00 00 00 00 00 00 f0 3f 00 00 00 00 00 00 f0 3f
       1.0 1.0
000470 00 00 00 00 00 00 f0 3f 00 00 00 00 00 00 f0 3f
       1.0 1.0

weight f8 [8, 64]
000000 f9 02 70 db 37 31 e3 3f fe 93 e7 e7 6a cc c7 bf
       0.5997580800904806 -0.18592583011118785
000010 1d 21 7c 0f 87 dd f1 3f 66 41 de 43 41 fb fd bf
       1.116583881843389 -1.873841538534259
000020 89 f4 9e 6c cc 1b e1 3f 13 49 46 0e b5 0d 00 40
       0.534643375540001 2.006692992706243
000030 f6 a4 e5 d1 56 c2 b2 bf 07 62 3a ca ed 20 da 3f
       -0.07327787994804055 0.40825981854280297
000040 86 0b 53 5c 97 39 fb bf 7d a5 ca 69 fb cd ec 3f
       -1.7015603643819488 0.9001442972413966
000050 d4 6a 8a b9 27 bd e0 bf 20 d6 e8 29 b5 e8 e5 3f
       -0.5230902313081409 0.6846566980881938
000060 57 26 42 78 bb 8f f3 3f a6 35 50 d6 15 fc b6 3f
       1.2225908944696096 0.0897840164399982
000070 78 73 28 bd af 4a f9 bf af b7 a1 70 bb 39 f4 3f
       -1.5807340039238778 1.264094772307981
000080 b3 cc e7 ec 23 5a e3 bf 34 fd 5b 3b bb 5a fd bf
       -0.6047534586963564 -1.8346512144779128
000090 20 b6 1c c5 c1 c3 f1 bf 4d 4d 89 54 e6 24 dc 3f
       -1.1102922153180614 0.43975218062879123
0000a0 fc 52 ba 3c a2 ed bb 3f eb 85 1c c5 c0 da e1 3f
       0.10909475309956557 0.5579532480080024
0000b0 3c 69 2d 9c 6b a8 ce 3f 87 b4 e8 1b 0b b7 ef 3f
       0.239514781244745 0.9910941643808123
0000c0 aa a0 cd 5e 6d 28 cf 3f 82 3b 67 92 21 55 cd 3f
       0.24342124108375646 0.22916049622150686
0000d0 c5 66 05 81 8a c2 d1 3f e4 ed 39 05 a8 00 e9 bf
       0.2774988422366785 -0.7813301183772947
0000e0 37 96 ea 82 5c c9 f8 3f 16 69 d2 bf f6 64 a8 bf
       1.549160491363535 -0.047645293155442456
0000f0 0c 90 24 c6 56 19 fc 3f d2 59 2d 91 a8 2e d1 bf
       1.756186269755747 -0.26847280671554785
000100 b7 d4 1e c2 b9 43 e7 3f 2a 5a 25 1b a0 4a ed 3f
       0.727017287389251 0.9153595476335046
000110 6b f9 12 58 9f 29 a3 bf 6b c8 83 1a 37 b0 d5 3f
       -0.03742692899821772 0.33888032521566086
000120 8e fb bc f7 01 00 f2 3f 31 3b ed ea 09 3c eb 3f
       1.1250018765710794 0.851078947869473
000130 89 67 02 ed 3d 48 b3 3f 14 e9 4e 5b df 2b b8 3f
       0.07532107387888066 0.09441944102482963
000140 65 82 20 e8 df 26 f2 bf e3 ab c9 b5 73 3a f6 3f
       -1.1344908778629812 1.3892705060086363
000150 5b 83 25 6d cc 69 de bf 42 34 de 94 23 92 e0 bf
       -0.47520743044701924 -0.517839232213767
000160 71 3c 30 15 5e 5a ec bf 19 bf 4c c0 1b fa f0 3f
       -0.886031190284383 1.0610616218290885
000170 81 cf 2e 5f 0a 02 ea 3f fe dd d9 4a da 2a fd bf
       0.8127490862884629 -1.822962086092843
000180 d7 82 8d d2 05 bb dc 3f 79 5d b9 22 a5 e1 eb 3f
       0.44891496240420053 0.8712945631222474
000190 d7 ab a4 03 16 e1 c5 bf d1 4e 58 30 5b 76 ea bf
       -0.17093157937901424 -0.826947779105888
0001a0 55 37 68 3e c9 b8 f3 bf 06 98 de fe bb 5e f2 3f
       -1.2326137960221406 1.1481285053100705
0001b0 c8 9d 3d 88 c8 b4 f1 bf 10 07 c3 69 a9 ec 90 bf
       -1.1066365548993975 -0.016527793007077796
0001c0 dc ec 19 8d 2c b5 f1 3f 9d 61 48 77 8e b8 fb bf
       1.1067319404381157 -1.7325577411157618
0001d0 37 5f 37 a5 3c fc e3 3f 03 11 77 29 65 29 f3 3f
       0.6245406367188256 1.1976062412005042
0001e0 a2 76 4f 0e dd c4 e8 3f 60 a3 9a f0 c6 7d f8 3f
       0.7740311889171674 1.5307073019596018
0001f0 a2 39 2b a5 12 7c f6 3f b1 5c b1 39 72 e3 02 c0
       1.405291218939603 -2.3610577113391504
000200 af b0 82 18 9b 30 cd bf 4e bf dd 8d 81 59 e2 3f
       -0.2280458326034753 0.5734260340522981
000210 87 6e 26 fc e7 84 cb 3f a0 da 91 e0 b1 2e e4 bf
       0.21499347507493757 -0.6307000528457429
000220 f2 10 4a ea 88 23 ef 3f 02 f6 7b 65 89 77 e4 3f
       0.973087747188883 0.6395918829072686
000230 92 36 ad 83 2c e6 e0 3f ab 82 49 8f 08 63 d6 3f
       0.5280973979767671 0.34979452126394034
000240 66 bb 4e 9b 24 6a 98 bf e7 c4 bc ff 85 b5 ed 3f
       -0.02384240339204826 0.9284086222525304
000250 e5 93 89 93 0d 15 b5 3f a9 bd 79 fa 39 b8 e6 3f
       0.0823524937819254 0.7099885837650862
000260 45 db f9 f3 95 4d f0 3f 78 7a 73 32 a9 64 dd 3f
       1.018941834479578 0.45926885535110484
000270 ec c6 37 ac 97 2e 00 40 4a 85 d2 8b 3b 3c e5 bf
       2.022750230266743 -0.6636026125817491
000280 fb 28 3c f3 8c 7b fc 3f 86 39 05 aa be 75 f2 3f
       1.7801637174002838 1.1537462846204973
000290 20 09 c6 93 23 12 f4 bf 5e 14 c5 07 63 63 ea 3f
       -1.254428460350546 0.8246321822886207
0002a0 fe bd 0d 48 39 26 f2 bf d7 04 3d ca a7 d7 e2 bf
       -1.1343319716069113 -0.588825125691211
0002b0 f2 6f 09 7d 86 ab d5 bf c9 7a 51 45 0b a5 e6 3f
       -0.3385940762580041 0.7076469758865979
0002c0 0e 20 c0 74 9e f9 ea 3f 1f 76 9d c8 11 49 de bf
       0.8429710655482283 -0.4732098063594509
0002d0 f6 68 f6 94 82 f3 04 40 5b e8 2b cf a8 f6 f4 3f
       2.618901408929669 1.3102195828091883
0002e0 47 3f 7a e7 67 a0 de 3f aa 8f e3 6c 59 35 dc bf
       0.47854039769389484 -0.4407561839454909
0002f0 89 74 d7 11 7e 69 d2 3f 70 47 30 26 e7 84 e0 3f
       0.2876887487635221 0.5162235017653369
000300 39 ee 0b 90 ff 9a c5 3f f0 bb 0c 19 40 b2 da bf
       0.16879267247701238 -0.41712953993095336
000310 f6 2e 88 29 c5 35 e4 bf 03 9d 56 d8 da c6 fb bf
       -0.6315637408419821 -1.7360485506740708
000320 e9 ee 11 86 0c ff c0 3f d6 02 df 33 14 85 ff 3f
       0.1327834753645825 1.9699899698463716
000330 76 8e 7a e6 d5 20 e0 bf a7 4a 6a cf c7 8e c4 3f
       -0.5040082456147974 0.1606073153276004
000340 9a d8 fa 4d 49 13 f3 bf dc 99 44 8c 79 66 c3 3f
       -1.1922085805977418 0.15156478261015038
000350 c5 47 2e a2 0c 1c f6 3f 56 e4 55 01 55 ef 7f bf
       1.381847985762293 -0.00779660420573077
000360 70 47 94 b8 b1 09 e3 bf 2a a2 7a 9e ce 2c c2 bf
       -0.5949333767950815 -0.1419924043486998
000370 95 f5 72 90 c6 a4 79 3f 54 e9 a7 3f 7c 26 b7 3f
       0.006260657922380193 0.09043098978137226
000380 36 53 d8 df 81 73 d4 bf f9 11 75 46 77 78 ca 3f
       -0.31955000743737416 0.20680132808969612
000390 c1 99 66 f9 6c 5a c5 3f 69 31 9f 57 e5 0a e5 3f
       0.16682207277081143 0.6575800620426381
0003a0 65 79 76 53 e0 35 e1 bf 06 bb c6 2c 7c a5 91 3f
       -0.5378266935474981 0.01723283789913934
0003b0 5a 5e 37 b6 04 9f df 3f 43 4b 02 ae eb d5 85 bf
       0.49408071322020464 -0.010661927459556636
0003c0 b6 e0 8e 13 0e e4 d4 3f a2 d3 17 73 89 a9 d4 bf
       0.32641937170002266 -0.322847711940364
0003d0 2b b2 9e 5b 8e 2a a4 bf a5 35 7e 25 ec f1 c9 bf
       -0.03938717716605241 -0.20269538717950045
0003e0 af 05 98 df 6f 10 e2 3f 8d f2 d1 ce eb 14 c6 bf
       0.5645064704005359 -0.17251346205366183
0003f0 2c 7b 51 73 ed 90 99 3f 91 05 73 b3 5a c3 d2 3f
       0.024966917193860613 0.29317348026605666
000400 74 f9 b7 37 f4 66 f6 bf 79 8f d3 d5 0d 08 fe 3f
       -1.4001352478513498 1.8769663193315564
000410 9d 35 5e c0 00 33 e0 bf df cf e0 23 09 e1 f3 bf
       -0.5062259442508324 -1.2424403573504532
000420 30 12 ab 04 32 04 e7 3f c6 f1 fa 18 1b 12 a2 bf
       0.7192621318031964 -0.035294386672351005
000430 01 23 0d b2 e2 3d f2 bf 3d b3 d6 46 66 e4 eb 3f
       -1.1401087718133456 0.8716308005874464
000440 2e 4f e6 1b d4 2b fc 3f 52 2e 8f 40 7e 9b 05 c0
       1.7607003297643575 -2.7009244006820063
000450 d2 0c df f2 67 ec f2 3f 7a bf ef 3b e0 90 e5 3f
       1.182716320720648 0.6739350481638973
000460 f5 3f f5 e7 55 e6 eb 3f de 43 07 26 b6 d5 f7 3f
       0.8718671350889041 1.4896756635173385
000470 3e 3c 96 63 f0 3b cf 3f 4b 45 25 21 26 a8 e7 3f
       0.2440166937126111 0.7392759940504815
000480 51 1f 2a 03 14 8c e3 3f 64 c4 0f 8d fd 2e ea bf
       0.6108493863875798 -0.8182361369237126
000490 4a 5e ed 26 d3 c1 d3 3f 28 1e a5 79 0a 33 e6 bf
       0.30870512773023917 -0.6937305808905352
0004a0 03 73 a6 47 37 02 da 3f cb 60 da e2 d4 fb 76 bf
       0.4063852500637923 -0.005611259066107442
0004b0 d6 bb 74 85 09 c0 c4 3f e3 21 f9 6e e1 d1 d8 3f
       0.1621105100288946 0.38781009518836934
0004c0 ec c0 27 93 ca b5 d5 bf a4 02 c3 ea be 34 c0 3f
       -0.33922066088326974 0.12660967314697757
0004d0 64 c0 a5 aa f5 a2 e3 bf 1d 84 50 fc ad 9d a4 3f
       -0.6136425335844362 0.04026550011645489
0004e0 b7 92 74 53 e9 9b c9 3f 4e 83 8d d1 cb 00 eb 3f
       0.20007053923577242 0.8438471882655934
0004f0 ee 97 98 e5 8d 71 f3 bf 2d bb 83 8f 28 80 81 bf
       -1.215223214015619 -0.00854522407504773
000500 eb de f3 2c e5 9a df 3f 59 90 54 f5 30 a1 c5 3f
       0.49382905378250425 0.1689816663648596
000510 1c 68 a7 54 28 87 cc 3f bc a2 15 a8 94 0a e1 3f
       0.22287468083851614 0.5325415881062194
000520 cb f8 09 73 5a 6b d0 bf 6b 0b a3 e3 e5 0f ba bf
       -0.2565523265292426 -0.10180508430043538
000530 0b ce 95 45 9c c6 b7 3f 75 0d e8 25 4b 16 d9 3f
       0.0928743047605211 0.3919856901340702
000540 b5 18 eb 51 cf 18 f2 bf cd ae ba 53 3a b7 d8 3f
       -1.1310570907531148 0.3861833398502597
000550 53 c6 00 a0 ca 02 e9 bf d6 59 c4 2b f7 40 f3 3f
       -0.7815907597598176 1.2033607206009171
000560 af 48 80 02 45 c6 c2 bf 38 51 93 e7 bf ea fe 3f
       -0.14667570707439867 1.9323119207302408
000570 14 04 3e 56 6d aa d8 bf aa dd dc 7c b6 bd f1 3f
       -0.3854020445069761 1.1088166120006044
000580 c1 78 94 24 3a 3d 04 40 ad fb 0d 16 e0 19 ae 3f
       2.5298960550126997 0.058791163150991955
000590 e7 16 a1 35 38 75 b1 3f 81 45 13 ae 8e 23 f3 3f
       0.06819487866695405 1.1961809921088788
0005a0 40 6a 2b 08 40 1a e8 bf 33 de d3 80 67 16 fb 3f
       -0.7532043609201722 1.6929698021248327
0005b0 60 73 06 54 e9 70 ed 3f 63 46 1e 69 1a e6 d0 bf
       0.9200331345669888 -0.2640443827195666
0005c0 4c ff 7c 1d 9d 98 f2 bf 28 43 83 dd 71 65 d2 bf
       -1.1622592117200439 -0.28744169838050704
0005d0 20 ad f2 ed 68 80 ec bf 4d e1 a4 45 bc cf f4 bf
       -0.8906750342770557 -1.300716659590836
0005e0 e9 b3 87 d5 e9 9a bf 3f 1c 78 79 e9 67 4f d2 bf
       0.12345754111420572 -0.28609655189745964
0005f0 16 6c 35 2a 49 e7 f7 3f 2f 56 80 93 a6 19 06 40
       1.4939662598396857 2.762524750093483
000600 4b 50 b1 33 5c 1b f2 bf ab f4 87 49 1b 0d c5 3f
       -1.1316797274821677 0.16446248140701888
000610 ea ff 54 67 d6 b7 f8 bf f1 ef b7 81 16 34 07 40
       -1.5448822056205196 2.900433553148098
000620 68 e2 f4 55 03 03 e4 bf 59 6e aa 11 a6 10 e6 3f
       -0.6253678015555808 0.6895323128732783
000630 14 1d b5 f8 8f d7 f8 bf 92 6f 55 f0 ae 76 e7 bf
       -1.5526275363097897 -0.7332377141969906
000640 a7 df 0d cf 8d 55 f5 bf 58 11 5c 3a 73 9c df bf
       -1.3333871925405931 -0.4939239568632465
000650 5a e5 86 69 6a c6 fd bf 21 e2 2f 6d bd 2e e7 bf
       -1.8609413263460142 -0.7244555599746186
000660 95 fb 25 9d 7c ce 00 c0 e3 69 01 62 ad 4e e8 3f
       -2.1008236195770658 0.7596041597528792
000670 2a a8 8b 7e 80 a8 01 c0 22 f2 13 e6 9b 29 ae 3f
       -2.2072763334627057 0.05891120132034568
000680 81 09 f0 aa 5c b4 d4 3f ce cf 20 f6 9c f6 e8 3f
       0.323508421832365 0.7801041419211232
000690 ed 96 44 df c0 84 fb bf 7b 9d e7 88 a7 c6 f6 bf
       -1.719910499706596 -1.4234996173707646
0006a0 bf 39 79 3f c3 69 dc 3f f2 ba a5 6a 76 1e c4 3f
       0.44395524214351306 0.15717964370147502
0006b0 ea c4 d7 25 04 62 db bf dd 04 57 3f be d6 f4 3f
       -0.4278574342307154 1.302427527829699
0006c0 eb c3 fc b2 68 2f d1 bf b2 99 5d e5 67 5d d2 bf
       -0.26851861457094967 -0.2869510402582832
0006d0 b6 3c 8b 95 99 c7 f4 bf 06 6a 7d 68 d3 7a e3 3f
       -1.2987304536398319 0.6087433853929844
0006e0 b7 31 05 c1 45 a3 fe bf bb d3 c2 1e 56 f7 f0 bf
       -1.9148614444594452 -1.060384864960027
0006f0 67 e0 7d 70 80 67 cb bf 9e 03 73 cb ae d7 cb 3f
       -0.21409612171896983 0.21751961645170764
000700 d2 65 9c f2 06 7d f1 3f 60 90 26 eb ec b5 f6 bf
       1.0930242039670373 -1.4194153962680716
000710 c7 03 53 10 a7 90 f6 3f e1 8d 55 45 4e 94 f4 bf
       1.4103155744235083 -1.286207457386688
000720 8e d5 27 af 0a 7f e6 3f 55 83 fb c5 c8 29 fb 3f
       0.7030080243118151 1.6977012380304661
000730 9b 9d b4 d5 cd 02 c9 3f b7 99 0f 13 4d 08 00 40
       0.19539807257500005 2.0040532578597907
000740 14 86 29 db 30 79 fa bf 58 88 7b 2c 30 1a f0 3f
       -1.6545876084350128 1.0063935983275965
000750 03 7c 01 ef 4b 2c d4 3f 9d 57 8f b5 27 01 dd 3f
       0.31520365085992824 0.453195502571697
000760 0e 75 b4 27 fa 59 d8 bf 6e 41 1e e3 d1 60 ec bf
       -0.38049177052910543 -0.8868188320066517
000770 65 d7 f6 a6 d2 6e c0 3f 38 e6 5e 3d 7b a2 db 3f
       0.12838204529333122 0.43179207795364816
000780 47 2d e7 ae e1 64 c2 bf 26 37 94 2b 0e 6b df 3f
       -0.14370366134822118 0.4909091401649327
000790 2f e7 7c 9c d7 8c 07 c0 9d 6e e2 7b c9 14 f0 bf
       -2.9437706208817853 -1.0050749625433248
0007a0 30 01 44 fa 0a 47 e8 3f 59 f2 3b e4 c4 a8 d0 3f
       0.7586722267151682 0.26030084885113564
0007b0 08 e6 41 4a ed 83 f0 3f 43 eb ac 0d 18 d6 ba 3f
       1.0322087193184206 0.10482931455491688
0007c0 0b ed cd ac 3c 1e b1 3f e9 de ca 02 53 28 fa 3f
       0.06686763018472079 1.6348447903710002
0007d0 b0 95 00 26 fc ce d1 3f b2 78 70 e0 a8 4c cc 3f
       0.2782583590618186 0.2210894676108573
0007e0 1a bf 44 a3 1e 11 c7 bf fe 7d fe 84 88 69 f0 bf
       -0.1802099511346505 -1.025764960773699
0007f0 38 3c 4e 42 d0 55 8b 3f 71 13 1f b7 20 a5 e1 3f
       0.013347270034300349 0.551407201441732

weight f8 [64, 64]
000000 15 72 f8 a5 af 40 d2 bf e8 44 b5 bc 7d 33 92 3f
       -0.28519812782340753 0.017774548189952194
000010 e1 6a 1c b3 96 33 d1 bf ba 33 07 1c 9b 45 c8 bf
       -0.26877372256573834 -0.18962420338212188
000020 97 0a 3b de 93 54 ed 3f 13 23 bb b3 a3 00 d7 bf
       0.9165744152490615 -0.3594140296159349
000030 c9 ef 0d 93 44 69 d1 3f 5a 94 d1 10 2c 0e 00 40
       0.27205004082474865 2.0069199861486995
000040 0a f1 67 0d d7 2e c8 bf 15 b6 59 80 85 32 de 3f
       -0.18892944483366875 0.4718335870191777
000050 57 48 bc 34 7a aa fc 3f ff 6f b9 fa d5 4c e4 bf
       1.7916204509715692 -0.6343793770752199
000060 59 ed 15 24 a5 4b ef bf 15 64 76 d3 de 32 d9 3f
       -0.9779840187833698 0.39372988367682754
000070 c5 49 62 4c 77 0a c7 bf 87 d1 52 e9 0e cd fc 3f
       -0.1800068972557495 1.8000630487632365
000080 9a 76 ac b5 53 67 e1 bf 78 57 7a e4 77 01 cc bf
       -0.5438631580652384 -0.21879480987689326
000090 3a f0 86 e5 9c f7 99 3f 7d 45 1a 63 9c 35 da bf
       0.0253586306659914 -0.40952214887609967
0000a0 3e af 0d ac fd 6e dd 3f d9 db f7 df 5f 5b df 3f
       0.4598993473252796 0.4899520575704038
0000b0 3a b4 7d 3e 67 f4 01 40 70 51 76 d8 d8 c5 ef 3f
       2.244337547503645 0.9929012515809017
0000c0 b1 33 8a 38 9c 26 f4 3f f5 13 3e c6 2f 73 f5 bf
       1.2594263275707187 -1.3406217330787034
0000d0 4e 4b dd 06 4e c6 df 3f 23 37 ee 67 78 11 f1 3f
       0.49647856397966883 1.0667652187143595
0000e0 94 69 87 85 9b 14 f5 bf 44 a4 89 38 96 1c c3 bf
       -1.3175311294531626 -0.14930989990833343
0000f0 3d 99 3a f5 d4 f2 df 3f fa 25 ab 7e 78 60 e4 3f
       0.49919628093848073 0.6367762063975413
000100 15 24 5e 39 0d 61 ff bf 3d 5c de fb bc 34 fe bf
       -1.9611942521025914 -1.8878755415551176
000110 e4 74 91 75 d4 c4 eb 3f 89 1f 9e 52 c5 af f9 bf
       0.8677770897153576 -1.6054127909901317
000120 77 b9 fa 35 b6 4b d0 3f ce 07 1a 34 a1 2b d4 3f
       0.25462107917237325 0.3151629456334576
000130 2a a7 05 29 aa f7 ed 3f 69 ac 93 66 e0 e7 e4 3f
       0.9364825059139765 0.6533052447752087
000140 3c e5 14 d7 dd 1f ea 3f b8 43 d7 aa a3 84 e8 bf
       0.8163899613202044 -0.766191323922718
000150 64 99 2d 83 d1 41 f9 3f 9c be b7 c4 98 83 db 3f
       1.5785689472337134 0.4299070283004569
000160 e6 1e ed 54 33 4d fd 3f 6e bd 57 a1 ea 01 f3 bf
       1.831347781890082 -1.1879679014635616
000170 3f af c2 15 4d c4 e2 bf cd a9 c0 ce 3d 37 d9 bf
       -0.5864625382432463 -0.3939966696804305
000180 b1 02 87 5c 1d fc d3 3f 12 9c 60 35 69 28 d8 3f
       0.3122628596866362 0.377466489912366
000190 3b e4 32 16 3c a5 01 c0 50 d7 69 08 73 a2 d1 bf
       -2.20568101256188 -0.2755401212847248
0001a0 24 c9 2f 1b 61 01 e5 bf 79 8e 43 07 03 dc ee bf
       -0.6564183741559515 -0.9643569127915291
0001b0 57 8c 8a 6b 3c b3 d7 bf 23 d8 d9 62 7a 76 a9 3f
       -0.370314698239047 0.04973204094578445
0001c0 a3 54 1f 91 c2 02 de bf 35 4b 38 d4 8e d7 f8 bf
       -0.4689184586725991 -1.5526264467086552
0001d0 c2 c8 f4 1c 7b da e1 3f c2 0d c5 f9 be 07 eb bf
       0.5579200330305627 -0.8446955564799554
0001e0 66 40 54 0c 7b 4f c6 bf e3 5d bc 37 df 14 f6 3f
       -0.17430055715567788 1.380095689504622
0001f0 ea 47 22 f2 56 39 ec 3f 07 1c fc b7 ce 5c f3 3f
       0.8819994668176581 1.2101580798059801
000200 c7 18 97 7a 8b 2c f5 3f 5b a5 0d 2d aa 3a c6 bf
       1.3233752049141445 -0.17366530609005335
000210 94 c2 76 6d b6 2e e8 3f 63 78 89 c5 30 54 e4 bf
       0.7557022226302075 -0.6352771623749159
000220 05 dc bf f1 89 2d f2 3f f2 69 40 58 dd 36 ed 3f
       1.136117882093232 0.9129473422684085
000230 85 4d 2c a4 30 96 f6 bf 6f de 68 5c 0e c5 f7 3f
       -1.4116674817094872 1.4856093988181802
000240 64 34 df 2b a3 2f ee bf 3c 44 55 e4 9e f2 d0 bf
       -0.9433151108620561 -0.2648083905997429
000250 5b 8a 11 e5 f1 01 c2 3f 4d e2 c0 b1 c3 8c be bf
       0.14068435368524743 -0.11933539476093209
000260 73 eb 35 bb 5e ce d2 3f 60 39 9a bf d6 ed e3 3f
       0.2938458278874158 0.6227830641017071
000270 ea 57 7e 4c 07 b9 e9 3f c0 10 01 40 e7 fc e8 3f
       0.8038364881529081 0.7808719873505865
000280 a5 1b bf 57 a8 7f e9 bf 14 c7 cd f1 b8 fa dd bf
       -0.7968332017706997 -0.4684278832784099
000290 a3 27 6f fc d0 68 fe 3f 42 85 af fc 84 60 f0 3f
       1.9005899296484834 1.0235643263370808
0002a0 f9 92 36 4f ff 69 00 40 fb 5e 15 5d fe 5c d9 bf
       2.05175649533555 -0.39630087938483854
0002b0 7b d0 86 75 6f 13 d8 bf c6 d6 22 a3 0d e0 c9 3f
       -0.37618624188622335 0.2021500631869257
0002c0 fe c8 0f 3f 54 40 d7 3f 58 2a d1 d9 d3 be cb 3f
       0.3633013358913927 0.21676109443281422
0002d0 0c 02 3e ba 98 a1 87 bf a3 dc a5 99 81 6c e1 bf
       -0.011538689788495503 -0.5444953919349199
0002e0 ab 75 80 4f da 12 ec 3f 26 c8 64 8a dd 90 eb bf
       0.877301364209122 -0.8614337637902778
0002f0 a4 38 40 96 fc 0f c2 bf a7 9d c9 4e 62 70 ea 3f
       -0.14111287437885267 0.8262187517947738
000300 9d 84 8c d2 98 02 d1 3f ce 42 1b 85 86 e6 e3 bf
       0.2657835060254657 -0.6218903159843536
000310 71 a9 fd b2 bf a8 00 40 6c e1 b6 f0 f7 58 bd 3f
       2.082396887174746 0.1146388018304429
000320 66 87 83 db db b0 ef bf 27 63 73 90 4c 18 ed 3f
       -0.9903392112139329 0.9092161961844781
000330 db d8 ca 5b 3a 48 c5 bf 45 ee a9 08 49 aa a8 3f
       -0.1662667225079478 0.04817417364844493
000340 15 71 2f 50 7c 20 ea 3f f1 92 bb a8 1e 07 f3 3f
       0.8164655271644131 1.1892382231828231
000350 f1 a5 5b 0d f6 d5 e2 bf 32 48 ae af 8c 66 d0 3f
       -0.5886183033846334 0.25625912815405905
000360 3e c5 e8 ef 8b c7 f1 bf 53 af fc e4 4d d7 ef bf
       -1.111217438836618 -0.9950322601703
000370 11 e2 41 dc e3 db f4 3f 86 a7 94 57 e9 86 eb bf
       1.3036841014674148 -0.8602186880645923
000380 f2 55 e7 e7 7f 5d e4 bf 9c a8 9c 85 7b 21 e6 bf
       -0.6364135293358102 -0.6915872201546054
000390 3a 2f af 44 d7 5e f1 bf f4 ec 5e 0a c0 ee d4 bf
       -1.0856545145970373 -0.32707215321325056
0003a0 04 66 0c 72 46 8b ec bf f9 11 ef 48 2e 78 e4 3f
       -0.8920013644703322 0.6396705078591928
0003b0 8a 04 0a 98 b2 cd b4 bf 42 7c 6f 60 53 a6 d3 3f
       -0.08126369678395143 0.30702671449211405
0003c0 1e 7c cb d0 25 2a f2 3f c6 d5 8b 37 ec d2 e7 bf
       1.1352899700211831 -0.7444974026572531
0003d0 0b c3 ea ba c6 57 ef 3f 8e 92 d6 5e a8 20 f7 3f
       0.9794648791049395 1.4454730705848848
0003e0 29 ce 29 76 0c e0 f4 3f 6a c2 1e 5a cf 6e b9 3f
       1.3046993842843995 0.09934707594107697
0003f0 80 bf 3d 82 81 7b f6 3f 51 35 94 ba 57 8c f3 3f
       1.4051528060481075 1.221763352226237
000400 d6 c9 c8 ef ec 10 cf 3f f6 33 2e 00 d9 35 f0 bf
       0.24270402630061366 -1.013146401124002
000410 47 ca 4e e4 46 02 d6 bf 73 93 8d 4f 13 1c c3 3f
       -0.343888972241221 0.14929429420876836
000420 b0 b0 7a 17 e6 e8 d3 3f 4b 71 8c 06 b8 87 d5 3f
       0.31109001438995687 0.33640862121116716
000430 cf 0c 33 18 0b 7d f2 bf be 7e 35 3a f3 99 c6 bf
       -1.1555281586923234 -0.1765731844161475
000440 e4 51 7b b3 44 72 ef bf ef 9d 2d 37 5f 83 f0 3f
       -0.9826987748625098 1.0320732264898387
000450 78 c4 5c 94 4e e5 e8 bf af 10 49 6d c1 1d ed 3f
       -0.777991571207294 0.9098822721939736
000460 af d7 40 9b 05 99 93 3f 85 27 b7 8d 25 22 bb bf
       0.019138419724377517 -0.10598978719568038
000470 07 71 06 21 00 fa f6 bf 6c 43 3e 7c 93 b3 fd 3f
       -1.4360352792783162 1.85634182484156
000480 57 70 81 bf 8e 90 da bf c4 9c 91 ad 94 18 d7 bf
       -0.4150730962917399 -0.36087529134824714
000490 6c 6f 78 2f a8 73 ee bf a1 9b fb 3d 12 bd e6 bf
       -0.9516182830006819 -0.7105799875833904
0004a0 15 96 e5 e0 21 e4 ca bf 06 36 c2 a7 87 0f d7 bf
       -0.2100870464447985 -0.3603228700893343
0004b0 3a 25 db a3 ca bc dc 3f 47 a8 72 c1 d5 64 95 3f
       0.44902292253080456 0.020892467434045405
0004c0 5c f4 b9 62 94 c7 bd 3f 5e 5e e8 0a 89 92 eb bf
       0.116326593497392 -0.8616376126328296
0004d0 21 75 aa 43 c5 43 f8 3f 5b 0f 28 9c 73 3d d2 3f
       1.5165455477902656 0.2850007080999057
0004e0 12 a8 bc b2 81 0c eb bf 5e 77 71 8e 67 12 08 40
       -0.8452766886669016 3.0089865806939278
0004f0 fa eb a3 db 3e 90 fc bf 2e 7d a1 77 83 a5 f2 bf
       -1.7852161960315684 -1.1654085801199687
000500 f3 9b ee 5f 22 87 f9 3f 8a 3f cb 7c 88 c1 d0 bf
       1.5954917666765567 -0.2618123263064197
000510 d1 76 5d cc 2a ed f1 bf 15 2f af d9 d4 cc c8 bf
       -1.120402143765592 -0.1937509596740418
000520 87 a6 89 a9 9c 39 dd bf a3 2f 09 17 35 32 e3 3f
       -0.45664135509887455 0.5998788309020607
000530 ab 33 72 b2 2c e6 f4 3f 84 89 1d 84 f2 fe de bf
       1.3061949701834503 -0.484310750025678
000540 95 44 4f 39 aa 00 01 40 9a 1f ce 44 0e 42 68 bf
       2.1253246762576716 -0.002961185330096994
000550 36 e7 21 a4 51 58 d9 3f b5 58 2a 48 a7 89 f9 3f
       0.39601555851514847 1.5961067980729642
000560 28 ac a3 53 a4 47 d0 bf 0a ed d1 64 98 5b f7 bf
       -0.2543726746359334 -1.459862130954948
000570 55 fe fd 6c b9 59 c8 bf ff db 3a 5e 26 8f e0 bf
       -0.19023816892512238 -0.517474350016414
000580 6e 6a 9c 4f dc 24 b7 3f 78 55 bc f8 60 5d d6 3f
       0.09040619796398072 0.34944938936799685
000590 0f 4a fc d5 ed 8e e9 bf 6c b3 30 3b 6c a9 d0 bf
       -0.7986973933605571 -0.2603407457379976
0005a0 d1 0b b4 83 48 19 03 40 85 4a 34 1b fe 3f f1 3f
       2.3873453416176535 1.0781231939951408
0005b0 e0 b1 f9 a9 30 7d f5 bf c9 59 b2 d0 66 85 fa bf
       -1.3430639876997859 -1.6575687553610001
0005c0 c8 cc 09 13 c8 06 ce bf 2f 92 76 ea bc eb c7 bf
       -0.23458195619205058 -0.18688165138623122
0005d0 b8 f8 dc c7 3e d9 f0 bf 1e 6c 3e f0 ec b6 ec bf
       -1.053038387980946 -0.897329777933354
0005e0 8e d0 1c 80 a5 f8 04 c0 19 f7 38 d0 6e 10 02 c0
       -2.6214094170373476 -2.25802385972828
0005f0 b2 5d 17 54 6b 02 db bf 74 26 25 18 69 ef f6 bf
       -0.42202265941656514 -1.4334498351257965
000600 5e d0 64 2c f8 1b fc bf d9 57 80 96 f0 18 fc 3f
       -1.7568284734852777 1.756088817497121
000610 a2 55 ed 6c 8c 5c 42 bf e0 ad 5c b7 70 9e 00 40
       -0.0005603490516061136 2.077363426700444
000620 d5 19 46 3c fe cc f4 bf 71 70 7b c1 84 c1 ee 3f
       -1.3000471453138875 0.9611228732060352
000630 ce b4 4a 24 fd 44 e6 3f 93 07 bf 15 43 b1 f3 bf
       0.6959214886498104 -1.2307768678151418
000640 d3 f6 1f 69 ce 06 e9 3f bd 25 d7 a7 7c 67 bd 3f
       0.7820808461399004 0.11486033532778257
000650 7a a6 28 35 1f 2f d1 bf f0 71 df f1 80 6a d5 bf
       -0.26850109282768353 -0.3346254694022539
000660 8c 8b 9e 2a 02 b2 eb bf bf f4 ef 0d 1c 15 b4 bf
       -0.8654795486839801 -0.07844710674540332
000670 a9 1d 78 80 8f 11 f2 3f ba 39 44 ba 09 be c1 bf
       1.12928724463732 -0.13861199946445685
000680 1d 56 02 d4 b9 2f db bf 97 31 67 10 3d 63 e1 3f
       -0.4247879572297693 0.5433640785573058
000690 97 fa a2 b7 2c b7 ef bf e9 a7 6e 20 1b 81 e4 3f
       -0.9911101900723506 0.6407600053255439
0006a0 b0 ec cf 5a 72 1c e9 3f 82 d8 24 34 54 47 e8 bf
       0.7847224973369489 -0.7587071436344248
0006b0 aa 7b 6d fb f6 e7 e6 bf 4c 18 d0 91 56 63 f0 bf
       -0.7158160124489445 -1.0242524810614837
0006c0 68 45 b2 11 49 33 e0 3f 8a 28 4a 5d c9 90 ec 3f
       0.5062604280121095 0.8926741430343708
0006d0 49 fc 78 26 9e 3a f3 bf d5 0c fa a4 55 3e e8 3f
       -1.201810980113594 0.7576091978266059
0006e0 19 dd c8 59 ec 8a f1 3f 90 af 10 ca 67 62 fa bf
       1.0964168078624594 -1.6490247624560403
0006f0 8e 56 87 fd 58 f8 fb 3f 26 88 6c 43 2f 2f e3 bf
       1.7481317428077179 -0.5995098416208335
000700 f9 19 66 9d ee 58 ba 3f c7 c3 e8 ba 75 e8 e0 3f
       0.10291949599022833 0.528376450593094
000710 3b fc 49 f2 79 c9 f1 bf 88 c4 0f a7 80 91 b0 3f
       -1.1116885628141648 0.06472019270565188
000720 22 43 39 df 1f a9 d5 3f 19 19 2b 70 33 63 ff bf
       0.3384475402754551 -1.9617189771248091
000730 dc 5c 6b c5 31 b3 f8 3f c3 f6 e4 58 8f 0e f8 bf
       1.543748637361026 -1.5035546753346558
000740 83 c3 dc d8 a4 01 e5 bf ae ba 75 9a 33 d2 c1 3f
       -0.656450675544065 0.13922734300600353
000750 b6 e2 18 78 87 ee f1 bf 26 a4 40 d3 3c 20 e9 3f
       -1.1207346621796836 0.7851852537179453
000760 55 c0 83 33 62 11 87 3f b0 15 78 ce bf 97 e8 bf
       0.011263625332930053 -0.7685240776633488
000770 55 57 28 1b 89 d5 d7 bf 13 f8 79 4d 77 1e f1 bf
       -0.37240817691905664 -1.0699379946158885
000780 eb 67 85 23 0c 79 e9 3f 2c 03 2c fa 72 b6 bf bf
       0.7960262960216345 -0.12387770278656934
000790 19 cf 94 3b 36 fc e8 3f 8b 8a 48 1a 9f 21 ba bf
       0.7807875789353346 -0.10207552329715434
0007a0 1b 26 37 e6 68 0f fe bf fd a9 d3 72 75 b6 e0 bf
       -1.8787621491231963 -0.5222728007041152
0007b0 a0 e5 c4 e7 01 a0 e6 3f 14 0c 75 ed d7 04 e9 bf
       0.7070321585408017 -0.7818412435375444
0007c0 c5 93 d2 87 4a 3d ed 3f f4 ad fd 03 ef 45 57 3f
       0.9137318280014531 0.00142048207632228
0007d0 14 89 99 71 55 7a c3 3f e6 9e 74 c1 09 47 ed bf
       0.15217083021986666 -0.9149216440609649
0007e0 26 f1 8c e5 29 e7 e2 3f 55 cb c1 0c 16 fa b0 bf
       0.5907182200822134 -0.06631601153803264
0007f0 2e f4 06 97 48 c1 f2 3f a0 da 60 41 a5 83 fe bf
       1.1721883677958078 -1.9071400216904877
