MACE_models/mace02_com2_swa_compiled.model (torch, 542151 bytes, 51 tensors)

r_max f8 []
0	0x4010000000000000	4.0

weight f8 [48]
0	0xbfe59c91fa868f5d	-0.6753625767782797
1	0xbff676e9cb1d3927	-1.4040315565249075
2	0xbfe145c510b88235	-0.5397668196274653
3	0xbfb9493de4a6ea69	-0.09877383072208946
4	0xbfa0f8b02a522101	-0.03314733997928166
5	0xbfe4b9562e9fc2fb	-0.6476241026522013
6	0x3fdb5c538a1fe91f	0.4275101517556709
7	0x3fe38a3f2577b78b	0.6106258136548929
8	0x3ff0c94d7d107c7d	1.0491461644485576
9	0x3fde013c0e9dc589	0.46882535388348195
10	0xbfdad0f0daf8b5fd	-0.4190027368921106
11	0x3fd2b05ec45e845b	0.29201478172951106
12	0xbfdad5ad0faf3389	-0.41929174930265184
13	0xbfc4a88c9b3e95e6	-0.16139371471687908
14	0x3fc06210e6a9ced9	0.12799273741585784
15	0x3ff23af1ea94527f	1.1393908656365566
16	0xbfaed20592dca44b	-0.060196088960147685
17	0x3fd4886a6ecfae39	0.32082615682040544
18	0x3fddeb056b4729e5	0.46746955372205284
19	0x3ff30c75a4eb8848	1.1905418817700752
20	0x3fec02d20e117c62	0.8753443026324812
21	0x3ff83ead14d95cb5	1.5153017820755796
22	0xbffbc52695e0c67e	-1.73563250108819
23	0xbfefc0a28e6e87d2	-0.9922650129194557
24	0xbfc2b901938c9c58	-0.1462709398703932
25	0xbfd139fa22523746	-0.2691636405150927
26	0x3fe7b871348f6abc	0.7412649179999202
27	0x3fed9d14fca0c907	0.9254250463621084
28	0xbfc2b8720b95c986	-0.14625382962874428
29	0xbffccd381db27972	-1.8001023445172817
30	0xc00117ae3ddd729a	-2.136562808342501
31	0xbfd3d765360f5e1c	-0.31002168921756534
32	0x3fed61bc52e8fb62	0.9181806201303113
33	0xbfdb51ae09f00d2e	-0.42686034174421905
34	0xbfea246da41b9b03	-0.8169468121749052
35	0x3fe19f27365ad7c3	0.5506778775804765
36	0x3ffb7ba0dac058fb	1.7176826996779357
37	0x3fe173dffe4f7401	0.5453948943137449
38	0xbff5bac7e3609af1	-1.3581007844856539
39	0x3ff89fc18f0f0559	1.5390029514531618
40	0xbff30919a42b520b	-1.189721719060915
41	0xbfd77e63f7f96da5	-0.36708926407092185
42	0x3ff71142169dcfdf	1.4417134173827362
43	0xbff1c95af662501c	-1.1116590141655314
44	0x3fd70ae916c54a8b	0.36004092429826845
45	0x3ff9c7c7af9603ce	1.6112744196727706
46	0xbfe81386ed443626	-0.7523836740599037
47	0xbfb221c56dc3f97e	-0.07082780771086125

output_mask f8 [16]
0	0x3ff0000000000000	1.0
1	0x3ff0000000000000	1.0
2	0x3ff0000000000000	1.0
3	0x3ff0000000000000	1.0
4	0x3ff0000000000000	1.0
5	0x3ff0000000000000	1.0
6	0x3ff0000000000000	1.0
7	0x3ff0000000000000	1.0
8	0x3ff0000000000000	1.0
9	0x3ff0000000000000	1.0
10	0x3ff0000000000000	1.0
11	0x3ff0000000000000	1.0
12	0x3ff0000000000000	1.0
13	0x3ff0000000000000	1.0
14	0x3ff0000000000000	1.0
15	0x3ff0000000000000	1.0

bessel_weights f8 [8]
0	0x3fe921fb54442d18	0.7853981633974483
1	0x3ff921fb54442d18	1.5707963267948966
2	0x4002d97c7f3321d2	2.356194490192345
3	0x400921fb54442d18	3.141592653589793
4	0x400f6a7a2955385e	3.9269908169872414
5	0x4012d97c7f3321d2	4.71238898038469
6	0x4015fdbbe9bba775	5.497787143782138
7	0x401921fb54442d18	6.283185307179586

r_max f8 []
0	0x4010000000000000	4.0

prefactor f8 []
0	0x3fe6a09e667f3bcd	0.7071067811865476

p f8 []
0	0x4014000000000000	5.0

r_max f8 []
0	0x4010000000000000	4.0

atomic_energies f8 [3]
0	0xc0256a179c46187a	-10.707211383396714
1	0xc0486c79161c72bb	-48.847445262804705
2	0xc059a48e175aab87	-102.57117256025786

weight f8 [256]
0	0x3ff8a442a2103d77	1.5401026087382357
1	0xbfe21dbab8c59858	-0.5661290749383268
2	0xbfe925e9aef542ae	-0.7858780305051221
3	0x3fec07f0520f394d	0.8759690859531389
4	0xbfe2776c59d5e81e	-0.5770780329323804
5	0xbfe028c4f2ff2ebe	-0.5049767251998316
6	0x3ff8dbe6cdc2a1a0	1.5536869084845435
7	0x3fec9b9b191a2459	0.8939948549533582
8	0x3fc138856a04c270	0.13453738857926423
9	0x3fc4d29483360bc6	0.16267639548104124
10	0x3fe6721c87f36dcb	0.701429620293703
11	0xbff0da00052c0170	-1.0532226755168175
12	0xbfd5ef62b5a4b657	-0.3427359365331077
13	0xc00262035f2c4cd3	-2.2978579936403576
14	0xbff6737bbd978172	-1.4031941801004817
15	0xbffac481970a2152	-1.6729751491530647
16	0x3fd7b31b3392da61	0.3703067783020853
17	0x3ff059f70f26b29e	1.0219641296236328
18	0x3fed0f0347a02d93	0.9080826186122287
19	0xbfee897d0d4516e0	-0.9542832621743536
20	0xbff8883d9b761419	-1.5332618782715655
21	0x3ff08613a4d9e9aa	1.0327335776806685
22	0xbfca25838169a5b3	-0.20426982707003347
23	0x3ff7969cb9a26880	1.474270558485415
24	0x3fe8760d5dae6ab1	0.7644106702531045
25	0xbff6a93b03b01229	-1.4163160461477082
26	0x3fe7c6040dd8f212	0.7429218550165066
27	0x3ff08d28b993d895	1.0344626664278043
28	0xbfa33444b2923e67	-0.03750815086197861
29	0x3fef3357ac311846	0.9750173915024412
30	0xbffb342a0085f7a7	-1.7002353687707712
31	0x3fc80331f9587432	0.1875975101001202
32	0xbff0f45bec0fbe9e	-1.0596579762604175
33	0xbfe00a91ed00889d	-0.5012902859637226
34	0xbffc47084ddb31b7	-1.7673419038065796
35	0x4004f6a8fa7e6d4d	2.6204394883949704
36	0x3fe194a204a6ff21	0.5493936625352697
37	0x3ff11254b82140c5	1.066975325829888
38	0xbfe1dedee8f08ed9	-0.5584559011080855
39	0xbfa466d61935e876	-0.039847078874076056
40	0x3fe1ac032ad0a269	0.552247604010586
41	0xbfd6cf8d5d2b165b	-0.35641798113315354
42	0x3fff94f222efaa3d	1.9738637318320251
43	0xbfd7af1a1b6ad8e7	-0.3700623767612243
44	0xbfea6aacfe87a6d0	-0.8255219432150742
45	0xbfe7996d98e4ce3a	-0.7374790178495865
46	0x3fade711a225e015	0.05840354065270518
47	0xbfebf05433e3e9f8	-0.8730870259744838
48	0xbfe6d6145ba3a8d4	-0.7136327543096521
49	0x3fe5c5b7557b33f1	0.6803852719837079
50	0x3ff044fae2cb3b13	1.0168408259521058
51	0x3ff345539ff1ab4a	1.2044254539311674
52	0xbfe5be4b25a2f3bf	-0.6794791922653686
53	0xbfd5ae7b8ad0b4d7	-0.33877457195451427
54	0xbfbf2ee10092fa63	-0.12180906547562524
55	0xc001e529d24c9229	-2.2368961743943783
56	0x3fe7ea16573409c1	0.7473251059712355
57	0x4000ac03d1f76bb2	2.083991661418133
58	0x3ff14ed78c5986d4	1.0817485315714537
59	0xbff6be9bc5759b36	-1.4215352738626286
60	0x3fd795362f902a3b	0.36848215718115157
61	0xbfefae3d51bd367b	-0.9900194736926119
62	0x3fead45721c47554	0.838420453979476
63	0xbfd758f4f2672052	-0.36480449363853495
64	0xbfeb3c046a6cc076	-0.8510763243302921
65	0x3fe52b800b1f9d9d	0.661560079312881
66	0xbfe917f26542de37	-0.7841732003934742
67	0x3fd944533d7da07a	0.39479523663477034
68	0xbff05f43d38c7292	-1.023258043634233
69	0x3f74ee1cc0a2dedf	0.0051098940986588895
70	0x3fd2028058d1f3d3	0.2814026706108141
71	0x4000e425ea9116fe	2.111400444557943
72	0x3ffb272f3eec09a6	1.69706654147067
73	0x3fe504642115a6be	0.6567860265906444
74	0x3fd6788a18c4205e	0.3511071435791616
75	0x3fe60700c4d47eaa	0.6883548588120523
76	0xbfd0607003cdd63c	-0.2558860814236572
77	0xbfea22a4d0bf1623	-0.8167289807394734
78	0x4000654b2c810ab1	2.049459788978617
79	0xbff21d7bbaa786b6	-1.1321980754077408
80	0x3fe7f254336d653a	0.7483311657371481
81	0xbfd1bbddd648e85b	-0.27709146429299886
82	0xbff6d334eb8bfa55	-1.4265641404196192
83	0xbfd8e73d3c2ee1ab	-0.38911372067698363
84	0xbfd4e8b7df5358e3	-0.3267039948381251
85	0x3fd6137aa915d9be	0.34493891250840736
86	0x3fec8c43d14dc928	0.8921221816984017
87	0x3fe9740b495a46d6	0.7954155380886856
88	0xbfe353c870d6522f	-0.6039774135447881
89	0x3fe655955291ae26	0.697947179095938
90	0x3fbdf7cc732f04f6	0.11706235706425958
91	0xc0061aab63fa93f8	-2.7630222140164697
92	0x3ff43e3fd94a2e60	1.2651976096994062
93	0xbfec129589e32c85	-0.8772685711968654
94	0xbff8f887e769a95e	-1.5606764831123523
95	0xbfa9f71698634e38	-0.05071325884059913
96	0xbfeca8d3a2190b62	-0.8956087270711175
97	0xbfca42a2c6dc9e85	-0.20515856466339613
98	0xbfc065890cb9a0d7	-0.12809861298888478
99	0x3fde2269557c41c1	0.4708503088777683
100	0x3fecf769000b96b5	0.9052014351734302
101	0xbfe15d7d9f42ad53	-0.5426624403529935
102	0x3fe9aca72cd8749c	0.8023258090867276
103	0xbff7735036ae08f0	-1.46565266951853
104	0xbff0b865e84d4b72	-1.0450190614980923
105	0x3fc71d2aba05ea96	0.18057760317954735
106	0x3fe8652e0271dc8c	0.7623510406255192
107	0x3fe03b201488ef50	0.5072174454757974
108	0xbff32ea8e24e19fd	-1.1988915290872904
109	0x3ffa4eb18275ff2f	1.6442122551088223
110	0xc001a85a38989e25	-2.2072033330512277
111	0x3fd05336340ee8bf	0.2550788410550346
112	0x3ff7ac975e9d4fde	1.479636544788256
113	0xbfec18c1643f00f2	-0.8780219037944603
114	0x3fe34dd2339fefa3	0.6032496460243134
115	0x3fc65b79d87422f6	0.1746666247274999
116	0xbfd05aa35efe8ba4	-0.2555321147612466
117	0x3ff41d92353ad8a6	1.2572195128719073
118	0xbfe69c92050371f5	-0.7066125963133901
119	0x3faeff75e2ed4c41	0.06054275889496142
120	0xbffe3dad5a76f5e1	-1.8900579007889677
121	0x3fdf79f322f2e7ec	0.4918182221696259
122	0xbfed2d11c5e92a8f	-0.9117516389317916
123	0xbfcc5bc6c00deb6c	-0.22155079248099285
124	0x3fe3bfb2ea4aff5d	0.6171507431063038
125	0xbfcbbba218bc92e1	-0.21666361053316677
126	0xbfbd897b31ac5cd9	-0.11537904703833436
127	0xbffc04d9913302fa	-1.7511840507360703
128	0x3fec526c3824f856	0.8850613686152069
129	0x3fd9b098baeecee1	0.4014036012188012
130	0x3fc49a281d80dba0	0.16095448914140054
131	0xc00644cd0e15bc2b	-2.7835942364104276
132	0xbfeba1cd8a9bf40e	-0.8635013301096721
133	0x3ffa2907152a923b	1.6350165201958038
134	0x3fdcb6674e0b6d29	0.4486330282358773
135	0x3ff2d0075ee7b406	1.1757882792692285
136	0x3fc9ad2c1f432f76	0.20059730078207466
137	0xbfae1cbb58608e7e	-0.05881295636961868
138	0xbffb9b0a218bb7e7	-1.7253514585859138
139	0xbff9bb5875479145	-1.6082386571152523
140	0xbff2998040860617	-1.162475826306382
141	0x3ff9a2177ffba5b4	1.602073192533095
142	0x3ff786465c31b01a	1.47028194440191
143	0x3ff2a371133ac4ab	1.16490275870846
144	0xbfe1ec1c81441b4d	-0.560072185967195
145	0x3fc2c56ffe68b620	0.1466503135902011
146	0x3ff41b3af68907d8	1.2566480284008232
147	0xbfb24df44eab7572	-0.07150198860786874
148	0xbff16631ad74e809	-1.0874497199679374
149	0xbff2f956e368f78e	-1.1858738787845797
150	0xbfbb5f8636160c9a	-0.10692633457624581
151	0x3fe5df2a3762a717	0.6834918100114206
152	0xbfde2a80b8925add	-0.4713441660364149
153	0xbff3571fd1c1e6ec	-1.208770579686127
154	0xbfe1b7b8b2594a87	-0.5536769374251244
155	0x3fdd0ee1cd9c1adc	0.45403332785683204
156	0xbfd303d286b7b070	-0.2971082988358438
157	0x400067ce2c40af49	2.0506862122764784
158	0xbfe56541709a65ab	-0.668610305717427
159	0x3ff5879cd9cf3e5f	1.345608568972146
160	0xbfebb6f4d18bb738	-0.8660835354510033
161	0xbfdd247c5e360810	-0.45535191726969604
162	0x3fcdc70d361b1101	0.2326370729625822
163	0x3fe4c9e306d4d084	0.6496443875717124
164	0xbffaedc0057293ee	-1.6830444538875287
165	0xc0044aba5e073dac	-2.5364882799110173
166	0x3ffbc63d0d981baa	1.7358980685255383
167	0xbfd997b54df541f9	-0.39988453496064796
168	0x3fef0c4c4336b623	0.9702512085693268
169	0xbfd77c537fa62dc8	-0.3669632669995875
170	0x3fda52692e776d32	0.41127996003861533
171	0xbffef39340206714	-1.9344666008896114
172	0x3ff227c5404e476a	1.13470959777302
173	0xbffd07cf4b56d1d5	-1.8144066756186608
174	0x3fbfa10a3ec2d9bf	0.12355102569822572
175	0x3fed47b591e45cc6	0.9150035714582365
176	0xbf94ca3ddaa4dcb6	-0.020302740545244467
177	0xbfcb2b1c14abcb74	-0.21225310334520098
178	0x3fe3af739d231cf5	0.6151674336514633
179	0x3fda94d31f409e30	0.41533353855126887
180	0x3ff8266ac0358a3c	1.5093791492623856
181	0xbff2b5c0f4d0bdde	-1.169373470602174
182	0xbfb4159ab52cb100	-0.07845465586860101
183	0xbff667255029f60f	-1.4001820689585462
184	0x3f88d54a68394fe6	0.012125569635067234
185	0x3ff25aede6f274f5	1.1471995374079687
186	0x3fdd1ce24b96bef1	0.4548879373714803
187	0xbfe219d70f856dfc	-0.5656543067120192
188	0x3ff21e50f7e4017d	1.1324014361599375
189	0x3fd2858363b55933	0.28939900147578895
190	0xbfdcb4e9a65b53ab	-0.4485420345857231
191	0x3ff2c100ae97b090	1.1721197910328875
192	0x3fe34f00c14ab32a	0.6033939147215268
193	0x3fe0ceae20026896	0.5252295136626965
194	0x3fec5841450be2a0	0.8857733105242751
195	0x3ff302edf562d815	1.188215216197482
196	0x3fe896cdd167a629	0.768408688539414
197	0x3fea4936b3958cb1	0.8214372165206411
198	0xbff472dd1d4bed84	-1.2780429024122393
199	0xbfee87ee8b1ce2ce	-0.9540932385490011
200	0xbfd91dca34c3bc30	-0.39244322922508257
201	0xbfc02bef113fce5c	-0.12634075491188212
202	0xbfeb66c64411e471	-0.8562957124223783
203	0x3fe726c9f8649221	0.7234849788115448
204	0xbfeccf7795d93ae5	-0.9003255774240101
205	0x3ffa6a0b3948d04c	1.6508896100686057
206	0x3fe4bc91a86a68ec	0.6480186738365581
207	0xbfff760170441e36	-1.9663099656480774
208	0x3feaf1c32fc09db7	0.842012017504138
209	0xbff6d254f3fd50de	-1.426350548824352
210	0x3fe4acd20ce08207	0.6460962535384746
211	0xbfb5fd3309b1db74	-0.08589476572693205
212	0xbfe15ddaf386be45	-0.5427069431661457
213	0x3fb6ecf692618d97	0.08955327104336273
214	0xbfe2aec93ca62fbe	-0.5838361916116737
215	0x3ff111f9fd42416c	1.0668887989923759
216	0x3fe49612528dd3dd	0.6433192837126814
217	0x3fddb028f703bbeb	0.4638769542934244
218	0x3fefec5cb07e3d95	0.9976027915126219
219	0xbfc19eee2e66fd8e	-0.13766267076242084
220	0x3fa9582335db1918	0.04950056106967987
221	0xbfe05dc14d2cb858	-0.5114447123830912
222	0xbfd7784bfc4694ac	-0.3667173350934927
223	0xc003e2b4b99623be	-2.4856962679809547
224	0x4003001ff79f5a4c	2.3750609727387992
225	0xbffac0c5116419d5	-1.672062938626927
226	0xbf8e095c49ab1805	-0.014666291235140969
227	0x3ffec37834ac2e01	1.9227220590136087
228	0x3feaa0791643c01c	0.8320889887672851
229	0x3ffbf64c6e93ec5a	1.7476314849325463
230	0xbfe4729d64f678f9	-0.6389910671166766
231	0xbfe330ab66404b6b	-0.5996911046116628
232	0xbfdb4c77127ee2fd	-0.42654206091133046
233	0xbffa18d921a5a495	-1.6310664476716614
234	0xbfe72f01878cca7c	-0.7244880340061424
235	0xbff02dc5a222f06e	-1.0111748059707923
236	0xbffa3d382a3887f2	-1.6399461411715461
237	0x3ff4e0b1b6b7f8bf	1.3048569810339783
238	0xbfc917a346e3cd1f	-0.19603386842172996
239	0x3fc93a2b82da4606	0.19708770646370527
240	0x3fdfaab993dfa9fd	0.4947952217177372
241	0x3fc748d226fc928c	0.1819098177303612
242	0x3ffb3bfdc901ef53	1.7021463252885567
243	0x3fe7ffdd15737382	0.7499833506550291
244	0x3ff2420d7f766c20	1.1411261538512534
245	0xbff9ade34bd4ef67	-1.604953094690211
246	0xbff22f1c7c06b332	-1.136501774289354
247	0x3feb9bce6b827658	0.8627693271443588
248	0xbfe7710bb050ba6e	-0.7325495189341618
249	0x3fe2ec1c653bdf96	0.591322133753226
250	0xbfe89a73266d8689	-0.7688537359756121
251	0x3ff51e4e2a64b973	1.3198987632746053
252	0x3fb5c10ff4960eab	0.0849771473058875
253	0xbfdbae1227b92ec3	-0.43249944571719484
254	0xbffb84131e864beb	-1.7197447960249928
255	0xbfc10f385461e429	-0.13327697868570113

output_mask f8 [16]
0	0x3ff0000000000000	1.0
1	0x3ff0000000000000	1.0
2	0x3ff0000000000000	1.0
3	0x3ff0000000000000	1.0
4	0x3ff0000000000000	1.0
5	0x3ff0000000000000	1.0
6	0x3ff0000000000000	1.0
7	0x3ff0000000000000	1.0
8	0x3ff0000000000000	1.0
9	0x3ff0000000000000	1.0
10	0x3ff0000000000000	1.0
11	0x3ff0000000000000	1.0
12	0x3ff0000000000000	1.0
13	0x3ff0000000000000	1.0
14	0x3ff0000000000000	1.0
15	0x3ff0000000000000	1.0

output_mask f8 [144]
0	0x3ff0000000000000	1.0
1	0x3ff0000000000000	1.0
2	0x3ff0000000000000	1.0
3	0x3ff0000000000000	1.0
4	0x3ff0000000000000	1.0
5	0x3ff0000000000000	1.0
6	0x3ff0000000000000	1.0
7	0x3ff0000000000000	1.0
8	0x3ff0000000000000	1.0
9	0x3ff0000000000000	1.0
10	0x3ff0000000000000	1.0
11	0x3ff0000000000000	1.0
12	0x3ff0000000000000	1.0
13	0x3ff0000000000000	1.0
14	0x3ff0000000000000	1.0
15	0x3ff0000000000000	1.0
16	0x3ff0000000000000	1.0
17	0x3ff0000000000000	1.0
18	0x3ff0000000000000	1.0
19	0x3ff0000000000000	1.0
20	0x3ff0000000000000	1.0
21	0x3ff0000000000000	1.0
22	0x3ff0000000000000	1.0
23	0x3ff0000000000000	1.0
24	0x3ff0000000000000	1.0
25	0x3ff0000000000000	1.0
26	0x3ff0000000000000	1.0
27	0x3ff0000000000000	1.0
28	0x3ff0000000000000	1.0
29	0x3ff0000000000000	1.0
30	0x3ff0000000000000	1.0
31	0x3ff0000000000000	1.0
32	0x3ff0000000000000	1.0
33	0x3ff0000000000000	1.0
34	0x3ff0000000000000	1.0
35	0x3ff0000000000000	1.0
36	0x3ff0000000000000	1.0
37	0x3ff0000000000000	1.0
38	0x3ff0000000000000	1.0
39	0x3ff0000000000000	1.0
40	0x3ff0000000000000	1.0
41	0x3ff0000000000000	1.0
42	0x3ff0000000000000	1.0
43	0x3ff0000000000000	1.0
44	0x3ff0000000000000	1.0
45	0x3ff0000000000000	1.0
46	0x3ff0000000000000	1.0
47	0x3ff0000000000000	1.0
48	0x3ff0000000000000	1.0
49	0x3ff0000000000000	1.0
50	0x3ff0000000000000	1.0
51	0x3ff0000000000000	1.0
52	0x3ff0000000000000	1.0
53	0x3ff0000000000000	1.0
54	0x3ff0000000000000	1.0
55	0x3ff0000000000000	1.0
56	0x3ff0000000000000	1.0
57	0x3ff0000000000000	1.0
58	0x3ff0000000000000	1.0
59	0x3ff0000000000000	1.0
60	0x3ff0000000000000	1.0
61	0x3ff0000000000000	1.0
62	0x3ff0000000000000	1.0
63	0x3ff0000000000000	1.0
64	0x3ff0000000000000	1.0
65	0x3ff0000000000000	1.0
66	0x3ff0000000000000	1.0
67	0x3ff0000000000000	1.0
68	0x3ff0000000000000	1.0
69	0x3ff0000000000000	1.0
70	0x3ff0000000000000	1.0
71	0x3ff0000000000000	1.0
72	0x3ff0000000000000	1.0
73	0x3ff0000000000000	1.0
74	0x3ff0000000000000	1.0
75	0x3ff0000000000000	1.0
76	0x3ff0000000000000	1.0
77	0x3ff0000000000000	1.0
78	0x3ff0000000000000	1.0
79	0x3ff0000000000000	1.0
80	0x3ff0000000000000	1.0
81	0x3ff0000000000000	1.0
82	0x3ff0000000000000	1.0
83	0x3ff0000000000000	1.0
84	0x3ff0000000000000	1.0
85	0x3ff0000000000000	1.0
86	0x3ff0000000000000	1.0
87	0x3ff0000000000000	1.0
88	0x3ff0000000000000	1.0
89	0x3ff0000000000000	1.0
90	0x3ff0000000000000	1.0
91	0x3ff0000000000000	1.0
92	0x3ff0000000000000	1.0
93	0x3ff0000000000000	1.0
94	0x3ff0000000000000	1.0
95	0x3ff0000000000000	1.0
96	0x3ff0000000000000	1.0
97	0x3ff0000000000000	1.0
98	0x3ff0000000000000	1.0
99	0x3ff0000000000000	1.0
100	0x3ff0000000000000	1.0
101	0x3ff0000000000000	1.0
102	0x3ff0000000000000	1.0
103	0x3ff0000000000000	1.0
104	0x3ff0000000000000	1.0
105	0x3ff0000000000000	1.0
106	0x3ff0000000000000	1.0
107	0x3ff0000000000000	1.0
108	0x3ff0000000000000	1.0
109	0x3ff0000000000000	1.0
110	0x3ff0000000000000	1.0
111	0x3ff0000000000000	1.0
112	0x3ff0000000000000	1.0
113	0x3ff0000000000000	1.0
114	0x3ff0000000000000	1.0
115	0x3ff0000000000000	1.0
116	0x3ff0000000000000	1.0
117	0x3ff0000000000000	1.0
118	0x3ff0000000000000	1.0
119	0x3ff0000000000000	1.0
120	0x3ff0000000000000	1.0
121	0x3ff0000000000000	1.0
122	0x3ff0000000000000	1.0
123	0x3ff0000000000000	1.0
124	0x3ff0000000000000	1.0
125	0x3ff0000000000000	1.0
126	0x3ff0000000000000	1.0
127	0x3ff0000000000000	1.0
128	0x3ff0000000000000	1.0
129	0x3ff0000000000000	1.0
130	0x3ff0000000000000	1.0
131	0x3ff0000000000000	1.0
132	0x3ff0000000000000	1.0
133	0x3ff0000000000000	1.0
134	0x3ff0000000000000	1.0
135	0x3ff0000000000000	1.0
136	0x3ff0000000000000	1.0
137	0x3ff0000000000000	1.0
138	0x3ff0000000000000	1.0
139	0x3ff0000000000000	1.0
140	0x3ff0000000000000	1.0
141	0x3ff0000000000000	1.0
142	0x3ff0000000000000	1.0
143	0x3ff0000000000000	1.0

weight f8 [8, 64]
0	0xbfed7c9b833175d4	-0.9214608728759068
1	0x3fe260e86d63e2a5	0.5743295799757858
2	0xbfed8fe1732d00f2	-0.9238135575797328
3	0xbfe407643bf23179	-0.625902287561572
4	0xbfee2719cf63e552	-0.9422730494108384
5	0xbfef715553611e17	-0.9825846317771177
6	0xbfc63f68fe99e12f	-0.17381012374586066
7	0xbfefa8e77b17a2de	-0.9893681911608743
8	0x3fe8771af72e5f61	0.76453922536437
9	0xbfd202d9e65fcb01	-0.28142402169685005
10	0xbfaa2941454e0c4e	-0.05109600039488581
11	0xbff18cddffb77a1f	-1.0968914021428942
12	0xbfddab108b3b72c7	-0.46356595608612533
13	0x3ff034f928ac2cf7	1.0129329289218825
14	0x3fe970dd304c998f	0.7950273459762672
15	0x3fe7c5fb6463f889	0.7429177246811075
16	0xbffc6c64815ef18e	-1.7764630368757
17	0xbfedcd28a38cb771	-0.9312937921838352
18	0x3ffd27402823ab17	1.8220826690619043
19	0xbff3fe8a27d6b3ad	-1.249643474216309
20	0xbfe4a902f8af069a	-0.6456312996962936
21	0x3ff1bfe87e943472	1.1093525833596485
22	0x3ff8e97ec382c1a7	1.5570056569232322
23	0x3ffac5279fc8c1b3	1.6731334916658909
24	0xbfc20ae47a29b6e5	-0.14095741238582274
25	0xbf853c30a4a8df34	-0.010368709588064108
26	0xbff178133de65d9f	-1.0918152254069822
27	0xbfe5e094f79a7ce6	-0.6836647830968132
28	0x3fffa11ab89f9215	1.9768321239326998
29	0x3fe74c5eefd87615	0.7280726131900247
30	0x3fd80c16a22aef91	0.3757378181141969
31	0x3fe6e4507d761ba7	0.7153704119126488
32	0xbfdf1b85c68af8da	-0.48605484379721775
33	0xbfdbe088b68bb57b	-0.43557946993572444
34	0xbfdf3899215b7f5d	-0.4878294778591135
35	0xbff21cd5dce81732	-1.132039893070623
36	0x3fbb190850fda3d3	0.10585071542085638
37	0xbfd3f83dc4c44678	-0.3120264455365951
38	0x3ff5dceed4b32723	1.3664387043558655
39	0x3ffdc8e32620a95c	1.8615447511061438
40	0xbff0b77c3ea664fd	-1.0447962233795913
41	0x3fe6f8400584e4e2	0.7178039653582824
42	0x3fc2e8e2d29e9288	0.1477321175017503
43	0xbfe40599ea636894	-0.6256837442299621
44	0x3fe421f941a98b53	0.629147175070424
45	0xbfc3ae62ed3f3764	-0.15375935158084097
46	0xbfd9eab0928b5cd8	-0.4049493247125162
47	0xbfe25aeb937b895b	-0.5735986595648613
48	0x3fec03fac0bb1d1c	0.8754857792163508
49	0xbfb1a69cfc854ff6	-0.06894856610352904
50	0xbfd307a3a4d57fea	-0.29734126183575305
51	0xc0052787406d3cb6	-2.6443009408318074
52	0x3feb16f9d4e5d84b	0.8465546758805059
53	0xbfef3eed13503bb3	-0.9764314057555253
54	0xbfe219d3c8748664	-0.5656527438297414
55	0xbffd9fce690fa20f	-1.8515152076671517
56	0x3ff79deb757b6cef	1.4760546292443981
57	0xbfca459ca143c90c	-0.205249384634563
58	0x3ff75cb86089fcd6	1.4601367732100718
59	0xbff4ff4add6b6626	-1.3123272561264314
60	0x3fe4bee958a52a1c	0.6483046275473643
61	0xbff0f702be1644ac	-1.0603053498528352
62	0x3feaea787842eb22	0.8411218975882984
63	0xbf7549d2a6b007b2	-0.005197356086684412
64	0x3fffe103ab946b14	1.9924351408323604
65	0xbfc216b3166ea0f9	-0.14131773562736052
66	0xbfe4a88f93dde285	-0.6455762756368847
67	0x3ff51ab39a2b1ef2	1.319018938274834
68	0xbff247f411ea2195	-1.1425667476451953
69	0xbfe7f6bcaae6080f	-0.7488692605841168
70	0x3ff928df7c1aa291	1.5724787566961462
71	0x3ff1423a1f52045e	1.078668711037856
72	0x3ff7cbd82c831e8c	1.4872667063481542
73	0x3ffe9736a202e8d3	1.9119173363274526
74	0x3ff373898a25ed57	1.215707339898321
75	0xbfe089a9add324eb	-0.5168045420661235
76	0xbfd5a2269b0493af	-0.33802189959015555
77	0x3fe531ea84630d74	0.6623432717973814
78	0xbfad4f913e038296	-0.05724767572406113
79	0xbffb6edab611b406	-1.7145640480114266
80	0xbff279cf61ebc11e	-1.1547387909923326
81	0xbfc3e5f2bb4f8f15	-0.15545496126207384
82	0xbff5974d3ceee321	-1.3494388942910478
83	0x3fdb99ab6708459d	0.43125424443959465
84	0xbfa7d400c42fa4bc	-0.04653932947969383
85	0xbff605414127bd8e	-1.3762829346777354
86	0xbfdaa174aadba65d	-0.416104475835345
87	0xbfce97b8982f08af	-0.23900515967222222
88	0xbfb41294f63b2bdf	-0.07840853702070615
89	0x3fccb2aa6f4ba762	0.22420244631149006
90	0xbfec4b64b6cbdc54	-0.884203297638019
91	0xbff084a8265dca46	-1.0323869227110136
92	0xbfe23914b1fee11f	-0.569467876098347
93	0x3fa8a0ad85aaf091	0.048100874487745256
94	0xbfe855b8159a9ec6	-0.7604637548401676
95	0x3ff021673b2b987c	1.0081550895061175
96	0xbff24910c7e6a165	-1.1428382691029466
97	0x3ff4aa2934ba9df7	1.2915432033277037
98	0x3ff0009d1b624fbb	1.0001498288811337
99	0x4003014d2d075c0c	2.3756354825850448
100	0xbffc5f390fee06a6	-1.7732477781541234
101	0x3fe0ce5ec8e5d90b	0.525191681269264
102	0xbfda629b918c934f	-0.4122685357454445
103	0xbfc32beaa35e39aa	-0.14977772690731445
104	0x3ff9743410f5b079	1.5908699667443484
105	0xbfcfa337505d0159	-0.24716845916737887
106	0xbffd9afac6ae94f7	-1.8503368149770816
107	0xbfb6186c5a356f45	-0.0863101692424922
108	0x3ff53902d79372ff	1.3264187260567153
109	0x3ffc82276cb26468	1.7817758794756404
110	0x3f9c4454e1dd8fa0	0.027604414258703636
111	0xbff69066a6bb6bbd	-1.4102541459057953
112	0xbfc8ac9905f6ab6a	-0.19276726523579707
113	0x3fe0d4ae852dbcad	0.5259621239801128
114	0x3fca80f8badafb62	0.2070609009151339
115	0x3fe6de653a412c46	0.7146478784355927
116	0x3fd285514dde1122	0.28938706020587024
117	0x3fc596bfc08757be	0.16866299534620838
118	0x3fe8ab01faebf9f0	0.7708749676528992
119	0x3fd39ef9653a4377	0.30657801518923783
120	0x3fa4db399e4bae8e	0.04073505456275682
121	0x3ff6b8fbd22aca14	1.420162030187048
122	0x3ffcf92eb459c0e6	1.8108355565018939
123	0x40036bf6dac02477	2.427716931332323
124	0xbfe299c11a00cc2f	-0.5812688358186103
125	0xbfd4c73af22c9a6e	-0.3246600499136666
126	0xbff50b70252e1fac	-1.315292496905367
127	0x3ff88313a4e2af10	1.5320011559333047
128	0x3fbae9628f66d29e	0.10512367249504925
129	0xbfacb266ad12afd7	-0.05604859221179453
130	0xbfefa1f447e756c8	-0.9885198025101198
131	0xbfa0b6aa4ebbf8f1	-0.032643625365368474
132	0xbfeee19d5354c648	-0.9650408389627012
133	0xbffaf5c879dcb332	-1.6850056419600148
134	0xbfec3420d5fece63	-0.8813633136364384
135	0xbfb8319f8ba2ad6b	-0.0945071903139955
136	0x3fdcaa1462c42eb9	0.44788083691740216
137	0x3ff9d6055f9ed735	1.614751218335596
138	0xc005eab3b33448b6	-2.7396005630808657
139	0x3fc9a4ae890ec915	0.20033818905137282
140	0xbfe5d3c6f8054613	-0.6821017116691926
141	0x3fe349fc2bf3ed80	0.6027813776449165
142	0xbfd630d2779983da	-0.3467298667874822
143	0x3fea478dae1bccc8	0.8212345505293337
144	0x3fe7d6e22a29d900	0.744980890608332
145	0xbfe02a405163fcb6	-0.5051576223048844
146	0xbfc3f22946e66760	-0.15582767450251378
147	0x3fd56cf9dec3de1d	0.33477637056737014
148	0xbfc3b19fc766ffaf	-0.1538581584591134
149	0xbfe2ea3150922df2	-0.5910879682209595
150	0x3fcbfc0351ed5cfd	0.21862832546569413
151	0xbfe91d169061f78f	-0.7848007984136859
152	0xbff9ac44e38daf47	-1.6045578850561968
153	0x3fd8ec3d079978cf	0.38941884748591077
154	0xbfebac371b50bb17	-0.8647723706725142
155	0xbfd8cb1ba79b0b28	-0.38739673011530096
156	0xbfd8b9f12bfe6938	-0.38634900375622605
157	0x3ff80348ba2f3d0d	1.5008017800171871
158	0xbfe3179772854925	-0.5966298329097169
159	0xc0029a02356840b8	-2.3251995251121933
160	0xbffd558a153c0d0e	-1.8333836392856173
161	0x3fc8b092daeea533	0.19288860025452834
162	0x3fefd519eee9b8f8	0.9947633425015558
163	0x3ff4a4f508e72dcc	1.2902727458739376
164	0x3fed196bdce778a3	0.9093531908545355
165	0xbf9becb318e45357	-0.02727012481144028
166	0x3ff56641e9c01de9	1.3374652033688739
167	0x3fce8c027b6ea344	0.23864775683366635
168	0x3ff4ec90e60b0fbe	1.307755373579297
169	0x3fea7f06ee6ba8d5	0.8280062348033207
170	0x3fe2542bc94347bf	0.572774785129006
171	0xc005cd22387579b6	-2.725162926755014
172	0xbfe06e6d0498a77c	-0.5134797181865305
173	0x3fc5b08f221c9b3b	0.1694506565629242
174	0x3fe434a31a712ba4	0.6314254299589845
175	0xbfff149d4787331f	-1.9425328058307014
176	0x3fdbf0fd49738b08	0.43658382580740396
177	0xbfb8acff18dad78b	-0.09638971669013878
178	0x3fe0550bbdbc0b82	0.5103815751793805
179	0x3fcc60ce57ca1279	0.22170428549374657
180	0x3fcd558b9f707505	0.22917313847657553
181	0xbfc81b90a5fe285c	-0.1883412180434928
182	0xbfe251963df8fbf3	-0.5724593363191829
183	0xbfc12c83810dc5ca	-0.13417094994978945
184	0x3fd2f337b88af38e	0.2960948278594565
185	0x40048b97e5ff274a	2.568160817002455
186	0x3fe41f636875559f	0.6288315811349782
187	0xbfee4bbe966816de	-0.9467461526516805
188	0xbff87207fd8a66c3	-1.527839651482666
189	0x3fe6830ff20778b6	0.7034988143093617
190	0xbff11f0d49ca1e54	-1.070081032028516
191	0x3ffaee18491e9753	1.6831286293249448
192	0xbfd6cbc9752776ef	-0.35618816796146197
193	0xbfd8c1877df18924	-0.3868120889584523
194	0xbfc660d36cf2a057	-0.17482989139284896
195	0xbfc4aeab00102d00	-0.16158044341168676
196	0x3ff1ea0f0a136472	1.1196432488998451
197	0x3fe10c8fe72b6ed7	0.532783462050669
198	0x3fe013fb311dcee1	0.5024391135507039
199	0xbfe5abe35cf33796	-0.6772324386054034
200	0x3fed64c30b9b545d	0.9185500361151174
201	0xbfefcdbdbbc22fa1	-0.9938648860129328
202	0x3fd4d0fa11585597	0.3252549332986176
203	0x3fe30d58aa66ea00	0.5953791931308956
204	0xbfe839d265f1d45c	-0.7570583335024241
205	0xc0045a1341735ae8	-2.5439820397690376
206	0x3ff8c6dc651b8a84	1.548550028754705
207	0x3fe0351e5364970d	0.5064841870086824
208	0xbfce30029744e5c3	-0.23584015260875732
209	0x3fd4f1a2d7e2449a	0.3272482975235761
210	0xbfe4ad1cc2f567cd	-0.6461318786416484
211	0x3fee73b1ff4119e5	0.9516229615626882
212	0x3ffeef4086e6ed38	1.9334111470805748
213	0xbfe206efc43dd426	-0.5633467514841228
214	0xbfec323053913032	-0.8811265594645248
215	0xbff1d33e0d718387	-1.114072849763234
216	0xbfab04972685b497	-0.05276939721338996
217	0x400601ffb925e220	2.750976034611327
218	0x3fb8cfc122923bcc	0.0969200810816197
219	0xbfddd158312ee22b	-0.46590237429657816
220	0x3fb4d1e0497a678d	0.08132745546245541
221	0x3fd902e6564cd885	0.3908019869589981
222	0xbfea484eb8f8b3fa	-0.8213266003346
223	0xbfb98ac3c59b8317	-0.0997736318054304
224	0x3fcd8cc283523e47	0.23085814869090113
225	0x3fef1fc5b27877c3	0.9726284490350213
226	0xbfe660a1d9e0a458	-0.6992959266109535
227	0x3fafa7c1afa4c3b9	0.061826756182547134
228	0xbff089b82d43ae03	-1.033622910322152
229	0x3ff24b75dc15b15a	1.1434229466495567
230	0xbff1f55ffdd7d808	-1.1224059978244458
231	0xbfb1d2217a6e6e7e	-0.06961259116217808
232	0x3f73f9e3f359a127	0.004876985961893155
233	0x3fe7e006ca9fa5b9	0.7460969884388567
234	0xbff547a7684ac318	-1.3299936365039624
235	0xbfeb38ff7342f515	-0.8507077456667128
236	0xbfa148f294066215	-0.033759670800638165
237	0xbff76463cd3e7fa2	-1.4620092408513092
238	0x3fcf00098c49c8b5	0.24218863821039852
239	0xbff7829bad19e5ff	-1.4693867456211362
240	0xbfef7c33250b7813	-0.9839111064463871
241	0x3fd9c68a104a926a	0.4027428778738683
242	0x3fafd6ca84c3e58b	0.06218560095471578
243	0x3ff6eeb05330798a	1.433273625334183
244	0xbffca060e7c8d507	-1.7891549161989262
245	0x3febedf71514c5c0	0.8727984821072639
246	0x3fd0ba75f774bdd5	0.26138066449763403
247	0xbff52928c4b5f3cf	-1.3225486454023103
248	0xbfe1b81f039700d6	-0.5537257261385331
249	0xbff1441b8a5daa5f	-1.0791278271596167
250	0xbfe6345d094cf54d	-0.6938920194294639
251	0x3ff4405a4fe6141f	1.2657111283344944
252	0x3fe4ccb699432d33	0.6499894135862746
253	0x3fe2ca46150b5b9c	0.5871916209242616
254	0xbfca96739774b47e	-0.20771641631418797
255	0xbfe5ec3bd78ab737	-0.6850871286203305

weight f8 [64, 64]
0	0x3fefc856869c188a	0.9932053212258023
1	0x3ff298cca972fd3d	1.1623045558079206
2	0xc00dab8f448c05c3	-3.708769355319164
3	0xbff5e8f8dcfb30a7	-1.3693779594496307
4	0xbfd7bc94c7303b1e	-0.37088508083336247
5	0x40039bed95f0a5ff	2.4511367525162764
6	0xbfe6ce06207d2123	-0.7126494059130305
7	0xbff4785e37acd905	-1.2793867277919742
8	0xbffbd7953ed457ab	-1.7401325659061324
9	0xbfc2ed11fafa0ab7	-0.14785980944369267
10	0x3fde08ff4b08ee92	0.4692991478693581
11	0xc003410fa9e32b14	-2.40676815723908
12	0xbfd4083d70012662	-0.313002929095637
13	0xbfd870318d43b10b	-0.3818477515731195
14	0x3fcb50edd8ce166c	0.21340725980933273
15	0xbfd6bbc2994924b1	-0.3552099701815435
16	0xbfcebdf98c5fd9eb	-0.24017257074565576
17	0x3fe17612c90fb271	0.5456632544497336
18	0xbffe6d7699956806	-1.9017244338379
19	0xbfeb92dd92e1444c	-0.8616779202221863
20	0xbfec39720bf8bf49	-0.8820123895475059
21	0xbff2058fbdc3189c	-1.1263577854711349
22	0x3fd5001653c1b79a	0.328130323213253
23	0xbfa2d599ab146521	-0.03678589070677619
24	0xbfedf71677a77890	-0.9364120804782647
25	0x3fd79d50ac9dd5a0	0.3689767537792594
26	0x3fc01fbe031213e7	0.12596869611675673
27	0xbfbd902230d66a51	-0.11548055355380284
28	0xbffc6651269797d8	-1.7749797351366308
29	0xbfc9c44f278eead4	-0.20130338126712977
30	0x3ff6f090de0114ab	1.4337319061317355
31	0xbfc2c1dcc067ae15	-0.14654120821738617
32	0x3fe2015c31b7ff5e	0.5626660319394252
33	0xbfd2caffdcc1a0cc	-0.2936401038955523
34	0xc000129d72fefea0	-2.00908937302286
35	0x3ff4045d21eefd05	1.251065380623744
36	0xbfeb0864949bcdbe	-0.8447745230209234
37	0x3fecb6e2a4d855cc	0.8973248691206037
38	0xbfe90eb9e0ecf06c	-0.7830476182057402
39	0xbfc77268f4bad2f4	-0.18317901563354833
40	0x3fd31881a2e8d0fc	0.2983707514679421
41	0x3fe569441fe89b1f	0.6690998671736884
42	0x3fe12c8e81bf97d8	0.5366890463017127
43	0x3fbee45805ab486a	0.12067175043492431
44	0xbfb8c511249cb943	-0.09675700324871621
45	0x3fb188541f723152	0.0684864594242687
46	0x3fef5b29158dc0df	0.9798779889079262
47	0xbfe49d29a3fc0e90	-0.6441848948311009
48	0x3ffc977ee6928133	1.7869862562875596
49	0xbfd3d1a3ea100155	-0.3096704278723526
50	0xbff25510ab67abbe	-1.1457678504473132
51	0x3fd5f53b2e1cb791	0.34309272292272747
52	0x3ff0824c2b2d5149	1.0318109213449864
53	0xbfde1cb7d146f558	-0.47050280987953874
54	0x3fea9176d39bd1ad	0.8302568562490272
55	0x3fe3c98e7b34fa38	0.6183540731797796
56	0x4000def9910f83be	2.1088744480952917
57	0x3ff7f63ab5f6c445	1.4976145847288234
58	0xbf9ee559b4dbfee1	-0.030171777404574555
59	0x3fc02eca0e791484	0.12642789560974077
60	0x3ff97298b4120376	1.5904776605604787
61	0x3fbdbfe4aebfd46b	0.11620930925694643
62	0xbfe8f4c0ab7c2fed	-0.7798770284002764
63	0xbfe36b8ff7dd8897	-0.6068801728363437
64	0xbfca24d943f95d09	-0.20424953288122819
65	0x3fdddd6f4fbe47fd	0.46664030826025266
66	0x3ff39e4aa3bcb232	1.226145400617622
67	0xbfbe2c29dbf10b64	-0.11786138171832544
68	0xbfeeedcceb4bd31e	-0.9665283771160806
69	0xbfd22952c40047ba	-0.28377217426998025
70	0xbfec18b85287e6a2	-0.8780175792628209
71	0xbf70dfa90ba7d05a	-0.004119549116229216
72	0xbfbb06702363de69	-0.1055669866944925
73	0x3fdb49a6a87a5f81	0.426370300797764
74	0x3f96d36f9e0edd33	0.022290939352129512
75	0x3fdc7f50a6f2541a	0.44527069381121154
76	0xbff57877f566e98b	-1.3419112764373462
77	0xc00090e0bfdb7ad8	-2.0707411755423486
78	0x3fc2b209c1649b64	0.14605829184548746
79	0xbfc50bb20944860e	-0.16441941692851042
80	0xbff11e3bfa11b4bb	-1.0698814171148985
81	0x3fc4caf0a58b8c63	0.16244323809869163
82	0xbff5fbcd8049d62f	-1.3739752780214862
83	0x3fc5a432107a0f02	0.16907335094958148
84	0x3fe200aa175d3410	0.5625811058358767
85	0x3ff7453b7e83555b	1.4544024412073984
86	0xbfc1ac7c0462b69f	-0.138076307431608
87	0x3f823153e862981f	0.008883147744494889
88	0xc007f037d93bf0c7	-2.9922940226952934
89	0xbffaa11e03a20e2f	-1.6643352643885796
90	0x3ff9a02e3ab757ba	1.6016065877533792
91	0x3fd4efdcce37475a	0.3271400464847055
92	0x3fdf41ae1fc81b05	0.4883837995879932
93	0xbfe28d065b95e4c4	-0.5797149456767774
94	0x3fe9f7fea81b0dcf	0.811522796946912
95	0xbfc02695a6417655	-0.12617750757174187
96	0xbfe06d8cf1e8333e	-0.513372871851608
97	0x3fb96dc4aca96075	0.09933118071910647
98	0xbfe71ded68152518	-0.722403243337939
99	0x3fea8ffe9cc495a1	0.8300774633286673
100	0x3fd5059d648d0d2c	0.3284677011435686
101	0xbf9236dcb37c470c	-0.017787407355235138
102	0x3ff2ff9fc01f012a	1.1874082092982214
103	0x3ff3458fcb4e8846	1.2044828359289723
104	0xbffb2c789855ffdb	-1.6983571959135506
105	0xbff4a2ac825b89fd	-1.2897152988522287
106	0x3fe3a983f3640490	0.6144428018307213
107	0x3fcd17815abbed8e	0.22727982454658185
108	0x3fa413e73064d33d	0.039214348466350725
109	0xbfe6b7a1115ad65a	-0.7099156702958667
110	0x3ff61a871d0d1884	1.381476510506702
111	0xbfcb934e34324ff4	-0.21543290661486447
112	0x3ff7b70551160b1f	1.4821828048158705
113	0x3fde8620049c10df	0.476936344625086
114	0x3fce3a92bbaa052d	0.23616251147545012
115	0x3fdf990defcff79b	0.49371670169045395
116	0xbfc7df3259371d8f	-0.18649892193046155
117	0xbffea3bbebed4f16	-1.9149741378686875
118	0x3fc88ce231b270ff	0.19179942537892455
119	0xbfc3dc0c82731923	-0.15515285844430435
120	0xbff73df36db1f316	-1.452624729630036
121	0x3fe163ea018f63b8	0.5434465437384608
122	0x3fce9c6d18aacb0b	0.23914874748660284
123	0x3fb855541acb7567	0.09505201009911489
124	0x400061fe6f91e195	2.0478485790628818
125	0xbffaf074a1f0c37c	-1.6837049794960128
126	0xbfa71be1d4d859ca	-0.045134598953314134
127	0xbff606aa6203860d	-1.376627333513514
128	0xbfe1783f8f64589c	-0.5459287453293373
129	0xbff5d4c6d83ccf6d	-1.3644474455622586
130	0xbfad3936069991a9	-0.057077110582017206
131	0x4000ddccc1c362ee	2.108300699019643
132	0xbfc8f5cb2a2b1afb	-0.19500102576258613
133	0x3ffb1237b316a94c	1.6919476504941313
134	0x3fe481d651168a6f	0.6408492645026181
135	0x3fed90c833f197d1	0.9239235891843639
136	0x3fe8ad4b99ebc1b8	0.7711542135494289
137	0xbffa36ceb64e685c	-1.6383807298029955
138	0x3fae924d631c7524	0.05970994791844422
139	0xbfddf55479d99180	-0.46809875392343514
140	0xbff25d975ea8c186	-1.1478494355797877
141	0xbfe3841d6c74ff89	-0.6098773115445378
142	0xbffe1c1c07ef7057	-1.881862669942185
143	0xbfca323cd98d524d	-0.20465813276918468
144	0xbfda9fbec5abb22b	-0.4160000734689528
145	0xbff68bfe4f258c8e	-1.4091780749957112
146	0xbff91fc930492028	-1.5702602277906497
147	0x3fc87ed15852e39c	0.1913701707142338
148	0x3fc94c9aef23ee8a	0.19765030552649804
149	0xbfdc6919e144b4b8	-0.44391486166825755
150	0xbfe2b7fcdf11b0ec	-0.5849594456499552
151	0x3fe2df23e65b1b26	0.5897387980593052
152	0x3fbe022c422332a9	0.1172206555813299
153	0x3ff24ad550d674df	1.1432698400233716
154	0xbff54d1a64529578	-1.3313239973880098
155	0xbfe93fb1f1c15a38	-0.7890252801688069
156	0xbfd12a69a8f3a558	-0.2682136678618767
157	0xbfd03eae713ac85f	-0.2538257699735648
158	0x3ff31d7fc136c742	1.1947019145413411
159	0x3fe21eeccc972fde	0.5662750240239764
160	0x3fbc241fa7d12b7b	0.1099262032231944
161	0x3ff66370585af27b	1.3992770625474396
162	0xbfd03c4839e0ecd9	-0.2536793294163551
163	0x3ff2048f33a8a691	1.1261131303712413
164	0xc0029277d5c4539b	-2.3215176296748274
165	0xbfed6fa7378fc3a7	-0.9198795399844258
166	0xbff0d76a1e03db21	-1.0525914356673598
167	0x3ff125d5ad06cec1	1.0717369803286803
168	0x3ffa5ce00034b225	1.647674561313701
169	0xbfa37513d6312033	-0.038002605339500305
170	0xbfd224b6a4dd6183	-0.28349081134867776
171	0xbff0019b63d117cd	-1.0003923319904857
172	0x3fecdad86b264873	0.9017145245327484
173	0xbfefe34f9e141b27	-0.9964979255172225
174	0x3ffb46915440f2c9	1.7047284403953873
175	0x3ff441ccf2cd6d2d	1.2660645946951476
176	0xbfca22513d5d5938	-0.2041722821838421
177	0x3fd4bcda18b2144b	0.32402660762483454
178	0xbff653e3f8cdb9f3	-1.3954810828105308
179	0x3fdc5b6d48c62188	0.44308025461989375
180	0x3fd3bc22fb7e6f66	0.3083579498286241
181	0xc0063f08a96f6260	-2.7807782399288925
182	0x3fb618a0ecc248ca	0.08631330280539654
183	0x3fe7ede285557404	0.7477886776138125
184	0xbfe8826c84a31c1d	-0.7659208860940258
185	0xc00260fe7ec7fc70	-2.2973604111462507
186	0xbfe366329b02ee0f	-0.6062253024642262
187	0x3fc8d346a7bb6453	0.1939476317409424
188	0xbfe04b99e4dd95a6	-0.509228655818039
189	0xbfe994a8f98b5637	-0.7993969797050288
190	0xbfff2dd300f3fdbd	-1.9486875569563005
191	0xbfcb90c0ed76a2e3	-0.21535503001111697
192	0xbff730f0d38ab154	-1.4494484198904347
193	0xbff05ae73d88be1d	-1.0221931842496652
194	0x3fce4c1be3d76436	0.23669766068522485
195	0xbfd141a984cf1771	-0.26963270158409275
196	0xbff19aee1b03cd12	-1.1003247313754554
197	0xbff48137da26caea	-1.2815474053901945
198	0x40000e482b152b01	2.0069735875925976
199	0x3ff77ce4eeedacb8	1.4679917653218535
200	0xbfa6330897936066	-0.043358105185405546
201	0xbff10e7c9fb01bbf	-1.066036819249106
202	0x400375112760dfe0	2.4321616245688205
203	0xbfdd0c333f5621f1	-0.4538696402092049
204	0x3faca0c820e663db	0.05591416741953711
205	0xbfd617dda8e91fbc	-0.345206656410024
206	0x3fd9a8ba323849dd	0.4009232988766181
207	0xbff2be3ddff8dd7d	-1.1714457272445025
208	0xbffbcae2f3fdff5a	-1.7370328455872
209	0x3ff13cbbea905a7a	1.0773276484157166
210	0xbff98ab3e1738434	-1.596362953823939
211	0x3fe012a3ee910575	0.5022754344465016
212	0xbfe7c6d2ce5419ab	-0.7430204419950334
213	0xbfe7990d739f9bf0	-0.7374331720610581
214	0xbfd5f49066e27e48	-0.343052006219271
215	0xbff7367873d85430	-1.4507984662243523
216	0x3ff5c4d25a5090e9	1.3605521705549626
217	0xbfe1641636fdf84e	-0.543467624098193
218	0xbfd499c963f33452	-0.32188639412635667
219	0x3fe3933ed7ca8566	0.6117243017835505
220	0xbff573340cb34d80	-1.340625810252135
221	0x3ff11168602549d9	1.0667499309243935
222	0xbfda56361cfaa7df	-0.41151192502968387
223	0x3faf9393770698f4	0.06167279079390822
224	0xbff96b38ef830ec4	-1.5886773448882403
225	0x3ffb442b4aa33f67	1.7041428485426537
226	0x3fc376c9b10b0a37	0.15206261772807902
227	0xbfdbf5d7501b8b9a	-0.4368799478817721
228	0x3fe609a33efa56f3	0.688676474574747
229	0x3fe2d823730b28b1	0.5888840910859213
230	0xbfdbb7c7a17788ad	-0.4330920292687875
231	0xbfd89ec4138c9792	-0.3846903029356038
232	0xc0082e14e51b129d	-3.0225007914435325
233	0x3fe967a85efcac29	0.7939035277571566
234	0xbfb9e955f8215a7a	-0.1012166720187028
235	0x3ff26e8352675103	1.151980707062706
236	0xc000c2ecfa05d6e3	-2.095178559592442
237	0xbffab2011ad13871	-1.6684580848264228
238	0x3fcb61cc390a2f87	0.21392205033441433
239	0xbffd80f95efc609c	-1.8439878187546475
240	0x3fe2413bbc53e4ed	0.570463054492533
241	0x3fdd7637ccd3f68b	0.4603404522202729
242	0xbff86ee851d3ff43	-1.5270770260248845
243	0xbfec876aea6c8302	-0.8915304735747613
244	0x3fe2f6aff00596e1	0.5926131904531894
245	0xbfc7ed1b5e163cf3	-0.18692342847905472
246	0xbfc2c3c8912a177c	-0.14659983718973624
247	0xbfb7d7b9d557ef73	-0.09313546618062478
248	0xbfe4b298777ba3d4	-0.6468012174274187
249	0xbfd0e3835fbf0dcb	-0.26388630247330686
250	0x3fd1d360c54665ed	0.2785264898789979
251	0x3fe8d5c6070b6cba	0.776095403441466
252	0xbfa674ccb6ef0c61	-0.04385986073568727
253	0x3fa8badfcc549e7a	0.0483007370879109
254	0xbffa8658882c8d73	-1.657799274377649
255	0x3fed382dcc13f5c1	0.9131077752969575
