MACE_models/mace02_com2.model (torch, 458151 bytes, 51 tensors)

r_max f8 []
0	0x4010000000000000	4.0

weight f8 [48]
0	0xbfe540e3d2f68a5d	-0.6641711349842115
1	0xbff63d8944cb1df3	-1.3900234877818292
2	0xbfe056b0b36eb25f	-0.5105823044337504
3	0xbfb6e5b9f0bec9ef	-0.08944284560747183
4	0xbf84fa23aadc4653	-0.01024272790121753
5	0xbfe519f0e5ae4537	-0.6594166265441918
6	0x3fdccb167f514830	0.44989550050115934
7	0x3fe1f13ef0c8c848	0.5606989577120283
8	0x3ff0e9aced9ecf15	1.0570496828121965
9	0x3fde0ca1153d536a	0.4695208270471115
10	0xbfdae3340ff5eb25	-0.4201173930993483
11	0x3fd0a65e55bbdfd5	0.26015432712983727
12	0xbfdb4d01ee3461b3	-0.42657516729516515
13	0xbfc46252fee14d6c	-0.15925061650578287
14	0x3fc0b552575987d3	0.1305334974777553
15	0x3ff1e5212487178f	1.1184398104537399
16	0xbfb0781965911f81	-0.06433256845150305
17	0x3fd59741635c7c47	0.3373568983387866
18	0x3fdff0712c8d7e12	0.49905042029237834
19	0x3ff25de7f94fddd9	1.147926305651586
20	0x3feba1e1e549c128	0.8635110357554696
21	0x3ff762afa14582ec	1.4615932750386333
22	0xbffb1842eb6851ae	-1.693423194466145
23	0xbfeff94141a9df0c	-0.9991766245356941
24	0xbfbdeb1d97dad70c	-0.11686882932084702
25	0xbfced38a4593be33	-0.24083069226570472
26	0x3fe64aec6e9d15de	0.6966459427282492
27	0x3fec421ba9a3450d	0.8830698312032453
28	0xbfb9b52c84ba973d	-0.1004207443280309
29	0xbffca86e9a14abdc	-1.791121103170318
30	0xc000b8d0a056afc5	-2.0902416731314326
31	0xbfd306dd4af13749	-0.2972939712388905
32	0x3fece6e1b388b810	0.903183794643839
33	0xbfda73c30278479a	-0.41331553689189493
34	0xbfe958024421bee0	-0.7919932680797181
35	0x3fe0b48d61e4ff63	0.522040072632063
36	0x3ffb093638c44833	1.689748975510622
37	0x3fe01beda59f71a2	0.5034092173405507
38	0xbff4f345b18a908b	-1.3093926367955955
39	0x3ff8207e603d3a96	1.507933021482733
40	0xbff2cfd5172467c4	-1.1757403282158387
41	0xbfd64895940a88e8	-0.3481801934923525
42	0x3ff66e9cae9b215a	1.402004892401314
43	0xbff1df9ab95f0720	-1.1170909157812687
44	0x3fd896b15df10763	0.3841975610158583
45	0x3ff966e71f76a369	1.5876227597275039
46	0xbfe6c76e05ab0070	-0.7118444548323293
47	0xbfaa63f5559c022d	-0.05154387159382554

output_mask f8 [16]
0	0x3ff0000000000000	1.0
1	0x3ff0000000000000	1.0
2	0x3ff0000000000000	1.0
3	0x3ff0000000000000	1.0
4	0x3ff0000000000000	1.0
5	0x3ff0000000000000	1.0
6	0x3ff0000000000000	1.0
7	0x3ff0000000000000	1.0
8	0x3ff0000000000000	1.0
9	0x3ff0000000000000	1.0
10	0x3ff0000000000000	1.0
11	0x3ff0000000000000	1.0
12	0x3ff0000000000000	1.0
13	0x3ff0000000000000	1.0
14	0x3ff0000000000000	1.0
15	0x3ff0000000000000	1.0

bessel_weights f8 [8]
0	0x3fe921fb54442d18	0.7853981633974483
1	0x3ff921fb54442d18	1.5707963267948966
2	0x4002d97c7f3321d2	2.356194490192345
3	0x400921fb54442d18	3.141592653589793
4	0x400f6a7a2955385e	3.9269908169872414
5	0x4012d97c7f3321d2	4.71238898038469
6	0x4015fdbbe9bba775	5.497787143782138
7	0x401921fb54442d18	6.283185307179586

r_max f8 []
0	0x4010000000000000	4.0

prefactor f8 []
0	0x3fe6a09e667f3bcd	0.7071067811865476

p f8 []
0	0x4014000000000000	5.0

r_max f8 []
0	0x4010000000000000	4.0

atomic_energies f8 [3]
0	0xc0256a179c46187a	-10.707211383396714
1	0xc0486c79161c72bb	-48.847445262804705
2	0xc059a48e175aab87	-102.57117256025786

weight f8 [256]
0	0x3ff8ca0de6b2357a	1.5493296634261626
1	0xbfe1d3296a58afd4	-0.5570265843466538
2	0xbfe89fd849d64e9d	-0.769512314046057
3	0x3febe597856e6f3b	0.8717763525087102
4	0xbfe19eef3f484aba	-0.5506511913284478
5	0xbfe0053f63959b11	-0.5006405777938615
6	0x3ff848998a6c438b	1.5177245528359176
7	0x3fec644f23a2ee9c	0.8872447677635651
8	0x3fbc9ffb95736a62	0.11181614302351187
9	0x3fc07ec478031c9c	0.12886863574951668
10	0x3fe5c6813fd9ed37	0.6804815528006775
11	0xbff129d80cd71102	-1.0727158071104559
12	0xbfd58881b4ea1e6b	-0.33645670573648684
13	0xc00252e441dc75fa	-2.290474428692275
14	0xbff6f84ad1993c92	-1.4356182277149725
15	0xbffa94b7dbd6cf40	-1.6613081538643684
16	0x3fd6580b0d4c4b0a	0.34912372873911635
17	0x3ff0350dabba0747	1.0129524906228242
18	0x3fedc85ecfe121c9	0.9307092723984677
19	0xbfef8cf5d846de6b	-0.9859570717007505
20	0xbff83a2e263e3217	-1.514204167734652
21	0x3ff08464771b40c3	1.0323223736377691
22	0xbfcdfab4cb05e760	-0.23421344674334943
23	0x3ff821675568bad4	1.5081551872532843
24	0x3fe7cdddc752449f	0.7438801663394264
25	0xbff722587c1b3515	-1.4458851669217598
26	0x3fe69a4dd0c664d9	0.7063359334598786
27	0x3fefb6450019287b	0.9909996988219655
28	0xbf802c3af3eaf92f	-0.007896862572462552
29	0x3fef21721e40c13d	0.9728327360990431
30	0xbffb165429edc254	-1.6929513585893305
31	0x3fc5ab4cf4c004ef	0.16929017973601598
32	0xbff137f4a3fb1f18	-1.07616104178482
33	0xbfe0feccdb1a6c9c	-0.5311035422668229
34	0xbffbdd5c99520f7f	-1.741543387325663
35	0x4004cc1c28a5363c	2.5996630835932404
36	0x3fe1eb8f606d5905	0.5600048907606668
37	0x3ff12e79f9012b4a	1.073846790956582
38	0xbfe2792d3062ffc4	-0.5772920556118994
39	0x3f872382e7e4bf06	0.011298201276616304
40	0x3fe15906023ed3e0	0.5421171230178707
41	0xbfd862cc7a0b5717	-0.3810301963652462
42	0x3ffeffb042bfc304	1.9374239547143484
43	0xbfd8ed52b5e00415	-0.3894850517390876
44	0xbfea788d843f70d8	-0.8272159178700589
45	0xbfe7a0d3db249560	-0.7383822708258485
46	0x3fb1a4fc30ac48e2	0.06892372310929631
47	0xbfecc984bbbfcd56	-0.8995994250275696
48	0xbfe659bd64d4ab0c	-0.6984545678472798
49	0x3fe489b20e82a3ce	0.6418085368542223
50	0x3ff0a1b7695d3e7f	1.0394815555372643
51	0x3ff36c5856bf1e65	1.213951433995953
52	0xbfe52df10020204d	-0.6618580820513756
53	0xbfd332c184256f25	-0.2999728956690311
54	0xbfc29ea7c8ae6a1f	-0.14546677874462063
55	0xc001d12d9f6b5e2d	-2.227137799705608
56	0x3fe7b88ff6dc2d4e	0.7412795850263281
57	0x40007481acb38fcb	2.0568879596994285
58	0x3ff0d843d936bf43	1.0527990803638694
59	0xbff5ee9f1f808a37	-1.3707572203208096
60	0x3fd46dcc098091fb	0.3192014782710257
61	0xbfeeb84226d8565d	-0.9599924811070185
62	0x3fe9e8d741a222ae	0.8096729547406392
63	0xbfd75a694821d49a	-0.3648932651916056
64	0xbfea6e94d7b3c10b	-0.8259987080510042
65	0x3fe42f9358899e09	0.6308075646638268
66	0xbfe8d4f44c0ece29	-0.7759953961853557
67	0x3fda52b966bf2f93	0.4112990859400664
68	0xbff000da6d16d74e	-1.0002083073899999
69	0x3fa105c907fb0673	0.03324726316851647
70	0x3fd068c891a4b25c	0.2563954756067568
71	0x4000b918f0c6c9b9	2.0903796015420224
72	0x3ffb0512f23a79e5	1.6887387716338875
73	0x3fe4288eedb287d3	0.629950966122346
74	0x3fd5b7834fbfad90	0.3393257406994161
75	0x3fe7d3b6d8d051e8	0.7445940241473723
76	0xbfd3b117c61a2d72	-0.3076838907806724
77	0xbfe95043668f8c77	-0.791047764123859
78	0x40000c8b009467a6	2.0061245007791113
79	0xbff1d6bc0f99202e	-1.114925442629111
80	0x3fe84f26b0544eaa	0.7596620029384742
81	0xbfd440118a213e2e	-0.31641043175929695
82	0xbff67142e0ffaa67	-1.4026516713153343
83	0xbfd8ba458bd78f0f	-0.3863691201824943
84	0xbfd3a1ee34020d4b	-0.3067584522143149
85	0x3fd835f20d52a32c	0.3782925729852191
86	0x3feb74ded491349c	0.8580164100364018
87	0x3fea112f2c77152e	0.814597689481763
88	0xbfe3b42754dbc4df	-0.6157414109603926
89	0x3fe561d129a3ad8d	0.6681905568379293
90	0x3fb556306380ddd7	0.0833463900497614
91	0xc005d6709a160a6a	-2.729706958577755
92	0x3ff385d288edef64	1.2201714848333376
93	0xbfeb2f8fbe89c8c4	-0.8495558473062137
94	0xbff962df49397edd	-1.586638723405421
95	0xbfad88c615ed00aa	-0.057684126068580824
96	0xbfed320e64ef15f6	-0.9123603793493078
97	0xbfc580ca40ff6929	-0.16799286054340115
98	0xbfc321b973d4859b	-0.149466687734315
99	0x3fdd947ec9632da2	0.4621884314226127
100	0x3fec4ec679ae1b1d	0.8846161247791745
101	0xbfe270ab05eba80a	-0.5762534251819045
102	0x3feaafcead3a7403	0.8339608558050035
103	0xbff783c20c1cb772	-1.4696674798137477
104	0xbff0902d4ae534c6	-1.0351994443511088
105	0x3fcacbfb3c7496e6	0.20935001804280445
106	0x3fe94f89e4679639	0.7909593068149611
107	0x3fdd7c856ddd09ca	0.46072517136431357
108	0xbff268e557141a9e	-1.1506093408112643
109	0x3ff9da24983203b7	1.615757555497323
110	0xc00164da7eb8f2ed	-2.1742448711578306
111	0x3fd00ddfc9566243	0.2508468118844897
112	0x3ff7e250d0e4c260	1.4927528533845802
113	0xbfeafa5e6cde3157	-0.8430626036002121
114	0x3fe270fc0f3416b5	0.5762920662825396
115	0x3fc88352389746e3	0.19150760424832133
116	0xbfd0d1b3bc127891	-0.2627991997377502
117	0x3ff3ebfe6af3b853	1.2451156785787318
118	0xbfe636a8779804a8	-0.6941721282784288
119	0x3f7bccee7694271a	0.006787234780185414
120	0xbffe278971906a35	-1.8846525608156643
121	0x3fe07b2829a62a0c	0.5150337995012833
122	0xbfec0b363d142cbf	-0.876368636412188
123	0xbfcb63849eb6398c	-0.21397454976654406
124	0x3fe441a61ac18625	0.633013775117608
125	0xbfcbfbeee9c36fa6	-0.21862589277486427
126	0xbfbfe0e7f0738694	-0.1245255434073676
127	0xbffb8e4afdd97c45	-1.722239486312689
128	0x3fec04d5c54820c0	0.8755902150305914
129	0x3fd9d5e00939664e	0.40367890263369055
130	0x3fc2345592263063	0.14222211490812517
131	0xc00639265717152a	-2.777905159370353
132	0xbfec7d4ae542ead4	-0.8902945020448336
133	0x3ffa03c86b781f2a	1.6259235570923445
134	0x3fdf31358ddcd99e	0.48737849096087327
135	0x3ff2d0ceb5ec8e14	1.175978384629052
136	0x3fcca1c48194b2fa	0.22368675543966515
137	0xbf971f8f790b779f	-0.02258133102701942
138	0xbffb2b43e46c347f	-1.6980627939949782
139	0xbff972691825c7c0	-1.5904322570099652
140	0xbff27b59e97f125c	-1.1551150437309365
141	0x3ff97961658b1c88	1.5921339003123496
142	0x3ff818b3df326280	1.5060309141755681
143	0x3ff28101e2d1e725	1.1564959392694132
144	0xbfe2312abfd78438	-0.5685018298064568
145	0x3fc5a8031faec18e	0.169189825506248
146	0x3ff3c628c989ae94	1.2358787415095422
147	0xbfb0cf9a999e1fc1	-0.06566778421813436
148	0xbff1c96698486d82	-1.1116701077033615
149	0xbff33f8b5a8f695a	-1.2030137574680198
150	0xbfb1859a551b39af	-0.06844486787597391
151	0x3fe584fd1b0749d1	0.6724839713954741
152	0xbfdcd2c9356c43e7	-0.45036535470086253
153	0xbff2cb485774da4a	-1.1746295372264677
154	0xbfe0aaf4d8ff6dec	-0.5208687055814472
155	0x3fdd8974ea12aeb1	0.4615146909588744
156	0xbfd1296f2539dd1d	-0.26815394053797253
157	0x40004a8142ff8409	2.0363793596484396
158	0xbfe45ce6eda7038b	-0.6363405839584727
159	0x3ff5895c69051a2f	1.3460353948918387
160	0xbfeafc61261a289b	-0.8433080429251903
161	0xbfdf4b62d8eeafc0	-0.4889762037735146
162	0x3fcffe8165842beb	0.24995439011431073
163	0x3fe51f4ba72c3bd9	0.6600702538579483
164	0xbffa83e004ca0227	-1.6571960627626454
165	0xc00414bc7cae7812	-2.5101251354926797
166	0x3ffb24ac53ea9a7b	1.696453407095446
167	0xbfda36040eee9684	-0.40954686601831036
168	0x3fee901c39ce1e25	0.9550915841109072
169	0xbfd98f6e7a9c5543	-0.3993793675775416
170	0x3fd8d1615321b0dc	0.38777955168076317
171	0xbffe490cb1ce6182	-1.892834372096417
172	0x3ff157de3c0d7a64	1.083952173786792
173	0xbffc9fe25a77b4d8	-1.7890342267885924
174	0x3fb4863eb33f846b	0.0801734149568049
175	0x3fedbd6e002ca499	0.9293737414747226
176	0xbf975750bfcf9b78	-0.022794019419872552
177	0xbfcfd585150a881f	-0.24870360877417938
178	0x3fe3f33af4a0630a	0.6234411981450603
179	0x3fda7f2dd90a9d33	0.414012395815422
180	0x3ff80efeedeff5e4	1.503661088412053
181	0xbff25477a9eebd62	-1.1456219327918338
182	0xbfb0c1f92092d003	-0.0654597954297174
183	0xbff5c00f1411a9c8	-1.3593893798775856
184	0x3f9502d7dab7561f	0.02051865837514388
185	0x3ff21d1fe921bacd	1.1321105105122797
186	0x3fdb9c682e3d03c4	0.4314213229700352
187	0xbfe15a64aa3ec8bb	-0.5422843289473102
188	0x3ff18687f2453ad4	1.0953444923103932
189	0x3fd31032513f99ee	0.29786355909746376
190	0xbfdc73405d890fdb	-0.44453438886944036
191	0x3ff26d2b649004e5	1.1516527107453893
192	0x3fe353e0399a2479	0.6039887547532451
193	0x3fe1657983e1cf83	0.5436370445081454
194	0x3feced20ad822f69	0.9039462460363953
195	0x3ff2ba31ca502734	1.1704576399665259
196	0x3fe978263e2a6d98	0.795916673104716
197	0x3fea1b414bd24a57	0.8158270340812334
198	0xbff5097299ace379	-1.3148065569823457
199	0xbfee8bfce6d80d8c	-0.9545883663817434
200	0xbfdaaeaf938c6d3f	-0.41691197785413076
201	0xbfc45dc456d33ab3	-0.1591115402174715
202	0xbfec304fede8ef16	-0.8808974882772158
203	0x3fe5d95de901bf17	0.6827840376772397
204	0xbfeb7a0761e1a228	-0.8586460983033861
205	0x3ffa6c1c1757f100	1.6513939773422521
206	0x3fe40e651bbbed2d	0.6267571965867426
207	0xbfff5437a822d872	-1.958060890943241
208	0x3feaefe4377434a3	0.8417836268505606
209	0xbff63c022cef8d8b	-1.3896505122473595
210	0x3fe4129cad36d17d	0.6272719748581462
211	0xbfb5c7f555881cbd	-0.08508237207580556
212	0xbfe16b08f03c33f8	-0.5443157856076359
213	0x3fae5d306b621c15	0.05930472670393542
214	0xbfe2c7a970dea3a6	-0.5868727879034068
215	0x3ff0555148c67a20	1.0208294718537516
216	0x3fe47a665d2646ca	0.6399413890196339
217	0x3fdef10049bffbf1	0.4834595413412322
218	0x3ff068e93b1c9c7b	1.0256130513241988
219	0xbfc4b31e03d5066a	-0.1617162245475357
220	0x3fb63c806306390a	0.08686067979417458
221	0xbfe0d0af4558d938	-0.5254742006716588
222	0xbfd758c16d3714f5	-0.3647922102503139
223	0xc003b8d11ff7a2b4	-2.4652426240393996
224	0x4002e3afaa71a993	2.361174899667455
225	0xbffa257a6538c019	-1.6341499284717484
226	0xbfa34e7acf61d72f	-0.03770812779923315
227	0x3ffe9f112deffc12	1.9138347429686786
228	0x3fea1b834e3684af	0.815858509788219
229	0x3ffb5829d41989ee	1.7090242657801542
230	0xbfe3cc61f84e9da4	-0.6186990594623478
231	0xbfe39eaabd471774	-0.6131185242490873
232	0xbfdaf8c6947f4974	-0.4214340639274703
233	0xbff9ad0c738dbe2e	-1.6047482026878117
234	0xbfe6419fd6f39a4d	-0.6955107877991594
235	0xbff0f186fd38d585	-1.0589666263088884
236	0xbff979d80a1ff776	-1.5922470469954226
237	0x3ff46a8ae6cdcbd4	1.2760113731171616
238	0xbfc5b372b4d30e65	-0.16953882054632455
239	0x3fc985fa61283b34	0.1994011854553378
240	0x3fe031a345698321	0.5060592990595049
241	0x3fc8ba0b82794cd6	0.19317764159004608
242	0x3ffae23c8127dbe9	1.680233482851458
243	0x3fe8ccbc16e481c4	0.774992031776542
244	0x3ff1e777e59006cf	1.1190108268059935
245	0xbff9c07b760ff2df	-1.6094927417572575
246	0xbff1a630be3356c1	-1.1030738286694233
247	0x3feac90529ac2b64	0.8370385946194401
248	0xbfe6bb50fd1df883	-0.7103657668774449
249	0x3fe3f5bf6604d3ae	0.6237484924846421
250	0xbfe76cf4e1542385	-0.7320503617239501
251	0x3ff5b7d53f3db450	1.3573811025955997
252	0x3fb1e1331b797caa	0.06984252377286518
253	0xbfdbd70ebd1dd027	-0.43500107258228343
254	0xbffb62cd378da603	-1.7116214914370864
255	0xbfbef42e41b22a33	-0.12091340164094148

output_mask f8 [16]
0	0x3ff0000000000000	1.0
1	0x3ff0000000000000	1.0
2	0x3ff0000000000000	1.0
3	0x3ff0000000000000	1.0
4	0x3ff0000000000000	1.0
5	0x3ff0000000000000	1.0
6	0x3ff0000000000000	1.0
7	0x3ff0000000000000	1.0
8	0x3ff0000000000000	1.0
9	0x3ff0000000000000	1.0
10	0x3ff0000000000000	1.0
11	0x3ff0000000000000	1.0
12	0x3ff0000000000000	1.0
13	0x3ff0000000000000	1.0
14	0x3ff0000000000000	1.0
15	0x3ff0000000000000	1.0

output_mask f8 [144]
0	0x3ff0000000000000	1.0
1	0x3ff0000000000000	1.0
2	0x3ff0000000000000	1.0
3	0x3ff0000000000000	1.0
4	0x3ff0000000000000	1.0
5	0x3ff0000000000000	1.0
6	0x3ff0000000000000	1.0
7	0x3ff0000000000000	1.0
8	0x3ff0000000000000	1.0
9	0x3ff0000000000000	1.0
10	0x3ff0000000000000	1.0
11	0x3ff0000000000000	1.0
12	0x3ff0000000000000	1.0
13	0x3ff0000000000000	1.0
14	0x3ff0000000000000	1.0
15	0x3ff0000000000000	1.0
16	0x3ff0000000000000	1.0
17	0x3ff0000000000000	1.0
18	0x3ff0000000000000	1.0
19	0x3ff0000000000000	1.0
20	0x3ff0000000000000	1.0
21	0x3ff0000000000000	1.0
22	0x3ff0000000000000	1.0
23	0x3ff0000000000000	1.0
24	0x3ff0000000000000	1.0
25	0x3ff0000000000000	1.0
26	0x3ff0000000000000	1.0
27	0x3ff0000000000000	1.0
28	0x3ff0000000000000	1.0
29	0x3ff0000000000000	1.0
30	0x3ff0000000000000	1.0
31	0x3ff0000000000000	1.0
32	0x3ff0000000000000	1.0
33	0x3ff0000000000000	1.0
34	0x3ff0000000000000	1.0
35	0x3ff0000000000000	1.0
36	0x3ff0000000000000	1.0
37	0x3ff0000000000000	1.0
38	0x3ff0000000000000	1.0
39	0x3ff0000000000000	1.0
40	0x3ff0000000000000	1.0
41	0x3ff0000000000000	1.0
42	0x3ff0000000000000	1.0
43	0x3ff0000000000000	1.0
44	0x3ff0000000000000	1.0
45	0x3ff0000000000000	1.0
46	0x3ff0000000000000	1.0
47	0x3ff0000000000000	1.0
48	0x3ff0000000000000	1.0
49	0x3ff0000000000000	1.0
50	0x3ff0000000000000	1.0
51	0x3ff0000000000000	1.0
52	0x3ff0000000000000	1.0
53	0x3ff0000000000000	1.0
54	0x3ff0000000000000	1.0
55	0x3ff0000000000000	1.0
56	0x3ff0000000000000	1.0
57	0x3ff0000000000000	1.0
58	0x3ff0000000000000	1.0
59	0x3ff0000000000000	1.0
60	0x3ff0000000000000	1.0
61	0x3ff0000000000000	1.0
62	0x3ff0000000000000	1.0
63	0x3ff0000000000000	1.0
64	0x3ff0000000000000	1.0
65	0x3ff0000000000000	1.0
66	0x3ff0000000000000	1.0
67	0x3ff0000000000000	1.0
68	0x3ff0000000000000	1.0
69	0x3ff0000000000000	1.0
70	0x3ff0000000000000	1.0
71	0x3ff0000000000000	1.0
72	0x3ff0000000000000	1.0
73	0x3ff0000000000000	1.0
74	0x3ff0000000000000	1.0
75	0x3ff0000000000000	1.0
76	0x3ff0000000000000	1.0
77	0x3ff0000000000000	1.0
78	0x3ff0000000000000	1.0
79	0x3ff0000000000000	1.0
80	0x3ff0000000000000	1.0
81	0x3ff0000000000000	1.0
82	0x3ff0000000000000	1.0
83	0x3ff0000000000000	1.0
84	0x3ff0000000000000	1.0
85	0x3ff0000000000000	1.0
86	0x3ff0000000000000	1.0
87	0x3ff0000000000000	1.0
88	0x3ff0000000000000	1.0
89	0x3ff0000000000000	1.0
90	0x3ff0000000000000	1.0
91	0x3ff0000000000000	1.0
92	0x3ff0000000000000	1.0
93	0x3ff0000000000000	1.0
94	0x3ff0000000000000	1.0
95	0x3ff0000000000000	1.0
96	0x3ff0000000000000	1.0
97	0x3ff0000000000000	1.0
98	0x3ff0000000000000	1.0
99	0x3ff0000000000000	1.0
100	0x3ff0000000000000	1.0
101	0x3ff0000000000000	1.0
102	0x3ff0000000000000	1.0
103	0x3ff0000000000000	1.0
104	0x3ff0000000000000	1.0
105	0x3ff0000000000000	1.0
106	0x3ff0000000000000	1.0
107	0x3ff0000000000000	1.0
108	0x3ff0000000000000	1.0
109	0x3ff0000000000000	1.0
110	0x3ff0000000000000	1.0
111	0x3ff0000000000000	1.0
112	0x3ff0000000000000	1.0
113	0x3ff0000000000000	1.0
114	0x3ff0000000000000	1.0
115	0x3ff0000000000000	1.0
116	0x3ff0000000000000	1.0
117	0x3ff0000000000000	1.0
118	0x3ff0000000000000	1.0
119	0x3ff0000000000000	1.0
120	0x3ff0000000000000	1.0
121	0x3ff0000000000000	1.0
122	0x3ff0000000000000	1.0
123	0x3ff0000000000000	1.0
124	0x3ff0000000000000	1.0
125	0x3ff0000000000000	1.0
126	0x3ff0000000000000	1.0
127	0x3ff0000000000000	1.0
128	0x3ff0000000000000	1.0
129	0x3ff0000000000000	1.0
130	0x3ff0000000000000	1.0
131	0x3ff0000000000000	1.0
132	0x3ff0000000000000	1.0
133	0x3ff0000000000000	1.0
134	0x3ff0000000000000	1.0
135	0x3ff0000000000000	1.0
136	0x3ff0000000000000	1.0
137	0x3ff0000000000000	1.0
138	0x3ff0000000000000	1.0
139	0x3ff0000000000000	1.0
140	0x3ff0000000000000	1.0
141	0x3ff0000000000000	1.0
142	0x3ff0000000000000	1.0
143	0x3ff0000000000000	1.0

weight f8 [8, 64]
0	0xbfefa08d5aa6a0a2	-0.9883486528897445
1	0x3fe4b7baa1fea5fe	0.6474278606376058
2	0xbfed00dbcdb8543f	-0.9063548105210727
3	0xbfe21c029134432a	-0.5659191928881218
4	0xbfeb8a80d0cbcff7	-0.8606571271943712
5	0xbfedb9a6d672bbac	-0.9289125622216168
6	0xbfc38f3dc0af327d	-0.15280887516418665
7	0xbff10f38086ef359	-1.0662155465535845
8	0x3fe90dfe8da0a133	0.7829582945023844
9	0xbfd621fa88fc45f3	-0.34582389237866024
10	0xbf94df5fabce89c6	-0.02038335310101915
11	0xbff05d50ea1f83f3	-1.0227822442468522
12	0xbfdcd84424660657	-0.4506998401121555
13	0x3feecc44c28fd89f	0.9624351310765354
14	0x3fea59d19dbd1d8a	0.8234642105898484
15	0x3fe776ef1e5eb601	0.7332683175242779
16	0xbffbf400f803b02b	-1.7470712364256638
17	0xbfeb3dc91d42b8ad	-0.8512921878334702
18	0x3ffbe1e1a3df0966	1.7426468278141214
19	0xbff2edeb398b79d1	-1.1830856559605432
20	0xbfe4467fb374fabb	-0.6336058144587108
21	0x3ff0950d4ea01168	1.0363896437930524
22	0x3ff8825521b0a33d	1.5318194690718905
23	0x3ffa658f295396bc	1.6497947325055256
24	0xbfcc3ae94a892f50	-0.22054783000418832
25	0x3f78547de5af8261	0.005939952646230568
26	0xbff0720f51172bed	-1.0278466384504512
27	0xbfe65b14c0bf8a69	-0.6986182942021745
28	0x3ffef798f5926f16	1.935448607698111
29	0x3fe684e03ef9bb47	0.7037202100744729
30	0x3fdb201ad34b9b61	0.42383452066717636
31	0x3fe4f863a3ba0c3f	0.6553209493434976
32	0xbfdaeeed6e6d0c01	-0.42083297523294055
33	0xbfdeed5c06e0cfde	-0.483237272946324
34	0xbfdabcd1631851d7	-0.4177745311474416
35	0xbff1d290bf042a15	-1.1139075719426093
36	0x3fb0032ccd6fa015	0.0625484468033622
37	0xbfd384a745bb121c	-0.304971521469527
38	0x3ff52b9ee0a6b026	1.3231495643076499
39	0x3ffd00fe99d68931	1.8127428063676911
40	0xbff1b1920ecf6607	-1.1058521822473055
41	0x3fe60e068a1b2a07	0.6892121026406252
42	0x3fc1fe7e8ca68420	0.14057905070970467
43	0xbfe589062c94406d	-0.6729765768705086
44	0x3fe1eeb9667e3a5f	0.5603911401575025
45	0xbfc9fce7ae566d1d	-0.2030305482156586
46	0xbfdd0fc4f504763c	-0.4540874855755168
47	0xbfdf88fffb115cea	-0.49273681181280315
48	0x3fea4167ded0f9ac	0.8204840995675133
49	0xbfc2617bbcfc906a	-0.1435999558244732
50	0xbfd0fe502da0b501	-0.2655220456679928
51	0xc004852a0cb44447	-2.565021609545997
52	0x3feb67f243bdaa93	0.8564387629570142
53	0xbfef18b72006428c	-0.9717670083501431
54	0xbfe2c5ad07bc7110	-0.5866303588004786
55	0xbffc863d74382bc7	-1.782773450834371
56	0x3ff68229a8e170b1	1.4067780110263295
57	0xbfd205f62363f6bb	-0.28161385971166525
58	0x3ff67aed5caea517	1.4050115223311133
59	0xbff3f96eaba0303e	-1.2483965591554944
60	0x3fe6989cb0e1cf9d	0.7061294035652171
61	0xbfefd964a7b02d14	-0.99528725387191
62	0x3fea361774e893da	0.8191029818887003
63	0xbfb1c9434c2377f4	-0.06947727784014984
64	0x3fff0e72721afde3	1.941027112697946
65	0xbfb67801df5361c9	-0.08776866628921377
66	0xbfe3f7998d3d5f9c	-0.6239745863522219
67	0x3ff5b0d3dbc4abde	1.355670793981282
68	0xbff241ed699a1109	-1.141095554835433
69	0xbfe73798d92df81f	-0.7255367509640144
70	0x3ff9551c798a8d94	1.5832791087821976
71	0x3ff06426ebb5494d	1.024451180205307
72	0x3ff7d41f18e6a1e1	1.489287469166918
73	0x3ffdd313f40e5e30	1.8640327008669253
74	0x3ff3c15c5881e8fc	1.2347072083780963
75	0xbfdea781841d4929	-0.478973750131575
76	0xbfd51543f623f6a7	-0.32942294156223756
77	0x3fe434de893cafc9	0.6314537697230601
78	0xbfa74354ef7c90af	-0.045435575708581914
79	0xbffb2112b7aa7876	-1.695574490971493
80	0xbff2d1cc82dab4e6	-1.176220427655886
81	0xbfb86c0ad410e137	-0.09539859464064625
82	0xbff67f4add454634	-1.4060772555716428
83	0x3fdf2393cf57e133	0.4865464711033553
84	0xbfa965581a1774c0	-0.04960131948949131
85	0xbff6be3cc5524468	-1.4214446742883187
86	0xbfdb29ebb36e5fed	-0.4244336368806206
87	0xbfd0677bbf2046d6	-0.2563161245790132
88	0xbfc161ef6d7b3adb	-0.13580124707956184
89	0x3fcc24ea13b62982	0.21987653696517034
90	0xbfeb373f378208ac	-0.850494011320071
91	0xbff083e17dd6c102	-1.0321974673825598
92	0xbfe22ad0e2497b91	-0.5677265567463669
93	0x3fa1fbfe19011c9b	0.03512567572811883
94	0xbfe836709cd48578	-0.7566454947556585
95	0x3fef03cf5bcc4bac	0.9692150872164027
96	0xbff1c80324483dd7	-1.111331121184653
97	0x3ff427f98ab5e12d	1.2597594660165428
98	0x3ff0d4b257d196b3	1.0519278936784928
99	0x40031dfc7548659d	2.3896416819304265
100	0xbffc9060823a16a5	-1.785248287867412
101	0x3fe15a68c8988fc6	0.5422862928285148
102	0xbfdc99574f7e84c9	-0.44685919535738755
103	0xbfc7e51a891f1242	-0.18667918868426808
104	0x3ff8c5a6d65c3787	1.5482548116155799
105	0xbfd077de6556b2b3	-0.25731620689729623
106	0xbffd8b5e733a56a4	-1.8465256215180625
107	0xbfbe7942a6def45a	-0.11903778623578046
108	0x3ff4655a69b68c02	1.274744427625365
109	0x3ffbf21046799c52	1.746597552579051
110	0xbf79a56e8839c959	-0.006261283651485116
111	0xbff63fc05c59268e	-1.3905643088677695
112	0xbfcd2e37cf365dcc	-0.22797296159545366
113	0x3fde68c5b9e6085d	0.4751447978416133
114	0x3fcb5b3d08610e10	0.2137218752778698
115	0x3fe8844369552fec	0.7661454255371587
116	0x3fd30b951039f7a1	0.29758192619908114
117	0x3fc6a85490811f77	0.17701203399542084
118	0x3fe80eb8c4e798b0	0.7517970891756445
119	0x3fd612e465b00256	0.34490308695243266
120	0xbf76d4152c379eea	-0.005573351579620337
121	0x3ff5cdf972139d4a	1.3627867179983064
122	0x3ffc055453e0b1a0	1.7513011242363987
123	0x4003c688d3d2482c	2.471940665106578
124	0xbfe1e2d09e498477	-0.5589373675867496
125	0xbfd232d22a4cee15	-0.2843518651095292
126	0xbff50fe12ab7efcf	-1.316376845235016
127	0x3ff7ba2630b891bd	1.4829465773737944
128	0x3fc1395f30e9f0d0	0.13456334961290972
129	0xbfb12380b5eff476	-0.06694797937230298
130	0xbfeedadcda03e170	-0.9642166383846824
131	0xbf97ffab3094f87d	-0.023436236229138253
132	0xbfefd2461d08f044	-0.99441819830782
133	0xbffb77b1c98fa566	-1.7167222856026796
134	0xbfec578468490df1	-0.8856832539390195
135	0xbfbd084bb4c394a0	-0.1134078327482535
136	0x3fdb0cc0929f3e2d	0.4226533347946056
137	0x3ff9b9b5c8e7b56e	1.6078393791061347
138	0xc005d093011a24c8	-2.726842888460485
139	0x3fc93b4c12db6d9e	0.1971221057964216
140	0xbfe57e175330042d	-0.6716419815785507
141	0x3fe369bae2de1b51	0.6066564970977685
142	0xbfd5c760f259e2ed	-0.34029410998441173
143	0x3feaf3c439876020	0.8422566531762676
144	0x3fe74b32656e2af0	0.7279293042241459
145	0xbfe087a4b0f31111	-0.5165580230755343
146	0xbfbedf9288b176d0	-0.12059894406544491
147	0x3fd46912cbdb371c	0.318913172796657
148	0xbfc6069a438cbc53	-0.1720764951546437
149	0xbfe31dcfe1e7f545	-0.5973891651371238
150	0x3fd0729d65d9fbbe	0.25699553438601785
151	0xbfe861d920dcb7e8	-0.7619443551864125
152	0xbff95b589c3ebd98	-1.5848013022731262
153	0x3fd84289032627f2	0.3790609865906155
154	0xbfec3bcd61ab4593	-0.8823000819776773
155	0xbfd6af25c99f1664	-0.3544401616057711
156	0xbfd762f1aa73b5e7	-0.3654140629358537
157	0x3ff7afff1c5ea3a9	1.480467902010995
158	0xbfe3841bc3a6e5e8	-0.6098765202834189
159	0xc002ccc029f949d9	-2.3499758986665538
160	0xbffde920fa0403af	-1.8694162145841167
161	0x3fc5e159d2b11ddb	0.17093966281593861
162	0x3ff010cb114350d3	1.0040999101957382
163	0x3ff4ac5fd2b8378e	1.2920835715517316
164	0x3fed3e1841de6971	0.913829926156991
165	0xbf9ca54ebee53a6c	-0.02797434845097728
166	0x3ff558738f72dfe0	1.3340945819345436
167	0x3fce42acbd0f7b0e	0.23640975219219523
168	0x3ff493ef4603ee5b	1.2861168608641467
169	0x3febbbf7ca0e049d	0.8666953035718908
170	0x3fe367fed2a2a0e2	0.6064447511644426
171	0xc005f3749e2cd7d3	-2.7438747746882455
172	0xbfe111c51aded337	-0.5334191822827056
173	0x3fc4bbcaf637ea45	0.16198098204024994
174	0x3fe37a08504d1adf	0.60864654239489
175	0xbfff88f29ea6c2fe	-1.9709345052071394
176	0x3fdccdd70d471ac9	0.45006347939162744
177	0xbfbe596a2a631a47	-0.11855186018792906
178	0x3fe002ae50a83ca4	0.5003272605262237
179	0x3fcb4d1880179b92	0.21329027418616114
180	0x3fd017492ad5c05c	0.2514212530431956
181	0xbfc794ce1e55f7f1	-0.1842286728023619
182	0xbfe229ae3d3bbbf3	-0.5675879665340048
183	0xbfc07fdd3ecf69d5	-0.12890210692314832
184	0x3fd3abf35ac3bf32	0.3073700319646263
185	0x40046412d6d71335	2.5488640579591455
186	0x3fe36dfb4005865c	0.607175469438697
187	0xbfedc69edcce80e0	-0.930495673430439
188	0xbff89976073a6ea9	-1.5374660761216694
189	0x3fe73a5ac42f64bb	0.7258733588925205
190	0xbff0961ad35bf359	-1.0366466766565365
191	0x3ffa7da4edc139bf	1.6556748664184935
192	0xbfd36e24f1a1179e	-0.30359767529113835
193	0xbfda9ba96f65d732	-0.4157508457059179
194	0xbfc6fa1d8ea01564	-0.17950791801574006
195	0xbfc6ff8b51ecf20a	-0.17967359066268812
196	0x3ff218c00c041e53	1.131042525232165
197	0x3fe0734e4cee97a1	0.5140754225328587
198	0x3fdf5472be7d381f	0.48952931024985163
199	0xbfe552931eb1de60	-0.6663299178607751
200	0x3fecb68107c88a63	0.897278323366049
201	0xbfeeb4a61394c1a1	-0.9595518476908645
202	0x3fd4b5c0a33b097a	0.3235932916687926
203	0x3fe2e22b9eaa8d24	0.5901086901616606
204	0xbfe82ac6b56c6f66	-0.7552217048100658
205	0xc0041d667f6198df	-2.5143556548747337
206	0x3ff8fba200849c79	1.561433794044005
207	0x3fdfaa7888cdb6fa	0.49477971420024824
208	0xbfcb942ced72e763	-0.21545945734197422
209	0x3fd3c4efa3ab2ff2	0.30889502509376066
210	0xbfe3b211579b6e54	-0.6154867850377266
211	0x3fed40f60fb35586	0.9141798311854223
212	0x3ffe8f2b7ff87d29	1.9099535940984629
213	0xbfe1aa1efd471a55	-0.5520167300063102
214	0xbfeb8af4ae6ab128	-0.8607123762681441
215	0xbff1394311b34b68	-1.0764799777432135
216	0xbf8477c87460b900	-0.009994092990464498
217	0x40061f2674b77887	2.7652100676050995
218	0x3fb682727d9aa6c3	0.08792796675211449
219	0xbfdc5ae690e73e54	-0.44304813528740294
220	0x3fb408b571beafef	0.07825788523649611
221	0x3fd809ee576af9f3	0.3756061414423179
222	0xbfe9d2cad8d89720	-0.8069814906382113
223	0xbfbb8270c330626b	-0.10745911374432075
224	0x3fca9efbf733d42c	0.20797681398804124
225	0x3feee592a44bf90c	0.9655240258141773
226	0xbfe6730a583bf330	-0.7015430186580485
227	0x3fa6123f9ba8dee2	0.04310797476904128
228	0xbff094818cc0d0f3	-1.0362563608333033
229	0x3ff20c7c1ab99b3d	1.1280480426737107
230	0xbff12de597139871	-1.0737052823474438
231	0xbfa35a30e79c9a24	-0.03779747798244085
232	0x3f8aa263de499f72	0.013005047055415029
233	0x3fe872f249ea7de0	0.7640315478965327
234	0xbff4fd58579b84ec	-1.3118518278282023
235	0xbfeb075a929a15c3	-0.844647680599046
236	0xbf87d4e8fe930fd2	-0.011636562603946663
237	0xbff6d1d4b26a8efe	-1.4262282342323824
238	0x3fcf2c5dba26fe37	0.24354144658535556
239	0xbff7742b583c06af	-1.4658616491946466
240	0xbfee42077d3fc4e9	-0.9455602117797329
241	0x3fda90bd85a03b90	0.41508424806027566
242	0x3fb0225265c083ac	0.06302371009998237
243	0x3ff686cbed81a380	1.4079093244165222
244	0xbffc900a89d7f255	-1.7851663002503717
245	0x3feb926533d3970a	0.861620522712401
246	0x3fd24004422553d4	0.2851572652774028
247	0xbff51b2dd4b2c5d0	-1.3191355045822668
248	0xbfe0460ebee7553d	-0.508551953180962
249	0xbff0d340afc32ecc	-1.0515753617973358
250	0xbfe4e5cbde95d53a	-0.6530513141030163
251	0x3ff3e3c6b2470762	1.2431094135249272
252	0x3fe4c031681422b5	0.6484610588823531
253	0x3fe29044dbe0c151	0.5801109594813544
254	0xbfca5388be7a8e81	-0.20567426014632775
255	0xbfe59f0e544a845b	-0.67566601241209

weight f8 [64, 64]
0	0x3ff02cee05c1c355	1.0109691834333792
1	0x3ff29ecf36ac9263	1.1637718330104228
2	0xc00da19915898f2f	-3.7039052660565157
3	0xbff659db38b6b702	-1.396937581575401
4	0xbfd76ae439fe93f8	-0.3658991400100713
5	0x400354dae603bfda	2.416433140744613
6	0xbfe533d4a386d90b	-0.6625769800073454
7	0xbff4292eba2629d3	-1.2600543281029004
8	0xbffbab338bd3de92	-1.729297205163594
9	0xbfc27f43ee66801e	-0.14450883045810853
10	0x3fde26031a0f67ce	0.4710700754636691
11	0xc0033d8fed22957f	-2.4050596738986196
12	0xbfd38014f4de22d5	-0.3046924964224165
13	0xbfd83633e33a51ae	-0.3783082694074221
14	0x3fcae3a3a1836d75	0.21007199655910438
15	0xbfd6d836d7373e08	-0.3569466687885954
16	0xbfd09e1cdf4be82d	-0.2596504383687968
17	0x3fe110e58c0e86fd	0.5333125815852494
18	0xbffe4ef7b6634484	-1.894279205753521
19	0xbfec63bc6c04601e	-0.887174807520754
20	0xbfed77ff965e5162	-0.9208982407458672
21	0xbff20b183b6b5005	-1.1277086564123249
22	0x3fd5c09072c37389	0.33987818915721185
23	0xbfa21c1be301d2df	-0.03537070413668685
24	0xbfeda72f585cd315	-0.9266583181220961
25	0x3fd586842cae7d0a	0.3363352238029199
26	0x3fc0e3fbb232a022	0.13195749474584867
27	0xbfbd5a44b42d1a94	-0.11465863608200727
28	0xbffc151440aee1ab	-1.7551462675747682
29	0xbfcabf926465cf01	-0.20897130872946693
30	0x3ff6e29d782e7456	1.4303259558285126
31	0xbfc7b8854396ba93	-0.1853186206839906
32	0x3fe2838ecf851eab	0.5785593083500847
33	0xbfd4637725ea0287	-0.3185708875899213
34	0xbffff86c704aca88	-1.9981502901470396
35	0x3ff397f5b87234d7	1.2245995716978564
36	0xbfec0f94705b00f6	-0.8769018358653102
37	0x3fecdc590fbfb3db	0.901897936591577
38	0xbfe8bebde309220e	-0.7732839044848008
39	0xbfc48120f9cb8f3a	-0.1601906985953237
40	0x3fd266f27d6a884e	0.28753340003652716
41	0x3fe5da1b08364731	0.6828742180243578
42	0x3fe0c9917fb5c018	0.5246055120787814
43	0x3fbbee16f8fc625d	0.1091017110706018
44	0xbfbefb141eae99cd	-0.1210186552913008
45	0x3fab6843466790b1	0.053529836983018504
46	0x3ff026500f22faf7	1.0093536940836978
47	0xbfe3ddc33df7496e	-0.6208206377289522
48	0x3ffc2255e69efa92	1.758382702697109
49	0xbfd45942d08f3f1f	-0.3179480587686942
50	0xbff253d5d2e751be	-1.1454675901814961
51	0x3fd82f561ee53903	0.3778891851151373
52	0x3ff0c80897aad3a5	1.0488363193992225
53	0xbfdf79bd47d6f966	-0.4918053819236746
54	0x3feae1958c37a6fe	0.840037130224317
55	0x3fe3ed72ec03b3cd	0.6227354631097285
56	0x40009b62e1b5a136	2.075872195582771
57	0x3ff809c85f767157	1.5023883561144282
58	0xbf9e940c947d5f2d	-0.029861637652486884
59	0x3fc277382ac83ce9	0.14426328743909458
60	0x3ff92d63df56dcee	1.5735815738860839
61	0x3fbea5c59c9c4290	0.11971697877403131
62	0xbfe8a53f3f8dd221	-0.7701717606819934
63	0xbfe2b3a1b9b2a8ab	-0.5844277026092376
64	0xbfc9da9b116ab49f	-0.20198381758146852
65	0x3fdf72181a706e97	0.4913387544818106
66	0x3ff38988d0492967	1.2210777412570566
67	0xbfc2d54e038b9c8e	-0.14713454411614574
68	0xbfeeee00c90dac27	-0.9665531088661553
69	0xbfd2d2722357ae26	-0.29409459544578664
70	0xbfec348ad5b9e48a	-0.8814138578737964
71	0xbf7e06f51e7f2f68	-0.007330853935808658
72	0xbfb920ccb45ccf52	-0.0981567325914601
73	0x3fdb1f513d4e5cb3	0.42378645884441396
74	0x3f9ca62583babe72	0.027977548756722155
75	0x3fdd16333665961a	0.45447998344602214
76	0xbff58ebca9359887	-1.3473478898754665
77	0xc00052f31ca594d2	-2.040502761653081
78	0x3fc1049118e1878b	0.13295186724559147
79	0xbfc5074be5b6ad6d	-0.16428517071231444
80	0xbff102e7ca0d9c8b	-1.0632093327238035
81	0x3fc7f1875a8027f4	0.18705837172484474
82	0xbff5c71b807264d9	-1.361110212083352
83	0x3fc4d2bf69206243	0.16268150933389522
84	0x3fe1ee5081e5f3f4	0.5603411233020084
85	0x3ff76855170cde1a	1.4629717731858194
86	0xbfbd7e95de41b59a	-0.11521279026211176
87	0x3f3d5e47af84880f	0.00044812441002950535
88	0xc007e8c2c9d2439f	-2.9886527793209576
89	0xbffac56ff36639e0	-1.6732024677072488
90	0x3ff9d729de55a563	1.6150301632827329
91	0x3fd4cca82f4b8318	0.32499127024316143
92	0x3fdf2780eb4a4290	0.4867861078028364
93	0xbfe2d45acc566a34	-0.5884222022025996
94	0x3fe9f74e3108a22b	0.8114386518182689
95	0xbfc114422363c801	-0.13343073585525647
96	0xbfe00f81119a8752	-0.5018925994702192
97	0x3fb46fcc8be1ccdd	0.07983091750229528
98	0xbfe76a4dd2d6e993	-0.7317265623053565
99	0x3fe9de6fd6b670ab	0.808402938233049
100	0x3fd434e3245afaa0	0.31572798300104843
101	0xbf85f2639fd436cd	-0.010716226878254709
102	0x3ff345af00e2edc2	1.204512599432619
103	0x3ff33ec96e4d21a2	1.2028288181919398
104	0xbffb4d69c984c875	-1.7063997146438201
105	0xbff4fc57add6d714	-1.3116070547670846
106	0x3fe342cf3e8278e7	0.601905462350058
107	0x3fcbf7c94c3b3273	0.21849933836201138
108	0x3f98017d8914b877	0.023443185321575712
109	0xbfe638a62bbbcbe7	-0.6944151739284025
110	0x3ff64981e2722171	1.3929461331882431
111	0xbfcb0e565303ff01	-0.2113750367498071
112	0x3ff7ec2a533b6b60	1.4951575518850504
113	0x3fde31f3b43737dd	0.4717988262099178
114	0x3fd1233a65d255a9	0.2677751535751108
115	0x3fdf90ed35d875d9	0.49322061785082166
116	0xbfc739bf636a712f	-0.18144981722151374
117	0xbffe6256fbd3387a	-1.8990087353627403
118	0x3fc92181f17eaf84	0.19633507053128707
119	0xbfc3846a5735416c	-0.15247849710659567
120	0xbff7759a23a97bc8	-1.4662114518211968
121	0x3fe18852d7579ea2	0.5478910642531967
122	0x3fcddef806b5f9f9	0.23336696937253956
123	0x3fb98379276d307b	0.09966237270890758
124	0x400047d5c44a99e3	2.0350756964937644
125	0xbffaa797dcc93c31	-1.6659163116889995
126	0xbfa40fe336d503e7	-0.03918371242844625
127	0xbff5dcb3067f5060	-1.3663816694070405
128	0xbfe14306b05576ba	-0.5394319004078263
129	0xbff585f2bae9f548	-1.3452021886181047
130	0xbfb1e4dfe79daa83	-0.06989859966931004
131	0x4000c89302f9d5c0	2.097936652421339
132	0xbfc7871f5f43831e	-0.1838111128954773
133	0x3ffb1f0deec8fa09	1.6950816466848002
134	0x3fe4a2be7beedc49	0.6448662205283507
135	0x3fed5dec465c7877	0.9177152036898083
136	0x3fe8a2d6332bce49	0.7698775290904872
137	0xbffa19bd902817d2	-1.6312842970960344
138	0x3fb0bd63713485f6	0.06538983835027765
139	0xbfdd040b05e87082	-0.4533717687315929
140	0xbff28e2b8d4e55ff	-1.1597095031514753
141	0xbfe2d1006474c31e	-0.5880128824265716
142	0xbffe414bd1f23fe1	-1.8909414483095974
143	0xbfcbd19eca4d4083	-0.21733460309997463
144	0xbfd9ecb007b1395e	-0.4050712657089174
145	0xbff63a699f8ddd78	-1.3892608864387892
146	0xbff8d356f41d5a47	-1.551596597264181
147	0x3fc692244077c318	0.17633488796084218
148	0x3fc88dcdee414427	0.19182752736608785
149	0xbfdc759a957e6765	-0.4446779689693499
150	0xbfe24c04c31cf3b5	-0.5717796145250903
151	0x3fe2d9efb160a340	0.5891035522846337
152	0x3fbda89723f45346	0.11585373523514617
153	0x3ff25fbbd10f06d8	1.148372475276508
154	0xbff518870e9aa209	-1.3184881754369846
155	0xbfe96ca077f2fd58	-0.7945101111180675
156	0xbfd0dfe4d66fc62a	-0.26366539898944785
157	0xbfd0dc5519fed0d3	-0.2634480241643022
158	0x3ff32093cb70ceeb	1.1954534480000187
159	0x3fe26aff16f3b867	0.5755610893518338
160	0x3fbf71eeb4fdbf3b	0.12283222120981645
161	0x3ff64f9278543d11	1.3944267940858632
162	0xbfd164a4e1fa90e4	-0.27176782673110567
163	0x3ff1c801abdd5c51	1.1113297189201783
164	0xc002938df873d9db	-2.3220481310229224
165	0xbfed7827ca73914c	-0.9209174112443548
166	0xbff087443f463f35	-1.0330240699440314
167	0x3ff14faee345f486	1.0819538953649341
168	0x3ffa47bb46f77b83	1.6425125858438328
169	0xbfa7c51644076255	-0.04642552929334857
170	0xbfd2e0d88a55119e	-0.2949735022450798
171	0xbff0320902fe34c4	-1.012215625468614
172	0x3fec90d3a7cb3dfe	0.8926790501809021
173	0xbfef5ca53a9d5c1d	-0.9800592560594655
174	0x3ffb50bc36289358	1.7072107425276126
175	0x3ff4708e561f3123	1.2774794925817978
176	0xbfc7e25ad53a5d4a	-0.186595300784328
177	0x3fd4be928f87ef56	0.3241316224737053
178	0xbff608426777207d	-1.3770164529433082
179	0x3fdc70ba2dcbace3	0.4443803260061953
180	0x3fd43ccd54442762	0.3162110636627543
181	0xc0061db4b688e9a7	-2.764504838994259
182	0x3fb4ac28da536498	0.08075194673746677
183	0x3fe80af8874cac2b	0.7513392107551956
184	0xbfe8a9f578b59708	-0.7707469327549186
185	0xc0025f9ded7dc07f	-2.296687941932816
186	0xbfe399d3561450f5	-0.6125275307881838
187	0x3fc9666b69ad877e	0.198438097572815
188	0xbfe0b90a3be3934a	-0.5225878877359744
189	0xbfe91b130282bdd1	-0.7845549630200656
190	0xbfff226e794e4108	-1.9459061373236768
191	0xbfcc0fc2419fe16b	-0.21923092083285253
192	0xbff6e9c72a7f2e37	-1.4320747051268776
193	0xbff0452934438738	-1.0168849984697328
194	0x3fcd9c9105fab56f	0.23134053031882781
195	0xbfd27a0ef1b6289d	-0.2886998520340372
196	0xbff174cbae250fd0	-1.091014557126062
197	0xbff458334beaf7c6	-1.2715332952061416
198	0x4000166d9256c6e1	2.010951178811283
199	0x3ff7784580aacf7a	1.4668631578506095
200	0xbfab549f553c8684	-0.05337999263271079
201	0xbff0f808d5947a3b	-1.0605553000419963
202	0x40038611c708d5d7	2.440463595349438
203	0xbfdd4798400172b3	-0.45749479532768617
204	0x3fa9c63d8dd0a7be	0.050340579568298946
205	0xbfd57418c77df77e	-0.3352109859623552
206	0x3fd98339b9c3e04d	0.39863436833502847
207	0xbff2deb08f5910fe	-1.1793675994422865
208	0xbffbcbf077dad438	-1.7372898752048638
209	0x3ff15272e4635801	1.0826291009339004
210	0xbff9961d9c70e1f2	-1.5991493330931204
211	0x3fdfd490eec6b75a	0.49734900777808877
212	0xbfe822312e8754dd	-0.754173842312095
213	0xbfe7ab27d7e552bd	-0.7396430222239229
214	0xbfd61daef6fd81be	-0.3455617343916194
215	0xbff73c6ce0fdcc5b	-1.4522522724844495
216	0x3ff58eef4d035763	1.3473961838075972
217	0xbfe107a477874fc0	-0.532182916120739
218	0xbfd524149cf9bffa	-0.33032718019148855
219	0x3fe35a16e6b31173	0.6047472482537571
220	0xbff58a9eff05ee7c	-1.3463430368273341
221	0x3ff0f43e5d3d5774	1.059629787652253
222	0xbfdabe1893196f42	-0.41785253873034744
223	0x3fadc7260d0a19d1	0.058160008517962
224	0xbff9786c89595b71	-1.591900383491261
225	0x3ffaf86137586b5f	1.6856395875863297
226	0x3fc32f0ccbf6ccde	0.149873351661518
227	0xbfdca13707124366	-0.4473397797638
228	0x3fe5e3b421771e59	0.684045853959968
229	0x3fe2beac18d0e16a	0.5857754215895004
230	0xbfdb54b03a59013f	-0.427043969135429
231	0xbfd918a1ab921c7e	-0.3921283889289454
232	0xc0081fd74b99eef7	-3.0155473619796527
233	0x3fe909a4d7236cf0	0.7824272348329071
234	0xbfbc45923d651e00	-0.11043657301808452
235	0x3ff23de6eec74c7b	1.140112812737043
236	0xc000affa51a96e97	-2.0859266643363514
237	0xbffa98f9ecee6928	-1.6623477225426289
238	0x3fcbdf2180af2a3e	0.21774691375169825
239	0xbffd6822e0d061bd	-1.8379238874241388
240	0x3fe26200038c1f9d	0.574462897232468
241	0x3fdc2e97bbafc698	0.44034379318973427
242	0xbff84076f7040ffb	-1.5157384537751557
243	0xbfecdcecbef64af5	-0.9019683580139303
244	0x3fe29e6cf1c7f6c0	0.5818390581404955
245	0xbfc6dcf9065000b6	-0.17861855324009007
246	0xbfc2f959409bb9ef	-0.1482345166654819
247	0xbfb97d6f899d1ceb	-0.09957024678907415
248	0xbfe4aa7011adcd93	-0.6458053918162697
249	0xbfd24cfde1e97285	-0.28594920217236847
250	0x3fd0cd7a45439184	0.2625413586049705
251	0x3fe85e784d5ad7ef	0.7615319739186343
252	0xbfaba6ea59090d42	-0.05400783860070614
253	0x3faad7b3ac9c62fb	0.05242692453447791
254	0xbffa8ad7cc19e87e	-1.6588972065642618
255	0x3fed12cbc73306fa	0.908544434605772
