MACE_models/mace01_swa_compiled.model (torch, 737168 bytes, 51 tensors)

r_max f8 []
0	0x4010000000000000	4.0

weight f8 [96]
0	0x3fda8ddb4e986a24	0.4149082438977152
1	0x3fcfbe3ef3313bf1	0.24799334406495135
2	0x3fe10943fe97d639	0.5323810551187257
3	0x3fd76341cf32ec18	0.3654331706454186
4	0x3fe0db62b500fd64	0.5267804656249777
5	0x3fc31da2f9e9b6fd	0.1493419380453175
6	0x3fe328ba44fa8ac8	0.5987216326942297
7	0xbfeec3183f14ce10	-0.9613152725273171
8	0xbfd67b300bf9b2de	-0.3512687794634938
9	0x3fb661d7acc0c49e	0.08743045775988142
10	0xbff496ad1c89545f	-1.286786185713275
11	0x3fd868c8e62bf9ad	0.38139555432999367
12	0x3ff2dea7c8539a6d	1.1793592286354866
13	0x3ff4681b68d6349c	1.2754167647538344
14	0x3ff490db9c5e0189	1.2853656871885468
15	0x3fe3e097fe02974e	0.6211662255416088
16	0xbff96baf181f2015	-1.5887900297402713
17	0xbfe3cf36a0398adf	-0.6190446023359434
18	0x3ff2605f4f334571	1.1485283941040871
19	0xbfea6e0c8f2afa99	-0.8259337230918674
20	0xbfdcab76a584cbc6	-0.4479652992624178
21	0x3f8b7ac202f9fc64	0.013417735782466696
22	0xbfedddac696e8142	-0.9333097514354807
23	0x3fc56f5d771cf548	0.16746109310217094
24	0xbfe19e56b89f7d0e	-0.5505784612577445
25	0x3fddb1d96c33b6a1	0.46398006025888533
26	0xbfd60fee6ce34b05	-0.3447223723753015
27	0xbf9fe5edb94d4e82	-0.031150545535025838
28	0xbfbbc253248292e9	-0.10843391076430077
29	0x3ff7ef16108bc53c	1.4958706518485334
30	0xbff2f211b5667bbd	-1.184098919482252
31	0x3fee1b56cd9d1a67	0.9408372894184368
32	0x3fee8c73aaf4b1c8	0.9546449984532552
33	0x3fa8ea605bee1fc4	0.0486631500453423
34	0x3fc2a7dc34042bb9	0.14574768581254974
35	0xbff07b5636755be4	-1.0301115157396845
36	0x3fd038455314c7d2	0.2534344970073309
37	0x3ff6f5668ec3280c	1.4349122597363957
38	0xbfb3ea57d5b931fb	-0.07779454200608164
39	0xbffa21768dfe14e3	-1.6331697031576418
40	0xbfeb967a8561053c	-0.8621189694460223
41	0xbfe18e2d284b9877	-0.5486055171029552
42	0xbfdb6a91706de812	-0.4283794019644357
43	0xbfe29954e8c6509e	-0.5812172457103946
44	0x3fdcc79f53597fc8	0.44968398227319684
45	0xbfdff90f16f8d53f	-0.4995763515792823
46	0x3ff892e22561f234	1.5358602009065523
47	0x3fe148fd19773a68	0.5401597497346531
48	0x4000a223761064dc	2.0791691993477865
49	0xbfd2f57229718fd9	-0.29623083159662894
50	0x3fd5a42abbaef985	0.3381449539991979
51	0xbfe1e34d2d571ed6	-0.5589967618515981
52	0xbfb3956b6abc27e5	-0.07649871211847843
53	0x3fec566daf5fc9fe	0.8855503487851022
54	0x3fef9c638c0762e2	0.9878404364527251
55	0x3fd44e87ae1d4ab2	0.31729309085236956
56	0x3fe50eba6a2a0adb	0.6580478738327104
57	0x3fe4195836f0740d	0.6280938218147881
58	0xbfc917ea228eadfd	-0.1960423153626464
59	0x3fec2a500f82748d	0.8801651289865206
60	0xbfd7f4c04b217f80	-0.3743134244632458
61	0xbfc1d078aa4d9623	-0.1391745406682939
62	0xc00607a48aa691c8	-2.753731806953713
63	0xc000b7b39f9c8f94	-2.089698073354109
64	0xbfdef3ffb9b5eca3	-0.4836425126629342
65	0xbfe5ad545417417b	-0.6774083750151897
66	0x3fcc7f3223d9cbe7	0.2226317095806671
67	0xbf904e0f065218ad	-0.01592277027204918
68	0xbfe2b6f26867d1e6	-0.58483238593777
69	0xbff111e7918c6716	-1.066871231602311
70	0x3fb29bed547ffd0c	0.07269175827967816
71	0xbfeab8d7b4adf21b	-0.8350637940307623
72	0xbfe0a6f201fb002c	-0.5203790701562006
73	0xbfb903f9b98007d7	-0.09771691111384882
74	0xbfd241a7854cab38	-0.28525722520378194
75	0x3fd50f313eacb331	0.3290522682244044
76	0x400037165e7910f9	2.026898134297991
77	0xbfae49efb92f5499	-0.05915784011418985
78	0x3fcba4bf3ef17886	0.21596518109703683
79	0x3fbd05c54b3bb7c7	0.11336930357694462
80	0x3fee5969fd6eb4a6	0.9484147977688238
81	0xbfe7f16b56e43204	-0.7482201287362504
82	0x3fce6683351113a2	0.2375034340967917
83	0xbff9d95c64cffdd8	-1.615566629217815
84	0x3ff573283185ae6d	1.3406145033322006
85	0xbfd321ede65584ed	-0.2989458798748064
86	0x3ff3cddd3f03c923	1.2377598248973036
87	0xbfe2d43b73e92f84	-0.5884072555431747
88	0x3ffcf6749a9cc413	1.8101697959466534
89	0xbf9fa5635db0494b	-0.030904343217181645
90	0xbfeca3b238dfb433	-0.8949824438874486
91	0xbfc5eb3bb45a17ab	-0.17124124819036743
92	0xbfeb5183479fd288	-0.8537002943908911
93	0xbff9cd75011588c6	-1.6126604120586747
94	0xc0034a7aecb9d2d0	-2.4113672727783992
95	0xbfe4a993af13aca0	-0.6457003039808065

output_mask f8 [32]
0	0x3ff0000000000000	1.0
1	0x3ff0000000000000	1.0
2	0x3ff0000000000000	1.0
3	0x3ff0000000000000	1.0
4	0x3ff0000000000000	1.0
5	0x3ff0000000000000	1.0
6	0x3ff0000000000000	1.0
7	0x3ff0000000000000	1.0
8	0x3ff0000000000000	1.0
9	0x3ff0000000000000	1.0
10	0x3ff0000000000000	1.0
11	0x3ff0000000000000	1.0
12	0x3ff0000000000000	1.0
13	0x3ff0000000000000	1.0
14	0x3ff0000000000000	1.0
15	0x3ff0000000000000	1.0
16	0x3ff0000000000000	1.0
17	0x3ff0000000000000	1.0
18	0x3ff0000000000000	1.0
19	0x3ff0000000000000	1.0
20	0x3ff0000000000000	1.0
21	0x3ff0000000000000	1.0
22	0x3ff0000000000000	1.0
23	0x3ff0000000000000	1.0
24	0x3ff0000000000000	1.0
25	0x3ff0000000000000	1.0
26	0x3ff0000000000000	1.0
27	0x3ff0000000000000	1.0
28	0x3ff0000000000000	1.0
29	0x3ff0000000000000	1.0
30	0x3ff0000000000000	1.0
31	0x3ff0000000000000	1.0

bessel_weights f8 [8]
0	0x3fe921fb54442d18	0.7853981633974483
1	0x3ff921fb54442d18	1.5707963267948966
2	0x4002d97c7f3321d2	2.356194490192345
3	0x400921fb54442d18	3.141592653589793
4	0x400f6a7a2955385e	3.9269908169872414
5	0x4012d97c7f3321d2	4.71238898038469
6	0x4015fdbbe9bba775	5.497787143782138
7	0x401921fb54442d18	6.283185307179586

r_max f8 []
0	0x4010000000000000	4.0

prefactor f8 []
0	0x3fe6a09e667f3bcd	0.7071067811865476

p f8 []
0	0x4014000000000000	5.0

r_max f8 []
0	0x4010000000000000	4.0

atomic_energies f8 [3]
0	0xc0256a179c46187a	-10.707211383396714
1	0xc0486c79161c72bb	-48.847445262804705
2	0xc059a48e175aab87	-102.57117256025786

weight f8 [1024]
0	0xbff3083f7f0d6337	-1.189513679788616
1	0x3ff9719ac3b212e5	1.5902354854926497
2	0xbfd308c013db829e	-0.29740907611088996
3	0x3fe9111ad8da4cc3	0.783337996998306
4	0x3ffd32c5ae13d9a8	1.8248955535797027
5	0x3fe05f8de014cfd8	0.5116643311107465
6	0x3fe9c8d8664daa21	0.8057672498810612
7	0xbfd8e4dc4710d15a	-0.38896853389748787
8	0x3fe6692cd24cfda7	0.7003387553631243
9	0xbff200e575a36333	-1.125218829655023
10	0xbfe64a98a7c5852b	-0.6966059948719353
11	0x3fe8cc482c076303	0.774936758035523
12	0xbff1e5dab9ee4b2b	-1.1186167967723104
13	0x3fe386fb0511ba77	0.6102271174439257
14	0xc00020b332fd695f	-2.0159667953095517
15	0x3fa77a3ea596befa	0.045854528153879984
16	0x3fe2601f37e46f67	0.5742336360594721
17	0x3fc21dd3adb192cd	0.14153524380812713
18	0x3ff6ce5af955808d	1.425379728279981
19	0x3fe9e02e60b12665	0.8086158646121474
20	0x3ff891d70684e4cd	1.5356054548886278
21	0xbfdfe659822d770d	-0.4984344264283756
22	0xbff0c724565044b6	-1.0486186381934153
23	0x3fdad5b7eaab3b26	0.41929433743364297
24	0x3fe7546368f9fe6c	0.7290513086627022
25	0x3fcf73547acc0f61	0.24570709224655743
26	0x3fca73b2980bcd91	0.20665581153990023
27	0xbf834ac0f4decd96	-0.009419925186967142
28	0x3ff500891568ebba	1.3126307331392426
29	0x3fa35eca74fce5fa	0.037832571774242
30	0x3fdb79178c1e45cd	0.4292658680288611
31	0xbfe19cbc922886d4	-0.5503828863768043
32	0xbfb714700791fba8	-0.09015560326405014
33	0x3fe8001a1e94ccfd	0.7500124547281356
34	0x3fdad4fde6cb1a35	0.419249987968587
35	0x3feca6179619246e	0.8952749187093454
36	0x3fe6a657b9d3eab0	0.7078055028390136
37	0x3fef1001d05a130d	0.9707039899227269
38	0x3f97c8edfdfcb3ec	0.023227423312324122
39	0xbfd8e37a7e61592d	-0.388884185236196
40	0x3ffc273c6846a107	1.7595790932919628
41	0xbfde1367437b2e48	-0.46993428792913905
42	0xbfd12627f2b3c87d	-0.26795386029619533
43	0xbffab1199b803007	-1.6682373117682816
44	0x3fe1107500a83a10	0.5332589161715209
45	0xbfca743c570601c7	-0.2066722321433316
46	0xbfe0a56679df8707	-0.520190465959076
47	0x3fef59149fd1e5af	0.9796240922434459
48	0x3ff0ccd944723445	1.05001188980829
49	0xbfc821037218cc81	-0.18850749083648924
50	0xbfe83f9e63d60c45	-0.7577659559177695
51	0x3fe267fec3af1bad	0.5751947233155669
52	0xbfda9113e29f444f	-0.41510483866756415
53	0xbff0d4687b582eda	-1.0518574541228447
54	0x3ffbe5ad8d7381ac	1.7435737157285116
55	0x3fc4bbc21fd73403	0.16197992853850005
56	0xbff421ce1a7abc05	-1.2582531961777488
57	0xbfe55337caafb6c1	-0.6664084395140081
58	0x3fcce3bd1f32ec9f	0.22570003531823077
59	0x3fec28661b909aad	0.8799315012336898
60	0xbfe8c6c4ac901178	-0.7742637033812079
61	0x3ffb931b1025cf30	1.7234144812363859
62	0x3feb9148bebb6268	0.8614848828538699
63	0xbfee99dfd7fcde9b	-0.9562834948073545
64	0xbff27fac4e638f7c	-1.156170183378861
65	0xbfea3f9058dd740f	-0.8202592597623396
66	0xbfc0eb692132662b	-0.13218416329327573
67	0x3ff847f3b060d636	1.5175663842941396
68	0x3fd981c4ef8b4eca	0.39854548829064795
69	0xbffe65030a1ee76e	-1.899661101850565
70	0xbfe039b4bcc85735	-0.5070441901359347
71	0xbff8455e650db28d	-1.5169357249643867
72	0x3fc7cda027bef228	0.18596269551007194
73	0xc000f799577d7942	-2.1208979449430965
74	0x3fdc6bc649f7cd57	0.4440780374854589
75	0x3ff62f8f30e0bd7f	1.386611166886581
76	0x3fcac5bf2e0a215c	0.20915975330377534
77	0x3fe44dba7a71fce2	0.6344883338460046
78	0x3fe1deddd069ad7a	0.55845537858606
79	0x3fe7402e8e17c5e7	0.7265846991778603
80	0xbff424260a078328	-1.2588253394862452
81	0xbfdfb0779a0adc10	-0.49514570277409664
82	0x3fe3c469485f05d8	0.6177259839534441
83	0xbff532e90eef4f31	-1.324929293002196
84	0xbff39c0a7210e3ac	-1.2255958991720304
85	0xbfa36605292c6e72	-0.03788772704703271
86	0x3ff2349dd336145b	1.1378458261908893
87	0x3ff2251bcf417e0a	1.1340597244196737
88	0x3fc3e90b16d7a298	0.1555494176420964
89	0xbfea304d87258f33	-0.8183963431915572
90	0x400121f3b38e0bce	2.1415781047557862
91	0xc001bab590a4dc86	-2.216166620284244
92	0xbfe61c5c9fd5c489	-0.6909621354844983
93	0x3fe8a1ac8f6e7223	0.7697356034655666
94	0x3fdce370f82a7bda	0.451381914472163
95	0xbfd93c421f2dfb18	-0.3943028740394978
96	0xbfb3a0635a10d1c4	-0.07666607807988784
97	0xbfc4f13fefb87a3b	-0.16361235814197692
98	0x3fd236ee70e86647	0.28460274721291906
99	0x3feb171fcc2884dd	0.8465727794138292
100	0xbfe54e42a3233214	-0.6658032594946826
101	0x3fe1c567e9ac868e	0.5553474010414037
102	0x3fd589f10a709202	0.33654428500656774
103	0xbfcaa61b2c90ab5b	-0.20819415737181654
104	0x3fe0f34e050d21b2	0.5297002886446107
105	0xc0025b08aff5ac75	-2.2944501635407115
106	0x3fbd02bcaa93546f	0.11332301296654788
107	0xbfb534abd9146b9c	-0.08283494996832846
108	0xc001307d5c45207a	-2.148676606044373
109	0x3fd276cb5b11fd9d	0.2885006322248616
110	0x3ff5a76aeb5d82ed	1.3533734506565296
111	0x3fed04bbf2b252de	0.9068279018561858
112	0x3fd1ec694f613d31	0.2800544047540426
113	0x3ff488e02d3d64b4	1.2834169165783296
114	0xbfe8be82abcbd390	-0.7732556682009193
115	0x3fb481f837416696	0.08010817860613381
116	0xbfe9c65c48236f1b	-0.8054639252618218
117	0xbfddb596fad59633	-0.46420835967578283
118	0xbffe925f98d4f12e	-1.9107356996528995
119	0xbfdf7ef1bcefa17c	-0.49212306452547927
120	0xbfcfc783f63d1c56	-0.24827622912764252
121	0x3fe3353ffc9d9f62	0.6002502378368997
122	0xbff62d2ba26260b9	-1.3860279410492196
123	0xbfe839556184479f	-0.7569987206099887
124	0xbfd2fbb613468e70	-0.2966132343519581
125	0xbf9e85ac26e35071	-0.029806794999629852
126	0xbfe4eb95ea482d29	-0.6537580085581897
127	0xbfe19f7208941183	-0.5507135551020358
128	0x3ffce71ab1eab9f5	1.806421942699328
129	0xc000f47aa148b7d9	-2.119374523193056
130	0x3ff21ed97e650032	1.1325316369329923
131	0xbff53ecf20f36dc8	-1.3278342520851414
132	0xbfe745eee9e3dfc1	-0.727286774460474
133	0x3fdb19f2e0f4897d	0.42345878570826995
134	0x400594f0814ba354	2.6977243519981275
135	0xbfe38ce790789e83	-0.6109502622320665
136	0xbfe2f774b783a0bd	-0.5927070221196328
137	0x4003c234654799c7	2.469826499221401
138	0xbfe35f39362ecf11	-0.6053739603289349
139	0x3fc9cce19618a634	0.2015649779216787
140	0x3fe1ba3a44a2c678	0.5539828625243919
141	0x40033822606801c2	2.402409318136251
142	0xbff42a5ccbeee85a	-1.2603424039976034
143	0xbff4b72838f712f9	-1.2947160935593145
144	0x3fd66689e8377911	0.3500084655514835
145	0x3fe4fbd902d2c1bf	0.6557431273595781
146	0xbfd34ecd82aafe9e	-0.30168473969022525
147	0x3fedd98c0375e335	0.9328060214603285
148	0xbff7d6bfd210fe1e	-1.4899290281026718
149	0xbfd1fa7df4e057f5	-0.2809138194437531
150	0x3fd4f352c075451e	0.3273512725327964
151	0xbfd0930b0a1d81de	-0.2589747999936928
152	0x3fee914f766f23ec	0.9552380860487779
153	0x3fbda914cd8ecfe6	0.11586122530462681
154	0x3fa11b12f5832466	0.033409683675537136
155	0x3fcc0a7637c45120	0.21906926844588615
156	0xbfde22a5b0a0b470	-0.47086469887546567
157	0xc007461f196800e3	-2.9092390045990313
158	0x3feb677692fe6a83	0.8563797827694802
159	0x3fc95653f354465f	0.19794701939877066
160	0xbffc6dcbc8fad8e3	-1.7768056727195976
161	0xbfd712af5ad551e9	-0.360515440658928
162	0x3ff6e0fc41a9974a	1.4299280705394772
163	0x3fee4d4524e1948d	0.9469323845229539
164	0xbfc0fd9cf5aca036	-0.13273965831581486
165	0x3fbc5399076b6776	0.11065060073033614
166	0x3ffcfffb40a2e7cd	1.8124954724175837
167	0x3fee032fa5755e54	0.9378889304743532
168	0xbfdba9c4373c98a2	-0.4322367228909433
169	0x3ff8377287f70217	1.5135369597557025
170	0xbfd92a2160b684f6	-0.39319643444657915
171	0x3ff2302c289956ae	1.136760862912904
172	0xbfe8c08bf864c1de	-0.773504243034093
173	0x3fe085ef166d76c9	0.5163493574179593
174	0xbfd70308b4054fa0	-0.3595601804747677
175	0xbfd7fb7f0b9c6042	-0.3747251141917368
176	0x3fdb7d78ec4ff2c2	0.4295332248437199
177	0x40097391dc5c0dd9	3.181430551108616
178	0x3ff0f0de7f001b6a	1.0588059388116684
179	0xbff4ed8a9d567c56	-1.3079935213097733
180	0x3ff82d609a98bca9	1.5110784567766962
181	0x3fd49c755a7d53a7	0.3220494636237227
182	0xbfd7979a16bc6dfe	-0.3686280462295314
183	0x3fe1c594db65747f	0.5553688321193845
184	0xbfd727b73a8808fe	-0.3617990562053278
185	0x3f82e77b96634641	0.009230580832453874
186	0x3fc7fcef80cd78f7	0.18740648068609975
187	0xbff63dca199b3de0	-1.3900853157282356
188	0xbfb3210e5da465ea	-0.07472314630685842
189	0x3fe7d74c711d0740	0.7450315675016341
190	0xbfeb03aadd8963b4	-0.8441976858986124
191	0x3ff83602dea8f9f8	1.51318633057201
192	0xbfeacca1466f1c1a	-0.8374792457260611
193	0xbfc379d6ee17a657	-0.15215574861149392
194	0x3fe3432d109e2c57	0.601950199562803
195	0xbff544343a218760	-1.3291513701191988
196	0xbfe2206aa294a3af	-0.5664570975687776
197	0x3fd89dcc2f017b97	0.384631200698942
198	0x3ff1ac84635a0adc	1.1046184426237948
199	0xbfcb76126aaf60cb	-0.21454076966506927
200	0x3fe1297b266e3b6f	0.5363136053655192
201	0xbfd556fdacbed58b	-0.33343450421974613
202	0xbfeda2fb1f7bc142	-0.9261451353941441
203	0xbfe5ea8a8d417751	-0.6848805197621265
204	0x3fb9e6ccba605cfb	0.10117797422605072
205	0xbfb5b19280bf0006	-0.08474078791823567
206	0xbfeed7b4e6cea222	-0.9638313777878162
207	0xbfe0b8e5e0cfa5c7	-0.5225705519525768
208	0x3fdea21186279a50	0.4786418733696438
209	0xbfccc0b1ee658792	-0.22463058605631808
210	0x3ff46a8abfa98f0b	1.2760112273035158
211	0xbffc1c7396bb7299	-1.7569461715676538
212	0xbf977380599898b3	-0.02290154024935793
213	0x3ffd9044939d483f	1.847721649759947
214	0x3fcb620e2e825555	0.21392991324379787
215	0x3ff0deb857d91e90	1.0543750220839776
216	0xbffef9ad17fabad3	-1.9359560906120137
217	0x3fe6c7e0a053b6a5	0.7118991023432569
218	0xbfe71d14a10d5838	-0.7222998757886279
219	0x3fe5854462a01bf9	0.6725179601934307
220	0x3ff06cd9027c7298	1.0265741440881921
221	0x3fc3c6d54a8b8f91	0.1545054067602192
222	0xbffb17aec6486936	-1.6932819123672522
223	0x3fee2e838897e69f	0.9431779544676892
224	0xbfe31d2c8a3e4d35	-0.5973112773957953
225	0xc000eda64f03aa37	-2.1160398648255767
226	0xbff7334f751b927d	-1.4500269484061896
227	0x3fe503678b182fce	0.6566655842484523
228	0x3fd39b7361c58a10	0.30636295841228023
229	0x3fd348df868d3348	0.3013228239040484
230	0x3fd8452868714711	0.37922105979406334
231	0x3fef2cc03e3c27a7	0.9742127624060587
232	0xbf8c2551845072c3	-0.013743054247293945
233	0x3fcb793e875e8980	0.21463758096531294
234	0x3fc8969a416e6d88	0.1920960254181916
235	0xbfe70170b7e7ca10	-0.7189258186247702
236	0x3ff9980a99bf1a8b	1.5996194844935043
237	0xbfd55bd322c3e3aa	-0.33372953791654913
238	0x3ff6f8bab6b88bab	1.4357249391111775
239	0xbfe994cd5145ef88	-0.7994143092505377
240	0x3fe51f4a1914df45	0.6600695123552006
241	0x3ff5149ad9a74713	1.3175304891669313
242	0x3fd8f30532c5b890	0.38983278234707885
243	0x3fc4f5ec37d9bd02	0.16375496604039347
244	0x3febb240012ca471	0.865509035390586
245	0x3ff180cd565cd939	1.0939458249609528
246	0xbfdafc1e1be2e7a3	-0.4216380379035575
247	0xbfde0963c86abbb7	-0.4693231064983893
248	0xbfec82dcdbdb48d2	-0.8909744543145968
249	0x3ff31feecbcf9a73	1.1952960931172611
250	0xbfeae0364f0be490	-0.8398696464420414
251	0xbfc83bb5278cb7f6	-0.18932213240753953
252	0xbfdb883dfe6ed2d9	-0.43019056174243314
253	0x3fe92d744d74bb07	0.7867986214458548
254	0x3fef1fccc9fa3bca	0.9726318306801371
255	0xbff81736b19e38c4	-1.5056673944668981

output_mask f8 [32]
0	0x3ff0000000000000	1.0
1	0x3ff0000000000000	1.0
2	0x3ff0000000000000	1.0
3	0x3ff0000000000000	1.0
4	0x3ff0000000000000	1.0
5	0x3ff0000000000000	1.0
6	0x3ff0000000000000	1.0
7	0x3ff0000000000000	1.0
8	0x3ff0000000000000	1.0
9	0x3ff0000000000000	1.0
10	0x3ff0000000000000	1.0
11	0x3ff0000000000000	1.0
12	0x3ff0000000000000	1.0
13	0x3ff0000000000000	1.0
14	0x3ff0000000000000	1.0
15	0x3ff0000000000000	1.0
16	0x3ff0000000000000	1.0
17	0x3ff0000000000000	1.0
18	0x3ff0000000000000	1.0
19	0x3ff0000000000000	1.0
20	0x3ff0000000000000	1.0
21	0x3ff0000000000000	1.0
22	0x3ff0000000000000	1.0
23	0x3ff0000000000000	1.0
24	0x3ff0000000000000	1.0
25	0x3ff0000000000000	1.0
26	0x3ff0000000000000	1.0
27	0x3ff0000000000000	1.0
28	0x3ff0000000000000	1.0
29	0x3ff0000000000000	1.0
30	0x3ff0000000000000	1.0
31	0x3ff0000000000000	1.0

output_mask f8 [288]
0	0x3ff0000000000000	1.0
1	0x3ff0000000000000	1.0
2	0x3ff0000000000000	1.0
3	0x3ff0000000000000	1.0
4	0x3ff0000000000000	1.0
5	0x3ff0000000000000	1.0
6	0x3ff0000000000000	1.0
7	0x3ff0000000000000	1.0
8	0x3ff0000000000000	1.0
9	0x3ff0000000000000	1.0
10	0x3ff0000000000000	1.0
11	0x3ff0000000000000	1.0
12	0x3ff0000000000000	1.0
13	0x3ff0000000000000	1.0
14	0x3ff0000000000000	1.0
15	0x3ff0000000000000	1.0
16	0x3ff0000000000000	1.0
17	0x3ff0000000000000	1.0
18	0x3ff0000000000000	1.0
19	0x3ff0000000000000	1.0
20	0x3ff0000000000000	1.0
21	0x3ff0000000000000	1.0
22	0x3ff0000000000000	1.0
23	0x3ff0000000000000	1.0
24	0x3ff0000000000000	1.0
25	0x3ff0000000000000	1.0
26	0x3ff0000000000000	1.0
27	0x3ff0000000000000	1.0
28	0x3ff0000000000000	1.0
29	0x3ff0000000000000	1.0
30	0x3ff0000000000000	1.0
31	0x3ff0000000000000	1.0
32	0x3ff0000000000000	1.0
33	0x3ff0000000000000	1.0
34	0x3ff0000000000000	1.0
35	0x3ff0000000000000	1.0
36	0x3ff0000000000000	1.0
37	0x3ff0000000000000	1.0
38	0x3ff0000000000000	1.0
39	0x3ff0000000000000	1.0
40	0x3ff0000000000000	1.0
41	0x3ff0000000000000	1.0
42	0x3ff0000000000000	1.0
43	0x3ff0000000000000	1.0
44	0x3ff0000000000000	1.0
45	0x3ff0000000000000	1.0
46	0x3ff0000000000000	1.0
47	0x3ff0000000000000	1.0
48	0x3ff0000000000000	1.0
49	0x3ff0000000000000	1.0
50	0x3ff0000000000000	1.0
51	0x3ff0000000000000	1.0
52	0x3ff0000000000000	1.0
53	0x3ff0000000000000	1.0
54	0x3ff0000000000000	1.0
55	0x3ff0000000000000	1.0
56	0x3ff0000000000000	1.0
57	0x3ff0000000000000	1.0
58	0x3ff0000000000000	1.0
59	0x3ff0000000000000	1.0
60	0x3ff0000000000000	1.0
61	0x3ff0000000000000	1.0
62	0x3ff0000000000000	1.0
63	0x3ff0000000000000	1.0
64	0x3ff0000000000000	1.0
65	0x3ff0000000000000	1.0
66	0x3ff0000000000000	1.0
67	0x3ff0000000000000	1.0
68	0x3ff0000000000000	1.0
69	0x3ff0000000000000	1.0
70	0x3ff0000000000000	1.0
71	0x3ff0000000000000	1.0
72	0x3ff0000000000000	1.0
73	0x3ff0000000000000	1.0
74	0x3ff0000000000000	1.0
75	0x3ff0000000000000	1.0
76	0x3ff0000000000000	1.0
77	0x3ff0000000000000	1.0
78	0x3ff0000000000000	1.0
79	0x3ff0000000000000	1.0
80	0x3ff0000000000000	1.0
81	0x3ff0000000000000	1.0
82	0x3ff0000000000000	1.0
83	0x3ff0000000000000	1.0
84	0x3ff0000000000000	1.0
85	0x3ff0000000000000	1.0
86	0x3ff0000000000000	1.0
87	0x3ff0000000000000	1.0
88	0x3ff0000000000000	1.0
89	0x3ff0000000000000	1.0
90	0x3ff0000000000000	1.0
91	0x3ff0000000000000	1.0
92	0x3ff0000000000000	1.0
93	0x3ff0000000000000	1.0
94	0x3ff0000000000000	1.0
95	0x3ff0000000000000	1.0
96	0x3ff0000000000000	1.0
97	0x3ff0000000000000	1.0
98	0x3ff0000000000000	1.0
99	0x3ff0000000000000	1.0
100	0x3ff0000000000000	1.0
101	0x3ff0000000000000	1.0
102	0x3ff0000000000000	1.0
103	0x3ff0000000000000	1.0
104	0x3ff0000000000000	1.0
105	0x3ff0000000000000	1.0
106	0x3ff0000000000000	1.0
107	0x3ff0000000000000	1.0
108	0x3ff0000000000000	1.0
109	0x3ff0000000000000	1.0
110	0x3ff0000000000000	1.0
111	0x3ff0000000000000	1.0
112	0x3ff0000000000000	1.0
113	0x3ff0000000000000	1.0
114	0x3ff0000000000000	1.0
115	0x3ff0000000000000	1.0
116	0x3ff0000000000000	1.0
117	0x3ff0000000000000	1.0
118	0x3ff0000000000000	1.0
119	0x3ff0000000000000	1.0
120	0x3ff0000000000000	1.0
121	0x3ff0000000000000	1.0
122	0x3ff0000000000000	1.0
123	0x3ff0000000000000	1.0
124	0x3ff0000000000000	1.0
125	0x3ff0000000000000	1.0
126	0x3ff0000000000000	1.0
127	0x3ff0000000000000	1.0
128	0x3ff0000000000000	1.0
129	0x3ff0000000000000	1.0
130	0x3ff0000000000000	1.0
131	0x3ff0000000000000	1.0
132	0x3ff0000000000000	1.0
133	0x3ff0000000000000	1.0
134	0x3ff0000000000000	1.0
135	0x3ff0000000000000	1.0
136	0x3ff0000000000000	1.0
137	0x3ff0000000000000	1.0
138	0x3ff0000000000000	1.0
139	0x3ff0000000000000	1.0
140	0x3ff0000000000000	1.0
141	0x3ff0000000000000	1.0
142	0x3ff0000000000000	1.0
143	0x3ff0000000000000	1.0
144	0x3ff0000000000000	1.0
145	0x3ff0000000000000	1.0
146	0x3ff0000000000000	1.0
147	0x3ff0000000000000	1.0
148	0x3ff0000000000000	1.0
149	0x3ff0000000000000	1.0
150	0x3ff0000000000000	1.0
151	0x3ff0000000000000	1.0
152	0x3ff0000000000000	1.0
153	0x3ff0000000000000	1.0
154	0x3ff0000000000000	1.0
155	0x3ff0000000000000	1.0
156	0x3ff0000000000000	1.0
157	0x3ff0000000000000	1.0
158	0x3ff0000000000000	1.0
159	0x3ff0000000000000	1.0
160	0x3ff0000000000000	1.0
161	0x3ff0000000000000	1.0
162	0x3ff0000000000000	1.0
163	0x3ff0000000000000	1.0
164	0x3ff0000000000000	1.0
165	0x3ff0000000000000	1.0
166	0x3ff0000000000000	1.0
167	0x3ff0000000000000	1.0
168	0x3ff0000000000000	1.0
169	0x3ff0000000000000	1.0
170	0x3ff0000000000000	1.0
171	0x3ff0000000000000	1.0
172	0x3ff0000000000000	1.0
173	0x3ff0000000000000	1.0
174	0x3ff0000000000000	1.0
175	0x3ff0000000000000	1.0
176	0x3ff0000000000000	1.0
177	0x3ff0000000000000	1.0
178	0x3ff0000000000000	1.0
179	0x3ff0000000000000	1.0
180	0x3ff0000000000000	1.0
181	0x3ff0000000000000	1.0
182	0x3ff0000000000000	1.0
183	0x3ff0000000000000	1.0
184	0x3ff0000000000000	1.0
185	0x3ff0000000000000	1.0
186	0x3ff0000000000000	1.0
187	0x3ff0000000000000	1.0
188	0x3ff0000000000000	1.0
189	0x3ff0000000000000	1.0
190	0x3ff0000000000000	1.0
191	0x3ff0000000000000	1.0
192	0x3ff0000000000000	1.0
193	0x3ff0000000000000	1.0
194	0x3ff0000000000000	1.0
195	0x3ff0000000000000	1.0
196	0x3ff0000000000000	1.0
197	0x3ff0000000000000	1.0
198	0x3ff0000000000000	1.0
199	0x3ff0000000000000	1.0
200	0x3ff0000000000000	1.0
201	0x3ff0000000000000	1.0
202	0x3ff0000000000000	1.0
203	0x3ff0000000000000	1.0
204	0x3ff0000000000000	1.0
205	0x3ff0000000000000	1.0
206	0x3ff0000000000000	1.0
207	0x3ff0000000000000	1.0
208	0x3ff0000000000000	1.0
209	0x3ff0000000000000	1.0
210	0x3ff0000000000000	1.0
211	0x3ff0000000000000	1.0
212	0x3ff0000000000000	1.0
213	0x3ff0000000000000	1.0
214	0x3ff0000000000000	1.0
215	0x3ff0000000000000	1.0
216	0x3ff0000000000000	1.0
217	0x3ff0000000000000	1.0
218	0x3ff0000000000000	1.0
219	0x3ff0000000000000	1.0
220	0x3ff0000000000000	1.0
221	0x3ff0000000000000	1.0
222	0x3ff0000000000000	1.0
223	0x3ff0000000000000	1.0
224	0x3ff0000000000000	1.0
225	0x3ff0000000000000	1.0
226	0x3ff0000000000000	1.0
227	0x3ff0000000000000	1.0
228	0x3ff0000000000000	1.0
229	0x3ff0000000000000	1.0
230	0x3ff0000000000000	1.0
231	0x3ff0000000000000	1.0
232	0x3ff0000000000000	1.0
233	0x3ff0000000000000	1.0
234	0x3ff0000000000000	1.0
235	0x3ff0000000000000	1.0
236	0x3ff0000000000000	1.0
237	0x3ff0000000000000	1.0
238	0x3ff0000000000000	1.0
239	0x3ff0000000000000	1.0
240	0x3ff0000000000000	1.0
241	0x3ff0000000000000	1.0
242	0x3ff0000000000000	1.0
243	0x3ff0000000000000	1.0
244	0x3ff0000000000000	1.0
245	0x3ff0000000000000	1.0
246	0x3ff0000000000000	1.0
247	0x3ff0000000000000	1.0
248	0x3ff0000000000000	1.0
249	0x3ff0000000000000	1.0
250	0x3ff0000000000000	1.0
251	0x3ff0000000000000	1.0
252	0x3ff0000000000000	1.0
253	0x3ff0000000000000	1.0
254	0x3ff0000000000000	1.0
255	0x3ff0000000000000	1.0

weight f8 [8, 64]
0	0x3febd246923c7419	0.8694184166121232
1	0x3feea51ff2d5c1de	0.9576568358298194
2	0x3fd31954376b7617	0.298420957680578
3	0xbff9614cadb101c2	-1.5862547669240574
4	0xbffa5a2b9b8eefc0	-1.647014243745602
5	0x3fde52f5a867b70f	0.47381345220388565
6	0xbfc78d651d3e2516	-0.18400253227108782
7	0xbfbcef7604dcf781	-0.11302888506631172
8	0x3fcf069459a37513	0.24238829018478522
9	0x3ff1192109124b73	1.0686350206712774
10	0xbfecb2922fc39b48	-0.8967982228176448
11	0xbfd76e9b667ac66a	-0.3661259175088164
12	0xbfe16fec52cfa4ba	-0.5449124925045432
13	0x400346f55e41d4a1	2.4096476901855373
14	0x3ff3c30b13aab14f	1.2351179855569006
15	0x3fdfd3bc1f592d9f	0.49729826985704934
16	0xbfd74b37f57dd681	-0.363965978372427
17	0xbff399fd791e55bf	-1.2250952464286085
18	0xbfdb22a87c5ef140	-0.4239903654631867
19	0xbfd00da27d72e0eb	-0.25083219767431214
20	0x3ff058553562de65	1.0215656361960097
21	0x3ff89865f66260be	1.5372066139589573
22	0xbfb93a557be561b9	-0.09854635500722154
23	0x3ff16fa8cff3878b	1.0897606013390682
24	0x3ffee3bed9b4ae57	1.9306019310123668
25	0xbfff0934de89c787	-1.9397476857088536
26	0xbfe34bdd7d1d79b9	-0.6030108874945689
27	0x3ff028dfe814eafe	1.009979158944304
28	0x3fe93de6a6593ce4	0.7888062714572723
29	0x3ff2c2270a04cbb3	1.1724005118710294
30	0x3fc41bcfdebfc5e7	0.15709875465795095
31	0xbfe62b0067866dd6	-0.6927492162680504
32	0x3ff94a636d51969c	1.580661227251233
33	0xbfc7cbd436f1421a	-0.1859078663133154
34	0x3fed25f67dfe33dc	0.9108841381836288
35	0x3fe0d22583e5dee2	0.5256526542788971
36	0xbfcb3fcc6f240ece	-0.21288447787093506
37	0xbfeb6e4c0b196ab6	-0.8572139946730519
38	0x3fe7ef84003b687a	0.7479877476246337
39	0x3fd0b87425d24826	0.2612581605291119
40	0x3fe0e8e197492f48	0.528427882652502
41	0xbfe5cdba54b92a1a	-0.6813632635833671
42	0x3fe537ea05ebb40f	0.6630754581107129
43	0xbfd29cd7ebde7dff	-0.2908229640397337
44	0xbfe08e688e02180f	-0.5173838399503
45	0xbfb3b796f786a36f	-0.07702010672677571
46	0xbfc34089d8c7f33a	-0.15040705761921364
47	0xbff173c6b136aaca	-1.090765659561543
48	0x3fe176c45c79e3e2	0.5457479292082292
49	0xbfb414106dea724d	-0.0784311550473344
50	0x4000509d42c35949	2.0393624511590684
51	0xbfe39ab74cb9e5e7	-0.6126362322385689
52	0xbffc593a1add3cca	-1.771783928812328
53	0x3ffed8c0a92435e2	1.9279181105697423
54	0x3fc5465a9cd72e7e	0.16620953233938346
55	0x4003468618745e38	2.409435454417487
56	0xbff81cc5577dd14d	-1.5070241372714748
57	0x3ff0241a01e76389	1.0088138651246672
58	0xbfd5b5d1cff45704	-0.33922238643695857
59	0xbffafb9face401ab	-1.6864315751591714
60	0x3ff894424cbe0f05	1.5361960408926632
61	0xbfb211b3bf39ccc7	-0.07058261316869895
62	0x3f8a666dc8900ea3	0.012890680010975436
63	0xbfeb24709d92cbd4	-0.8481982305150901
64	0xbff008068c546f7b	-1.001959369815238
65	0xbfab3b817c52e063	-0.05318836825011954
66	0xbfe009495b0eb581	-0.5011336115327795
67	0xbfd8bfef823f1e74	-0.3867148181857154
68	0x3fedd160036df458	0.931808478067647
69	0x3ff9adb0378732c4	1.6049043816630482
70	0xbfe494d7b7158ded	-0.6431692672599049
71	0x3fefd2f03940f90f	0.9944993131864822
72	0x3ffb87a88e3b2fa9	1.7206197315126508
73	0xbfe73777d770e928	-0.7255210120995672
74	0xbff0d359a0dc57f9	-1.05159914814203
75	0x3fe9259dbbcdfa4a	0.7858418148096658
76	0x3feac0db65efa760	0.8360421172085175
77	0x3ffbb662a6ac07df	1.7320276747345742
78	0xbff0cea982109222	-1.0504546242383488
79	0xbfde8f2f84da2d75	-0.477489356745273
80	0x3fe49e39e08dcd8e	0.6443147073572832
81	0xbfea473d2d6167b7	-0.8211961637818977
82	0x3fec78c2005f41c5	0.8897409446017767
83	0x3ffa5899e1e72dc8	1.646631128724822
84	0x3ffdb015a2424165	1.8554893816218165
85	0x3fd178b90fc9de42	0.2729933408913646
86	0xbfff8be62121d04a	-1.9716550153944064
87	0x3fddc9477d27a940	0.4654101106849744
88	0x3fe19590132b8af7	0.5495071768203549
89	0x3fd465e21dd7c740	0.3187184611734786
90	0xbfc2ee6f688d001f	-0.14790146451014238
91	0x3fec4680d47f206e	0.88360635283699
92	0x3ffd76744f247c4b	1.841419514799571
93	0x3fd393eb65270811	0.3059032905404147
94	0xbfd5498d8106931b	-0.3326143035904338
95	0x3fda5044a1376da1	0.4111491751079602
96	0xbfd9b5daefa9bed8	-0.40172456173511994
97	0xbfe882c77ee77c2b	-0.7659642675970465
98	0x3fd5bbf425ca673c	0.3395967835473248
99	0xbfdeeea2e316586e	-0.4833152024888311
100	0x3ff0f0ed96e01bde	1.0588203328677461
101	0xbff00e969971bf48	-1.003561591522116
102	0x3ffb7c9bfc4ce087	1.7179221969109066
103	0xbfe73298d43ae139	-0.7249263901822253
104	0xbfc283c007b9b96f	-0.14464569451542839
105	0x3fdb17dc8684d097	0.4233313859615548
106	0xbffe76aafba61c89	-1.903971655848894
107	0x40064ed9a567abdf	2.788501064516353
108	0x3ffc43d4ffc6ba4e	1.7665605536709736
109	0x3ff2ca553d1446a2	1.174397696104656
110	0x3fec1d05a77dfb42	0.8785427352266668
111	0xbfc99fd71b670fa8	-0.20019043767945033
112	0xbfd672526b967bb6	-0.35072765833495667
113	0xbffd292901227980	-1.8225488704989345
114	0xbfdf6e38f1bd1716	-0.49110244376457624
115	0x3fe191df6a3584a9	0.5490567278285613
116	0xbfded07f7b1f1bd1	-0.4814757063253952
117	0x3febf3f24043ef3f	0.8735286002333637
118	0x3f96348878e7ce3c	0.021684772853360665
119	0xbff85d36afb2e554	-1.5227572310671649
120	0xbfe4ed0ac8bc207f	-0.6539358063319155
121	0x3ff97632e4b84a7b	1.5913571295137945
122	0x3febb76672ed6a26	0.8661377186466026
123	0xbff4f90ea0fc4e78	-1.3108049667834205
124	0xbfe124d9312cc06a	-0.5357480965085533
125	0xbfef64dac1e812e9	-0.9810613429295617
126	0x3fd2a13afac3652f	0.2910907219753253
127	0x4001b4446b0d5f6c	2.213021122308353
128	0x3f9bc542a2b98ecf	0.027119675809798956
129	0xbffa58734702e85c	-1.6465943120843098
130	0x3ffa1335974c0966	1.6296897802390844
131	0xbfeb41dee7d7615b	-0.8517908599997485
132	0xbfdeec1938c74da3	-0.4831603102186028
133	0x3fdac0157d334204	0.417973873391958
134	0x3fe4516048403f9a	0.6349336062576072
135	0x3fdc460a361f3fa5	0.44177489552839183
136	0x3fc0aa8808515e31	0.13020420461792662
137	0xbfda0fd480b48471	-0.4072161919485274
138	0xbfe3d243947065ff	-0.6194169902038879
139	0x3fd6c2d898d1e571	0.3556424610502154
140	0x3fe455e2542f41ec	0.6354838985662901
141	0xbffe6720557516f6	-1.9001773203066796
142	0x3ff17558f9573bf4	1.0911493053315526
143	0x3feaf8ff060c4ef4	0.8428950422407682
144	0x3ff62cdf612c6034	1.3859552188714703
145	0x3ff5f0033e553c12	1.3710968432312751
146	0xbfe95c1bd36fa601	-0.7924937371837474
147	0xbffac591abf64f41	-1.6732346265097962
148	0x3fd3c808a9bd920e	0.3090840966818015
149	0xbfe40f8ae49b331c	-0.6268972840276521
150	0x4000821fdf4f1716	2.0635373540889175
151	0xbff0fa048241351f	-1.0610394561838985
152	0xbff0a2e49767c199	-1.0397687830228277
153	0xbfd15b96bb949ccf	-0.27121513670358594
154	0xbffe1f39bef303e9	-1.8826234301525295
155	0x3ffe4ad6d2cae111	1.893271277816954
156	0xbfeffe27fb1bfad0	-0.9997749237516818
157	0x3ff2b902c374c1a3	1.1701686511042702
158	0x3fec2e78e9053d0f	0.8806728888684193
159	0x3fedff623a45c11b	0.937424768269952
160	0xbf95824c43fa2d4a	-0.021004859589578907
161	0xbfe027b7008387e6	-0.5048480043444641
162	0xbff1f71023a67e43	-1.122818125972018
163	0x3fe6a9eafe156c33	0.7082419359752578
164	0x3fd5adb3bcde2016	0.33872693485364047
165	0xbfe2ee707fbd4778	-0.59160637806984
166	0xbfcd3627dcfa7a91	-0.22821520128214393
167	0x3fff91561ca211d6	1.9729825132827634
168	0x3fdcd9f6f39dc4ad	0.4508035067620522
169	0xbfe4a5c34afa0026	-0.6452347244630843
170	0x3fedac6ef80df11e	0.9272990078748398
171	0xbfda87a058472c54	-0.41452797528171925
172	0xbf98877970826d01	-0.023954293720277246
173	0xbfdcbf01d0e2bbc3	-0.4491581478022761
174	0x3fd0ea561d947550	0.2643027581087454
175	0xbfe3f1091e3d3a5f	-0.6231732931717707
176	0xbfd9982ab492ec75	-0.39991252550289086
177	0x3fd45bce6a8714a1	0.3181034126576581
178	0x3ff55ddd25c23d40	1.33541598081122
179	0xbff3f326afabd4eb	-1.2468630659253062
180	0x3ff3732affaa2f41	1.2156171786218268
181	0xbfe180fac006561a	-0.5469945669635223
182	0x3f93256ef9f23f22	0.01869748497534752
183	0xbf93f55f5691fc73	-0.019490708979443782
184	0xbfd33933628457c1	-0.30036625500485675
185	0x3feff41a454938c8	0.9985476830713873
186	0x4000e98dcb0fd8d6	2.1140399803362966
187	0x3fd8db0b6828fae8	0.3883694188297526
188	0x3ff18150c1ce01c2	1.0940711565491346
189	0xbfe5b9d65dbcd24b	-0.6789352255642113
190	0xbfd2f6e2540a3694	-0.2963186093046286
191	0xbff4a1c41a968c27	-1.2894936598393174
192	0x3fd73ba1ff6d9d76	0.3630146974960192
193	0xbfe7772d896a738b	-0.73329808081654
194	0xbff4c5b3b2e64454	-1.2982670772801344
195	0x3fd40557db6d1780	0.3128261225541493
196	0xbff3763b99541127	-1.2163654317274195
197	0xbfe700683acd87ab	-0.718799700593299
198	0x3ff2413288e52546	1.1409173343148082
199	0xbff6e3cd593e436f	-1.4306157575667517
200	0xbfffcf948a29aa67	-1.988178767870204
201	0xbfa9e76d53de5bf5	-0.05059377335344798
202	0x3fc3fa8b35a6eaa4	0.15608348960616525
203	0xbfc3e99c93d9bf7f	-0.15556676120058552
204	0x3ff4b4de3480301a	1.2941572237787171
205	0xbfe3189057f2321c	-0.5967485158631152
206	0x3fef78c0379372be	0.9834900937526851
207	0x3fef5a9da4ad9fef	0.9798114982959286
208	0xbfdde3f1997872fd	-0.46703758227685893
209	0x3ff16fe52e9e8d75	1.0898181744640543
210	0x3fd0c0b71dea410f	0.26176240846054183
211	0xbfe73e52166d9ac1	-0.7263575017976437
212	0x3fefe9e8f76a8114	0.9973034698814751
213	0xbfddcbd67687a0a8	-0.46556626868415174
214	0xbfda7b3df353559b	-0.4137720943666296
215	0xbfe8758afd6da17a	-0.7643485021372236
216	0xbfd42730c8e5acbd	-0.3148920022856137
217	0xbfe6eba97f5ed015	-0.7162673461630243
218	0xbfd8fdda4449534d	-0.39049393337818544
219	0x3fe2b06337379c8a	0.5840316847287721
220	0xbfdda3b51418a809	-0.4631169029477183
221	0x3fc6f2108b8be454	0.17926222623626364
222	0xc002e66fef510429	-2.362518186244888
223	0x3ff29683c2429e8d	1.161746748761206
224	0x3ff449b9c101a0d6	1.2679994143782571
225	0x3ffb67c418795b75	1.7128334957139633
226	0x3ff73037e342e848	1.4492720487019302
227	0xbfe85c62c6b3b3e7	-0.761277568902753
228	0xbfed53126ecc2c8a	-0.9163906253828753
229	0xbfd6da7d4961f698	-0.3570855347278239
230	0x3fec69b2188e5253	0.8879023055656695
231	0x3ffb6b5348c79f50	1.7137024729690502
232	0x3fd5c428509db46b	0.3400975024476966
233	0x3fe2a4b2d2950e1e	0.5826048005041604
234	0xbfe198d8bf60a9bd	-0.5499080407947116
235	0xbfd81aed261b3f8f	-0.37664345475513356
236	0x3fc0fbd95b0ce15d	0.13268582292381384
237	0xc0034777bf29fc71	-2.409896367520155
238	0xbff5e6e867653693	-1.3688739813691526
239	0x3ff10bb6f066ed82	1.0653600111680537
240	0x3fd3410ef3370512	0.30084584952790394
241	0x4000e214752febbb	2.1103905825852656
242	0xbfda2f08452ecd8f	-0.40912062412390865
243	0xbfb9e2aa5bcfbcb3	-0.10111489049426119
244	0x3fd872719e4f3dee	0.38198509654918567
245	0xbfdca5344d43b5e5	-0.447583270505531
246	0x3ff4207432aff5fd	1.257923315045786
247	0xbfd3c07c5eeeae58	-0.30862340231644714
248	0xbff052a10a6d3b23	-1.0201731116573647
249	0x3fdcc4d937a6b764	0.44951467928591726
250	0x3fda1be7eae6ef28	0.40795324268013866
251	0x3f8a63a46351b591	0.012885364800434814
252	0xbfe32726aa94a18d	-0.5985291797306204
253	0x3fdabc6417562d8d	0.41774847296684287
254	0x3fe94dbf62efcb6c	0.7907406742436769
255	0x3fde05539f74635b	0.46907511302702226

weight f8 [64, 64]
0	0x3fd032402896bda7	0.2530670544028574
1	0x3ffb38d2a0aef4bb	1.7013727451988376
2	0x3fe88abc980f3b41	0.7669356317436283
3	0x3fcf5f7ac61941eb	0.2451013057020782
4	0x3fddb0a9a78057cd	0.46390763623764714
5	0xbfe83322679402c3	-0.7562419913302495
6	0xbfef015a8db396f2	-0.9689152495963909
7	0xbff0467097ac2cc2	-1.0171972202977462
8	0xbfd8baae70f3b490	-0.3863941290899868
9	0x3fe6d2a7bfb6503a	0.7132147545221479
10	0x3ff15dde63ddab70	1.0854171658527
11	0x3fb9a20c5b98449c	0.10012891040993782
12	0xbfbe2fb04478925c	-0.11791516944556107
13	0xbfd82f06e21c8cfb	-0.37787029343799333
14	0xbfe3635ec4ddbca5	-0.6058801503221686
15	0x3fe1f987caf8d244	0.5617102588935912
16	0x3ff01e0635c4ca24	1.00733014109995
17	0xbfd88ad23018a7b9	-0.3834729642572899
18	0xbfe91be5b20562f6	-0.7846554257367575
19	0x3fd601514167825b	0.34383040797368886
20	0xbf875bb0140b0c0b	-0.011405349361103509
21	0x3fe4c3bc8e0dd0af	0.648893620919372
22	0x3fe6c73c7e61f09d	0.7118208378228875
23	0xbfd3ae4df1845fd3	-0.30751370034840625
24	0xbff7671a9b4f91af	-1.4626718584851053
25	0x3fdfaf293caf5461	0.49506598402269303
26	0x3fea90fa2c55013c	0.8301974168644288
27	0xbffaaf2af18c7132	-1.6677655635349535
28	0xbffac0c20911bd68	-1.6720600466031446
29	0x3feb37fbddbd4642	0.8505839663359398
30	0xbfd9245a7146e27e	-0.39284382879444724
31	0x3fd22d1880fada49	0.2840024241990347
32	0xbfe22af1ea09cb3e	-0.567742306810352
33	0x40005617dc9c4983	2.042037700194841
34	0xbfd8c43d0e89f6a0	-0.3869774476987491
35	0x3fb0006087226dbb	0.06250575350934799
36	0x3ff56cceaffe9ac1	1.3390643000399651
37	0xbfd1c824f6599c93	-0.2778408437502062
38	0x3fc17bd35d1309fb	0.13659135861060165
39	0xbfe54c99101922df	-0.6656003298204175
40	0xbfb4b2442f941cdd	-0.08084512864671774
41	0xbfeefed13e9ac5b5	-0.9686056349511803
42	0x3fd3e024838e4b47	0.3105555805897677
43	0x3fefa1302e26b278	0.9884262944593294
44	0xbfd737eb9452d415	-0.36278810009690804
45	0xbff0c611981446e7	-1.048356622752573
46	0x3feb7dfecf251901	0.8591302915381506
47	0x3fedd5dea1daa422	0.9323571358883138
48	0x3fe0069bbb0ddd07	0.5008066800500338
49	0x3fe9a4926cfebe38	0.8013393524942733
50	0xbff3ce95580377f3	-1.2379353940991649
51	0x3fe0f7704dcef731	0.5302049178787681
52	0xbff946c466501d51	-1.5797771450614457
53	0xbfed3e6ef8b35069	-0.9138712747030812
54	0x3ff0f191f2480ded	1.0589770759696606
55	0xbfec7f6e7f4e32e5	-0.8905556188998075
56	0x3fe952b23383014c	0.7913447385872501
57	0xbfc152baace27435	-0.13533719483976517
58	0xbfed66b9c580f5ea	-0.9187897546286738
59	0x3fd4c66b3d2a27fe	0.32461052868950435
60	0x3fe20a9608317eda	0.5637922439600189
61	0x3fdaed478044d2e8	0.4207323792100355
62	0xc0022ef63e081e58	-2.272930607435949
63	0xbff0b3966289e125	-1.0438445901073206
64	0x3fd4a466d9a38dd2	0.322534287012073
65	0xbfe042d8ff4e9ce9	-0.5081601129976693
66	0xbff16f5bccfb6615	-1.0896871573553473
67	0x3fe01c90a0cc1ec1	0.5034869328091746
68	0x3fdad7bbbcac35a7	0.4194173185831808
69	0x3feb9fcfbc338ffe	0.8632582355317024
70	0xbfaf0271b0c44be0	-0.06056552202985421
71	0xbfd407f858c224a1	-0.31298645656404217
72	0x3fedb24f62be6c60	0.9280163696852348
73	0x3fd5275c546a7240	0.33052738422137296
74	0xbfdf90f877ec22cb	-0.493223301994061
75	0x3ff62ad1191dfeea	1.385453317750882
76	0x3fa501e720a7fc7d	0.04103014253268442
77	0x3ff0b9e9b0c4ca04	1.0453888802554738
78	0x3ff644a7c933ba57	1.3917615756469297
79	0x3ff21bdb33e6cd52	1.1318008448987098
80	0xbfc1e9e5875898e2	-0.13995045765586328
81	0x3f810b6f67a0fd3a	0.008322592115404082
82	0xbfeb84742602fb94	-0.8599186651625694
83	0x3ff5021ff4b98035	1.3130187568240335
84	0xbff8e68ad413bb07	-1.556284740854325
85	0x3fe13a2d9de5dc3c	0.5383518299048613
86	0x3fd5d2f1c5e68246	0.3410000259991971
87	0x3fe11bcdd99768bd	0.5346440553505755
88	0xbfee0388f5a8b4d3	-0.9379315183665774
89	0x3f9f9fe033e98c33	0.030883315247035092
90	0xbfb6febc47861428	-0.08982445474801237
91	0xbfe0d864f3c970fd	-0.5264153253042704
92	0x3fdd0fa12cc07b9c	0.45407895441342716
93	0x3fd2183c643eb379	0.2827292422251087
94	0xc0027aa59dc30245	-2.3098862004410727
95	0x3fcb864f9ab0d5a8	0.215036345036123
96	0xbfeccbbcc05d6c98	-0.8998702771308613
97	0x3fc6df205c0e6d6e	0.17868427748622245
98	0xbff702fa03723b6f	-1.4382267126672692
99	0x3fd33ab1b67be70e	0.30045740910246443
100	0x3fff4be56bd5c8da	1.956029340010494
101	0x3fe403fa7871fd83	0.6254856445738571
102	0x3ffca9efd91710fd	1.7914885025102756
103	0x3ff5cf71a80830df	1.3631455005407174
104	0xbfff7c25c8e0203b	-1.9678094717692278
105	0xbffe718ede8fd3c6	-1.9027241414853377
106	0xbfe209c553f78322	-0.563692726133102
107	0x3fc2eb45bf90ee15	0.14780494550528603
108	0xc005b614e028a9d9	-2.7139070045861726
109	0xbfd1ed4249ef0d3c	-0.28010613651368366
110	0xbfd0144cf7ee627f	-0.2512390538409263
111	0xbff4cd654213f25f	-1.3001453953903803
112	0xbfea6a061039bdb9	-0.8254423443703934
113	0xbfbbb55ebf743c6e	-0.1082362382332904
114	0x3fedf7f28d9f4273	0.9365170255715171
115	0x3fe2a97b3f377d3a	0.5831886515333402
116	0xbfd258de181c1a7e	-0.2866740451285422
117	0x3ff6cb1e6bc89ecc	1.4245895586299637
118	0xbfd5ac84f9c061df	-0.33865475072664525
119	0x3fd5afeec2d2d475	0.3388630774091504
120	0x3fbed1058050c0dd	0.12037691481305353
121	0xbfe0b72f70cafb1d	-0.5223614886270728
122	0x3fc8a6b404b2644f	0.19258737782800714
123	0xbfd77fd72fff081a	-0.36717776953821757
124	0xbfe98aae1e3c0f89	-0.7981787291068808
125	0xbffed642110e5d5e	-1.927309099793852
126	0x3fe0d661df2ce895	0.5261697157759665
127	0xbfe9ec73ae87a3ea	-0.8101137551103623
128	0x3febb38f007b1382	0.8656687745466203
129	0x3ff7146f6b5fbfc9	1.4424890703485167
130	0x3fd25ba5574cd122	0.2868436195888241
131	0xbff9e6ba02fa06ca	-1.6188297382617969
132	0xbf998ad0924415d9	-0.024943598677983878
133	0x3fe38d912a2ab73b	0.6110311339923337
134	0xbffc81d0320551d2	-1.781692691224738
135	0xbff0ff1f93c780cc	-1.0622859737996349
136	0x3fe7b40d9ab25dc0	0.7407291432781946
137	0x3ff122ee3f668fb1	1.0710279919230568
138	0x3fd6d7f41a2cb136	0.3569307571040271
139	0x3ffd4d6fc92d54b6	1.8314054354171225
140	0x3fe5442eae8dcae9	0.6645730408912104
141	0x3fe0d724dde92c80	0.5262626966663362
142	0xbfe1cf92d36a01c1	-0.5565885667020255
143	0x3f9f55b4d7e55719	0.030600381543386044
144	0x3fefa48ba4ea3715	0.9888361187929343
145	0x3fec003017077d6d	0.8750229310789287
146	0xbfe41c3fe0119575	-0.6284484268514193
147	0x3fd9854319ee2b34	0.3987586739755671
148	0x3ff75bdef095d6ef	1.4599294088233667
149	0x3fe8465e5ee161f9	0.7585899212963901
150	0xbfc5a73f1b74fe03	-0.1691664585177791
151	0x3ffb6f68f3b9bafa	1.7146996994521815
152	0x3fdf48b29fbcdd40	0.4888121185244536
153	0xbfdc77bb516a963a	-0.44480784369293114
154	0xbfe47aee7b44cd25	-0.6400062949746014
155	0x3fed2923e73a41e9	0.9112720028079454
156	0x3fe7f747b93c35b4	0.7489355676531688
157	0x3ff7adc8addc8f30	1.4799277106730635
158	0xc004f26228792c50	-2.6183512842158407
159	0x3ff774491396a977	1.4658900036980336
160	0xbfff2b6c6a20cb7f	-1.9481014390591722
161	0xbff196496d366e48	-1.0991911188238124
162	0xbf98549bd0a53667	-0.023760256395055992
163	0xbff4c15193bbcc06	-1.2971969385951083
164	0xbfee55955c267e56	-0.9479471969425031
165	0xbfe25b532e532bbb	-0.5736480622084551
166	0x3fd2bea8d89beb57	0.2928869357416963
167	0xbff4bc685ee7edcc	-1.295997973181204
168	0x3fd34a42606e2146	0.3014074269963384
169	0x3fdcb5f07e778305	0.44860470152166015
170	0xbfd7218d8336efe1	-0.36142289937902033
171	0xbfc8cc059f81dc9f	-0.19372625626030968
172	0xbff0812c20d52714	-1.0315362246059907
173	0xbff2dfd1c15315fb	-1.179643397497215
174	0x3fbff0dc6318251a	0.12476899546904399
175	0x3fd275eff9cd22a5	0.28844832796725434
176	0xbfca4e11509a147a	-0.2055074351848452
177	0xbff59fec1628901f	-1.3515435090603274
178	0x3fd4baaa89e0aa72	0.3238931986294694
179	0x3fd882c6c1584ef8	0.38298195725768336
180	0x3fed5fb3e05f9515	0.9179324514667849
181	0x3fec7051ba22d592	0.8887108455152648
182	0x3fe18547029233be	0.5475192117897831
183	0x3fa15449a538067c	0.03384618894416477
184	0x3fed41089e78df16	0.9141886801871546
185	0xbfd64b73d7c5e2cf	-0.3483552558096052
186	0x3ff5b16b24043816	1.355815067948702
187	0xbff9f6749f24ee6d	-1.6226698128292825
188	0x3fd0911cf2671430	0.2588569991315266
189	0x3fbe9caa4615f8a3	0.1195780202014896
190	0xbfdce5bd65054a4d	-0.451522205975526
191	0x3fdd0c507e8d9bec	0.4538766132231433
192	0x3fe869efa72d7163	0.7629316582856912
193	0x3fe25fd797b137cd	0.5741994822253617
194	0x3fdfde19ffeedafe	0.4979310035081851
195	0x3fdb7124d361c7ed	0.42878075258988596
196	0x40027647fe539b2c	2.3077545041336602
197	0x3fec4959c994661c	0.8839539467909989
198	0xbfe6ad268ee62a34	-0.7086365500447926
199	0x3ff0ce8776b1139d	1.050422156943774
200	0x3fc6dd559a317e19	0.17862958935710152
201	0x3ff1b5c051933792	1.1068728624845545
202	0xbffdef1b568740df	-1.8708756809247047
203	0xbfec5aafc64a56c2	-0.8860701439723118
204	0xbff21e706684ff67	-1.1324314121884187
205	0xbff61ba0927ee396	-1.3817449305044867
206	0xbf9c43e9364e3de5	-0.02760280984835885
207	0xbff8476db5d373f4	-1.5174386122300776
208	0xbfda81d2df0662c9	-0.41417381076602716
209	0xbfe0f1c6a449a5e7	-0.5295136650794888
210	0xbff44f1cb95eba9f	-1.2693145028130528
211	0xbfe833b0bd6e502c	-0.7563098621199109
212	0xc00232196468c442	-2.2744624943229903
213	0x3ff2f23a5804a27a	1.1841376722533412
214	0xbff7241ca2db6f94	-1.4463163720710996
215	0x3fe9237b71699236	0.785581323154992
216	0x3fed74b98877c12c	0.9204986253153371
217	0x3fe20c730215c31c	0.5640196839068241
218	0x3fd63c9185cef489	0.34744680468777084
219	0xbfe20a9bbdd52600	-0.5637949664753137
220	0xbfd5550e1f6fea1d	-0.33331635541949983
221	0xbfe173a36e9f43b2	-0.5453660164440548
222	0x3ff3fc12aec5c50f	1.249041254716136
223	0xbff4712d5013e9fb	-1.2776311042822488
224	0x3fd8f06e7243153f	0.3896747699585212
225	0xbfced051d167aeba	-0.24073240971426008
226	0xbfdbc19b24315cf9	-0.4336917737432056
227	0xbfe5e050b563955b	-0.683632234835993
228	0x3ff0e43d034ae6cc	1.0557222488991327
229	0xbff1e2dc82638680	-1.1178860753356332
230	0x3ff9f6dcfc243df8	1.622769341400156
231	0x3fdf06f6ca32abda	0.48480005021946015
232	0xbfe5419b96e5b5db	-0.6642587611401568
233	0xbfd74207b161a74b	-0.36340515444191074
234	0x3ffb8c3340924a24	1.7217285654375099
235	0xc002210ddde31df5	-2.2661397299705137
236	0x3fee5da0a4aafc2c	0.9489291397256969
237	0xbff4d0baa16bf107	-1.3009592347653454
238	0x3fd8594b167bf690	0.3804500312397545
239	0xbfd188dec2b7a2b1	-0.27397889151920213
240	0xbffe730156293868	-1.903077446524117
241	0x3ff54391fe92df02	1.3289966530118709
242	0x3ff4586b9a9c5d71	1.2715869941219717
243	0x3fd04753b829d78b	0.25435345635138934
244	0xbfc8f6e62021e621	-0.1950347573181697
245	0x400196bb8331e7bf	2.1985998391728283
246	0xbfe815422d5ed498	-0.7525950323239554
247	0xbfe822277a8cad81	-0.7541692155404435
248	0xbfa08bcd64b28eb8	-0.03231660703866396
249	0x3fe8a32e1b190989	0.7699194459203663
250	0xbfc9ee1f59c7a5cf	-0.20257942088873768
251	0x3fba4dd358563eae	0.10275002390539598
252	0xbfedb29d3387db65	-0.9280534750422303
253	0x3fda88193cccf6e3	0.41455679833948816
254	0x3fe1c75b3c28e5c6	0.5555854964251743
255	0xbfda8c166157e8f3	-0.41480025774184454
