MACE_models/mace02_com1_compiled.model (torch, 527499 bytes, 51 tensors)

r_max f8 []
0	0x4010000000000000	4.0

weight f8 [48]
0	0x3fee78d3bbd22b46	0.9522493999842048
1	0x3fa6863f8d82063d	0.04399298288718654
2	0x3fe7dd5ff3a065ba	0.745773292382345
3	0x3fca4e043400fa0a	0.20550587214707178
4	0x3fda30cb5c2cfbdd	0.40922817231688474
5	0x3fd8804b4fe2513c	0.38283045579125363
6	0x3fe0087c81a02eba	0.5010359317543227
7	0xbff26c5bb80f88a5	-1.151454657542254
8	0xbfd7f70237ac4dfd	-0.37445121228049044
9	0x3f94cc4b9393267a	0.020310574419261297
10	0xbfef5eab5f54479e	-0.9803063260935578
11	0x3fd37d1b055e4284	0.30451083683241387
12	0x3ff3bbacf57a926f	1.2333192433372024
13	0x3ff26bdca21f29d8	1.1513334591751256
14	0x3ff4751692bc7e7c	1.2785859805952944
15	0x3fe4490f5ff2b140	0.6339184640869817
16	0xbff977c0723df437	-1.5917362654283929
17	0xbfe7c84481b1a052	-0.7431967290003831
18	0x3ff773c412018103	1.4657631591181264
19	0xbfe1491fd85111c1	-0.5401763176856137
20	0xbff04a52461fff10	-1.0181448687798742
21	0x3fd158e4a1366d31	0.27105060332697223
22	0xbff515c8142da34e	-1.3178177631582062
23	0x3fb6938e9bf5c2a1	0.08818904216401303
24	0xbfde4941c6e7352f	-0.47322124885689026
25	0x3fdd342af0823bca	0.45630906569652707
26	0xbfe10def2697c8e0	-0.532950950028205
27	0x3fa422a7999349ae	0.03932689428042423
28	0xbfd59d937eb04da7	-0.3377426850504101
29	0x3ff6c13530bd3a92	1.4221698669313452
30	0xbfe9a4671adeaf00	-0.8013186955263052
31	0x3ff4947b56e67ef0	1.2862504381700397
32	0x3fe26b46b8169121	0.5755952449294776
33	0x3f9454e807241c6e	0.019855142055373802
34	0x3fce92825946d0a9	0.23884610518655805
35	0xbff398f85b800af1	-1.224846227095153
36	0x3fc4a10ac47fe261	0.161164613673253
37	0x3ff8be2ec5ccb9b8	1.546431324629891
38	0xbfd337dada619702	-0.3002841122273453
39	0xbffb285602b201a5	-1.697347651032126
40	0xbfe1dbb2ff831e5f	-0.5580687513801869
41	0xbfdeb979dbf2ffec	-0.48007055739799287
42	0xbfddf12021dc847e	-0.4678421335866644
43	0xbfddee709e6b9c5b	-0.46767821760881184
44	0x3fcff3a748993e08	0.2496232132420888
45	0xbfe8de8be7ee7513	-0.7771663217460251
46	0x3ffbdd472af80781	1.741522949072959
47	0x3fefcb7ba30a595e	0.9935892280944179

output_mask f8 [16]
0	0x3ff0000000000000	1.0
1	0x3ff0000000000000	1.0
2	0x3ff0000000000000	1.0
3	0x3ff0000000000000	1.0
4	0x3ff0000000000000	1.0
5	0x3ff0000000000000	1.0
6	0x3ff0000000000000	1.0
7	0x3ff0000000000000	1.0
8	0x3ff0000000000000	1.0
9	0x3ff0000000000000	1.0
10	0x3ff0000000000000	1.0
11	0x3ff0000000000000	1.0
12	0x3ff0000000000000	1.0
13	0x3ff0000000000000	1.0
14	0x3ff0000000000000	1.0
15	0x3ff0000000000000	1.0

bessel_weights f8 [8]
0	0x3fe921fb54442d18	0.7853981633974483
1	0x3ff921fb54442d18	1.5707963267948966
2	0x4002d97c7f3321d2	2.356194490192345
3	0x400921fb54442d18	3.141592653589793
4	0x400f6a7a2955385e	3.9269908169872414
5	0x4012d97c7f3321d2	4.71238898038469
6	0x4015fdbbe9bba775	5.497787143782138
7	0x401921fb54442d18	6.283185307179586

r_max f8 []
0	0x4010000000000000	4.0

prefactor f8 []
0	0x3fe6a09e667f3bcd	0.7071067811865476

p f8 []
0	0x4014000000000000	5.0

r_max f8 []
0	0x4010000000000000	4.0

atomic_energies f8 [3]
0	0xc0256a179c46187a	-10.707211383396714
1	0xc0486c79161c72bb	-48.847445262804705
2	0xc059a48e175aab87	-102.57117256025786

weight f8 [256]
0	0x4000cb8dbd0056c7	2.099391438076825
1	0xbfd3c053fae9be8a	-0.30861377242306587
2	0x3fe055e0884148fa	0.5104830418806892
3	0xbfd43788d922738c	-0.3158895607428398
4	0x3fc6c8e5e2a9a874	0.1780059201003642
5	0x3fe4635bad354700	0.637128675744151
6	0x3feb502070b3ecee	0.8535310937144496
7	0x3fd376e7451bf3d7	0.3041322874922207
8	0x3fe6825507e539cd	0.7034096864898004
9	0x3fe572dcad10eca0	0.6702712421605561
10	0xbfd051c66b55af42	-0.25499115449814636
11	0x3fe51847e56278c5	0.6592139702004479
12	0xbfcbd3d26023ed30	-0.2174017877040142
13	0xbf9ca61ca589864b	-0.027977416614140698
14	0xc00446d2222b3f14	-2.534580485291267
15	0xc000e802f88f4117	-2.1132869166105013
16	0xbfd02a50caf19007	-0.25258273905478784
17	0xbfe9447a795c0726	-0.7896091814329551
18	0x3fe1670f1e782346	0.543830451498345
19	0x3fbc84efbf35e111	0.11140345018600707
20	0xbfd1ad31d050d3c7	-0.27619595855076934
21	0xbff343c802d3facd	-1.2040481672735723
22	0xbfc949c0cfd1a4f0	-0.19756326815994596
23	0xbfc73396a7916975	-0.18126185590774538
24	0xbfd1d31878ada448	-0.2785092524050623
25	0xbfcc8cd35d320d8c	-0.22304765749514066
26	0x3fa24e1c144bed9b	0.035752179601298915
27	0x3fc9578ee4da2870	0.19798456358359173
28	0x3ffd108f926b719c	1.8165431708831425
29	0xbfd1591e62b8ee74	-0.2710643734060121
30	0x3fc3a5828d2d27be	0.15348846333864502
31	0xbfb312ef6e853780	-0.07450767944575709
32	0x3fe8d9feefa56d8a	0.7766108208265206
33	0xbff00d7c0e492012	-1.0032921369584114
34	0xbfc2944dc0ca26c9	-0.14515087045247402
35	0xbffb1b01040e7500	-1.694092765660855
36	0x3ff0bbfe940ccb96	1.0458970816805269
37	0xbfcf97762bc74628	-0.24680974137895473
38	0x3fed11968214e300	0.9083969631820707
39	0xbfef123ca56660f2	-0.9709761839358448
40	0x3ff98c15d8b24aaf	1.5967005219178352
41	0x3f9464ce911d5137	0.019915797812545235
42	0xbff41b4d9cc3ab96	-1.2566658137900268
43	0xbfd40777db0cec32	-0.3129558219113192
44	0xbfef0aa675ba5d8e	-0.9700500773787313
45	0xbffadc193e637527	-1.6787350117732076
46	0xc0036a8c11f87d59	-2.4270249752004642
47	0xbfd1ba14ec758a6f	-0.2769825276538204
48	0xbfed5a01ad220a08	-0.9172371274474367
49	0x3ff6dfc4b02aece2	1.4296309358167538
50	0xbfe35adcb38e9a2e	-0.6048415667508544
51	0x3ff34faca5c8b07b	1.206951758950736
52	0x3ff9fa344f3803a0	1.6235850424275
53	0x3fc7389e118b9743	0.18141532761290521
54	0x3fde6912b405c97d	0.4751631505997905
55	0xbfb31e960ee3527b	-0.07468545783496865
56	0x3fe806796fed72b0	0.7507903276524157
57	0xbff4a06f717df6db	-1.2891687806399463
58	0xbfe6f3e9b759abbe	-0.7172745305118651
59	0x3fe36f0202b1a60c	0.6073007633796705
60	0xbff284fcca318d97	-1.157467641657467
61	0x3fe548b1685f8683	0.6651236570871365
62	0xc000c76ac2ef8d1a	-2.097371600089571
63	0xbfda64cf2b087d83	-0.4124029083486322
64	0x3fe6b7b7c76c502e	0.7099264998419181
65	0xbfa78fb44d1a2d8d	-0.04601825181188266
66	0x3ff8f157467e0129	1.5589211228944555
67	0x3fefdae2fa95f3a2	0.9954695600750834
68	0x3ffb23fb2cb9384b	1.6962844607364953
69	0xbfe5a4d1f6ffa2c5	-0.6763696502867665
70	0xbff2672d113d275b	-1.1501894639390773
71	0x3fd88e31bde3a5ac	0.3836788515460181
72	0x3fe50661951e4e72	0.6570289528339812
73	0x3fd08a7f883e8990	0.2584532576094256
74	0x3fa9a293be08ef41	0.05006848997842762
75	0xbfc2a05928247a0e	-0.14551844081957238
76	0x3ff7ecbc33e5aa81	1.4952966716033702
77	0x3fb05556e216fdc1	0.06380217571039905
78	0x3fe07b6fcc8ddc5d	0.5150679583738441
79	0xbfe7a7400382d2a5	-0.7391662663054218
80	0xbfa6939fb9c20ca4	-0.04409503119043137
81	0x3ff3caa30d3a8778	1.2369719044440597
82	0x3fec0e4754170d54	0.8767429964431508
83	0x3fe18f91ebbc73a0	0.5487756351682158
84	0x3fe5a8b576111b42	0.6768443399422284
85	0x3ff10d60d7b58f94	1.0657661844388473
86	0xbfe154f2e8d14d7e	-0.5416197344988374
87	0xbfe8d0dcb8a25606	-0.7754958730826622
88	0x3ff5d1d1238d7945	1.3637248410010028
89	0xbfed0e595d978877	-0.9080015972106271
90	0xbfe270e3f347b8be	-0.576280570179527
91	0xc000bd9586fb1f56	-2.092570356882713
92	0x3fe73abac493769a	0.7259191359878117
93	0xbfd28795c9b7e512	-0.28952545832687904
94	0xbfe73f5b3aa8ab01	-0.7264839311295362
95	0x3ff4e19fa853df51	1.3050839019105818
96	0x3fed0b7c44c26a7b	0.9076520293195495
97	0xbfdee6bcf188852c	-0.4828331335757692
98	0xbfe626c4bc8dfecb	-0.6922324831684475
99	0x3ff11408a6fa09c2	1.0673910639312543
100	0xbfdef31472e5914b	-0.4835864183462674
101	0xbff161eb8dd4758d	-1.0864062824469756
102	0x3ffd39e4024cdff8	1.826633461938398
103	0x3fe1ea866f984f2c	0.5598785571660065
104	0xbff8cc01d9033ae2	-1.549806449609314
105	0xbfdc7682fca69c22	-0.44473337815219527
106	0x3fc4afbe46954017	0.16161325880466457
107	0x3feb4636cf8e8155	0.8523210576859507
108	0xbfe7f23df72a3216	-0.748320563072016
109	0x3ff8566aac8591bd	1.5210978259211594
110	0x3fe4ea38246bc5a5	0.6535912238452296
111	0xbff6713e0a89a2be	-1.4026470576883834
112	0xbff2210e65628996	-1.1330703697536584
113	0xbfe67bb7e1e05895	-0.7026023303649419
114	0xbfed2ad100e852b0	-0.9114766137814367
115	0x3ffdf83fc6a2bd03	1.873107696457567
116	0x3fe63384a3d7200c	0.6937888336187839
117	0xbffcffd72f30ae6e	-1.8124610751500785
118	0xbfe36c80d1a8306d	-0.6069950194228234
119	0xbff39ab791b68f27	-1.2252727214735815
120	0x3fd5c9dce76cd454	0.34044573402508616
121	0xc0009a2b31b292fd	-2.0752776987668526
122	0x3ff1c79950b6011c	1.1112301972171457
123	0x3ff7a65a7856a77c	1.4781136227342975
124	0x3fb10c850555fe72	0.06659728412886937
125	0x3feaac2d070d2d37	0.8335175645565077
126	0x3fda41321740f014	0.41022922774186665
127	0x3fe386d2f5e50494	0.6102080156926086
128	0xbfed6ca6b49146f6	-0.9195130850514193
129	0xbfcaace1ef4d4120	-0.20840095696122152
130	0x3fe2bc1e5fc478bc	0.5854637022455544
131	0xbff1cdd5b7ed3975	-1.1127526459345891
132	0xbfeea4d1a68d424a	-0.9576195004429533
133	0xbfe1b13b38c9956f	-0.552884684479677
134	0x3ff58f74961e8c3a	1.3475232948337763
135	0x3ff04289d4fed528	1.016244728101194
136	0x3fe0cc6b3c8f456a	0.5249534781270715
137	0xbfed3862c714d959	-0.9131330383595851
138	0x4003d5616a1c33c1	2.479189709649717
139	0xbfffce1de5d4f4f0	-1.9878214814955832
140	0xbfe1eb435d55ce56	-0.5599686453774193
141	0x3ff0be8f3ba5391d	1.0465233163736862
142	0x3fe5ee99d71443d3	0.685376091076359
143	0xbfd5257b7a57afba	-0.330412740206835
144	0xbfd6bb50bf52761f	-0.35518282588768274
145	0xbfcb88c09f8ba977	-0.21511085310278208
146	0xbfb6452b4695e3ed	-0.08699293587950736
147	0x3fe855d2a630b19c	0.7604764219191114
148	0xbfe46947bdf3cbf2	-0.6378515920645198
149	0x3fec89444ae7faa0	0.8917561972628683
150	0x3fe0306af1e89449	0.5059103703284872
151	0xbfdaa97abb765bf0	-0.41659420306080985
152	0x3fe12eac7cbe6be1	0.5369474827197075
153	0xbffe3cd67c09552a	-1.8898529858755162
154	0x3fa82e6b045be430	0.04722914150438162
155	0xbfb0ddb836d21c27	-0.06588317240139983
156	0xc004fb44386e5b53	-2.6226887139013484
157	0x3fdd368bd321673c	0.4564542352505787
158	0x3feeabd9d8d8f474	0.9584779010107369
159	0x3ff051f5fe7ddf81	1.0200099888879495
160	0x3fd7214e00fb36e0	0.3614077577193324
161	0x3ffa2112e2d13c31	1.6330746517230745
162	0xbfe93ba6522577fc	-0.7885314564152845
163	0x3fd2ed2ba3b7acba	0.29572573650393574
164	0xbfd7d712a5155f82	-0.37250200387415344
165	0xbfe9b617f724ccb7	-0.8034782244707434
166	0xbffd75a23fdf20a6	-1.8412191863044796
167	0xbf790ee473d6e3ef	-0.006117718117303091
168	0xbf7cd84ba88c932c	-0.00704221300182865
169	0x3fd92397d30b382a	0.3927974282240735
170	0xbfe56e416e601c5f	-0.6697089343805479
171	0xbfe04987b172a65b	-0.5089758363512361
172	0xbfcec82571597589	-0.24048297915116404
173	0xbfba95d590083b79	-0.10384878889474959
174	0xbfe2f70198f18b54	-0.5926521289041866
175	0xbfdab7d2a0dc9c25	-0.41746965130954755
176	0x3ffebf90e1e2c1ff	1.92176902996664
177	0xc000e052a5be7ba7	-2.1095326374774745
178	0x3fec7814ac454d9e	0.8896582951223768
179	0xbfefe70dde2681a3	-0.9969548548579507
180	0xbff19efd0777116f	-1.1013155261617518
181	0x3fa0fa5974dc6948	0.03316001464391377
182	0x4001f0b8f1b4e2b2	2.242540253002823
183	0xbfdd98d567592fb7	-0.462453223158032
184	0xbfea8a9388b59562	-0.8294160528281902
185	0x400220086753cd8c	2.26564102863785
186	0xbfedb96186e029b3	-0.9288795122422954
187	0xbfbeef6b61b580c7	-0.12084075103257695
188	0x3fd24f84d4f8479c	0.2861034469398136
189	0x40041008e8ff8917	2.507829494760823
190	0xbff85e02a8c3eac8	-1.5229517547983722
191	0xbff65829bf692e68	-1.3965241887080087
192	0x3fd7a30d765fca56	0.3693269401548255
193	0xbf93b7a48dfdafe7	-0.019255229155007127
194	0xbfd96148ec5aa626	-0.3965627964158521
195	0x3ff0285f7e5d795d	1.009856694806863
196	0xbff85c5dc8aa398f	-1.522550376746583
197	0xbfb54f77cd4ee53e	-0.08324383509070274
198	0x3fcb62e98d45688e	0.21395606420521002
199	0xbfdcec530f6ef511	-0.4519240999905643
200	0x3fe98a42084dd58f	0.798127189844921
201	0x3fcabd6d78ed22ee	0.2089058723888892
202	0xbfd761bf62da1e2a	-0.36534104016797875
203	0xbfc6dd05ae702bbd	-0.17862006204117434
204	0xbfe2e86f5db2d382	-0.5908734159516913
205	0xc008c9dd7cf0825a	-3.098566986169584
206	0x3fe5fd9018e8fc11	0.6872025000119512
207	0xbf9831572848cfc2	-0.023625718911901357
208	0xbffa50fe310d97ba	-1.6447736660133914
209	0xbfe8849a7bc5aa54	-0.7661869447159213
210	0x3ff4099bf9b902e4	1.252346015433596
211	0x3fed1d953e2d73cf	0.9098612036137811
212	0xbfe95a48950d4fe6	-0.7922709380313762
213	0xbfc1aa4c9b0fef5d	-0.138009620393741
214	0x3ff81b7d7c926cb5	1.5067114702313067
215	0x3fd433ab0755cbf0	0.3156535693771607
216	0xbfdfa1e520f15f5a	-0.49425628869129457
217	0x3ff15247e10674f6	1.082588080410742
218	0xbfea9d2e6ca3d15d	-0.831687175929385
219	0x3fe6bbbfaa96096e	0.7104185420760538
220	0xbfed546e39b77c78	-0.9165564658432137
221	0x3fd93b1f2e3b40a2	0.3942335082510998
222	0xbfe1c5d68620a786	-0.5554001445463974
223	0xbfcb481fb0169cf4	-0.21313854311049563
224	0x3fccd0bbde4cf5be	0.22512005190394108
225	0x40080d485a6e7193	3.0064856591181495
226	0x3ff3a941449e61fd	1.2288220100800793
227	0xbff3fc2dd6b66428	-1.249067152710504
228	0x3ff6dbeb3f52b2fa	1.428691146236075
229	0x3fe6177f73ad27b3	0.690368390970653
230	0xbfda8bfd881de833	-0.414794333387934
231	0x3fd6e5b21d440d83	0.3577695165442593
232	0xbfe7191c90266a9a	-0.7218153777533474
233	0x3fd055bceabaff0b	0.255233029583892
234	0xbfc56ef95276d681	-0.1674491551072386
235	0xbff889707448ec2e	-1.5335545103432753
236	0x3fbbabff794298c3	0.10809323034718248
237	0x3fe2a33438ca4142	0.5824223622494531
238	0xbfee6a88bc915211	-0.95050465421315
239	0x3ff48e4f7ed7c514	1.284743781547438
240	0xbfee43cfc8630996	-0.9457777894788701
241	0xbfddec732aa24dcc	-0.46755675471760294
242	0x3fc737af01117ffe	0.18138682892003993
243	0xbff8ad6512543f81	-1.542332717512153
244	0x3fa2e31505749dd6	0.036888749042471566
245	0x3febda5d291da79b	0.8704057505649304
246	0x3fe17a987d033abb	0.5462152902271876
247	0xbfdc593adf46e160	-0.4429461651266333
248	0x3fe08f5f4161a769	0.51750147599999
249	0xbfd2137e606d28b2	-0.28243979851380197
250	0xbff082f95e11d1db	-1.0319760965913847
251	0xbff528785a16121b	-1.322380401515267
252	0xbfbbb31ec78dca49	-0.10820190784378626
253	0xbfc769d9bedfe4d7	-0.18291780300186275
254	0xbff7efd91cd10fff	-1.496056664052048
255	0xbfd950fbdb3f6ce7	-0.3955678597537386

output_mask f8 [16]
0	0x3ff0000000000000	1.0
1	0x3ff0000000000000	1.0
2	0x3ff0000000000000	1.0
3	0x3ff0000000000000	1.0
4	0x3ff0000000000000	1.0
5	0x3ff0000000000000	1.0
6	0x3ff0000000000000	1.0
7	0x3ff0000000000000	1.0
8	0x3ff0000000000000	1.0
9	0x3ff0000000000000	1.0
10	0x3ff0000000000000	1.0
11	0x3ff0000000000000	1.0
12	0x3ff0000000000000	1.0
13	0x3ff0000000000000	1.0
14	0x3ff0000000000000	1.0
15	0x3ff0000000000000	1.0

output_mask f8 [144]
0	0x3ff0000000000000	1.0
1	0x3ff0000000000000	1.0
2	0x3ff0000000000000	1.0
3	0x3ff0000000000000	1.0
4	0x3ff0000000000000	1.0
5	0x3ff0000000000000	1.0
6	0x3ff0000000000000	1.0
7	0x3ff0000000000000	1.0
8	0x3ff0000000000000	1.0
9	0x3ff0000000000000	1.0
10	0x3ff0000000000000	1.0
11	0x3ff0000000000000	1.0
12	0x3ff0000000000000	1.0
13	0x3ff0000000000000	1.0
14	0x3ff0000000000000	1.0
15	0x3ff0000000000000	1.0
16	0x3ff0000000000000	1.0
17	0x3ff0000000000000	1.0
18	0x3ff0000000000000	1.0
19	0x3ff0000000000000	1.0
20	0x3ff0000000000000	1.0
21	0x3ff0000000000000	1.0
22	0x3ff0000000000000	1.0
23	0x3ff0000000000000	1.0
24	0x3ff0000000000000	1.0
25	0x3ff0000000000000	1.0
26	0x3ff0000000000000	1.0
27	0x3ff0000000000000	1.0
28	0x3ff0000000000000	1.0
29	0x3ff0000000000000	1.0
30	0x3ff0000000000000	1.0
31	0x3ff0000000000000	1.0
32	0x3ff0000000000000	1.0
33	0x3ff0000000000000	1.0
34	0x3ff0000000000000	1.0
35	0x3ff0000000000000	1.0
36	0x3ff0000000000000	1.0
37	0x3ff0000000000000	1.0
38	0x3ff0000000000000	1.0
39	0x3ff0000000000000	1.0
40	0x3ff0000000000000	1.0
41	0x3ff0000000000000	1.0
42	0x3ff0000000000000	1.0
43	0x3ff0000000000000	1.0
44	0x3ff0000000000000	1.0
45	0x3ff0000000000000	1.0
46	0x3ff0000000000000	1.0
47	0x3ff0000000000000	1.0
48	0x3ff0000000000000	1.0
49	0x3ff0000000000000	1.0
50	0x3ff0000000000000	1.0
51	0x3ff0000000000000	1.0
52	0x3ff0000000000000	1.0
53	0x3ff0000000000000	1.0
54	0x3ff0000000000000	1.0
55	0x3ff0000000000000	1.0
56	0x3ff0000000000000	1.0
57	0x3ff0000000000000	1.0
58	0x3ff0000000000000	1.0
59	0x3ff0000000000000	1.0
60	0x3ff0000000000000	1.0
61	0x3ff0000000000000	1.0
62	0x3ff0000000000000	1.0
63	0x3ff0000000000000	1.0
64	0x3ff0000000000000	1.0
65	0x3ff0000000000000	1.0
66	0x3ff0000000000000	1.0
67	0x3ff0000000000000	1.0
68	0x3ff0000000000000	1.0
69	0x3ff0000000000000	1.0
70	0x3ff0000000000000	1.0
71	0x3ff0000000000000	1.0
72	0x3ff0000000000000	1.0
73	0x3ff0000000000000	1.0
74	0x3ff0000000000000	1.0
75	0x3ff0000000000000	1.0
76	0x3ff0000000000000	1.0
77	0x3ff0000000000000	1.0
78	0x3ff0000000000000	1.0
79	0x3ff0000000000000	1.0
80	0x3ff0000000000000	1.0
81	0x3ff0000000000000	1.0
82	0x3ff0000000000000	1.0
83	0x3ff0000000000000	1.0
84	0x3ff0000000000000	1.0
85	0x3ff0000000000000	1.0
86	0x3ff0000000000000	1.0
87	0x3ff0000000000000	1.0
88	0x3ff0000000000000	1.0
89	0x3ff0000000000000	1.0
90	0x3ff0000000000000	1.0
91	0x3ff0000000000000	1.0
92	0x3ff0000000000000	1.0
93	0x3ff0000000000000	1.0
94	0x3ff0000000000000	1.0
95	0x3ff0000000000000	1.0
96	0x3ff0000000000000	1.0
97	0x3ff0000000000000	1.0
98	0x3ff0000000000000	1.0
99	0x3ff0000000000000	1.0
100	0x3ff0000000000000	1.0
101	0x3ff0000000000000	1.0
102	0x3ff0000000000000	1.0
103	0x3ff0000000000000	1.0
104	0x3ff0000000000000	1.0
105	0x3ff0000000000000	1.0
106	0x3ff0000000000000	1.0
107	0x3ff0000000000000	1.0
108	0x3ff0000000000000	1.0
109	0x3ff0000000000000	1.0
110	0x3ff0000000000000	1.0
111	0x3ff0000000000000	1.0
112	0x3ff0000000000000	1.0
113	0x3ff0000000000000	1.0
114	0x3ff0000000000000	1.0
115	0x3ff0000000000000	1.0
116	0x3ff0000000000000	1.0
117	0x3ff0000000000000	1.0
118	0x3ff0000000000000	1.0
119	0x3ff0000000000000	1.0
120	0x3ff0000000000000	1.0
121	0x3ff0000000000000	1.0
122	0x3ff0000000000000	1.0
123	0x3ff0000000000000	1.0
124	0x3ff0000000000000	1.0
125	0x3ff0000000000000	1.0
126	0x3ff0000000000000	1.0
127	0x3ff0000000000000	1.0
128	0x3ff0000000000000	1.0
129	0x3ff0000000000000	1.0
130	0x3ff0000000000000	1.0
131	0x3ff0000000000000	1.0
132	0x3ff0000000000000	1.0
133	0x3ff0000000000000	1.0
134	0x3ff0000000000000	1.0
135	0x3ff0000000000000	1.0
136	0x3ff0000000000000	1.0
137	0x3ff0000000000000	1.0
138	0x3ff0000000000000	1.0
139	0x3ff0000000000000	1.0
140	0x3ff0000000000000	1.0
141	0x3ff0000000000000	1.0
142	0x3ff0000000000000	1.0
143	0x3ff0000000000000	1.0

weight f8 [8, 64]
0	0x3fe71504178e8c2f	0.7213154277891415
1	0xbfa6c5c0c135e807	-0.04447748526122557
2	0x3ff05762fc8836ed	1.0213346352133457
3	0xc0007989e0d68e61	-2.0593450131871553
4	0x3fe8facb0efb011a	0.780614403971444
5	0x40010ab88f3e8218	2.1302348319006903
6	0x3fc3ac7e92578f07	0.1537016119537997
7	0x3fdff78cf1ce72ca	0.4994842873946196
8	0xbff859dbea01ac3b	-1.521938242042565
9	0x3ff197eef03791eb	1.0995931037406261
10	0xbfd27dc064cfec13	-0.2889252647871114
11	0x3fe315057d5115c1	0.5963160941689055
12	0x3ff27c1c7e835290	1.155300611678431
13	0x3fc6e92f19fa4696	0.17899121063651496
14	0xbff8df12b98f883b	-1.5544612167800682
15	0x3ff6f4af42c64db3	1.4347374542602267
16	0xbfe341a6653e10a0	-0.6017639138595037
17	0xbfff0a6bc461c09d	-1.9400441809812385
18	0xbff304235b35ad95	-1.1885102808836099
19	0x3fd8c051244b59ff	0.38673809570664724
20	0x3fcd77622b518d24	0.23020579447902734
21	0x3fe3cb1c6a44d851	0.6185438228192287
22	0x3fc6ae9982a216da	0.17720335844585727
23	0x3fecec830b05578c	0.9038710799456893
24	0x3fdb45e1e105037b	0.4261402795273665
25	0x3fd2809c4206847c	0.28909975478934036
26	0x3fdf13e17bea6709	0.4855884275544758
27	0xbfea6b594189c908	-0.8256040840190346
28	0x3ffa7352be2d0b44	1.6531550816295786
29	0x3fa351bfa84b9655	0.03773306779275446
30	0x3ffdb287056ccee1	1.8560857974925329
31	0xbfd0ed63e5a61ae4	-0.26448914934773726
32	0x3fef97fad897e884	0.9873022299136811
33	0x3fe9907d332e203d	0.7988878249752883
34	0xbfaf39cecbde9648	-0.06098791350022431
35	0x3fe591b3987bd5a4	0.6740358331868959
36	0x3ff51b339f752f77	1.3191410282915663
37	0x3fec0f1d5b5ca3f1	0.8768450531398441
38	0xbfe31ec9c7969883	-0.5975083254059118
39	0x3fd866fbc6c69b46	0.38128561412525064
40	0xbfeba1f921fff9a4	-0.8635221160946469
41	0x3ff61709b117fa48	1.3806244771691514
42	0xbfd259b0abbb0ffe	-0.28672425051286143
43	0xbfe8a72905dffda4	-0.7704053034539595
44	0xbfec3f1883b2cbb0	-0.882702119086721
45	0x3ff4fbc6549dcc0c	1.311468439610283
46	0x3fead3e6574067f1	0.8383666710026302
47	0xbffee47966dfe6c3	-1.93077984033009
48	0x3fe2a65a560288f5	0.5828067474251656
49	0x3fefab9d78a13120	0.9896991115615812
50	0xbfc2138ae6b6e8f2	-0.14122139230114034
51	0xbfe9b3b429857e5e	-0.8031864939657216
52	0xbff429911f30e1b7	-1.2601481645962005
53	0x3ff313ed241159c8	1.192364827050925
54	0xbff2b3db79ad988b	-1.1689104798365715
55	0x3fc07ad45ae6421c	0.12874845922898792
56	0x3ff2d65aa209b7b3	1.1773325280769142
57	0xbffce4f33805702e	-1.8058960140542797
58	0x3fe0dc7fcd4c2934	0.5269164094654912
59	0x3ff6b8ba007a7184	1.4200992602046378
60	0x3fd04bb71a85c480	0.25462129201975614
61	0x3ffa0cb42ae38916	1.6281015086502229
62	0x3ff8db7059a6f47d	1.5535739423787895
63	0xc003a7221ca0736b	-2.4566080318895067
64	0xbfc5edf42aa1842a	-0.17132427293384583
65	0x3fe3070a1a1ff3bd	0.5946093092203381
66	0x3fcc26645e7242a8	0.2199216328777045
67	0xbfe5c7eee56d93aa	-0.6806559067741678
68	0x3ff0f826a6edc827	1.0605837364823942
69	0x3fe4eb48773144d7	0.6537210777261419
70	0x3fe725e8588630bf	0.72337739267234
71	0x3fdc5f97b3debd5d	0.4433345085662575
72	0x3fc16602d7af0453	0.13592563182285974
73	0x3fee19dfd2965f8b	0.9406584847483698
74	0x3fc0f3a0c9d4dad4	0.1324349389558025
75	0x3fe5222fea8ea974	0.6604232388684026
76	0x3fee03fa20a4bb50	0.9379854810302763
77	0x3fe104d01785f16e	0.5318375071943089
78	0x40002f82350ada7b	2.023197569268914
79	0xbfe37b3f4b40106a	-0.6087948293429808
80	0x3ffc9604421489fa	1.7866251546153067
81	0x3ff1cc06d1f9b3e3	1.112311191765223
82	0xbff57ba2e0d5bc5a	-1.3426846296895492
83	0x3fe9dbd73ec3cab4	0.8080860353350858
84	0xbff0d56a15fe9f67	-1.0521031245388828
85	0xbfe24631586d5669	-0.5710684516040604
86	0xbfd331e90f6f4875	-0.2999212885598646
87	0x3fe5850b7b24f826	0.6724908261455809
88	0x3fee4d64a20ebdc5	0.9469473996340915
89	0xbfdd1f6c4d3d48de	-0.4550429109850834
90	0x4005b3b54ef7b8d1	2.712748162207483
91	0x3ff4e862b68b5b86	1.3067347651137609
92	0x3fe29a5ce7e2e30d	0.5813431290654038
93	0xbfde2a505b67ab4e	-0.4713326351763286
94	0x3fd1f763305e5aad	0.2807243320798232
95	0x3fdf10179763b56f	0.48535718711976633
96	0x3fd1bf0d4ee7345c	0.2772858877695563
97	0xbfdc5495fb186685	-0.44266271134402074
98	0xbfe59e81631a2f62	-0.6755988059607996
99	0xbff9b8b7b3da9fc8	-1.6075970674082658
100	0x3fc36d2580379d5d	0.1517683864651457
101	0x4000c2266e8fbd8a	2.0947998654953084
102	0xbfecae3c569082ce	-0.8962690058434306
103	0x3fc981ae53c1e0b9	0.1992700489970554
104	0xbfebf52c0500f3b5	-0.8736782167176133
105	0x3fbef4763bc05fe8	0.12091769179130518
106	0x3ff72a6093467437	1.447846007627289
107	0xbfadda579296a95b	-0.058306442875010155
108	0xbfe2b0c1fe2be65f	-0.5840768780028148
109	0xbfb125836e96e86e	-0.06697865915239884
110	0x3fac0ee53787211b	0.05480114271955668
111	0x3fb8eba3fea555ae	0.0973455902761404
112	0xbfd668444d6b2866	-0.350113940815055
113	0x3fd0ca045fdfa870	0.2623301445261239
114	0x3fbe13e44c1fabc5	0.11749102457512979
115	0x3fe57d4ca3eb4436	0.6715453340094715
116	0xbfe02bd64c646e52	-0.5053512088811181
117	0xbf942eac471a84df	-0.019709293212717745
118	0x3fe092e586bcfc54	0.5179317123037301
119	0x3fbc6e5cfb018518	0.11105900886606823
120	0x3fdaedb880a99c46	0.42075932087613344
121	0xbfda7306707bb773	-0.41327057823843133
122	0xbfbb09786fa52c80	-0.10561325765336171
123	0xbfca258c6b18aead	-0.20427088956181674
124	0x3fd0c95b432487d8	0.26228982502845843
125	0xbfc2954c5e399bc3	-0.14518122292358102
126	0x3fb81331a8063614	0.09404287674097872
127	0x3fd3ba2378ac5f0c	0.30823599609856056
128	0xbff7419d705a759a	-1.4535192860415465
129	0x3ffe1112c805a49d	1.8791683019028718
130	0xbfe017fd84e7b425	-0.5029285045435513
131	0xbff34901741a292e	-1.2053236518136816
132	0x3fe3bca49473c342	0.6167776965577121
133	0x3fb0242b459b46e6	0.06305189561251331
134	0xbff4e3d838bc8dc2	-1.3056261268874185
135	0x3fec3a1467d65fa6	0.8820898082803879
136	0x3ffb079981d65d3c	1.6893553802272683
137	0xc006b82c353fc974	-2.8399280700770593
138	0x3ff1eed07e80df15	1.120804304269716
139	0x3fe7fce09392b4d6	0.7496188051497039
140	0x3fec001d067e3db6	0.8750138403719834
141	0x3ff959c77e893506	1.5844187681971689
142	0x3fd2e12067b2e016	0.2949906361277511
143	0x3fe6de0fc4b7b54e	0.7146071283474755
144	0x3fe49223bbb9f595	0.642839304593212
145	0xbfe94ca9c942cbd4	-0.7906083041074177
146	0x3fc82e9061603a1e	0.1889210200756261
147	0xbfe9607b25284d04	-0.7930274701815567
148	0x3fd7a6b88c228766	0.36955083546683054
149	0xbf8cf9e21ff4cafd	-0.014148489570833695
150	0x3fd135170b2f9e6d	0.268865357326354
151	0x3fdcfb7a5092f9d8	0.45284898632590176
152	0xbfd7af9d3cbaaef3	-0.37009364061917366
153	0x3faeb4654b3a0065	0.05997005980771134
154	0xbfe0f2d24f68c740	-0.5296412993395521
155	0x3f98eba9cd2abd5d	0.024336484095952005
156	0x3fc38d0e62fded12	0.15274219354237367
157	0x3fec8939b954dc0c	0.8917511577373047
158	0xbff2a45f05549b50	-1.1651296814176995
159	0x3f86a7fa12f0c56b	0.011062577918070379
160	0x3fe1730bd147d039	0.5452937209615875
161	0x3fc3ff075d4c1928	0.15622036033182352
162	0x3fd048904b70047e	0.2544289337821012
163	0x3fe08449783239af	0.5161483142454041
164	0xbfc6c3fbf2313753	-0.17785596204560736
165	0xbfa0467f58aa8608	-0.031787852834224195
166	0x3fcdd14080a6b424	0.23294836313053324
167	0x3fd5117d1d2cf42c	0.3291924271505333
168	0xbff508560a3b630e	-1.3145351791083075
169	0x3fdcc2cef8599283	0.4493901658336556
170	0xbfe9393f323f7886	-0.7882381421475351
171	0x3ff3e4abee63de8e	1.2433280288804869
172	0xbfcba779a5d51ffe	-0.2160484370926951
173	0x3ffe45e62bb8038b	1.89206521108301
174	0xbfdb8ecf0720c2bd	-0.43059135147181476
175	0x3ff1033d79ebd921	1.0632910502004693
176	0x4004b22c95b2766b	2.586999101170297
177	0xbfb0ee1d000d051e	-0.0661333203434151
178	0x3f92704fcc49a908	0.01800656017659555
179	0x3ff48433aa3d86c7	1.2822758340848155
180	0xbfe85e6c796134b5	-0.7615263338754149
181	0x3ff9c51bd2ab0db3	1.6106222371316619
182	0x3feeaa5217afc080	0.9582910978915749
183	0xbfd70832cbde5142	-0.35987539204622376
184	0xbff1dcddebe47122	-1.1164225782914134
185	0xbfccebe13c7894fa	-0.22594848110853843
186	0xbfe9c7a3c57258cd	-0.8056200844173645
187	0xbff79d0286742762	-1.4758324863527936
188	0x3fc428ae71daeadf	0.15749149855931585
189	0xbfd59463e6ebd1d5	-0.33718202162643013
190	0x3ff77321c4b9ee39	1.4656083759899856
191	0x40070d0ed8710b30	2.881375971746273
192	0xbff4919f12f40bc8	-1.285552095447871
193	0x3fc61b3ed4372e39	0.1727064644058929
194	0xbff8d705be9dc484	-1.55249571284756
195	0x4007379b7cbbdf74	2.9021520371279
196	0xbfe9fbde253f2c20	-0.811995575664131
197	0x3fe9eaf4c76c696a	0.8099311728467857
198	0xbffcebd44b35267a	-1.8075755060002892
199	0xbfed8e41ac36bbd2	-0.9236152995634888
200	0xbff7c8b7f3d46130	-1.4865035557359754
201	0xbfe1e1180f5c3c8d	-0.5587272930150832
202	0xbffe2e09ac092b3c	-1.8862396927022038
203	0xbfe2453bb56707d2	-0.5709513228432519
204	0xc000149efaa62ef8	-2.010068853565709
205	0x3fee019113ef87c7	0.9376912488335102
206	0xc0009c9e66a44918	-2.0764740008245433
207	0x3fa9d5dbbd82b84b	0.050459734805699506
208	0x3fd5738547000bda	0.3351758187638417
209	0x3fe983c974483f1f	0.7973372717987991
210	0xbffc01743ab444c9	-1.7503549855357952
211	0xbff68311765ade99	-1.4069990752449597
212	0x3fda0ce74336f1d2	0.4070375591652723
213	0x3fc7d9dfd2db3ffa	0.18633649631237842
214	0xbfdc0f5813c21357	-0.4384365265798826
215	0x3ff65d94d25221ea	1.3978470054299756
216	0xbfd06cf2dbb69464	-0.2566496987950073
217	0xbfd6d6c26cb38ffe	-0.3568578778779282
218	0xbff47a5ec3b0a486	-1.2798755306378395
219	0x3fe2fdf855f22651	0.5935022047644428
220	0xc00048f0fa4cf888	-2.03561587855717
221	0xbfee103c7cbae7c5	-0.9394819675574061
222	0xbfbccff97c04e934	-0.11254843976795287
223	0x3fcd6211f7547b85	0.2295553643861831
224	0x3ff2099f739b8a4c	1.127349330513101
225	0xbff7cf0dd44bd480	-1.4880502980061294
226	0x3ff8576d6b1a526f	1.5213445838645858
227	0xbff48d4de7bf4da5	-1.2844981243732516
228	0x3feb3c936f89cff3	0.8511445215685839
229	0x3ff92846ef1e1322	1.5723332729841748
230	0x3fe1e88bedb0db9c	0.5596370355987008
231	0x40002747095b037b	2.0191784602069993
232	0xbffe4bee276b5800	-1.8935376682106835
233	0x3ff2463825f4479f	1.1421433909021983
234	0x3fd4b2b7aba0995d	0.3234080482528919
235	0x3fddf1d77cd5ceef	0.4678858489125863
236	0xbfd7338283b8110e	-0.36251891005692094
237	0xbff06f8d5b1292f7	-1.027234416725319
238	0x3fb77fe170af344f	0.09179505349239146
239	0x3fd329334e4e9768	0.29938967368285896
240	0xbfa545ef8432f59e	-0.04154919136770306
241	0x3fd96743c7ba0fa3	0.3969277811486284
242	0xc0070b8da2a7bdb2	-2.880641241783189
243	0xbfec6f3bee264eb2	-0.8885783816681025
244	0x3fe5fe3b117dc270	0.6872840253473225
245	0x3fc638af083c348a	0.17360484983547436
246	0x3ff0a543334a9752	1.0403472903794477
247	0xbf9f13799c35f855	-0.0303477288812178
248	0xbf7d045125865e92	-0.007084195116838681
249	0x3ffdc6b046e1b34d	1.8610079544843814
250	0x3fd4b867ccc05f5f	0.3237552165532999
251	0x3fcdb27df5d393ed	0.23200964453931708
252	0xbfb0f8e6fef3a3c0	-0.0662979481163708
253	0xbff004d60e3f25f2	-1.0011807018767027
254	0xbfb1108600efd9c3	-0.06665837786554278
255	0x3fe5ac5bcfef7bdc	0.6772898732414165

weight f8 [64, 64]
0	0xbf891632b56477f6	-0.012249370728166991
1	0xbfa4c54e5f0f3644	-0.04056782637017567
2	0xbfbe902db243feb9	-0.11938748933971056
3	0xbfcffa48459e3194	-0.24982551001847908
4	0x3ff0fc8d86bbe5d1	1.061658407501785
5	0xbfdfb6675bd756d0	-0.4955080410849009
6	0x3fb7ba4225f58857	0.09268582751022457
7	0x4000dd2b8a56a650	2.1079932029431703
8	0xbfd753d789cf4bbe	-0.36449230630858753
9	0x3fe57dc9bb63ef81	0.6716049823730686
10	0x3ffb06536e445c6c	1.6890444094949784
11	0xbfe56faa9ca737b5	-0.669881158793706
12	0xbfed618ff671f858	-0.9181594670660713
13	0x3fe252279ff806c1	0.5725286602393781
14	0xbfc11b58244180bb	-0.1336469819098108
15	0x3ffea06cc1111f8f	1.914166216056376
16	0xbfe2be5b0f57f936	-0.585736780136165
17	0xbfc1f90a8c003622	-0.14041263423898537
18	0x3fc8a4cad51bbc3e	0.1925290623252937
19	0xbfd7236945b8d37d	-0.36153632935320684
20	0x3fe8abb193cd79f8	0.7709586989183768
21	0x3fdc9a54093fa5cc	0.4469194498365965
22	0x400228d6af0a692e	2.269940726762022
23	0x3ff00913c142c8e4	1.002216105389885
24	0x3ff249fe62e7b287	1.143064867351457
25	0xbff45370f67432f8	-1.2703714015107703
26	0x3fe133aa8aa7b224	0.5375569065195731
27	0x3ff0cb6dad1d6d1c	1.0496651422789176
28	0xbff6d258c02d7474	-1.4263541705070368
29	0xbfd074b557649aa8	-0.25712331327887705
30	0x3fdaca706769aa0a	0.41860590075398874
31	0x3fdfd0164eb66899	0.4970756310154996
32	0xbffdf4e5fde2c53e	-1.8722896497168473
33	0xbffd5119afe9024a	-1.8322998877994388
34	0x3fee32f8f2b1944d	0.94372222329242
35	0xbff6e8909a71112e	-1.4317785294416114
36	0x3fa9e0f0db599259	0.05054428746806101
37	0x3fdc8c848f81b68e	0.4460765267784631
38	0x3ff0f499b6a38393	1.0597169050526858
39	0x3fe9903d6b4069e7	0.7988574118383526
40	0x3fe6f873c9a84362	0.7178286493891444
41	0xbfe4781261e231d0	-0.6396572028912093
42	0x3ffb3e3cc3569f5e	1.7026946669011163
43	0x3fdd77704ca13a82	0.4604149578416711
44	0x3ffe78919d43be95	1.9044357436322674
45	0xbff32ec3cc219539	-1.1989171956896156
46	0xbfdc03a83316f34a	-0.43772320737098325
47	0xbfcd7ba4a6de8500	-0.2303357901373957
48	0x3fcbd5f875d720da	0.21746736291812035
49	0x3fd8e4b9b6104bd6	0.3889602926221277
50	0xc0011af82dd28cc4	-2.138168676364872
51	0xbfd4d9b79eef565a	-0.32578840752589644
52	0xbfe208d133ad21c9	-0.563576317720668
53	0xbff0532fe8b3eccf	-1.0203093614534742
54	0xbfcb024477f0507f	-0.21100669723876206
55	0x3fcf4246a0ededb6	0.24421007974511405
56	0xbfd736709c8c5132	-0.3626977471151519
57	0xbff6cfeaae16d8a5	-1.425760917698008
58	0x3fe4a3c63d7f5ef1	0.6449919892429233
59	0xbfedb853ad47c798	-0.9287508377440075
60	0xbfd3702683dce644	-0.30372012021289074
61	0x3ff7f7427dd6eba7	1.4978661456686753
62	0x3fec815dd37164d6	0.8907918100113885
63	0x3ff174ec53cb213e	1.091045691793695
64	0x3ff488b1514c7882	1.2833722282153137
65	0xbfbab951eaccf3ba	-0.10439025862156273
66	0x3fe6930ff369b1aa	0.7054519418866694
67	0xbfe5ddc13c790925	-0.6833196812733929
68	0x3ff1db59e1d7a707	1.1160525152176335
69	0x3fed6cc1d5067e10	0.9195260201121886
70	0xbff673ae1529e971	-1.403242190047049
71	0x3ff6f4ab6021e675	1.4347337489292873
72	0xbfed2a77e12316bd	-0.9114341160972895
73	0xbfcdc74a026e208e	-0.23264432066594448
74	0x3fc8601106cc18ea	0.19043171722314095
75	0xbfb07cf82aa90263	-0.06440688172825441
76	0x3fc7928db7a661c3	0.18415996043473912
77	0x3fe3a760dce9a391	0.6141819300365673
78	0x3fe7e6f626da036e	0.7469435461826899
79	0x3fe9b90d9bc5d88d	0.8038394968450732
80	0xbfea06d6ecc0d2bb	-0.8133349060140839
81	0xbfe119764d71a0e7	-0.5343581688476008
82	0x3ffe547df05f394f	1.895627917244912
83	0x3feddb5a61341b69	0.9330264948374466
84	0x400040062c0e472d	2.0312617723328885
85	0xbfd98471d3c7d5ed	-0.39870877916049957
86	0xbfd9d6e42467c126	-0.40374091677860446
87	0x3fce508e7aae4b8e	0.23683339109683427
88	0x3fd7c6a7c2abc32b	0.3714999581416573
89	0x3fc1f16e5e9d3554	0.14018039340809685
90	0xbf8d3707e93ebdd5	-0.014265119367194249
91	0xbfe0fa75853b9bd2	-0.5305736162380248
92	0x3fec76fe148fc5e4	0.8895254518121729
93	0xbfe97df9f50fc6de	-0.7966279779777456
94	0xbfb5fd28b41b9853	-0.0858941497532169
95	0x3fede236262aaa93	0.9338637109224969
96	0x3fd5028eae3efb01	0.32828108802998207
97	0xbfe3d08ab3ff55b3	-0.6192067637991187
98	0x4000414da8c1ab16	2.0318864044287563
99	0x3fc277eff211f294	0.1442851955397556
100	0xbfe89ec0c45388e1	-0.7693790277956191
101	0x3fecab8d9c5ff218	0.8959415487475466
102	0xbfc34572168af87b	-0.1505568132469682
103	0xbf78c7badb0d7c52	-0.006049852280596362
104	0x3fea90253b913c86	0.8300958789276514
105	0x3ff3ef84cc51ae71	1.2459762555326075
106	0xbfe40924adc450f1	-0.6261161226161943
107	0x3fd02d025f720ae4	0.25274714775893714
108	0xbff116e9ab45cefc	-1.0680939379062115
109	0xbfeef4d8d245e8d6	-0.9673885447403119
110	0x3ff4f7903c8cbfca	1.3104402890421505
111	0xbfedf288b1254bd6	-0.9358561954380729
112	0xbfe63b0435be76f8	-0.694704155892139
113	0xbfe616ae9387551c	-0.6902687913340375
114	0xbff1a9c0237f0b0f	-1.1039430033276323
115	0xbfd58743cfc7c48a	-0.3363809136490735
116	0xbfed9b0b1c58cadd	-0.9251761964463544
117	0x3fe399eaa1af47d9	0.6125386388687232
118	0xbfaff689d82f30a5	-0.062427814140023664
119	0x3fd2c1f05aad3bc3	0.2930870900644857
120	0x3ff15982273afeef	1.0843526394309568
121	0xbfe801484e777818	-0.7501565487434645
122	0x3feed3b683119a13	0.9633438644348779
123	0x3ff8228dd05ae5da	1.5084360255117333
124	0x3ff52d64284225ab	1.3235818455308201
125	0x3fae59094302ce55	0.059273042135285316
126	0x3ff734c3b858b5fb	1.450381965736027
127	0x3ff23c7fd81fe0b8	1.1397703592647712
128	0x3fe09d91843fd97a	0.5192344267841655
129	0xbff187f6947582be	-1.095694141309806
130	0xbfb127da5a3e0438	-0.06701435759716012
131	0xbf9e6f9a25d02c4a	-0.029722603376324742
132	0x3fe1c14ac12231cb	0.5548452160015186
133	0x3fb51b5a82a8a2bc	0.08244863214407422
134	0xbff7481a3374443a	-1.4551031122139322
135	0xbfbf1aa873d1aa0a	-0.12150051906215978
136	0xbff245b51dfd2bc4	-1.1420184298938105
137	0x3ff50d84e3105316	1.315800559013217
138	0xbfedff69718e0f37	-0.9374282091016316
139	0x3feb5110ccd9096b	0.8536457062657922
140	0x3f9a569ab44cc0bb	0.025720994238498145
141	0x3fad2b39f12b5328	0.05697041577301426
142	0xbff7bd703397ef46	-1.483749581849183
143	0x40014126d13840b1	2.1568123193065607
144	0xbfda6c7d81b68547	-0.41287172000200595
145	0xbfd476dccb5abf25	-0.3197547899135194
146	0xbfec17e229eb073b	-0.8779154604637606
147	0xbfe4659f5f3a2e31	-0.6374050960452619
148	0x3fb6d15cca33d3ba	0.08913211762030829
149	0xbfe01ce31659a58e	-0.503526252415371
150	0x3fe44e865b8ff5b5	0.6345855511023532
151	0xbf7904cc022efe17	-0.006108090313261558
152	0xbfb8f99c3086cb0b	-0.097558748099612
153	0xbfe6fe3b46d0f42b	-0.7185341246728333
154	0x3ff6ac4586faa571	1.417058493864115
155	0x3fcdf7347bf13f33	0.23410659839509548
156	0xbfeda41ccffd1352	-0.926283270099342
157	0x4007a9c3484a15ac	2.9578920028313487
158	0xbffe5565fd152beb	-1.8958492170374892
159	0xbff3f10bcf1d885f	-1.2463491526073296
160	0x3ff9cd8494837d83	1.6126752663911652
161	0xbfcef26a1b812fd2	-0.24177290289878656
162	0xbfee561538ec5405	-0.9480081664829646
163	0x3f9422b244fc32d2	0.019663606129188
164	0xbfe943dfd4ec4405	-0.7895354422236102
165	0x3fe6ac22a0542463	0.7085126048488174
166	0x3ff6aa4869ada512	1.416572964483127
167	0xbfdaf0f93d9a4294	-0.4209578610980682
168	0x3fff00551fcc3087	1.937581180772243
169	0x3f3d720b688c8265	0.0004493024685406132
170	0x3fe739596f5ade26	0.7257506537343417
171	0x3ffb7a23a28bf7bd	1.717319140384901
172	0xbf909849cb1d151c	-0.016205933591909902
173	0xbff6b0477861a2c1	-1.418036909332088
174	0x3f825bf046f83fb8	0.008964421430419964
175	0xbfc898c147ed9ef1	-0.19216171276206453
176	0xbfd0964c316615ef	-0.2591734392557034
177	0x3fd538a452945fac	0.3315821463052042
178	0xbfe7c9d98cb62063	-0.7433898685712957
179	0xbfd1f4193886f8ed	-0.2805235912345683
180	0x4001b52c69d9764a	2.2134636182297855
181	0x3fed55bafddb5d00	0.9167151411192265
182	0xbff1f6dad15405f8	-1.122767274559349
183	0xbff479e4f36268b9	-1.2797593600467236
184	0xbfb8ced3e43ab72f	-0.09690594026571085
185	0xbf9b58037e2fef7c	-0.026702932907923124
186	0xbfeea412234352bc	-0.9575281800012685
187	0xbff0983b36a5cea3	-1.037165845363156
188	0xc0049263a492c0e3	-2.5714791161809543
189	0xc0025a5f2c4246d4	-2.2941268403745685
190	0xbfdb4da00828bd95	-0.4266128616027001
191	0xbff8919e235cc581	-1.5355512029021556
192	0xbffd6eeb467c6618	-1.8395798447949172
193	0x3ffc6feef4d5deea	1.7773274959453667
194	0xbfbca1b8ac7e431a	-0.1118426724554066
195	0x4001417dc0dcb6eb	2.1569781367642142
196	0xbff7f132e0ba732c	-1.4963864115190502
197	0x3ff03f7f50d1a74e	1.015502277087268
198	0x3feb09f28acfc887	0.8449642859616383
199	0xbff3992c01cb7c96	-1.2248954839813329
200	0x3fee115963468ddf	0.9396178187347991
201	0xbfa4f463dc352475	-0.040927048331078554
202	0xbfd0f55ebdda8ca1	-0.26497620144273
203	0xbfd355a3b37cd194	-0.30210201767047207
204	0xbfeae28de84a2ee6	-0.8401555573377351
205	0xbfc22e539c161bc8	-0.1420387756481587
206	0x3ff2747a893929f1	1.1534371719632157
207	0xbfcc05b09be55ffd	-0.21892364132031608
208	0xbfd91632fa9ca2f4	-0.39197992776693913
209	0x3fe13eef3b2482a9	0.5389324336175224
210	0xbfeec031fbaf2037	-0.9609613338188926
211	0x3fe40f413e74047d	0.6268621654309211
212	0x3fe07168919e0a22	0.5138438076103891
213	0xbfe4bd6e8bd248c2	-0.6481240015875971
214	0xbfe7bdc302193511	-0.7419142762170471
215	0xbff0250f80c4a760	-1.0090479879385938
216	0x3fdff57c77161b0d	0.4993582880928649
217	0x3feb7a5976e03dfd	0.858685238055784
218	0xbff3e235e76e2629	-1.2427271881337083
219	0x3fea398d0fac6ac9	0.8195252710459836
220	0x3ff2a2374af5fe04	1.1646035125885428
221	0xbff8a2bed4513906	-1.539732770313607
222	0x3ffc4cf52a703925	1.7687884958027749
223	0xbfd9721520f84974	-0.3975880453082461
224	0x3fbbe27a5284db24	0.10892452730773222
225	0x3fd9fba594269ec2	0.4059843012605421
226	0xbff2bd305ea290d8	-1.1711887070351192
227	0xbfada724fd236e3c	-0.0579158362395131
228	0x3fdc6187d5417358	0.44345279527424486
229	0xc000d7b88913850e	-2.1053324421960786
230	0x3ff4c111b5ae7af5	1.2971360299049455
231	0xbffb63c6c3a132b1	-1.7118594781669965
232	0xbfe13180aa60f534	-0.5372927978238864
233	0x3fc560d7ccb1a844	0.16701791281531275
234	0xbff4d6fbbbebf238	-1.3024861660661724
235	0x3fe180ad6274d7b1	0.5469576762177352
236	0xbf4c185998f30b4a	-0.0008573949325171107
237	0xbfe831620e073f85	-0.756028201483773
238	0xbfe0ba931fea775d	-0.5227752326352221
239	0xbff28ec0d28551db	-1.1598518584697703
240	0x3fed4f1d514b86be	0.9159075343888714
241	0xbfc7393bcf156b8c	-0.1814341317320579
242	0x3fe91b4410897f3b	0.7845783541670025
243	0xbfc167cb3f9b9a5f	-0.13598003965235514
244	0xbffbd863fb3a0f32	-1.740329724650064
245	0xbfdf80cde2d2d6c1	-0.49223658705464507
246	0x3fdc4eaa07aa2ace	0.44230128048427
247	0xbff074d825875db3	-1.0285264459579195
248	0x3fea08a79c518c58	0.8135564854714046
249	0xbfb71d04a4b2e5ce	-0.09028653164832365
250	0xbf67c8d0cc1cedf0	-0.0029033735344492426
251	0xbfe9fefe2e818744	-0.8123770626373035
252	0x3fe4eef273366179	0.6541683435671494
253	0xbfbc4e4813f2b5cf	-0.11056948172582469
254	0x3ff2b1bdf5577568	1.1683940490396143
255	0xbffe05d415131310	-1.8764229605887444
