MACE_models/mace_PracI_Sec3_200conf_compiled.model (torch, 731895 bytes, 51 tensors)

r_max f8 []
00000000: 0000 0000 0000 1040
4.0

weight f8 [96]
00000000: e259 6db4 23d4 db3f 8142 2dd1 3119 d03f
00000010: 0519 cd0e 9834 e13f 3ea8 6163 af8f d73f
00000020: ba3d d6a7 97bd e03f 2405 5188 8c18 c23f
00000030: 0b02 16ef 6b3d e33f 7d31 e65c 5b60 efbf
00000040: 8e7d 4dbe 6eaa d6bf 60b4 e273 6045 b83f
00000050: d55e 93a8 1dbf f4bf aeb1 2dd6 b52c d83f
00000060: 8548 f101 96eb f23f 32da 8ade 8c90 f43f
00000070: e58a 551e 2bd2 f43f 1a3f 1cb2 97ad e43f
00000080: bc07 cabb d163 f9bf 2e3a 4761 00ff e4bf
00000090: 4c1c 73f5 44a0 f23f 3f7f 731e 84c5 eabf
000000a0: fd2a c21d c639 dcbf 9711 3aa1 1870 973f
000000b0: 8a93 8982 af65 eebf 6af9 87b8 00aa c63f
000000c0: f862 a86e b4ed e1bf 13a1 b850 aa1e df3f
000000d0: 109d fcae 4480 d7bf dd0b b8fe a361 a0bf
000000e0: 7e08 a31c 8a55 bdbf 6ae9 d9f9 8b06 f83f
000000f0: ce24 d916 fc0a f3bf e893 30c7 82bb ed3f
00000100: e7f9 44a0 4897 ed3f 2212 62ca 422a a73f
00000110: 9dc9 5790 9648 c33f 5ea3 8f91 8338 f0bf
00000120: 766b 901a bf71 cd3f 170c a494 e2a4 f63f
00000130: 8f17 efd5 b543 b3bf a887 9c48 850e fabf
00000140: 1bc4 38ed 8dbd ebbf 9308 5161 4f70 e1bf
00000150: 3453 f411 7e83 dcbf d491 cfc7 e27c e2bf
00000160: 8a44 e2c9 fa80 de3f 1ea6 0782 7db1 dfbf
00000170: 8589 e29f f59c f83f 2c3a fb21 b696 e13f
00000180: 8993 cca3 5586 0040 bbd4 5a36 6a1e d3bf
00000190: 6d40 1aba 3aea d53f 1af5 9ba7 c2f6 e1bf
000001a0: 7ab1 52e2 f38d a7bf 7981 0582 71aa ec3f
000001b0: 26b7 71d6 5af3 ef3f 2f0c 73d7 5f16 d33f
000001c0: 7341 a8b8 1475 e53f 1395 46aa 1261 e43f
000001d0: c557 b8ea 0276 c9bf 3fe1 de97 8aec eb3f
000001e0: 7654 08f5 fc2f d7bf 1aa2 d302 7f4b c1bf
000001f0: fec5 d2a2 f117 06c0 266a 7626 a1b0 00c0
00000200: 4bf6 c3aa 9f9a dcbf f7c1 ae00 1031 e6bf
00000210: 92cc 8b30 4a71 cd3f b149 00d8 58a3 66bf
00000220: 0d19 9267 b43e e3bf d4da aaa6 c79b f0bf
00000230: 5863 a8ed ee2a b23f b945 146c b804 ebbf
00000240: cda3 ec2d 6985 e0bf 70bf 44f7 6c31 bbbf
00000250: e306 3baa 3eed d0bf 69fb ec40 b672 d13f
00000260: f9a0 470c 0e29 0040 0793 77ea 1a75 b0bf
00000270: 89ae 7ac4 25a2 cc3f 5ec2 216a 14d7 bf3f
00000280: 1c10 dff7 1983 ee3f 8c5e 3338 45e9 e7bf
00000290: 250d 9a62 1113 cf3f 8786 25d3 8902 fabf
000002a0: 6f75 303c b889 f53f 3418 e75d ab6d d3bf
000002b0: 9214 d20d e8a3 f33f 40cd b977 5f2c e2bf
000002c0: c761 d71a f100 fd3f 3998 133a 55a4 99bf
000002d0: fb7a 1607 8885 ecbf df5b df6c 550a c4bf
000002e0: 6bc9 b6e8 3284 ebbf 1c9d 315c e2f5 f9bf
000002f0: e5c2 beb7 0254 03c0 f73c 5bf4 d70f e5bf
0.434822965811149 0.2515377562276982 0.5376701630673614 0.36814484315130247 0.5231436040939379 0.14137417465284685 0.6012477559707475 -0.980512315219627
-0.35415237983939896 0.09480860547292158 -1.296659143923468 0.3777289001070824 1.182516105258885 1.2852905934393104 1.3013106522491225 0.6461904982297455
-1.5868699393763412 -0.656128110882326 1.1641282642247175 -0.836610850787089 -0.44102623849964556 0.022888550606255356 -0.9499127912100545 0.17706307421026263
-0.5602667008671167 0.48624666102343034 -0.36720387543250954 -0.031994938701266774 -0.11458647917882733 1.5015983352482984 -1.1901818172939786 0.9291395082879008
0.9247172479879823 0.04524430008408255 0.15065271423334262 -1.0137973485927527 0.2300337676723207 1.4152551466256733 -0.07525192711827187 -1.6285450779327935
-0.8668889649617343 -0.5449597264016738 -0.4455256629310498 -0.5777448561244065 0.4766222926637701 -0.4952081460783989 1.538320183325227 0.5496473945330016
2.0655930325323806 -0.29873137767874497 0.34242122816158976 -0.561372115480171 -0.04600488794071374 0.895806077907806 0.9984564007151888 0.2982406238554089
0.6705421072565926 0.636849720544577 -0.19891392193738802 0.872624680158914 -0.36230396203001847 -0.1351164592554291 -2.761691352898878 -2.086244869698265
-0.44693748165432073 -0.6934890759785607 0.23001983042158664 -0.0027634368161752678 -0.6014043829789287 -1.038032198948419 0.07096761038009214 -0.8443262206002863
-0.5162855050049245 -0.10622292553739299 -0.2644802725227306 0.272626460460677 2.020046325622499 -0.06428688263219949 0.22369834989273255 0.12437560645208509
0.9535035935628033 -0.7472253892583054 0.24276940645732129 -1.6256197212136685 1.346122965921804 -0.30356868906199286 1.2275162258022516 -0.5679166162866878
1.8127299355020214 -0.02504094283076361 -0.891300214618098 -0.15656535926856827 -0.8598875565715337 -1.6225303269691898 -2.4160208087053996 -0.658184029825775

output_mask f8 [32]
00000000: 0000 0000 0000 f03f 0000 0000 0000 f03f
00000010: 0000 0000 0000 f03f 0000 0000 0000 f03f
00000020: 0000 0000 0000 f03f 0000 0000 0000 f03f
00000030: 0000 0000 0000 f03f 0000 0000 0000 f03f
00000040: 0000 0000 0000 f03f 0000 0000 0000 f03f
00000050: 0000 0000 0000 f03f 0000 0000 0000 f03f
00000060: 0000 0000 0000 f03f 0000 0000 0000 f03f
00000070: 0000 0000 0000 f03f 0000 0000 0000 f03f
00000080: 0000 0000 0000 f03f 0000 0000 0000 f03f
00000090: 0000 0000 0000 f03f 0000 0000 0000 f03f
000000a0: 0000 0000 0000 f03f 0000 0000 0000 f03f
000000b0: 0000 0000 0000 f03f 0000 0000 0000 f03f
000000c0: 0000 0000 0000 f03f 0000 0000 0000 f03f
000000d0: 0000 0000 0000 f03f 0000 0000 0000 f03f
000000e0: 0000 0000 0000 f03f 0000 0000 0000 f03f
000000f0: 0000 0000 0000 f03f 0000 0000 0000 f03f
1.0 1.0 1.0 1.0 1.0 1.0 1.0 1.0
1.0 1.0 1.0 1.0 1.0 1.0 1.0 1.0
1.0 1.0 1.0 1.0 1.0 1.0 1.0 1.0
1.0 1.0 1.0 1.0 1.0 1.0 1.0 1.0

bessel_weights f8 [8]
00000000: 182d 4454 fb21 e93f 182d 4454 fb21 f93f
00000010: d221 337f 7cd9 0240 182d 4454 fb21 0940
00000020: 5e38 5529 7a6a 0f40 d221 337f 7cd9 1240
00000030: 75a7 bbe9 bbfd 1540 182d 4454 fb21 1940
0.7853981633974483 1.5707963267948966 2.356194490192345 3.141592653589793 3.9269908169872414 4.71238898038469 5.497787143782138 6.283185307179586

r_max f8 []
00000000: 0000 0000 0000 1040
4.0

prefactor f8 []
00000000: cd3b 7f66 9ea0 e63f
0.7071067811865476

p f8 []
00000000: 0000 0000 0000 1440
5.0

r_max f8 []
00000000: 0000 0000 0000 1040
4.0

atomic_energies f8 [3]
00000000: 7a18 469c 176a 25c0 bb72 1c16 796c 48c0
00000010: 87ab 5a17 8ea4 59c0
-10.707211383396714 -48.847445262804705 -102.57117256025786

weight f8 [1024]
00000000: 4008 b2f5 f0e4 f2bf 1fec 1c2e b47e f93f
00000010: 282b 4039 278d d3bf 3065 951c b4be e83f
00000020: 324e 7135 d826 fd3f 234e 2275 e87b df3f
00000030: d34e 21fa cf24 e73f 1ebb de51 b7a6 d8bf
00000040: e8c7 ce9d c2dc e53f e386 d7d5 bc3d f2bf
00000050: 8940 48c9 500a e6bf 6703 cb5d 03d1 e73f
00000060: f5fc 8498 a315 f2bf f64f 2e1a 1873 e33f
00000070: 30a7 763f f40f 00c0 7fe6 338b 4fc1 a73f
00000080: b98a 1fa5 4674 e13f 761a 17b1 5e9f c23f
00000090: 62e9 94cb 91b7 f63f 51d8 d09c 212f ea3f
000000a0: d86c 23ae c9ea f73f 3576 f9d2 fee1 dfbf
000000b0: a8b8 9a2c 37ba f0bf cc82 085e a86e da3f
000000c0: 27a0 df0c 2674 e63f 94f9 48ea b708 d13f
000000d0: 979a bdab a8c4 c83f 0db2 ce5e 251c 633f
000000e0: 38b3 9538 64dd f43f e93e ac48 6a02 a03f
000000f0: eb0f f425 6283 da3f a6ab 5bce b8c7 e2bf
00000100: 13d7 8acb 4f98 b3bf 178c e582 762c e83f
00000110: 0ff0 3e38 d736 da3f c2f2 ad9c 452d ec3f
00000120: a7e6 5251 3574 e63f b4fa 7be5 8d76 ee3f
00000130: 5210 83e1 d529 9cbf fa6c f42d fc0e d9bf
00000140: 3018 5acf e8e9 fb3f 8340 edc8 4bf3 ddbf
00000150: bbc5 8a40 83a8 d0bf bb57 e7b5 f7da fabf
00000160: d08c 846f 35a5 e13f 1272 cdf0 c0b1 cbbf
00000170: d747 566d 19ef e0bf 2c22 5fbc 073f ef3f
00000180: f733 3712 4ea7 f03f d31c daa7 a35f c9bf
00000190: 0f7d 0fc0 855f e8bf 00e6 71ac 03e9 e23f
000001a0: f4e7 dbaa f293 dcbf 29fd 8208 a1fa f0bf
000001b0: aeb4 c8c5 a204 fc3f 181e b7ee 6b3c c53f
000001c0: e601 0da7 bba5 f4bf b89a e9da 988f e4bf
000001d0: 95a2 8f32 6d24 cc3f b9ef 9109 b279 ec3f
000001e0: 90cc 1583 301f e9bf ed25 e88d bf78 fb3f
000001f0: ff1e 50b2 1573 eb3f 6dc5 968c be20 efbf
00000200: 6f3b 8cba ff94 f2bf 8ba7 a39e b377 e9bf
00000210: 7b5e 7aaa 11f1 c3bf 0188 7e6c 2373 f83f
00000220: a699 0743 01c0 d93f b0e6 e03a c736 febf
00000230: 0140 68a7 7936 e0bf 1472 7719 3724 f8bf
00000240: 8491 58ae 692b c73f 1f5a 55de 2c00 01c0
00000250: ef09 9eb3 12b4 de3f 09c9 4213 3d36 f63f
00000260: e25b 90de 87ba c83f af46 e512 2e63 e43f
00000270: 82ee 5eb7 22f4 e13f 4515 7e25 6470 e73f
00000280: 9c05 9e66 3469 f4bf 1841 3bf3 c6dc dfbf
00000290: a264 8868 0685 e43f d2b4 4640 c47b f5bf
000002a0: 46a3 25fa 58cb f3bf 4a27 192b b63e a9bf
000002b0: 9ab6 c26f 403f f23f 036b 0340 dd89 f23f
000002c0: 53ef 1c81 8cee c33f 1667 65f6 d2ea e9bf
000002d0: 12c1 0884 3115 0140 1123 a894 82bc 01c0
000002e0: d362 05ed 7033 e6bf 4287 4eb6 4500 e83f
000002f0: d2f7 305e db7e dc3f ba84 8a41 d19e dabf
00000300: 94f4 4a20 dfcf b5bf 02d0 313f 90c0 c3bf
00000310: f9c9 06aa 0e3d d23f 0742 8e27 866b eb3f
00000320: 1e99 bd25 4b30 e5bf af7d fcd9 fd11 e23f
00000330: 550e 1a1d 750a da3f ba00 9469 1b51 cabf
00000340: 127f 3f04 932a e13f 5f26 f0cc 2534 02c0
00000350: e8b1 e6c7 ee35 be3f 622f a16e 0684 b1bf
00000360: 46a9 5363 4817 01c0 4f6b 2f30 069b d23f
00000370: d282 f091 243e f53f 71ff 113e 4732 ed3f
00000380: b6db 3ae5 0b30 d23f c823 f444 6642 f43f
00000390: bf70 d40e 0d8e e8bf 1f94 5f0a c66b b23f
000003a0: 4f8f efef e2da e8bf 461c b94b acdf dfbf
000003b0: e7f0 32d2 619c febf 6344 097a 5eac ddbf
000003c0: c16b 4d02 8a8a cebf bad3 9bd6 cc27 e33f
000003d0: 6fcb e16b 0a08 f6bf 7c4f 2c76 5c55 e8bf
000003e0: f558 8f7c 08bb d2bf dd46 79b1 1d81 a1bf
000003f0: 6d91 3d86 8ea0 e4bf 00ff 6547 9758 e1bf
00000400: 00c7 5356 211e fd3f 07ba 6305 7ede 00c0
00000410: 89af b1c4 b4ef f13f 4f6f a499 216f f5bf
00000420: 66d7 ec6c 0499 e7bf 53fc c45d bfc9 d93f
00000430: 8030 25a8 c423 0540 8c8b 4764 e582 e3bf
00000440: d70a fdc6 1a8e e3bf f227 3be4 e9bc 0340
00000450: 71e9 6bf1 0600 e3bf 6e72 3e43 afba c73f
00000460: 74c8 3e58 59e9 e13f be1c 3d08 d829 0340
00000470: 8c44 e55f 863a f4bf 87be 14c5 37b8 f4bf
00000480: 7a30 f578 b624 d53f c302 7b92 d2c7 e43f
00000490: 5be3 e1f6 6373 d3bf fc85 5667 392c ee3f
000004a0: 023f 4f4b 7386 f8bf 4093 d932 32a4 d2bf
000004b0: a682 6e72 e956 d53f 8051 416c adf9 cfbf
000004c0: b1ca a082 9b7c ed3f 5f67 8649 c82a c23f
000004d0: 52b8 2d79 0c4d 973f 3f53 afec c4f0 cc3f
000004e0: b5c9 6d5c 92c4 debf ea48 83e7 3464 07c0
000004f0: 8bc7 d9a3 0b29 eb3f 637c 13f9 8bd8 c53f
00000500: 541f 82d4 8337 fcbf f764 2ad4 9191 d7bf
00000510: d525 f800 7dd0 f63f 3c48 f177 51be ed3f
00000520: cb43 2b32 ce5f c2bf a0a2 0578 cc11 b73f
00000530: 2d16 1916 6170 fb3f 40dc 85b5 8a1f ee3f
00000540: 65be 3810 5ba4 dcbf 33f7 e2fa 3dfb f73f
00000550: af4b 97b5 df0d d9bf 6508 a4a6 d39e f13f
00000560: 16e9 7d0a d5fc e8bf 2e3a 8c42 3457 e03f
00000570: b599 fc60 a23a d6bf f0c9 793b 3e3b d8bf
00000580: d8cf 36b3 7826 da3f 6e2a 1f13 4d7d 0940
00000590: 7a09 557c 1dc4 f03f 4ce3 7bdd 65b9 f4bf
000005a0: 7e72 df6d 5373 f73f e850 cba7 6336 d53f
000005b0: 788a c062 9868 d7bf e0fb 6bdf 0530 e13f
000005c0: e95a ab25 da98 d8bf e39a e72e 9eaf a23f
000005d0: 9971 83d0 5af1 c63f a787 4cef 7627 f6bf
000005e0: 2048 6d64 2a30 b5bf ec4b 3f71 78d8 e73f
000005f0: c71e 20af 9877 ebbf 40df 11e9 dfd4 f73f
00000600: 5ef4 9d5c 66eb eabf 5eef 01ad 1d05 bfbf
00000610: eaa5 5744 1962 e23f cbc8 6e04 3a12 f5bf
00000620: 2671 5ba2 02a8 e1bf 567e b3db 765e d93f
00000630: ef90 e93d d701 f23f c8a2 b5ae 4274 cbbf
00000640: 47a6 2a44 9021 e13f 7495 2c02 a79d d4bf
00000650: 3d79 45cf 81a1 ecbf f347 1948 2d7e e5bf
00000660: 765f 8bfd acdc b83f 1185 8024 1102 b6bf
00000670: e474 45a5 c752 efbf ac1d b0ca c39e e0bf
00000680: 4d78 ee0e 0b07 de3f 131a 69e8 db8a cebf
00000690: 7b9e 9b73 69c4 f43f 61f7 21aa 9b5d fcbf
000006a0: 0ef7 f658 668f a0bf 1e5b 63f6 5245 fd3f
000006b0: 82b3 f343 584a cc3f 6a49 08ec 7b73 f13f
000006c0: b3a5 d787 8909 ffbf 731e 5f24 c541 e73f
000006d0: 1656 d4f7 bd52 e7bf 3702 7578 e6a4 e53f
000006e0: 4061 3d3a 9350 f03f 0167 479b 2aea c03f
000006f0: 274f d37c f62f fbbf 22fe 026d 5c55 ed3f
00000700: 80f3 03f3 3e16 e3bf 89d5 53d2 4801 01c0
00000710: 9fa9 1827 f2ff f6bf 0b9f c903 8ae8 e43f
00000720: 342b 90af 3a76 d33f b3d5 4cf3 6d1d d33f
00000730: 903a 56ca c11b db3f 7894 6c87 d2f8 ee3f
00000740: ecbe 7d7c 6882 60bf 5fe3 e85f 6188 ce3f
00000750: f14c 2898 37c7 c63f cfe0 9a9e 09c4 e6bf
00000760: 2ea2 4b86 d1e7 f93f 31d0 2bde 2584 d5bf
00000770: 2726 d811 aeb9 f63f eb37 acbd 9eb6 e9bf
00000780: 907b c055 534a e63f b371 b81c 97cb f43f
00000790: 6930 8897 d074 d83f 435d 86d8 0ea9 c53f
000007a0: 0925 9810 385a ec3f 6f40 17cf c270 f13f
000007b0: c7c4 4047 10d3 dabf b29d 631c 1611 debf
000007c0: 8050 c3c1 0243 ecbf 6313 758a 7300 f33f
000007d0: 2c0f b75c 4d6c eabf 499f c3b0 4ac4 c8bf
000007e0: 4546 7193 3b3b dbbf 3733 2ca9 738c e93f
000007f0: 768d a26e 1084 ef3f 3ab3 d46c 77c3 f7bf
-1.1808938596227705 1.5934335519111824 -0.30549030867466564 0.7732792433045343 1.8219835364915409 0.49193774641864446 0.7232437024453823 -0.3851755427848945
0.6831982690985088 -1.1400726655196471 -0.6887592250150344 0.7442643005270896 -1.1302829702179313 0.6077995787950374 -2.007790084656243 0.04639671873333117
0.5454438424170213 0.1454885830591654 1.4198167755517592 0.8182533324059112 1.4948212435036137 -0.498168664960619 -1.045462774501667 0.41300400908407364
0.7016783000408439 0.26615713004493924 0.19350155244611209 0.0023327569856148645 1.3040506563513201 0.03126842629546706 0.41426900583633025 -0.5868801145965008
-0.07654284209533228 0.7554276043487133 0.40959721081503714 0.8805263576646996 0.7016855800968259 0.951971958362114 -0.027503339661749067 -0.39153961646816493
1.7446067905125453 -0.4679746114898153 -0.2602851991933581 -1.6784588914501757 0.5514170816499249 -0.21636211164413105 -0.5291869292725505 0.9764441184170827
1.0408459388302143 -0.19823117919825126 -0.7616604567701034 0.5909441345276605 -0.4465300243897439 -1.0611887295234033 1.7511317945421 0.1659064212419572
-1.2904621625349306 -0.6425289416918849 0.2198616501693961 0.8898554026522937 -0.7850573120362174 1.7169795554385658 0.8577984316516164 -0.9727471109273843
-1.1613766943953256 -0.7958620165274949 -0.15579434227105424 1.5281099546486987 0.40234405084484093 -1.8883735942785442 -0.5066498059914012 -1.5088416094578223
0.18101235402094684 -2.1250855798528074 0.4797407869411065 1.3882418396356704 0.19319246642473248 0.6371069306425933 0.56105171026816 0.732469628551066
-1.275684738968585 -0.49785016778061353 0.6412384072929351 -1.3427164564885072 -1.2371454020851202 -0.049306576500909374 1.1404423108719244 1.1586582661172435
0.15571743301722538 -0.809915047876731 2.135348350064427 -2.217045937901624 -0.6937794331853077 0.7500332413367021 0.44524273107879 -0.4159434452104268
-0.08520311869047453 -0.15431407056496488 0.2849766407408932 0.8568754932949226 -0.6621452080842436 0.5646962411446362 0.40688827363940067 -0.20560019164259363
0.5364470560998333 -2.2754627238071374 0.11801044826888296 -0.06842079354208644 -2.1363685378939037 0.29071192460621814 1.3276715946923798 0.912387486678183
0.28418252359136476 1.266210812902715 -0.7673402108807962 0.07195699456458769 -0.7767195402379715 -0.49802691836197643 -1.9131792269609436 -0.4636455718765033
-0.2386028777353584 0.5986084167076264 -1.3769630636349708 -0.7604200656955835 -0.2926655975728772 -0.034188201822542764 -0.6445992109188815 -0.5420643229008135
1.8198560115965279 -2.1086388035830654 1.1210220034945186 -1.3396316529896983 -0.7374288680500569 0.4029386916844874 2.642464936861927 -0.6097285231193026
-0.6110967527859782 2.4672429876854887 -0.5937533107055925 0.18538466246981805 0.5597349856891598 2.3954315799379335 -1.2642883058472618 -1.2949750612714597
0.33036577045709914 0.6493924008319357 -0.30391787633521056 0.9428984659500084 -1.532824796846342 -0.29127173391161776 0.33342968153923846 -0.24980705057044972
0.9214608718233049 0.1419306143769132 0.022754855056909946 0.2260976939857304 -0.4807477858186318 -2.9239290320339153 0.8487604332169537 0.17067098295135272
-1.7635534573655223 -0.36825986594483545 1.4259004629005763 0.929482206595146 -0.14354875039728507 0.09011533670639915 1.7149363387301364 0.9413503213280663
-0.4475314768232919 1.4988384056336599 -0.391471793494186 1.1012760648159425 -0.7808633046072682 0.510645036674594 -0.3473287531982366 -0.37861591156175134
0.40859811307313754 3.1861821645628003 1.0478796822286243 -1.295263161822919 1.4656557361514895 0.33144465814736046 -0.36575898784409544 0.5371121753413455
-0.3843293540825657 0.03649610827033258 0.1792405622608271 -1.3846349094023738 -0.0827661986525361 0.7451746188984294 -0.8583491726321534 1.489471350125271
-0.8412353333402611 -0.12117181276147224 0.5744749388515491 -1.3169498608736372 -0.5517590685881586 0.3963906426924714 1.1254494112445703 -0.21448548823106806
0.5353471118334675 -0.32212233745880003 -0.894715218378941 -0.6716524513415137 0.09711724462556312 -0.08596903935587742 -0.9788549640612954 -0.5193804701565816
0.4691798826041847 -0.23861264084025943 1.2979521289761624 -1.7728535314376688 -0.03234405361170732 1.8294248222861778 0.22101882284132662 1.0906943531050168
-1.9398284250586186 0.7267785749799728 -0.728850349466202 0.6763794281651546 1.0196716570845439 0.1321461923787908 -1.6992096782677863 0.9166700486311508
-0.5964655634303284 -2.125627177413382 -1.4374867942047798 0.6533861230827552 0.30409114022102135 0.29867123374728094 0.4235691524453751 0.967873825550341
-0.0020153084514545807 0.23853699858752983 0.17795462541162224 -0.7114303682092443 1.6190963025966414 -0.33619066902543 1.4203320214313722 -0.8035424904389833
0.6965729403344643 1.2997046586889212 0.38212981031461496 0.169221740460424 0.8860130619151799 1.0900295342908313 -0.41913229902554544 -0.4697928693044232
-0.8831800255234299 1.187610188340124 -0.8257204829064668 -0.19349034911214805 -0.42549027823142566 0.7983949951318213 0.9848711167182234 -1.4852213145451985

output_mask f8 [32]
00000000: 0000 0000 0000 f03f 0000 0000 0000 f03f
00000010: 0000 0000 0000 f03f 0000 0000 0000 f03f
00000020: 0000 0000 0000 f03f 0000 0000 0000 f03f
00000030: 0000 0000 0000 f03f 0000 0000 0000 f03f
00000040: 0000 0000 0000 f03f 0000 0000 0000 f03f
00000050: 0000 0000 0000 f03f 0000 0000 0000 f03f
00000060: 0000 0000 0000 f03f 0000 0000 0000 f03f
00000070: 0000 0000 0000 f03f 0000 0000 0000 f03f
00000080: 0000 0000 0000 f03f 0000 0000 0000 f03f
00000090: 0000 0000 0000 f03f 0000 0000 0000 f03f
000000a0: 0000 0000 0000 f03f 0000 0000 0000 f03f
000000b0: 0000 0000 0000 f03f 0000 0000 0000 f03f
000000c0: 0000 0000 0000 f03f 0000 0000 0000 f03f
000000d0: 0000 0000 0000 f03f 0000 0000 0000 f03f
000000e0: 0000 0000 0000 f03f 0000 0000 0000 f03f
000000f0: 0000 0000 0000 f03f 0000 0000 0000 f03f
1.0 1.0 1.0 1.0 1.0 1.0 1.0 1.0
1.0 1.0 1.0 1.0 1.0 1.0 1.0 1.0
1.0 1.0 1.0 1.0 1.0 1.0 1.0 1.0
1.0 1.0 1.0 1.0 1.0 1.0 1.0 1.0

output_mask f8 [288]
00000000: 0000 0000 0000 f03f 0000 0000 0000 f03f
00000010: 0000 0000 0000 f03f 0000 0000 0000 f03f
00000020: 0000 0000 0000 f03f 0000 0000 0000 f03f
00000030: 0000 0000 0000 f03f 0000 0000 0000 f03f
00000040: 0000 0000 0000 f03f 0000 0000 0000 f03f
00000050: 0000 0000 0000 f03f 0000 0000 0000 f03f
00000060: 0000 0000 0000 f03f 0000 0000 0000 f03f
00000070: 0000 0000 0000 f03f 0000 0000 0000 f03f
00000080: 0000 0000 0000 f03f 0000 0000 0000 f03f
00000090: 0000 0000 0000 f03f 0000 0000 0000 f03f
000000a0: 0000 0000 0000 f03f 0000 0000 0000 f03f
000000b0: 0000 0000 0000 f03f 0000 0000 0000 f03f
000000c0: 0000 0000 0000 f03f 0000 0000 0000 f03f
000000d0: 0000 0000 0000 f03f 0000 0000 0000 f03f
000000e0: 0000 0000 0000 f03f 0000 0000 0000 f03f
000000f0: 0000 0000 0000 f03f 0000 0000 0000 f03f
00000100: 0000 0000 0000 f03f 0000 0000 0000 f03f
00000110: 0000 0000 0000 f03f 0000 0000 0000 f03f
00000120: 0000 0000 0000 f03f 0000 0000 0000 f03f
00000130: 0000 0000 0000 f03f 0000 0000 0000 f03f
00000140: 0000 0000 0000 f03f 0000 0000 0000 f03f
00000150: 0000 0000 0000 f03f 0000 0000 0000 f03f
00000160: 0000 0000 0000 f03f 0000 0000 0000 f03f
00000170: 0000 0000 0000 f03f 0000 0000 0000 f03f
00000180: 0000 0000 0000 f03f 0000 0000 0000 f03f
00000190: 0000 0000 0000 f03f 0000 0000 0000 f03f
000001a0: 0000 0000 0000 f03f 0000 0000 0000 f03f
000001b0: 0000 0000 0000 f03f 0000 0000 0000 f03f
000001c0: 0000 0000 0000 f03f 0000 0000 0000 f03f
000001d0: 0000 0000 0000 f03f 0000 0000 0000 f03f
000001e0: 0000 0000 0000 f03f 0000 0000 0000 f03f
000001f0: 0000 0000 0000 f03f 0000 0000 0000 f03f
00000200: 0000 0000 0000 f03f 0000 0000 0000 f03f
00000210: 0000 0000 0000 f03f 0000 0000 0000 f03f
00000220: 0000 0000 0000 f03f 0000 0000 0000 f03f
00000230: 0000 0000 0000 f03f 0000 0000 0000 f03f
00000240: 0000 0000 0000 f03f 0000 0000 0000 f03f
00000250: 0000 0000 0000 f03f 0000 0000 0000 f03f
00000260: 0000 0000 0000 f03f 0000 0000 0000 f03f
00000270: 0000 0000 0000 f03f 0000 0000 0000 f03f
00000280: 0000 0000 0000 f03f 0000 0000 0000 f03f
00000290: 0000 0000 0000 f03f 0000 0000 0000 f03f
000002a0: 0000 0000 0000 f03f 0000 0000 0000 f03f
000002b0: 0000 0000 0000 f03f 0000 0000 0000 f03f
000002c0: 0000 0000 0000 f03f 0000 0000 0000 f03f
000002d0: 0000 0000 0000 f03f 0000 0000 0000 f03f
000002e0: 0000 0000 0000 f03f 0000 0000 0000 f03f
000002f0: 0000 0000 0000 f03f 0000 0000 0000 f03f
00000300: 0000 0000 0000 f03f 0000 0000 0000 f03f
00000310: 0000 0000 0000 f03f 0000 0000 0000 f03f
00000320: 0000 0000 0000 f03f 0000 0000 0000 f03f
00000330: 0000 0000 0000 f03f 0000 0000 0000 f03f
00000340: 0000 0000 0000 f03f 0000 0000 0000 f03f
00000350: 0000 0000 0000 f03f 0000 0000 0000 f03f
00000360: 0000 0000 0000 f03f 0000 0000 0000 f03f
00000370: 0000 0000 0000 f03f 0000 0000 0000 f03f
00000380: 0000 0000 0000 f03f 0000 0000 0000 f03f
00000390: 0000 0000 0000 f03f 0000 0000 0000 f03f
000003a0: 0000 0000 0000 f03f 0000 0000 0000 f03f
000003b0: 0000 0000 0000 f03f 0000 0000 0000 f03f
000003c0: 0000 0000 0000 f03f 0000 0000 0000 f03f
000003d0: 0000 0000 0000 f03f 0000 0000 0000 f03f
000003e0: 0000 0000 0000 f03f 0000 0000 0000 f03f
000003f0: 0000 0000 0000 f03f 0000 0000 0000 f03f
00000400: 0000 0000 0000 f03f 0000 0000 0000 f03f
00000410: 0000 0000 0000 f03f 0000 0000 0000 f03f
00000420: 0000 0000 0000 f03f 0000 0000 0000 f03f
00000430: 0000 0000 0000 f03f 0000 0000 0000 f03f
00000440: 0000 0000 0000 f03f 0000 0000 0000 f03f
00000450: 0000 0000 0000 f03f 0000 0000 0000 f03f
00000460: 0000 0000 0000 f03f 0000 0000 0000 f03f
00000470: 0000 0000 0000 f03f 0000 0000 0000 f03f
00000480: 0000 0000 0000 f03f 0000 0000 0000 f03f
00000490: 0000 0000 0000 f03f 0000 0000 0000 f03f
000004a0: 0000 0000 0000 f03f 0000 0000 0000 f03f
000004b0: 0000 0000 0000 f03f 0000 0000 0000 f03f
000004c0: 0000 0000 0000 f03f 0000 0000 0000 f03f
000004d0: 0000 0000 0000 f03f 0000 0000 0000 f03f
000004e0: 0000 0000 0000 f03f 0000 0000 0000 f03f
000004f0: 0000 0000 0000 f03f 0000 0000 0000 f03f
00000500: 0000 0000 0000 f03f 0000 0000 0000 f03f
00000510: 0000 0000 0000 f03f 0000 0000 0000 f03f
00000520: 0000 0000 0000 f03f 0000 0000 0000 f03f
00000530: 0000 0000 0000 f03f 0000 0000 0000 f03f
00000540: 0000 0000 0000 f03f 0000 0000 0000 f03f
00000550: 0000 0000 0000 f03f 0000 0000 0000 f03f
00000560: 0000 0000 0000 f03f 0000 0000 0000 f03f
00000570: 0000 0000 0000 f03f 0000 0000 0000 f03f
00000580: 0000 0000 0000 f03f 0000 0000 0000 f03f
00000590: 0000 0000 0000 f03f 0000 0000 0000 f03f
000005a0: 0000 0000 0000 f03f 0000 0000 0000 f03f
000005b0: 0000 0000 0000 f03f 0000 0000 0000 f03f
000005c0: 0000 0000 0000 f03f 0000 0000 0000 f03f
000005d0: 0000 0000 0000 f03f 0000 0000 0000 f03f
000005e0: 0000 0000 0000 f03f 0000 0000 0000 f03f
000005f0: 0000 0000 0000 f03f 0000 0000 0000 f03f
00000600: 0000 0000 0000 f03f 0000 0000 0000 f03f
00000610: 0000 0000 0000 f03f 0000 0000 0000 f03f
00000620: 0000 0000 0000 f03f 0000 0000 0000 f03f
00000630: 0000 0000 0000 f03f 0000 0000 0000 f03f
00000640: 0000 0000 0000 f03f 0000 0000 0000 f03f
00000650: 0000 0000 0000 f03f 0000 0000 0000 f03f
00000660: 0000 0000 0000 f03f 0000 0000 0000 f03f
00000670: 0000 0000 0000 f03f 0000 0000 0000 f03f
00000680: 0000 0000 0000 f03f 0000 0000 0000 f03f
00000690: 0000 0000 0000 f03f 0000 0000 0000 f03f
000006a0: 0000 0000 0000 f03f 0000 0000 0000 f03f
000006b0: 0000 0000 0000 f03f 0000 0000 0000 f03f
000006c0: 0000 0000 0000 f03f 0000 0000 0000 f03f
000006d0: 0000 0000 0000 f03f 0000 0000 0000 f03f
000006e0: 0000 0000 0000 f03f 0000 0000 0000 f03f
000006f0: 0000 0000 0000 f03f 0000 0000 0000 f03f
00000700: 0000 0000 0000 f03f 0000 0000 0000 f03f
00000710: 0000 0000 0000 f03f 0000 0000 0000 f03f
00000720: 0000 0000 0000 f03f 0000 0000 0000 f03f
00000730: 0000 0000 0000 f03f 0000 0000 0000 f03f
00000740: 0000 0000 0000 f03f 0000 0000 0000 f03f
00000750: 0000 0000 0000 f03f 0000 0000 0000 f03f
00000760: 0000 0000 0000 f03f 0000 0000 0000 f03f
00000770: 0000 0000 0000 f03f 0000 0000 0000 f03f
00000780: 0000 0000 0000 f03f 0000 0000 0000 f03f
00000790: 0000 0000 0000 f03f 0000 0000 0000 f03f
000007a0: 0000 0000 0000 f03f 0000 0000 0000 f03f
000007b0: 0000 0000 0000 f03f 0000 0000 0000 f03f
000007c0: 0000 0000 0000 f03f 0000 0000 0000 f03f
000007d0: 0000 0000 0000 f03f 0000 0000 0000 f03f
000007e0: 0000 0000 0000 f03f 0000 0000 0000 f03f
000007f0: 0000 0000 0000 f03f 0000 0000 0000 f03f
1.0 1.0 1.0 1.0 1.0 1.0 1.0 1.0
1.0 1.0 1.0 1.0 1.0 1.0 1.0 1.0
1.0 1.0 1.0 1.0 1.0 1.0 1.0 1.0
1.0 1.0 1.0 1.0 1.0 1.0 1.0 1.0
1.0 1.0 1.0 1.0 1.0 1.0 1.0 1.0
1.0 1.0 1.0 1.0 1.0 1.0 1.0 1.0
1.0 1.0 1.0 1.0 1.0 1.0 1.0 1.0
1.0 1.0 1.0 1.0 1.0 1.0 1.0 1.0
1.0 1.0 1.0 1.0 1.0 1.0 1.0 1.0
1.0 1.0 1.0 1.0 1.0 1.0 1.0 1.0
1.0 1.0 1.0 1.0 1.0 1.0 1.0 1.0
1.0 1.0 1.0 1.0 1.0 1.0 1.0 1.0
1.0 1.0 1.0 1.0 1.0 1.0 1.0 1.0
1.0 1.0 1.0 1.0 1.0 1.0 1.0 1.0
1.0 1.0 1.0 1.0 1.0 1.0 1.0 1.0
1.0 1.0 1.0 1.0 1.0 1.0 1.0 1.0
1.0 1.0 1.0 1.0 1.0 1.0 1.0 1.0
1.0 1.0 1.0 1.0 1.0 1.0 1.0 1.0
1.0 1.0 1.0 1.0 1.0 1.0 1.0 1.0
1.0 1.0 1.0 1.0 1.0 1.0 1.0 1.0
1.0 1.0 1.0 1.0 1.0 1.0 1.0 1.0
1.0 1.0 1.0 1.0 1.0 1.0 1.0 1.0
1.0 1.0 1.0 1.0 1.0 1.0 1.0 1.0
1.0 1.0 1.0 1.0 1.0 1.0 1.0 1.0
1.0 1.0 1.0 1.0 1.0 1.0 1.0 1.0
1.0 1.0 1.0 1.0 1.0 1.0 1.0 1.0
1.0 1.0 1.0 1.0 1.0 1.0 1.0 1.0
1.0 1.0 1.0 1.0 1.0 1.0 1.0 1.0
1.0 1.0 1.0 1.0 1.0 1.0 1.0 1.0
1.0 1.0 1.0 1.0 1.0 1.0 1.0 1.0
1.0 1.0 1.0 1.0 1.0 1.0 1.0 1.0
1.0 1.0 1.0 1.0 1.0 1.0 1.0 1.0

weight f8 [8, 64]
00000000: 1230 5e82 33af eb3f e317 acc6 8863 ee3f
00000010: 3862 34bb e03a d33f 5821 eb95 8c25 f9bf
00000020: a3f8 463e 135d fabf eb1f 4d16 863e de3f
00000030: b72f ab91 176f c4bf f577 b9ce 844b bcbf
00000040: bb90 e784 024a ce3f 93b3 f200 7524 f13f
00000050: b73c ede3 0a95 ecbf f901 4958 f4dd d7bf
00000060: d636 1681 749d e1bf c8af 0684 5b2b 0340
00000070: 1972 e658 d33f f43f e2db e85e 0570 e03f
00000080: a3e2 c365 7d3e d6bf 3b5c 2690 8123 f3bf
00000090: b3b3 5cc6 3bf7 dabf 7768 f3b7 9fc8 cfbf
000000a0: 1d1a 40f5 3188 f03f 8797 b934 867e f83f
000000b0: 6a10 6128 d820 b9bf 82dd 9fe8 7240 f13f
000000c0: dbf3 1662 5dc9 fe3f 061c b8c4 e7e9 febf
000000d0: 3106 14fb 1de3 e2bf 7296 9be5 d320 f03f
000000e0: 77fc 72e4 7039 e93f 8534 7536 9be2 f23f
000000f0: daf0 6063 781f c53f 2e46 70de c092 e5bf
00000100: 2740 a6b0 269d f93f 6c4d 6ac4 4939 c7bf
00000110: 4df2 2d7c eee4 ec3f 1310 f86a 95b5 e03f
00000120: f090 9d76 84a3 c9bf 30ff 112f 2a5d eabf
00000130: 8ba8 38f7 1f6f e83f eb31 c76a e3b9 d13f
00000140: 9c99 2f3e 406c e13f ac61 9035 7de1 e5bf
00000150: a640 ebf2 0e29 e53f ecb6 dd6c 65b0 d2bf
00000160: b6d5 80e5 2b73 e0bf c8fd 3201 cd81 b6bf
00000170: fcf2 fe5e f1f7 c1bf 2a9f a54a a034 f1bf
00000180: 3cff e51b 763b e13f 0ed1 5272 3dac aebf
00000190: 36d2 87bb b32f 0040 c17a 08be 4557 e3bf
000001a0: 8ff7 cd2c 1b30 fcbf 5113 28b0 c7ba fe3f
000001b0: 19fc c6ab 9eaa c63f b187 4d11 8c29 0340
000001c0: b21a fb9a da00 f8bf 4dc7 06e1 dd0c f03f
000001d0: bf19 dc24 d5d1 d4bf 7720 6018 8dcb fabf
000001e0: 51ad 061a f2a3 f83f 7bff ac76 aad9 b3bf
000001f0: 7bde e4fe 126c 853f f04e e98a 7d0f ebbf
00000200: 3ffe cf11 8c5a f0bf c3dc cd61 fb25 b3bf
00000210: 06ba cd81 1a2f dfbf 99b4 bc50 3099 d7bf
00000220: 9039 1eab e237 ed3f f147 7fd8 b3ab f93f
00000230: f5db a157 61ac e3bf 40ae a560 66e2 ef3f
00000240: 9ae8 2bb5 8087 fb3f 9dba 5ad4 ee30 e7bf
00000250: 15a0 8695 3dbd f0bf e0d7 60eb 70ea e83f
00000260: a71c c63f bac4 ea3f b0ff c35c 138d fb3f
00000270: 3691 ec43 c075 f0bf 6ad9 1918 c69c ddbf
00000280: 068d b427 8ef3 e43f fecd 424a c7a0 e9bf
00000290: c1c6 964c 61b4 ec3f 7b2a 8e92 4d4f fa3f
000002a0: 0266 d73b 69eb fd3f 95dc b0d9 fc15 d13f
000002b0: 602b 035a 2ab3 ffbf 93b8 a96b 034c dd3f
000002c0: 7b0d aaa4 608c e13f e165 d5ad c24e d43f
000002d0: 58c3 ff70 f975 c3bf 514e bb99 5b4a ec3f
000002e0: 961e 3849 3760 fd3f 8e91 258c 89ac d33f
000002f0: 0919 a50d 90b7 d4bf 7013 f838 9852 da3f
00000300: 0308 7bf2 295e d8bf f694 9bd8 704f e8bf
00000310: 469b 560a 5778 d63f 2c11 e8c3 c7ac dfbf
00000320: cdf2 6756 b210 f13f 3a5c 973b 0b6a efbf
00000330: b11c fcc6 7fb1 fb3f ab5a 8f67 c5c6 e6bf
00000340: 4382 fa90 9f6b bfbf 7e37 9aa4 2bee da3f
00000350: 630a 8e52 9b56 febf f34a b0e0 3047 0640
00000360: abc1 b266 c341 fc3f 783d 071b f3ab f23f
00000370: 8235 75bd e64b ec3f e948 5a7d 57f1 c7bf
00000380: 201f ea81 756d d6bf f57e 1a48 c9e3 fcbf
00000390: 89e7 4c4c daca dfbf 90e5 1f2d 1991 e13f
000003a0: 3d45 6599 d569 debf 6ee9 de3f 46e4 eb3f
000003b0: b5f9 379c b939 9b3f 2eee 5eca 756c f8bf
000003c0: 4d12 f814 0fd6 e4bf 4ce8 f645 e676 f93f
000003d0: f4ba ad9f 3cce eb3f 59bf 9fa0 1bc7 f4bf
000003e0: 785b 34b9 7145 e1bf 99b5 40c2 a9ad eebf
000003f0: 343d b414 e3e1 d23f 460d 26ad 8cb3 0140
00000400: dd6e 2645 d149 553f 40c7 c741 b4be fabf
00000410: 6b61 4470 6d64 fa3f 7786 cb4e ed4e eabf
00000420: b00f a2b3 fecd e0bf d3e1 94ce b4ed d93f
00000430: d2cc a432 bff7 e43f ad6e 7d7e 4947 dc3f
00000440: 01c9 f015 0ea1 c03f 7ca3 b277 83b6 d9bf
00000450: 5d0e 6985 9f5d e3bf 6a76 de99 a53d d63f
00000460: 27aa baca 2c3f e43f 8a02 d9ea be7b febf
00000470: fcb3 8488 fe98 f13f 38b7 27c8 1af7 ea3f
00000480: 5866 e2ae 2a2c f63f fec3 e47f e2fa f53f
00000490: 2386 93b7 d932 e9bf 7596 4b06 4ae3 fabf
000004a0: d94f 2922 00c9 d43f bd03 309d 5595 e4bf
000004b0: d699 0273 5246 0040 5cc3 0106 e52d f1bf
000004c0: 1a22 9d93 30aa f0bf 6ce6 6aa2 32cf d1bf
000004d0: 7c28 b15b 228e febf 3779 98a8 f03d fe3f
000004e0: ea67 85fc 0d02 f0bf 764a f666 e8b0 f23f
000004f0: cbdf 572e ba9b eb3f d8f5 b537 7c1e ee3f
00000500: 4d60 1ac8 1bbf 8abf 71a3 aa43 4256 e0bf
00000510: 20ef a475 1a9f f1bf dba4 11b9 3325 e63f
00000520: 1979 b32c 88e8 d53f 7398 dd8f 0309 e3bf
00000530: 4a62 c392 c5c1 cbbf e4bd 6452 267f ff3f
00000540: cf40 1190 5f7f de3f ebf7 c77f 1ece e4bf
00000550: a03d 58c2 1ee2 ed3f 3098 87c3 cbaa dabf
00000560: 3e62 f718 5af5 8ebf 1a34 593d b2c4 dbbf
00000570: 45c4 b763 2dad d03f 3e10 b697 3c7f e3bf
00000580: fc92 3612 cda2 d9bf daf1 94d6 8605 d53f
00000590: df2b a61a ac90 f53f 5cdf 6173 db09 f4bf
000005a0: fcd8 c184 92a9 f33f b9c6 61d0 c1ac e1bf
000005b0: 99ab c36c b855 913f b528 46a1 5539 7fbf
000005c0: 6d82 b83a 3328 d2bf 4c2c 1fb0 6d12 f03f
000005d0: ad62 1095 a6c6 0040 b93a d5fb d0d7 d83f
000005e0: 8611 acb3 ce5f f13f 8239 4791 25af e4bf
000005f0: 0459 8b05 7603 d4bf 9b03 3a64 3aa4 f4bf
00000600: 52a3 fca8 62aa d83f 81b5 5475 d89a e7bf
00000610: be23 c084 b85d f4bf 8fdf 372c f45c d23f
00000620: 562f c1dc 5034 f3bf 250c 64cb 4a64 e7bf
00000630: bd46 8715 e209 f23f d652 0db8 b8ca f6bf
00000640: e1c5 8b40 fdb7 ffbf fe39 d74f 3850 b2bf
00000650: 2de0 9f75 4ac0 bf3f 39f7 00da d4b3 c3bf
00000660: 3954 03c7 55f4 f43f 581c 3279 b7d3 e2bf
00000670: 2b00 38ed 4d05 f03f 06a6 c66c 7c05 ef3f
00000680: 1ac2 cc92 ec29 dfbf d9e3 20de 2546 f13f
00000690: d0f0 a582 82ea d03f 5492 25a3 f1ff e6bf
000006a0: 0780 04eb 324e ef3f 0d4a cb52 7557 ddbf
000006b0: 8fdd eb89 0df9 d9bf 944f 29a8 3c94 e8bf
000006c0: e712 c2db 59ce d3bf 4208 3950 1f3d e7bf
000006d0: 6e4a 9288 a714 d9bf bbe9 12b2 45f6 e23f
000006e0: 40bf d98c 7c3b ddbf ca2a 2c37 25d7 c73f
000006f0: 2676 33ee 680b 03c0 636c ab1c b4ad f23f
00000700: a7d8 fe4b 7114 f43f 8982 51d9 51cd fa3f
00000710: a8a4 c29a 7ee4 f63f e323 2fc1 f4d1 e7bf
00000720: 8f22 d752 641d edbf 761f 0e55 597a d7bf
00000730: 36f4 fdfb 5b00 ec3f 842c 8e5c dbb1 fa3f
00000740: a365 6154 718b d73f 4353 7b86 c3da e23f
00000750: bfdd ee6a 2939 e1bf 3813 3a27 8c85 d7bf
00000760: 60f3 bf70 2222 bf3f 4f77 80ea 7f0b 03c0
00000770: fd8f e858 0be3 f5bf 7517 0a64 3cc0 f03f
00000780: 77bc 15ae 2849 d33f ccfb 0508 0fb1 0040
00000790: ac60 8834 58a1 d8bf e435 6f24 4c22 b5bf
000007a0: 6f39 ee9f 2d1c d83f 464b e01f fdf4 dbbf
000007b0: 49cf fe22 3d9c f33f 810b 6536 0a2d d4bf
000007c0: 2890 701e a167 f0bf 670e d9d4 703a dc3f
000007d0: 4bcc ca96 4fb8 d63f a190 7d8a 4352 653f
000007e0: 3cb3 e971 871f e3bf 276f c066 353b da3f
000007f0: f22c 31c5 9a15 e93f ddf0 6125 8183 de3f
0.865136866211744 0.9496501808468988 0.3004686191721109 -1.5716672760191468 -1.6477234299377777 0.4725661485467742 -0.15964026081780755 -0.11052732512459314
0.23663360108833395 1.0714006459267906 -0.8931936694806585 -0.37292202588653783 -0.5504705926157054 2.3961706461468317 1.2655824158347342 0.5136744359687067
-0.3475640767860943 -1.1961684828618349 -0.4213399350290345 -0.24831005556081084 1.033250768670434 1.5308897075242116 -0.09815741525477653 1.0782345854657653
1.9241613227488787 -1.9321057972281337 -0.5902242568847155 1.0080145806363388 0.7882618390939474 1.1803238036402786 0.16502289631342287 -0.6741642326835
1.6008669758193805 -0.1814357956942375 0.9029457497959555 0.5221659745443524 -0.20030265609523878 -0.8238726538984107 0.7635650471250001 0.2769707243685661
0.5444642271584601 -0.6837755247279822 0.6612620110045284 -0.2920163691659201 -0.5140590174184385 -0.08791810302044845 -0.14037911547156756 -1.0753481784722205
0.5385084671870355 -0.059907837110047976 2.0232920313667604 -0.6044033729156909 -1.7617446661165308 1.920600593673232 0.17708190333903032 2.395286688974885
-1.5002084783497307 1.0031412878128834 -0.32530716514193253 -1.6746951057594097 1.5400258080142815 -0.077540067647531 0.01046004143118683 -0.8456409180748476
-1.0221062370109306 -0.07479830873295427 -0.487249972115848 -0.3687248981903593 0.9130719511174892 1.6044195610925238 -0.6147925101821544 0.9963867080345565
1.7205817296039982 -0.724723257784564 -1.0462013092856115 0.7786182973129563 0.8365145917495241 1.7219422935158768 -1.0287478116307063 -0.462693713699443
0.6547308707708062 -0.8008762789162913 0.8970190521124196 1.6443610882585336 1.8699734056048105 0.2669670225036012 -1.9812415615185373 0.45776448739969416
0.5483859268282879 0.3173071572869884 -0.15203779237301762 0.8840768816539343 1.83599022485024 0.30740584074217103 -0.32370377857695637 0.4112911754930826
-0.38074730567689147 -0.7596973639125781 0.35109497079468033 -0.49492067462439837 1.0665763259159349 -0.9816948093310949 1.7308347485393762 -0.7117640516906553
-0.12273595132365593 0.42078677248434093 -1.8961442208098098 2.7847611955452236 1.7660554896975593 1.1669798904220823 0.8842652988766277 -0.18705266590820394
-0.35043084799734636 -1.8056118790190656 -0.4967561478730365 0.548962200292566 -0.47520961742437234 0.8716155288196157 0.026587391052083926 -1.5264795212850788
-0.6511302384902337 1.5915281994807797 0.8689253920291251 -1.298610331952622 -0.539727079131679 -0.9586991113662179 0.2950370504558635 2.2126706626164916
0.001299337735509213 -1.6715586251779797 1.6495184312280695 -0.8221346415486569 -0.5251458652933163 0.40513343976956867 0.6552425374160527 0.44185101845298896
0.12991500922505142 -0.40176474274863216 -0.6051786046668429 0.34751262689846973 0.6327117881349452 -1.905211369870957 1.0998521168469315 0.8426641377716129
1.3857828933163514 1.3737511630863533 -0.7874573312257706 -1.680490517226102 0.32476809822150937 -0.6432293005055879 2.034336946980356 -1.0737047419208556
-1.0415502325214505 -0.2782713495358624 -1.9097007352561652 1.890122088028489 -1.00050161973058 1.1681903860050205 0.8627596764699715 0.941221340952036
-0.01305982307830802 -0.5105296441662245 -1.1013435931662983 0.6920412649752977 0.3423176228078702 -0.5948503312945504 -0.21685094515011577 1.9685424059388135
0.476524248781982 -0.6501610275006419 0.9338525577349408 -0.4166745576352495 -0.015116409193908994 -0.43388038626727765 0.26056990373678374 -0.6092818225010956
-0.4005615880835618 0.32846232371573836 1.3478203812580813 -1.2524065501329096 1.2288994966343685 -0.5523385114631402 0.016928559912155448 -0.007623037807556955
-0.28370362028548507 1.0044991378552082 2.0969974179864352 0.38817238419589334 1.0858904856150686 -0.6463802182641276 -0.3127112440246409 -1.2900947489835974
0.38539949896453607 -0.7376520434969934 -1.2728810487335376 0.28692344968975986 -1.2002724288203885 -0.7309926960446133 1.1274128762201336 -1.4244925679715172
-1.9824192544295942 -0.07153655957447566 0.12402787563030478 -0.15392552036967702 1.3096521161981072 -0.5883443228821177 1.0012950197560808 0.9694196819811516
-0.4869338449089199 1.0796259571927662 0.26431334265340656 -0.7187431513271556 0.9782957639872628 -0.458463030675518 -0.4058259817970446 -0.7680953297044533
-0.3094696661067204 -0.7262112204409805 -0.3918856462197827 0.5925625303273628 -0.45675576929987827 0.18625321573229875 -2.380571232743722 1.16740809630462
1.254990860803028 1.6751268853187489 1.4307848019910043 -0.7443794034126053 -0.9098378770805357 -0.36684258752983767 0.8750438615530871 1.6684220900959028
0.36788590660361303 0.5892045618626088 -0.5382277573143525 -0.3675260909151805 0.12161460163765758 -2.380615074201081 -1.3679307435022559 1.0469325931348668
0.30134026527861785 2.086454451258282 -0.3848476899161237 -0.08255458726417647 0.37671986215800407 -0.43682792771248946 1.2256442420011402 -0.3152490168760594
-1.0253001393366592 0.44106694017339126 0.3549994442539101 0.002602703014348576 -0.5975987648831516 0.4098638060984165 0.783887276783757 0.4767763962806962

weight f8 [64, 64]
00000000: 0503 ee02 207a ce3f 7ceb ab34 2937 fb3f
00000010: 27b5 ea0a 57d1 e73f 8a53 9f36 eb1d ce3f
00000020: e881 1d38 c487 dd3f 32e8 f340 2101 e8bf
00000030: 863b 19d3 2dbc eebf 2044 8a47 3687 f0bf
00000040: f9b1 976a 7e5b d8bf dbb0 a01f 5f79 e63f
00000050: 9ba0 e3fe 6945 f13f 5955 bf98 24d0 b83f
00000060: 3334 c1f9 b544 bbbf 9801 9df8 e039 d8bf
00000070: 7438 bf73 732d e3bf 049e 321b 56a6 e13f
00000080: c30e 9d29 a6e0 ef3f 71ce aed8 875e d8bf
00000090: c4a4 e648 2e9e e9bf dca1 8a23 b633 d63f
000000a0: 788e 93d7 c3fa 6dbf e451 8324 e985 e33f
000000b0: a16d 925b 9633 e63f 5787 6e26 5198 d4bf
000000c0: 23fb a9d3 cfa0 f7bf 10a1 675e ca5c df3f
000000d0: d701 171b 25a7 e93f 7a3f 21bc 1598 fabf
000000e0: 0c16 5d5b a4bc fabf d2b4 7ec3 1277 eb3f
000000f0: 5bf4 a6e8 300d dbbf a1a8 fd74 ed3d d13f
00000100: a749 8925 b457 e2bf b202 452f 9b57 0040
00000110: 5bca 6b02 d432 d8bf bede d20c 31ff aa3f
00000120: 719d 9b39 e39d f53f a270 ef78 c1cf d3bf
00000130: 4a47 7481 9edb c03f 1cf0 e0c8 1254 e5bf
00000140: 5b06 d97c 0287 9ebf 1986 abb0 3c62 eebf
00000150: dc6b acb4 2c05 d23f 972d 3d05 be6b f03f
00000160: 93c5 e43f 24ec d8bf 529d 6926 bf43 f1bf
00000170: 321d 0040 a505 ec3f b843 963f 54ef ec3f
00000180: 937e 411d 123b e03f dc75 0e6c 0a6f ea3f
00000190: d470 13d9 363b f3bf ab88 3cf8 d641 e13f
000001a0: b0cd e337 5c50 f9bf 55fe cebf 9557 edbf
000001b0: 1881 dc3d ce0a f13f dcae 68d7 4631 ecbf
000001c0: 1cc8 1a97 2101 e93f 6140 9963 0d5b c4bf
000001d0: fcac a129 4ed4 edbf d89d dd07 05bf d43f
000001e0: 5fa9 ca79 e103 e13f 0f8c 923a 19f2 da3f
000001f0: 7928 388c 2d9e 02c0 f1f7 9030 c9ae f0bf
00000200: 3a56 e9a4 63ec d43f 045e bab5 2009 e0bf
00000210: 1206 7660 b098 f1bf 0861 6b69 cb0c e03f
00000220: 446e a05c 248d db3f 9fbe 139d 75c0 eb3f
00000230: c114 ee6b 895f a1bf 1887 dc69 edc6 d4bf
00000240: c09f 70a4 8b91 ed3f 8f50 92fe 1b27 d53f
00000250: d4a4 6dd0 3f43 dfbf 5b44 61a2 c453 f63f
00000260: 208e 2720 b970 a43f 78db 7c72 5cd5 f03f
00000270: 6962 ce79 4346 f63f 6d3c cbfa dbf3 f13f
00000280: 4ee7 3248 a369 c2bf 15e6 b2f9 eb20 8a3f
00000290: 67d5 86e7 7876 ebbf 97a3 2e8c 5d0f f53f
000002a0: eb8a e1a1 c9ba f8bf fd77 2b18 9630 e03f
000002b0: ffa0 1470 9d8f d43f ce0d a0c0 8d00 e13f
000002c0: 528a 167f 7f6b eebf df35 104d fd7e 8d3f
000002d0: b9b6 fa04 1f06 babf e4eb 5a1e 92c8 e0bf
000002e0: 4685 e01a c51a dd3f 8c93 cf90 2b2e d23f
000002f0: 0b9a 2b68 fdab 02c0 3629 3072 e5b2 c93f
00000300: 8746 8448 5ca4 ecbf b522 89a2 288b c83f
00000310: d8d3 937e 08f6 f6bf c494 1acc 1313 d33f
00000320: 3d86 ca5a e044 ff3f 35f3 46f8 cfb0 e33f
00000330: d292 f1f9 a396 fc3f 82bc cb22 c5fe f53f
00000340: c3ae 9ecd 73a1 febf ad63 7035 654a febf
00000350: c343 68b6 d588 e2bf 2065 d612 c15b c33f
00000360: 50b8 5648 7fc6 05c0 c6f5 255b 0397 d2bf
00000370: 8a92 83cf 71dd cebf 9581 dc0c 0b43 f5bf
00000380: 1515 1d4e d05d eabf a51b e0b9 c041 b9bf
00000390: 18b0 9253 6286 ee3f 3748 22c6 3cea e23f
000003a0: e4fc 94f6 d939 d2bf e01f 53bd 26e6 f63f
000003b0: e9b5 5d02 2836 d6bf 6e52 862f 441c d63f
000003c0: c9a9 16f6 4d1a bb3f f2f7 597b 2a58 e1bf
000003d0: dbd6 f181 a28e c73f 8ee9 aac0 dba4 d7bf
000003e0: 1dce a2d5 a8b0 e9bf b2c4 3321 7874 febf
000003f0: fcc9 5f3a 3b2b e03f f51e 848d 18b2 e9bf
00000400: 584f b9ed caec eb3f 8e98 73c3 420f f73f
00000410: c99a dcb5 0943 d33f 07f7 f429 acc5 f9bf
00000420: 6c6e 7632 d439 a1bf 0a4e d0a6 b1a2 e33f
00000430: baf9 c43e 5ad5 fcbf bc2a 7228 1ddb f0bf
00000440: ff0c 331c 25c1 e73f 4184 60e6 1421 f13f
00000450: 51af 46ef d2c1 d63f a0e8 833b ad42 fd3f
00000460: c329 3979 de35 e53f 014b b97c 51e2 e03f
00000470: d988 9634 b736 e1bf 155b b9b3 81b1 a13f
00000480: 5405 3a93 3c95 ef3f 162c fd40 65eb eb3f
00000490: 1e14 c10d 6c08 e4bf 9e8b 7520 78d8 d83f
000004a0: 5682 13bc 9925 f73f 2ab6 a2f1 0b94 e93f
000004b0: ea4a 5053 6bcd c3bf 52ff 14e1 ef93 fb3f
000004c0: 194c 1530 a539 e03f 84e0 e52b 45c6 dabf
000004d0: 2745 63aa f05b e4bf df5c 1ba2 3a23 ed3f
000004e0: 62e5 d8ad 2d9f e73f 8841 64d5 f19c f73f
000004f0: 683b a482 7fc7 04c0 6bf9 f94d e6a0 f73f
00000500: 2187 2127 d721 ffbf 63f0 bfa3 e4ed f1bf
00000510: 5ee8 6dee 3d1f 9fbf 9b97 e07e 80aa f4bf
00000520: 2cd4 6631 7249 eebf 85c7 2dd9 5733 e2bf
00000530: 9922 82e6 43d9 d23f e93f 60c3 8fb7 f4bf
00000540: fa2c 36a8 4c16 d03f f30e c577 f0bd dc3f
00000550: 4fe4 32b8 26ac d5bf e0e7 a3d9 73be cbbf
00000560: 66cf e6ac 5477 f0bf a843 3144 8535 f3bf
00000570: ae9b 8857 c448 bd3f d051 abe6 9e34 d53f
00000580: af50 f946 c0c8 cabf 3017 4b33 62c2 f5bf
00000590: dfa1 eaba 3969 d43f 795a c8ae d073 d73f
000005a0: 460b eb14 c057 ed3f b20e 4630 c273 ec3f
000005b0: fd3e b7ad f4ac e13f 7221 dc4e e2fd 9e3f
000005c0: 4b1c ba5f 6a9a ed3f ff2c df18 f1b8 d4bf
000005d0: 2886 fd0d 5ff3 f53f e522 c160 b6f9 f9bf
000005e0: fc0b 0057 308c d13f 2bb9 94fc dfd2 b73f
000005f0: f0b0 a930 b21a dbbf c8b6 4be0 0c8a dc3f
00000600: 6b0e bdea 9b08 e83f e8f5 91f8 d59e e23f
00000610: 0b69 6c55 c174 df3f fa99 45e2 973f db3f
00000620: df42 340d 0061 0240 5d52 c36e 25fb eb3f
00000630: 69f7 8d27 af87 e6bf c69a 4389 6dbe f03f
00000640: 9445 ee15 49aa c83f 15cf 4b61 69d0 f13f
00000650: b532 acb6 82e6 fdbf c0b6 2c45 3e61 ecbf
00000660: 6390 3dea 9b01 f2bf 3428 d4c2 013a f6bf
00000670: 64fb ad86 9070 a9bf 1f41 e650 7f3e f8bf
00000680: 85d8 4353 5924 d9bf a3d3 63c0 65c7 e0bf
00000690: 6929 0a3b 3f12 f4bf c3f7 6fbb d232 e8bf
000006a0: 6283 eaa5 3a40 02c0 a6e3 25cd 2472 f23f
000006b0: f12c c861 564d f7bf 7a3f 8532 a510 e93f
000006c0: 427a 29b6 9e02 ed3f 57db 0344 3d8d e13f
000006d0: 4b2e b810 338a d63f b4a2 065f 4a37 e2bf
000006e0: ed84 0369 fb8f d4bf 661a 3b25 0e2e e1bf
000006f0: edb2 3c2e 27a6 f33f 575d c755 d0ab f4bf
00000700: 80c3 e6ed 3737 d93f e447 8bdc 7e25 cdbf
00000710: c944 df0e 3166 dbbf 4e46 2ad1 e2f6 e5bf
00000720: 9b46 29ca 5de1 f03f 1aac 7155 c20c f2bf
00000730: 8306 47bd 76e1 f93f b8f2 b483 bb8b df3f
00000740: 1b60 24f7 a6f3 e4bf e08d 0847 ea3a d8bf
00000750: 20e5 7fe9 6343 fb3f 3055 92da d2fc 01c0
00000760: 589d 402d 249c ee3f e3d4 fe54 d487 f4bf
00000770: 2fb2 d48e 6783 da3f e570 d06e c602 d3bf
00000780: 992b 336f 483f febf c0e8 1fcd 5548 f53f
00000790: eb9e ccb1 c452 f43f 64fb 0018 47b9 d03f
000007a0: 857a 5395 6444 c9bf 1cb4 9142 737f 0140
000007b0: bb31 a1f0 270d e8bf 37ea 5e61 ac5a e8bf
000007c0: a340 dfa3 afb1 a2bf 2f0a 6e8e 37b3 e73f
000007d0: 3af7 535e 2bc2 cebf ec63 0d25 9b34 bc3f
000007e0: eab7 500d 8abc eebf 917c df21 35be da3f
000007f0: 3046 ffe4 a068 e13f ec8c f288 41ca d9bf
0.23810196059277913 1.7009670312388314 0.7443042004794379 0.23528804938419184 0.46141152839666555 -0.7501379269226673 -0.9604710696238363 -1.0330107492957339
-0.38058433923177365 0.7023158662537087 1.0794467884643726 0.09692600945648645 -0.10651719424750254 -0.3785326412071526 -0.5992982159311979 0.5515547305303135
0.9961729824794577 -0.38076969299729685 -0.8005591796728813 0.34690621825077783 -0.003659613136379577 0.6100965226310646 0.6937972820773447 -0.321796691447266
-1.4767606990932982 0.4900384828493012 0.8016534356211719 -1.662130102999042 -1.6710551804438891 0.8582853143940616 -0.42268011779726117 0.2694047586907207
-0.5732060177927466 2.0427764599738447 -0.37810230480605406 0.05272820741214222 1.3510467768008676 -0.3095554047593031 0.1317022449589394 -0.6665128634845163
-0.02981189620027745 -0.9494918299280385 0.28156583446405903 1.026304264511827 -0.3894129394494367 -1.0790397167673587 0.8756891489037228 0.9042149774487518
0.5072107859995917 0.8260547743299713 -1.2019566039589806 0.5392870758407943 -1.5821191962430525 -0.9169415231953716 1.0651380936106474 -0.8810152251439507
0.7813880873930006 -0.15902869570936942 -0.9321661770931366 0.32415891426213994 0.531723726152716 0.4210265228268221 -2.327235312904176 -1.0426723382111016
0.3269280539001077 -0.5011142300963347 -1.0997775810250272 0.5015618380521412 0.4304896263654181 0.8672435825264592 -0.033932012963342036 -0.32464156473189254
0.9240167819707423 0.3305120454836094 -0.48847956995321096 1.3954511969534653 0.039922509360419633 1.0520901176621162 1.3921541936926138 1.1220359608303412
-0.14384881043752745 0.012758105809882495 -0.8582119485860574 1.3162513233057547 -1.5456024478414132 0.5059309455934905 0.32126556344384477 0.5313175928317209
-0.9506223184765281 0.014402369417463255 -0.10165590163770845 -0.5244837372659927 0.45475890755377113 0.2840680040520105 -2.333979429083461 0.2007719810065482
-0.8950635353414363 0.19174678741753373 -1.4350666946822823 0.2980393880082597 1.9543155237701193 0.6153335427439744 1.7867774737762159 1.3746997222149564
-1.9144170791650346 -1.8931629264318233 -0.5792034685747399 0.15123761577414374 -2.7219224597420535 -0.29046710873793946 -0.24113295204655955 -1.3288679602047513
-0.8239518666893298 -0.09865955865835348 0.953904307583346 0.5910934324076668 -0.28478097038528305 1.4311892886635107 -0.34705543738422634 0.34547524109920047
0.10587012537022313 -0.5420124444206051 0.18404036850886638 -0.369437158729533 -0.8028148815705581 -1.903434877105877 0.5052772655602094 -0.8029902233110692
0.8726553576511646 1.441225779993633 0.3009666706079029 -1.6107598914090333 -0.03364432445524987 0.6136101015167139 -1.8020880176478458 -1.0534946041031352
0.7423272658128609 1.0705765723325984 0.3555800759011066 1.82877848861839 0.6628258102076007 0.5276267467509969 -0.537929156027782 0.034557393254251924
0.9869673610229861 0.8724848050418383 -0.6260280865323045 0.3882122342094422 1.4466798159338814 0.7993221015401037 -0.15470639770554523 1.7236174385324898
0.5070367755055286 -0.4183514527026164 -0.6362231567274294 0.9105504194402804 0.7381809611753563 1.475816567956004 -2.5974111753816267 1.476782135577731
-1.9457618263772434 -1.1205793758845395 -0.03039261596448061 -1.2916264492173244 -0.9464655842663254 -0.5687674752973498 0.2945108176286709 -1.294814837634471
0.25136104990879427 0.449092976534515 -0.338632278329503 -0.21674965025869053 -1.0291334871262392 -1.200566545845712 0.11439158570338634 0.3313367130879472
-0.20925143685838551 -1.3599569324155247 0.31892245534484503 0.36644379681221256 0.9169617088849484 0.8891306822628933 0.5523627655875029 0.0302653656608824
0.925099551169191 -0.323787950791214 1.371916823053093 -1.6234649447889578 0.2741814469920312 0.09306144634749518 -0.4235043978903965 0.4459259214771518
0.7510509094940522 0.5818891386876972 0.4915011724675799 0.4257564267813049 2.2973633796285493 0.8744074977244726 -0.7040630123662882 1.0464911805990353
0.1926967007716881 1.1133817482595465 -1.868777001919779 -0.8868705130641601 -1.125392832757847 -1.3891618357179256 -0.049686924400694804 -1.5152581367620497
-0.39284356242513524 -0.524340511094682 -1.2544548326719343 -0.7562040005575387 -2.2813618623917344 1.152867127761263 -1.4563812083823076 0.7832818972328675
0.9065698201992023 0.5484911278170824 0.35218502648124134 -0.5692493301367763 -0.32128796820877775 -0.5368719794431172 1.2280647092949792 -1.2919467306836248
0.3939952681785641 -0.22770677345994195 -0.4281122822986388 -0.6863874516731785 1.055021085445708 -1.1281150186212074 1.6175448793077585 0.4929035936545847
-0.6547427012437795 -0.37859589516503256 1.7039527054860812 -2.2484490466983047 0.9565602191768603 -1.2831614799627509 0.4142702956039867 -0.29704438039494924
-1.8904499381776303 1.3301599514657454 1.2702071137700226 0.2613084539806805 -0.19739968577683356 2.1872315598216243 -0.7516059589193483 -0.7610685254833872
-0.03651188731567003 0.7406270772774571 -0.24030058008059446 0.11017770437810243 -0.9605150470795227 0.4178593474188768 0.5440220329857706 -0.40296972631240524
