MACE_models/mace02_com1.model (torch, 458855 bytes, 51 tensors)

r_max f8 []
0	0x4010000000000000	4.0

weight f8 [48]
0	0x3fee15e9fafe294e	0.9401750471309158
1	0x3fc1cb568a30dda7	0.13901788470842044
2	0x3fe5e3e9c660e39e	0.6840714335040621
3	0x3fd8497756242800	0.3794840184424402
4	0x3fdbcad8d1d63580	0.4342557954012918
5	0x3fd3cb9332f026c9	0.30930023168967274
6	0x3fe0f3c21b1de25c	0.5297556428550467
7	0xbff1622bf85fbcb0	-1.086467714510757
8	0xbfdcd0776bf3c435	-0.4502237848492457
9	0xbf97a1a9c2391d78	-0.023077633361280075
10	0xbfef02874adfd8aa	-0.969058653105795
11	0x3fd2cd4efa8070e5	0.2937810369783292
12	0x3ff2d179bcc965c3	1.1761414885025807
13	0x3ff3da29fc4c160e	1.240762696777327
14	0x3ff32708bcd3a73b	1.1970298172040674
15	0x3fe3580e6ec123e0	0.6044990695164607
16	0xbff949d00244428e	-1.5805206383267065
17	0xbfe9870034765daa	-0.7977295899062729
18	0x3ff66f0489397314	1.4021039352730371
19	0xbfe5c4f56863faac	-0.6802928007962996
20	0xbff030589a91059a	-1.0118032491448958
21	0x3fd145a4701c2df4	0.26987563083886745
22	0xbff4d830a941638d	-1.3027807818927812
23	0x3fb12fcf3f691d17	0.06713576601133685
24	0xbfdd3d81794375db	-0.45687901346340504
25	0x3fde1ed92b10ae38	0.4706328316267192
26	0xbfe0a49b6bfa12f5	-0.5200936421320806
27	0x3f9e9a7633396d54	0.029886099697575233
28	0xbfc970237623a740	-0.1987346960880192
29	0x3ff64207c5845a25	1.3911206927783806
30	0xbfeb8439eac09965	-0.8598908982283261
31	0x3ff451c08dec2c0a	1.2699590247964374
32	0x3fe31cee27c9b060	0.5972815301042935
33	0xbfb4e430dbd5aaee	-0.08160691611343981
34	0x3fd241893cf6dfec	0.2852500052790663
35	0xbff43a69e9fd000a	-1.264261163727499
36	0x3fbc9e91e567d28c	0.1117945847580108
37	0x3ff871b043296ee6	1.5277559875020699
38	0xbfd3e04bcaf1c8e7	-0.3105649454002006
39	0xbffb67bdbc67f8f3	-1.7128274306883753
40	0xbfe246bf682cd1e3	-0.5711361918134198
41	0xbfdbee428a63d632	-0.4364172316994398
42	0xbfde3013c6a5b201	-0.4716844024576688
43	0xbfde2d4bd4ed7893	-0.4715146617289829
44	0x3fd3a232f92cd8c6	0.30677484830392776
45	0xbfe95f935a9e93bf	-0.7929169435416198
46	0x3ffb7308ba91b25f	1.7155844962936937
47	0x3ff0fd73d5bcb9e2	1.0618780469045466

output_mask f8 [16]
0	0x3ff0000000000000	1.0
1	0x3ff0000000000000	1.0
2	0x3ff0000000000000	1.0
3	0x3ff0000000000000	1.0
4	0x3ff0000000000000	1.0
5	0x3ff0000000000000	1.0
6	0x3ff0000000000000	1.0
7	0x3ff0000000000000	1.0
8	0x3ff0000000000000	1.0
9	0x3ff0000000000000	1.0
10	0x3ff0000000000000	1.0
11	0x3ff0000000000000	1.0
12	0x3ff0000000000000	1.0
13	0x3ff0000000000000	1.0
14	0x3ff0000000000000	1.0
15	0x3ff0000000000000	1.0

bessel_weights f8 [8]
0	0x3fe921fb54442d18	0.7853981633974483
1	0x3ff921fb54442d18	1.5707963267948966
2	0x4002d97c7f3321d2	2.356194490192345
3	0x400921fb54442d18	3.141592653589793
4	0x400f6a7a2955385e	3.9269908169872414
5	0x4012d97c7f3321d2	4.71238898038469
6	0x4015fdbbe9bba775	5.497787143782138
7	0x401921fb54442d18	6.283185307179586

r_max f8 []
0	0x4010000000000000	4.0

prefactor f8 []
0	0x3fe6a09e667f3bcd	0.7071067811865476

p f8 []
0	0x4014000000000000	5.0

r_max f8 []
0	0x4010000000000000	4.0

atomic_energies f8 [3]
0	0xc0256a179c46187a	-10.707211383396714
1	0xc0486c79161c72bb	-48.847445262804705
2	0xc059a48e175aab87	-102.57117256025786

weight f8 [256]
0	0x4000b148376a6e9e	2.086563523231077
1	0xbfcb8e62451f40db	-0.2152827107916043
2	0x3fda357adbab4154	0.409514154930567
3	0xbfd3e24c055fce45	-0.31068707012966384
4	0x3fc86a4e484f29f3	0.19074419527744588
5	0x3fe51b5a98976914	0.6595890980054571
6	0x3feb8215ae7d03a4	0.8596294792151764
7	0x3fd7543bdac775c1	0.3645162235751194
8	0x3fed966922334846	0.9246106784796744
9	0x3fe4ce25af495a61	0.6501644538464683
10	0xbfd07b0727685ca1	-0.25750902985005025
11	0x3fe94b1676aaf7ce	0.7904159848910639
12	0xbfc5e2b47a42f883	-0.17098098726086527
13	0x3f9adb79ac0b6578	0.02622785675598524
14	0xc004e21b9bd313dc	-2.6104042218962444
15	0xc0010e719695749d	-2.1320525898323255
16	0xbfd11c1e3aaea626	-0.2673411915844518
17	0xbfe693158276ba2b	-0.7054545925255459
18	0x3fdaa64bb5f1cd52	0.4163998867799893
19	0x3fba09c2f2f5f2bd	0.10171144897135327
20	0xbfd037d5240a4dc6	-0.25340775031619633
21	0xbff37b7f8fdd6027	-1.2176509494511352
22	0xbfc937183e65efcb	-0.1969938568762458
23	0xbfcb08950f68a107	-0.21119940998438144
24	0xbfc495d2cbee112c	-0.16082224805371348
25	0xbfd0f985ed68c000	-0.26522968468179897
26	0x3f8867ca7940815b	0.011916715455357154
27	0x3fd2c8228bd6f77a	0.29346526771757164
28	0x3ffd67ad28dfa64b	1.83781162229788
29	0xbfc9581eb3684e58	-0.19800170669678852
30	0x3fb0e661045b5cc4	0.06601530414933438
31	0xbfa64f4a5b601b71	-0.04357368817732422
32	0x3feace6a7bb52826	0.8376972595372123
33	0xbff07a0612762288	-1.0297909470702127
34	0xbfc185801d77e707	-0.13688661040196612
35	0xbff978733d85aa01	-1.5919067767341633
36	0x3fefde36747b0936	0.9958755755435849
37	0xbfd0d045d470c93a	-0.26271196123265705
38	0x3feeb71ba7a05059	0.9598520540189482
39	0xbfee78e99226aa0a	-0.9522598127853723
40	0x3ff8359cb3e92ae9	1.5130888965383582
41	0x3faade03c50ff340	0.05247508793397637
42	0xbff3984ad4e38b10	-1.2246807399721469
43	0xbfd1ceea07d0cbe3	-0.2782540394138648
44	0xbfee869c1149a0b1	-0.9539318406723593
45	0xbffc58a2b1adb3b5	-1.7716395321433371
46	0xc0030b0c50fb847b	-2.3803945853001642
47	0xbfd89211b640bb84	-0.3839153556645487
48	0xbfeda27d2eb025a4	-0.9260850822330906
49	0x3ff8e92257dd45ff	1.5569175178719659
50	0xbfe160ef6929209f	-0.5430829099577926
51	0x3ff4222585100cab	1.2583365628968675
52	0x3ffb257ad9e10a0e	1.6966503630543488
53	0x3fc38e4426c0cfd9	0.15277912037129118
54	0x3fdab5ee80ae7d2e	0.41735422674715295
55	0xbfce3f28e8634736	-0.23630248400746162
56	0x3fe4a2e71acbe8e7	0.6448855899209577
57	0xbff555072dc716fc	-1.333258799380416
58	0xbfe79e9b22d4dcb8	-0.7381110840132328
59	0x3fe837f5625264cd	0.7568308754299778
60	0xbfeeb96596e3924e	-0.9601314494180515
61	0x3fe815bce2bc86a2	0.7526535442777524
62	0xc00134af1eae49b7	-2.150724639600607
63	0xbfd2d65c88353451	-0.29433358480020383
64	0x3fe65a71be4d0b1d	0.6985405651870199
65	0x3fb0ca4227662fa6	0.06558621847051302
66	0x3ff772619958a7d9	1.4654251089182166
67	0x3feffc331e53c58f	0.9995360939339423
68	0x3ffb6582bc4d9ea5	1.7122828822702243
69	0xbfe53196c89a4243	-0.6623033445376411
70	0xbff2630e57fa14e4	-1.149183601054852
71	0x3fdaec58db864729	0.4206754821581052
72	0x3feb8ae957b1d327	0.8607069695268351
73	0x3fcf7b1817f2495c	0.2459440342832505
74	0x3fa5141e0675bcc1	0.041169107712329296
75	0xbf9179dcf0c48af4	-0.017066433139130546
76	0x3ff8bc38e08aabec	1.5459526797446825
77	0x3fbecf977c8c1754	0.12035509863571053
78	0x3fdc0d5c82a68c5c	0.43831551321836115
79	0xbfe7a113dc7b9d2c	-0.7384127908998486
80	0xbfa8bbf695b5e3c8	-0.04830904557724797
81	0x3ff16236660bc97b	1.0864776598142203
82	0x3fe7968778a816b8	0.7371251446317819
83	0x3fe13ce469438dad	0.5386831336913268
84	0x3fe347b56ef163e7	0.6025035063604464
85	0x3ff0f3199d7ba94f	1.0593506004029967
86	0xbfdbe95adc92cacf	-0.43611785450336255
87	0xbfe0e6e97a82b001	-0.5281875031264464
88	0x3ff86f52ab0735f9	1.5271784477985177
89	0xbfed0ae8dc1fdb2b	-0.9075817393594198
90	0xbfe19dc9d3d4b631	-0.5505112778971065
91	0xc0009b13733e0703	-2.0757206919960267
92	0x3fe28a4f05ea011a	0.5793833842763292
93	0xbfd4ffc09b6f0bd2	-0.3281098859699202
94	0xbfe761e321cad267	-0.7306991252904255
95	0x3ff212e0d31683c4	1.1296089406607601
96	0x3fecbf30d8fd356f	0.8983387220447819
97	0xbfd650be8f1f8108	-0.34867824532376845
98	0xbfe8487043d1fc50	-0.75884259458679
99	0x3ff140fd96df9cea	1.0783668416495922
100	0xbfdc96ff2a4fb5ec	-0.4467161095807046
101	0xbff15e0eb49477ac	-1.0854632429031694
102	0x3ffd08e37036d3b8	1.8146700271001759
103	0x3fe147585c7e1133	0.5399591261380351
104	0xbff66bea68497373	-1.4013465951640824
105	0xbfdf59a5b52b0634	-0.489846636697709
106	0x3fc2c6b6fb4b7158	0.14668929357766092
107	0x3fefd9f3feba16f6	0.995355603707792
108	0xbfe583fe5aa0ca82	-0.6723624963836559
109	0x3ff948dfc9c4b823	1.580291546018551
110	0x3fe2587b8cb9691e	0.5733011005898196
111	0xbff5df5717f904e6	-1.3670264183459095
112	0xbff1ca5546d248bf	-1.1118977323972528
113	0xbfe57103caf0c959	-0.6700457538302472
114	0xbfe844cf8998b62a	-0.7583997428352565
115	0x3ffcdd932c0eab51	1.8040954323757499
116	0x3fe81690398f7963	0.7527543186404667
117	0xbffc8bd39df2c500	-1.7841373605591002
118	0xbfe427468ba97c68	-0.6297943809294226
119	0xbff679050273e2ee	-1.4045457931335323
120	0x3fc6c443dda7e5f1	0.17786453555144946
121	0xc000122cf46ee46c	-2.0088748070088993
122	0x3ff161901153bceb	1.0863190342750453
123	0x3ff6213218211b38	1.3831044142295479
124	0x3fb690e9e84ec559	0.0881487075955837
125	0x3fe80adbc058ea20	0.7513254887374536
126	0x3fdd9fb3fab4cbd9	0.46287250025778587
127	0x3fe71ab2c2ae77f9	0.7220090677617456
128	0xbfef6832e89fff40	-0.9814695876557167
129	0xbfc5f40a9f5a2a55	-0.17151005535955002
130	0x3fe52106fa59881d	0.6602816476481653
131	0xbff24a79a699ef90	-1.1431824214805353
132	0xbfec3a48b9a60eac	-0.8821147561979692
133	0xbfe10cffac972a7f	-0.5328367587001849
134	0x3ff3223edfb89202	1.1958607424832057
135	0x3fed2e66e244012c	0.9119142932177389
136	0x3fdf97da23e6f364	0.49364331728047817
137	0xbfed6b860adeb308	-0.9193754398635017
138	0x4003dc75c5eba2ac	2.4826465094123105
139	0xc0005ec03ac0965c	-2.046265086176204
140	0xbfe05fba3db8e07a	-0.5116854863654361
141	0x3ff1e38995096718	1.1180511304614296
142	0x3fe4ee1697025c0a	0.6540635060690658
143	0xbfc20c13ef8360be	-0.14099358744602414
144	0xbfd3505fd708decf	-0.3017806625316383
145	0xbfcc0a3159f825d6	-0.21906105893167077
146	0x3fa139b7eb2bce5a	0.03364348169079952
147	0x3fea2a57a7a6b98f	0.8176687502325864
148	0xbfe2e82b41b770ed	-0.5908409389044472
149	0x3febcea53c499f08	0.8689752748004773
150	0x3fd78908eb88ca1e	0.3677389431133252
151	0xbfe03893b3f82412	-0.5069063677812002
152	0x3fd4edf3b049e342	0.3270234319275468
153	0xbffda8f83d07be1a	-1.8537523635858464
154	0x3fb66f4e99fb89a2	0.0876359106000906
155	0xbfb877ed868cc6e4	-0.09557995352659138
156	0xc004918843ade7d2	-2.57106068491428
157	0x3fda721fec325aa0	0.41321561876376656
158	0x3ff066887b1657b9	1.0250325019928666
159	0x3ff1416e5cf4a1f2	1.078474391086385
160	0x3fd8acc364c2a4c7	0.3855446323382918
161	0x3ffa33e8146e3d76	1.6376725004264165
162	0xbfe6efb77689f0c9	-0.7167622866832285
163	0x3fcaef7186a652e5	0.21043223452274798
164	0xbfd796dfaafbf5c8	-0.3685836000221028
165	0xbfe9c213edff4d0e	-0.8049411438354654
166	0xbffd5324766bdf60	-1.8327984453043982
167	0xbfab668626f3dd10	-0.05351657128806597
168	0x3f90bdfafcd3acd8	0.0163497177899615
169	0x3fdb250f367d517d	0.4241369278072609
170	0xbfe6b0e8b0e20435	-0.7090953306907354
171	0xbfe39c2fce23da89	-0.612815764062206
172	0xbfd2828c5a03ca42	-0.2892180327463941
173	0xbfb762130dcbf5d2	-0.09134024702867485
174	0xbfe3bb6c41f073d8	-0.6166287696720429
175	0xbfd3b1c4701a0087	-0.3077250571004772
176	0x3ffe9a7494495147	1.9127088348805772
177	0xc0004bed83b10241	-2.037074116553669
178	0x3fed07c7192f641e	0.9071994296929267
179	0xbfeec994c62ebdc6	-0.9621070738557413
180	0xbff00dff4df79112	-1.003417305525606
181	0x3fa1162c6126c1d5	0.03337229429178349
182	0x400128df9e129515	2.144957766477669
183	0xbfe7d7c78a28a4a7	-0.745090265122731
184	0xbfedbbf019f1141e	-0.929191637675675
185	0x4001bd39bf8d0246	2.217395302286863
186	0xbfed01ca4834ff13	-0.9064685259145072
187	0xbf852bd6e7107460	-0.010337523390314185
188	0x3fe2a1ead4ba242b	0.5822652964426472
189	0x400446f99fd26578	2.5346558080752253
190	0xbff8f169117df54b	-1.5589380915910904
191	0xbff644ee54fe2763	-1.391828853610115
192	0x3fd63c8ac2027490	0.3474451918244279
193	0x3fb7f56d7f141245	0.09358867981433956
194	0xbfe015e0957b2d98	-0.5026705665163034
195	0x3ff10486abb31e04	1.0636049944895385
196	0xbff837bcbeb15b3c	-1.5136077355325162
197	0xbfb5cdcdaf1c6292	-0.08517156148117014
198	0x3fc82cdb10100415	0.18886888775162505
199	0xbfdae1b98bdbd604	-0.42002714784698036
200	0x3feb99ec57abe6d2	0.862539454682713
201	0x3fc3daf14d22fc57	0.15511909738958948
202	0xbfd4f236593f59ae	-0.3272834655339477
203	0xbf962d8ac5618512	-0.021658104226280513
204	0xbfdc71ae800943a5	-0.4444385767320063
205	0xc0086161b063889a	-3.047549608266377
206	0x3fe485d34f6650c0	0.6413361120962904
207	0xbfb24544643e1e90	-0.07136943290071884
208	0xbff9b733d0638115	-1.6072271480734959
209	0xbfe899069348741e	-0.7686798931714554
210	0x3ff486ca92c00901	1.2829080326487772
211	0x3fef9fb6d3259d91	0.9882463573421082
212	0xbfe8db896d9c166a	-0.7767989292921815
213	0xbfbbc6ec4b0a3dc7	-0.10850407440215469
214	0x3ff6ea3f29a10e02	1.4321891428124904
215	0x3fd30b643fd08576	0.29757028800857854
216	0xbfe55eb66e81416a	-0.6678115995692171
217	0x3ff197e9dccd22c4	1.0995882630397071
218	0xbfe9601419073d5e	-0.7929783333619687
219	0x3fe7bee835270419	0.7420540845997748
220	0xbfea22076b91907f	-0.8166539288472591
221	0x3fd48ba5350a8107	0.3210232751826116
222	0xbfe013275e035687	-0.5023381076996011
223	0xbfd023110b8692b4	-0.252140294318717
224	0x3fca9962bcfb0fc5	0.20780595996450138
225	0x40082ad27e217460	3.0209092954597025
226	0x3ff1c51be8bc5917	1.1106223193397164
227	0xbff3115c5d37d8ae	-1.1917384759267793
228	0x3ff63efbb4808599	1.390376763425911
229	0x3fe566baadc58d69	0.6687901872614194
230	0xbfd9599d9e9972bd	-0.396094708330377
231	0x3fe000c5fe3f5ec5	0.5000944104931128
232	0xbfe00466247cd304	-0.5005369866035783
233	0x3fc8e04ec72c16d8	0.19434532857137898
234	0xbfc2d51c70144db5	-0.14712863419172853
235	0xbff6b3270ef3bcf1	-1.4187384208742595
236	0x3fbeb1d11be87d24	0.1199007695326953
237	0x3fe4c213a0dd7bc3	0.6486910001657339
238	0xbff046e0046c1fed	-1.0173034832714578
239	0x3ff35656b74fa814	1.208578792628491
240	0xbfec57516b98f1a7	-0.8856589414131592
241	0xbfdeca81021d2d24	-0.4811098595279921
242	0x3fc1a51d2918e69c	0.13785137659742908
243	0xbff7ec04ba646eb9	-1.4951216965627465
244	0xbfa91c46200361d1	-0.049043837936270436
245	0x3febfa6c5240cf8e	0.8743192297465485
246	0x3fe58a0385c46b51	0.6730973827974173
247	0xbfd7500ec892b836	-0.36426133715838505
248	0x3fe08143532f037c	0.515779173343716
249	0xbfd0111188254b59	-0.25104177756764084
250	0xbff03f462c54a73c	-1.0154477817217886
251	0xbff4789c4b41fe22	-1.279445928550452
252	0xbfc303831a01b10f	-0.1485446812615767
253	0xbfd21f78597e489f	-0.28317078342036867
254	0xbff6c6e24a96e1ab	-1.423555652012605
255	0xbfe346ea31a6a214	-0.6024065942520473

output_mask f8 [16]
0	0x3ff0000000000000	1.0
1	0x3ff0000000000000	1.0
2	0x3ff0000000000000	1.0
3	0x3ff0000000000000	1.0
4	0x3ff0000000000000	1.0
5	0x3ff0000000000000	1.0
6	0x3ff0000000000000	1.0
7	0x3ff0000000000000	1.0
8	0x3ff0000000000000	1.0
9	0x3ff0000000000000	1.0
10	0x3ff0000000000000	1.0
11	0x3ff0000000000000	1.0
12	0x3ff0000000000000	1.0
13	0x3ff0000000000000	1.0
14	0x3ff0000000000000	1.0
15	0x3ff0000000000000	1.0

output_mask f8 [144]
0	0x3ff0000000000000	1.0
1	0x3ff0000000000000	1.0
2	0x3ff0000000000000	1.0
3	0x3ff0000000000000	1.0
4	0x3ff0000000000000	1.0
5	0x3ff0000000000000	1.0
6	0x3ff0000000000000	1.0
7	0x3ff0000000000000	1.0
8	0x3ff0000000000000	1.0
9	0x3ff0000000000000	1.0
10	0x3ff0000000000000	1.0
11	0x3ff0000000000000	1.0
12	0x3ff0000000000000	1.0
13	0x3ff0000000000000	1.0
14	0x3ff0000000000000	1.0
15	0x3ff0000000000000	1.0
16	0x3ff0000000000000	1.0
17	0x3ff0000000000000	1.0
18	0x3ff0000000000000	1.0
19	0x3ff0000000000000	1.0
20	0x3ff0000000000000	1.0
21	0x3ff0000000000000	1.0
22	0x3ff0000000000000	1.0
23	0x3ff0000000000000	1.0
24	0x3ff0000000000000	1.0
25	0x3ff0000000000000	1.0
26	0x3ff0000000000000	1.0
27	0x3ff0000000000000	1.0
28	0x3ff0000000000000	1.0
29	0x3ff0000000000000	1.0
30	0x3ff0000000000000	1.0
31	0x3ff0000000000000	1.0
32	0x3ff0000000000000	1.0
33	0x3ff0000000000000	1.0
34	0x3ff0000000000000	1.0
35	0x3ff0000000000000	1.0
36	0x3ff0000000000000	1.0
37	0x3ff0000000000000	1.0
38	0x3ff0000000000000	1.0
39	0x3ff0000000000000	1.0
40	0x3ff0000000000000	1.0
41	0x3ff0000000000000	1.0
42	0x3ff0000000000000	1.0
43	0x3ff0000000000000	1.0
44	0x3ff0000000000000	1.0
45	0x3ff0000000000000	1.0
46	0x3ff0000000000000	1.0
47	0x3ff0000000000000	1.0
48	0x3ff0000000000000	1.0
49	0x3ff0000000000000	1.0
50	0x3ff0000000000000	1.0
51	0x3ff0000000000000	1.0
52	0x3ff0000000000000	1.0
53	0x3ff0000000000000	1.0
54	0x3ff0000000000000	1.0
55	0x3ff0000000000000	1.0
56	0x3ff0000000000000	1.0
57	0x3ff0000000000000	1.0
58	0x3ff0000000000000	1.0
59	0x3ff0000000000000	1.0
60	0x3ff0000000000000	1.0
61	0x3ff0000000000000	1.0
62	0x3ff0000000000000	1.0
63	0x3ff0000000000000	1.0
64	0x3ff0000000000000	1.0
65	0x3ff0000000000000	1.0
66	0x3ff0000000000000	1.0
67	0x3ff0000000000000	1.0
68	0x3ff0000000000000	1.0
69	0x3ff0000000000000	1.0
70	0x3ff0000000000000	1.0
71	0x3ff0000000000000	1.0
72	0x3ff0000000000000	1.0
73	0x3ff0000000000000	1.0
74	0x3ff0000000000000	1.0
75	0x3ff0000000000000	1.0
76	0x3ff0000000000000	1.0
77	0x3ff0000000000000	1.0
78	0x3ff0000000000000	1.0
79	0x3ff0000000000000	1.0
80	0x3ff0000000000000	1.0
81	0x3ff0000000000000	1.0
82	0x3ff0000000000000	1.0
83	0x3ff0000000000000	1.0
84	0x3ff0000000000000	1.0
85	0x3ff0000000000000	1.0
86	0x3ff0000000000000	1.0
87	0x3ff0000000000000	1.0
88	0x3ff0000000000000	1.0
89	0x3ff0000000000000	1.0
90	0x3ff0000000000000	1.0
91	0x3ff0000000000000	1.0
92	0x3ff0000000000000	1.0
93	0x3ff0000000000000	1.0
94	0x3ff0000000000000	1.0
95	0x3ff0000000000000	1.0
96	0x3ff0000000000000	1.0
97	0x3ff0000000000000	1.0
98	0x3ff0000000000000	1.0
99	0x3ff0000000000000	1.0
100	0x3ff0000000000000	1.0
101	0x3ff0000000000000	1.0
102	0x3ff0000000000000	1.0
103	0x3ff0000000000000	1.0
104	0x3ff0000000000000	1.0
105	0x3ff0000000000000	1.0
106	0x3ff0000000000000	1.0
107	0x3ff0000000000000	1.0
108	0x3ff0000000000000	1.0
109	0x3ff0000000000000	1.0
110	0x3ff0000000000000	1.0
111	0x3ff0000000000000	1.0
112	0x3ff0000000000000	1.0
113	0x3ff0000000000000	1.0
114	0x3ff0000000000000	1.0
115	0x3ff0000000000000	1.0
116	0x3ff0000000000000	1.0
117	0x3ff0000000000000	1.0
118	0x3ff0000000000000	1.0
119	0x3ff0000000000000	1.0
120	0x3ff0000000000000	1.0
121	0x3ff0000000000000	1.0
122	0x3ff0000000000000	1.0
123	0x3ff0000000000000	1.0
124	0x3ff0000000000000	1.0
125	0x3ff0000000000000	1.0
126	0x3ff0000000000000	1.0
127	0x3ff0000000000000	1.0
128	0x3ff0000000000000	1.0
129	0x3ff0000000000000	1.0
130	0x3ff0000000000000	1.0
131	0x3ff0000000000000	1.0
132	0x3ff0000000000000	1.0
133	0x3ff0000000000000	1.0
134	0x3ff0000000000000	1.0
135	0x3ff0000000000000	1.0
136	0x3ff0000000000000	1.0
137	0x3ff0000000000000	1.0
138	0x3ff0000000000000	1.0
139	0x3ff0000000000000	1.0
140	0x3ff0000000000000	1.0
141	0x3ff0000000000000	1.0
142	0x3ff0000000000000	1.0
143	0x3ff0000000000000	1.0

weight f8 [8, 64]
0	0x3fe3db94b939ee62	0.6205543153477715
1	0xbfafe8e59da63f11	-0.0623237376158824
2	0x3fef9163158c3f88	0.98649744232715
3	0xbffda9917596ff7a	-1.8538984864571533
4	0x3fe88c1e67408d62	0.7671043411868761
5	0x3fff9f9c06fe6c17	1.9764671586224318
6	0x3fd09ea436c39012	0.2596827063373449
7	0x3fde35c59ab8e8fe	0.4720319758377086
8	0xbff9361587776999	-1.5757041255625153
9	0x3ff0468ed04f5ec2	1.0172260415182994
10	0xbfd3b096b3b4803c	-0.3076531176502646
11	0x3fe2a7e66416a21b	0.58299560116308
12	0x3ff36b870b130731	1.2137518341628033
13	0x3f95eeb2b391825b	0.02141837330816752
14	0xbff95b8d4e83b622	-1.5848515574429105
15	0x3ff1d1129b66a605	1.113543135676424
16	0xbfe1c61efdef09e7	-0.5554346999782042
17	0xbffe939b7d57cb60	-1.9110369583329074
18	0xbff33d694006a6f0	-1.2024929524436025
19	0x3fe079d61835bac9	0.5148725960587736
20	0x3fca233620538eac	0.2041995675891618
21	0x3fe01c678067c8c0	0.5034673221510033
22	0x3fbc69e94e31409f	0.11099107893938019
23	0x3fec09ddf73b4219	0.8762044743289749
24	0x3fd8937b33a32f5b	0.3840015415450943
25	0x3fd03718c94bbd80	0.2533628431110273
26	0x3fd43a8a926c8cf3	0.31607307719441663
27	0xbfe8ef995f0fe805	-0.779247937839728
28	0x3ff8d58f8a67d58f	1.552138844153294
29	0xbf9adfee04fad3ce	-0.026244849256460694
30	0x3ffbafd17fb2b831	1.7304244030197078
31	0xbfd835d23c4795d7	-0.37828498732264165
32	0x3fe88b74638702c3	0.7670232719320541
33	0x3fefeea29dc96d4c	0.9978802758954912
34	0x3f959fa6ca3277e3	0.021116834727415223
35	0x3fd7c31ba9dc489b	0.371283450965288
36	0x3ff20ef670f29904	1.1286529933946108
37	0x3fed281648646107	0.9111434377582847
38	0xbfd5a40199662c49	-0.3381351469076362
39	0x3fcc08c6660c2c7b	0.21901779158392629
40	0xbfeba347da6f8c46	-0.8636817232439931
41	0x3ff5487e7ced4c80	1.3301987533530166
42	0xbfe0c7de7bee774e	-0.5243980808770432
43	0xbfe21133e75dd736	-0.5645999449613786
44	0xbfeacdf0ee9e4064	-0.8376392994414457
45	0x3ff21f038113b758	1.132571701247306
46	0x3febaa485e95bf7d	0.8645364615785948
47	0xbffc663b45fe3716	-1.7749588712790163
48	0x3fdd9b501ce18d78	0.46260454960266584
49	0x3fec44e4f45e247f	0.883409955292464
50	0xbfbb527b6358e412	-0.1067273252055119
51	0xbfeec5143e1791bc	-0.9615575039611524
52	0xbff2c121ef443c1f	-1.1721515032147705
53	0x3ff2bfa94e72b30d	1.1717923225762121
54	0xbff1fbc692310bb2	-1.1239686689957407
55	0x3fc49db29380606d	0.16106254770489006
56	0x3ff17f7ef78eab23	1.0936269445616709
57	0xbffd0d5dba96af2c	-1.815763214933166
58	0x3fe270e4426dc046	0.5762807176051943
59	0x3ff361e965bb10a6	1.2114042257171973
60	0x3fe0359cc86e8c85	0.5065444864925587
61	0x3ffac1a94912ae0b	1.6722805838024921
62	0x3ff78ecee6944712	1.4723652846336717
63	0xc00390ada4eef1da	-2.4456437001629014
64	0xbfcc82443b2607a6	-0.22272541893113135
65	0x3fe4681b26fa9efa	0.6377082597072949
66	0x3fba67c859d3b077	0.10314609711685017
67	0xbfe34c667b61c00b	-0.6030762109567162
68	0x3ff15dd4ba0c43b8	1.085407950162546
69	0x3fe23e081d95f842	0.5700722291801485
70	0x3fea58602e7462bf	0.823288050395682
71	0x3fd97de6d70815a3	0.3983094310682082
72	0x3fb4f9f54a900e9b	0.08193905897501923
73	0x3ff032471734ad59	1.012274828574695
74	0x3fc4fa8ba51fe2d3	0.16389604151461032
75	0x3fe54199d92eab3d	0.6642579309312634
76	0x3ff055e882e5f9cc	1.020973693200733
77	0x3fd82af2b1249fb6	0.37762133883597515
78	0x40001c048ac0b7f1	2.013680538183501
79	0xbfe86453e4aa6ae1	-0.7622470346571754
80	0x3ffd12d7569935f1	1.8170998938325023
81	0x3ff19f07fd8c371a	1.1013259796340606
82	0xbff62cdde8abc007	-1.385953816290568
83	0x3fec91562593fb06	0.8927412733026763
84	0xbff0f99a868f28d1	-1.0609383827418706
85	0xbfe44fbb8e8345a4	-0.6347329886868249
86	0xbfd9d2be1f43825e	-0.4034877114591263
87	0x3fe4726517d004d9	0.6389642205323539
88	0x3feeba41e0ffbefa	0.9602364916335937
89	0xbfdd8258ff5678da	-0.46108078894930105
90	0x4004d84c71e04283	2.6056145569385207
91	0x3ff4ad093344ceb1	1.2922451021849322
92	0x3fe0516134266019	0.5099340456536111
93	0xbfdd4bb6aa5e0984	-0.4577461875670894
94	0x3fcf3da81e9edb2c	0.24406911368506579
95	0x3fdc6b1996ad9482	0.4440368625130945
96	0x3fc9ab15471210fc	0.20053354234926946
97	0xbfda5859f453ea57	-0.41164254055153066
98	0xbfe572eeabeb94c9	-0.6702798230950516
99	0xbffbdcb0b43e5194	-1.7413794556387971
100	0x3fb438c71457e93b	0.07899135824837782
101	0x40004f859922a88e	2.038829037065688
102	0xbfe8c27bd590437c	-0.7737406893885317
103	0x3fc976b362240723	0.19893495838192007
104	0xbfe847ba71ae5960	-0.7587558956463845
105	0x3fb9356c09f97e6d	0.09847140544433737
106	0x3ff58697ef08f2fd	1.3453597390463863
107	0xbf943f5dd37f6289	-0.01977297404650583
108	0xbfe51ac903a24889	-0.659519679162501
109	0xbfb8a74f18524103	-0.09630293220311974
110	0x3fb5d5e0506e0484	0.08529474223725414
111	0x3fc41b0f7df2db33	0.15707582139813211
112	0xbfd7c194e478c2d9	-0.37119028388683045
113	0x3fc45f4dacab1c95	0.1591584294421621
114	0x3fcb0d27c693130e	0.2113389701463792
115	0x3fe1a8af220ec9b8	0.5518413224402172
116	0xbfe09a9f5763672d	-0.5188748080065345
117	0xbf684720c652e1a0	-0.0029636039858724345
118	0x3fdc22e4211ea0a5	0.4396295855936024
119	0x3fbada121f3f8e79	0.10488999617478524
120	0x3fd645757c9fc1b3	0.3479894368201954
121	0xbfd86b4e1ede9a94	-0.38154938711742514
122	0xbfc8e58961062f68	-0.1945049022436891
123	0xbfcc0053dd34b762	-0.21875999737806767
124	0x3fdab47bc850abb6	0.4172658401682229
125	0xbfb5d3f0c14deb2b	-0.0852652046141144
126	0x3fb074f42647a7cb	0.0642845719773099
127	0x3fcce2d3526a4f64	0.22567216419394776
128	0xbff6b7c3747e0baf	-1.4198641348345793
129	0x3ffd99183aa2fb76	1.8498766222471352
130	0xbfe0e9b739ecb3bb	-0.5285297519054589
131	0xbff1d2785893fb45	-1.1138843021469296
132	0x3fe5a2258a510993	0.6760432912345088
133	0xbf60cff673aed0d4	-0.0020522893441584453
134	0xbff5a8bc50eadf02	-1.353695217212533
135	0x3fee073ec31bc6d3	0.9383844195092145
136	0x3ff92a786b544c6e	1.572868747000736
137	0xc00632c54cd98e45	-2.774790382756495
138	0x3ff1c5a39623a8be	1.110751711351028
139	0x3fe6f72e33beb462	0.7176733980792387
140	0x3feec55b2fadb220	0.9615913325520218
141	0x3ff88dd508f95be0	1.5346269941853663
142	0x3fcfacef78bc40e5	0.24746507067948822
143	0x3fe5aa316369fd6e	0.6770255033188002
144	0x3fe4380aaf3b8b78	0.6318410322677286
145	0xbfea75ff03200525	-0.8269038258587541
146	0x3fcc1aec81e8becf	0.21957165091725137
147	0xbfe9ddad69923cec	-0.8083102285326311
148	0x3fd6f6d4c23f2a3e	0.35881537408264197
149	0xbfa803eb7386900b	-0.046904905178308885
150	0x3fcd2a466c4c2264	0.22785263336142514
151	0x3fda26d77b99e4af	0.40862071104454406
152	0xbfd4432c5dcf74e1	-0.31659993325395247
153	0x3fb293ccf598ef5c	0.07256775852232294
154	0xbfe536c122963747	-0.662933890869433
155	0x3fb0df294920ec43	0.06590517077795348
156	0x3fc85a950baef7eb	0.19026434965593295
157	0x3fec6aa6e914db51	0.888019042241334
158	0xbff33c5e354888bc	-1.2022382813816384
159	0x3f73d92abec3ca20	0.0048457784398459325
160	0x3fe081e20706404e	0.5158548485942533
161	0x3fca04fbd16a90eb	0.20327708936122887
162	0x3fd32617bb808089	0.29919999418962867
163	0x3fdff61466483706	0.49939451206670105
164	0xbfbbaa895220cbed	-0.10807092909890033
165	0xbf9e6897007d811b	-0.02969585361950165
166	0x3fce8390f4327c35	0.23839008258525643
167	0x3fd376c51a475f63	0.30412414137162197
168	0xbff374817b4b31b9	-1.2159437957917432
169	0x3fe03ef4960d8a97	0.5076849871369004
170	0xbfeb2d967ae56301	-0.8493149185479468
171	0x3ff3d074f94fb7fd	1.2383928049780473
172	0xbfcc5710e0e2ba1c	-0.22140704136605016
173	0x3ffd30b3f26b8dc5	1.8243903607880025
174	0xbfd9179c44fe7630	-0.3920660661477511
175	0x3ff14b183af76105	1.080833654725269
176	0x40045949d57d92e1	2.5435978583285395
177	0x3f8e4ff745d2f715	0.014800960367547892
178	0x3fb10fadb89e4be6	0.06664548642429188
179	0x3ff3b85918be9e49	1.2325068441949887
180	0xbfe8190340736df5	-0.7530533083731245
181	0x3ffa2a1a331fddd8	1.6352788922357515
182	0x3fedb35d9a04f22b	0.9281452186765525
183	0xbfd5bf5ec7ae17e8	-0.33980531215672594
184	0xbff25c23302b91f8	-1.1474944955490383
185	0xbfc766129af7195e	-0.1828025108972708
186	0xbfeb960aeee87b04	-0.862065760247646
187	0xbff65fd8f9f9ecdb	-1.3984002842615186
188	0x3fc6a63d4f33f57c	0.17694822661716703
189	0xbfcef3e07f53c65e	-0.24181753365660347
190	0x3ff7845a301c3adf	1.469812572413211
191	0x40065f5fd9438b73	2.796569535611917
192	0xbff448de040991ab	-1.2677898557386509
193	0x3fbcf26f56a2d426	0.11307426324022227
194	0xbff707c3cf27f28b	-1.4393957225831027
195	0x4007007aadce5ce7	2.8752339914895972
196	0xbfe927a2079acf64	-0.7860880039720368
197	0x3fe81e727af243a1	0.7537166978164472
198	0xbffd30c705a84706	-1.8244085522641753
199	0xbfe845555ade89d5	-0.7584635519781907
200	0xbff78a4748c38e6c	-1.4712593881930855
201	0xbfe25ab86ce1af43	-0.5735742689698572
202	0xbfff7e8cd0d57932	-1.968396011121126
203	0xbfe316d6ce4397f0	-0.5965379742235637
204	0xc0003082014da2a7	-2.0236854650323326
205	0x3fecd98fdd39f443	0.901557857592373
206	0xc0014525ccedc256	-2.158763504987557
207	0x3fb8c040543386e9	0.09668352180190322
208	0x3fd2ebef960f7447	0.29565038351376355
209	0x3fe9a740a26a6686	0.8016665622883046
210	0xbffaf51f7c37a727	-1.6848444797746625
211	0xbff844877656334c	-1.5167307493713507
212	0x3fd917001fe5fb53	0.3920288383014185
213	0x3fc8ead6bc0895dd	0.19466671162915264
214	0xbfd66d3127039fef	-0.3504145508763931
215	0x3ff4ebf06205c8ca	1.3076022938735599
216	0xbfd1058de29f7840	-0.26596400385995267
217	0xbfda8172ea957886	-0.4141509333475216
218	0xbff5f6933227e643	-1.3726989707196402
219	0x3fe5bfa5ab08445d	0.6796444263910747
220	0xbffe72526b20536b	-1.9029106316204103
221	0xbfeed026bfa574c3	-0.9629091017810868
222	0xbfc7f0d4e00a94ad	-0.18703709544675942
223	0x3fd786586c9450d2	0.3675747928948684
224	0x3ff200546e9355b3	1.125080520568514
225	0xbff5ab8829852b09	-1.3543779012567845
226	0x3ff74b2a6231a2d4	1.4558509669970379
227	0xbff2f97790fc5d69	-1.1859050429828477
228	0x3feb0947366f11b3	0.8448825896417048
229	0x3ffa6416828fd3bc	1.6494355297156593
230	0x3fdc55db94c4ddbe	0.4427403405020093
231	0x3fff2a4ccd5fb33c	1.9478271505751783
232	0xbffd42401c4b291f	-1.8286744218081095
233	0x3ff42ba4a4d6ef99	1.260655063538229
234	0x3fd2cee0ea853c43	0.29387686636340876
235	0x3fde5f8aaf5b8a49	0.4745814049221378
236	0xbfd8f1bcbee71666	-0.3897544731411017
237	0xbff04e6afd4e046c	-1.0191450018612853
238	0x3fb82b906824ddfd	0.09441473524645257
239	0x3fd418dde9a53bc7	0.3140177518552573
240	0xbfbd0b4f7ad80d9d	-0.1134538340484625
241	0x3fe227b38e634cd4	0.5673463612569329
242	0xc007ff2645b39c3c	-2.9995847173154555
243	0xbfe662b1a739702d	-0.6995476022816597
244	0x3fe7d58b3a055615	0.7448173649997353
245	0x3fcbe0e8ccbe577f	0.21780118939630808
246	0x3ff2dad5763c9076	1.1784262293449763
247	0xbf7c07b8fdbf455a	-0.006843302366136806
248	0x3fc1ae99c4796f35	0.13814088910555147
249	0x3ffbbb5fe1257b34	1.7332457346708
250	0x3fd5894a572b5a6e	0.3365045405638857
251	0x3fcd3ff1fdad6d74	0.2285139549884253
252	0xbf94d6e64077894c	-0.020351026234388045
253	0xbff1d919fb2c8931	-1.1155032931788578
254	0xbfae5eb6606f85aa	-0.05931634833519735
255	0x3fe61317b16eada2	0.6898306336856204

weight f8 [64, 64]
0	0xbfaa322b4f878810	-0.05116401048486818
1	0xbf87d9a0398cedd4	-0.01164555717115593
2	0xbfc9c2dc8279248f	-0.201259196956276
3	0xbfd3c1eab11d880f	-0.30871074005529037
4	0x3fef962df00dc738	0.9870824516822045
5	0xbfdb240fc81197de	-0.42407602823220525
6	0x3fcfa0c256dee98f	0.24709347955451874
7	0x40003b6c74723af4	2.029015454994232
8	0xbfd450b1fb8ef7ca	-0.3174252468705815
9	0x3fe30a8912053852	0.595036063381267
10	0x3ffc39200f27e794	1.7639465896631679
11	0xbfe42131fe075236	-0.6290521584983881
12	0xbff13f09c158dee9	-1.0778901627181148
13	0x3fdfd36b623b56aa	0.4972790202421985
14	0xbfbd835b1588f423	-0.1152855804038642
15	0x3ffdc9533d09d5f4	1.861651647979099
16	0xbfe16283c609b2c7	-0.5432757251670289
17	0xbfc7252b30326462	-0.1808217988334802
18	0x3fbaed1739c5ddee	0.10518021736594793
19	0xbfd9d316e8b70d02	-0.4035088799102625
20	0x3fe5d00b98f13cd3	0.6816461550860374
21	0x3fdabaf590d7b750	0.4176610865096011
22	0x4001c662a36d602b	2.2218678252939035
23	0x3fee9a696c768341	0.9563490980545809
24	0x3ff3de852ba0c6ad	1.2418262199611647
25	0xbff4918542879d82	-1.2855274771517036
26	0x3fddd569d1806d52	0.4661507173456886
27	0x3ff07b7719da1391	1.0301428804243395
28	0xbff4f68689c584c2	-1.310186899347443
29	0xbfcb555609185bcd	-0.21354175037478598
30	0x3fdebc3cb68f4add	0.4802390845117495
31	0x3fe16e9834f03b09	0.5447503122285023
32	0xbffe7ec46d3e3f1a	-1.9059490458784638
33	0xbfff17b3ae9f8176	-1.9432865925992622
34	0x3fe8f1d73546f949	0.7795215645381087
35	0xbff6c2a33ab6af12	-1.4225189488888117
36	0x3fc3810525518228	0.15237488100230334
37	0x3fdaebce9c189d69	0.420642521321915
38	0x3ff163f020d26ea5	1.0868989259824187
39	0x3fe4e57d8a1ce3f3	0.6530139634625115
40	0x3fe7c1af8178099d	0.7423932579697979
41	0xbfe81708533e9827	-0.7528115869397468
42	0x3ff9eac52e5199e8	1.6198169526411395
43	0x3fe06d72905d1e23	0.5133602923969572
44	0x3ffdbb7776054420	1.8582682237795396
45	0xbff2ef0649a2b33e	-1.1833556057346892
46	0xbfe20055c5f616c9	-0.5625408998900748
47	0xbfc964ab53011035	-0.19838468125283418
48	0x3fd24f8cf3178532	0.2861053823417762
49	0x3fd5fe41ba93306e	0.3436436006566116
50	0xc001223fae24ce34	-2.1417230229360715
51	0xbfd7d01749f0f742	-0.37207586499049594
52	0xbfe437bdc1b5481f	-0.6318043502199123
53	0xbff0c632b4f36023	-1.0483882015596542
54	0xbfc730128329e19d	-0.1811545505950222
55	0x3fbb2295b4cad01a	0.10599647201416965
56	0xbfdb3564c4016080	-0.4251338876833941
57	0xbff6fafe962fa256	-1.4362779490130797
58	0x3fe413acebf7d37e	0.6274017914534935
59	0xbfede5540d374e67	-0.934244180500582
60	0xbfbfe36380d136eb	-0.12456342596962215
61	0x3ff73846570ec4b4	1.4512389565173125
62	0x3fed78e49fbe20eb	0.9210074539160166
63	0x3ff1799c10563c7d	1.0921898496779072
64	0x3ff5312f024bbb29	1.3245077218704842
65	0xbfc0cad2322da837	-0.1311896080981698
66	0x3fe6bfffe311344a	0.7109374461084681
67	0xbfe2649e93f00731	-0.5747826470762673
68	0x3ff2598a2048352d	1.1468602429407142
69	0x3feeab3b6f8aa444	0.9584023645921964
70	0xbff634244eb65314	-1.387729938001205
71	0x3ff80fb36185eb3b	1.5038331803795717
72	0xbfee75f7ef0084b5	-0.9519004505165386
73	0xbfceff0f829eadc5	-0.24215883138582064
74	0x3fc311860b1fe052	0.14897227805318153
75	0xbfb779cfceb04953	-0.09170244976147517
76	0x3fd4bb997f6b37dc	0.32395017092937706
77	0x3fe437b2a02b3711	0.6317990425393153
78	0x3fe9bd01d635e7b5	0.8043221648979314
79	0x3fe8c89a64109c81	0.7744876818077416
80	0xbfe9c372689ccd9d	-0.805108265229524
81	0xbfdd78e27e40d43b	-0.460503218931368
82	0x3ffddc41b9985795	1.8662736177261412
83	0x3ff047134f2d2f74	1.0173523991424789
84	0x3fffd65587df53be	1.9898276622309221
85	0xbfd91f1404caceb4	-0.3925218626784315
86	0xbfd8d2cf866e3d6a	-0.38786686065664944
87	0x3fca090095dc1786	0.20339972798700162
88	0x3fd8b546dde439b0	0.38606425923435506
89	0x3fc7c5592158379a	0.18571008804468364
90	0x3f789db1d5827201	0.006009764351031511
91	0xbfe1b25a4ec33d0f	-0.553021577676107
92	0x3fed8f2ca24b7e41	0.9237273378202603
93	0xbfea84cad41965fe	-0.8287099974215264
94	0xbfc7f1c0a196f4ab	-0.1870651997577729
95	0x3fed6c1b664f025e	0.9194466589179446
96	0x3fd1cdae80bbb954	0.27817881175623893
97	0xbfe3201508dcb31e	-0.597666280087285
98	0x4000a433e00d1bc9	2.0801770690918358
99	0x3fc9b99ab9d49c55	0.20097669671779053
100	0xbfed586f4dd84c6e	-0.9170452614220161
101	0x3fecc5055d9350d1	0.8990504100461526
102	0xbfbbf14515fc0be1	-0.10915023600323039
103	0x3faaedac5e149c04	0.05259455345576927
104	0x3fea1d96cb194bf7	0.8161119429372538
105	0x3ff3e4b571550574	1.243337099746296
106	0xbfe36d663e65517a	-0.6071044176738234
107	0x3fd4651fab5b5b37	0.3186721013457147
108	0xbff19ceb03906cb0	-1.1008100642418803
109	0xbff099c4da462576	-1.0375412489250642
110	0x3ff4d3be239cddab	1.3016950026629768
111	0xbfee5c5ab9789b85	-0.9487737295611259
112	0xbfe4939b0957f4d8	-0.643018263100795
113	0xbfe634ad2161d8ed	-0.6939302112575924
114	0xbff2163f27c59303	-1.1304313233933392
115	0xbfd91d69c9d106bc	-0.39242024143832643
116	0xbfeed29b73bc5bd8	-0.963208890959204
117	0x3fe2ac29305ac830	0.5835157341409793
118	0xbfc19e37c27cf9a1	-0.13764092442029344
119	0x3fd3bf442eadc2bf	0.3085489707801052
120	0x3ff1c3676c55ad7e	1.1102060539077168
121	0xbfe9bd5587f883ce	-0.804362073486226
122	0x3fefd7f3d06ccf44	0.9951113768388287
123	0x3ff780ed8f201078	1.4689765539960984
124	0x3ff5250284538c4f	1.3215356034277368
125	0x3fbc8a30ae2456c6	0.1114836144591563
126	0x3ff58756915e1ab7	1.3455415419027028
127	0x3ff24630403acdc6	1.1421358593914746
128	0x3fe13c0808cd7818	0.5385780498434114
129	0xbff11cf0c0f9ce19	-1.069565538226817
130	0xbfbc7adb48a72cbd	-0.11124964259868171
131	0xbf7b8aad62279fde	-0.00672404983422578
132	0x3fdcfb0b92a74851	0.45282258340478615
133	0x3fc995424e00d516	0.19986752327682983
134	0xbff43f89f5ea5c91	-1.2655124288628807
135	0xbfce9a035bb1adfb	-0.23907510735749313
136	0xbff18c0c048c2fca	-1.0966911485329427
137	0x3ff2e3e1191f0753	1.1806345921799746
138	0xbfecb5f399d8343f	-0.897210884549743
139	0x3fe9caee630a51b4	0.8060218748456038
140	0xbfa6490232eb7820	-0.04352576133327113
141	0xbfb51ce1395baa05	-0.0824719204935392
142	0xbff87a6d5b85bbd0	-1.529889447697986
143	0x3fffc673b2c18d21	1.9859501822146017
144	0xbfdd2005c933277f	-0.4550795044748312
145	0xbfd278bb90597ea0	-0.2886189374603223
146	0xbfecf5661939085e	-0.9049559109337328
147	0xbfe7ffddbe66bf36	-0.7499836653496235
148	0xbf9280c9afa9f041	-0.018069411608380163
149	0xbfdd36e76825e78f	-0.4564760701247161
150	0x3fe0e7ee55ce0d19	0.5283118892552096
151	0xbfa0f676bf23fa78	-0.033130369980416796
152	0x3ee5a2e087e19240	1.0316962512920834e-05
153	0xbfe6f3f10c284217	-0.7172780263372854
154	0x3ff63db4498acc16	1.3900645134679102
155	0x3fd09bfabd44035c	0.2595202301309223
156	0xbfeb1b31c44959c0	-0.847069629070397
157	0x4007989020b36aab	2.9494936518434165
158	0xbffc757420a481cd	-1.778675200948885
159	0xbff25b03bf9db9c9	-1.1472203717236076
160	0x3ffa210bf2ad6656	1.6330680350860312
161	0xbfd4047abf4464f6	-0.31277340582307944
162	0xbff1ccf572d282f2	-1.1125387654539591
163	0xbfa7497cd2fd0f7e	-0.04548254085105351
164	0xbfe6db8505fdddec	-0.7142968289398914
165	0x3fe3b06aa39814ce	0.6152852244564657
166	0x3ff89bfca675f344	1.538082742917326
167	0xbfe3e741ff89338c	-0.6219797125755675
168	0x400024482017b6ea	2.0177156932103246
169	0x3f831abcd83f2d0e	0.009328341817215004
170	0x3fe04b6ff60003b8	0.509208660572873
171	0x3ffbb9ec076c10fc	1.7328911104132763
172	0xbfb69665624b6d21	-0.0882323613145002
173	0xbff5385bf7e2acc2	-1.3262595828080497
174	0xbfac7264239549d2	-0.05556023535122602
175	0xbfbcfe78789860bf	-0.11325791305751219
176	0xbfc7b3cbe489b031	-0.18517445239138078
177	0x3fd214e8142bfcf0	0.2825260350218306
178	0xbfe593a0b772ad83	-0.6742709715812655
179	0xbfd35ef9aac9c835	-0.3026718299726128
180	0x400147893bf022f0	2.1599297220858418
181	0x3fed36d3f88eb165	0.9129428724896057
182	0xbff1a8921f1d407f	-1.1036549773598663
183	0xbffa75b478d8421e	-1.653736564683761
184	0xbfc3dc38595c8ae9	-0.15515808451990346
185	0x3f7965628aabe218	0.0062002038273410096
186	0xbfee9abc5319fea0	-0.9563886282994254
187	0xbff08dee71714fad	-1.0346512252190039
188	0xc004937eb366adb0	-2.572019006319998
189	0xc002b70b633b8954	-2.3393771889251784
190	0xbfdba33e98050a17	-0.4318386540000189
191	0xbff9aef411a1a77b	-1.6052132309655167
192	0xbffe91059fa5ead7	-1.9104057537321546
193	0x3ffc2765e1008e54	1.7596186436793646
194	0xbf9400b50067d945	-0.01953394713378855
195	0x40013e5d3c9bff59	2.1554512724978108
196	0xbff446aad65f213a	-1.2672527669802336
197	0x3fefc9537cf00157	0.9933259430108973
198	0x3fe516008bb7a9e7	0.6589358071190049
199	0xbff22f6a0f8905ce	-1.1365757567258359
200	0x3fed04b8762f20ec	0.9068262394221427
201	0xbf9b746b442b6a38	-0.026811290775052593
202	0xbfd4ffcaa88f9629	-0.3281122823812859
203	0xbfd15f6aaff05900	-0.271448776068965
204	0xbfec412a46ea11e5	-0.8829547295613877
205	0xbfa5a56fe2996415	-0.04227780953505814
206	0x3ff2906dc57d2067	1.1602609362035083
207	0xbfc56cebad67d56e	-0.16738649336881956
208	0xbfddd49419377b56	-0.46609976255961294
209	0x3fe4b26cc92e4b14	0.6467803887665888
210	0xbfeafd225b61dbf8	-0.8434001717386073
211	0x3fe67f5639002a84	0.7030440438550873
212	0x3fe4e2073f845295	0.6525913467945254
213	0xbfe7382702105c44	-0.7256045379934979
214	0xbfe7a3b86fd1b172	-0.7387354072539394
215	0xbfef2c0b9fc5fdea	-0.9741266365598993
216	0x3fdd6fb3416e5d03	0.459942640206876
217	0x3fec0b03b8151d17	0.876344546829304
218	0xbff299c56f4e90b6	-1.1625418041158304
219	0x3fe989049dc80f3e	0.797975834052046
220	0x3ff12924c42016a9	1.0725448285242385
221	0xbffbf171f583b195	-1.7464465704352723
222	0x3ffcc33ffc273e38	1.7976684427011502
223	0xbfdf25ad8d32c531	-0.4866746786966188
224	0x3fc5eccaf762f113	0.17128884391230112
225	0x3fe055e9a6397cf4	0.5104873892377371
226	0xbff22d7bde2f14da	-1.1361044577654895
227	0xbf7c4223c61c18f7	-0.006899013272919633
228	0x3fd8356d7a0e977a	0.3782609645808105
229	0xbffe676a294fad04	-1.9002477277488774
230	0x3ff716baf16d033f	1.4430493765541568
231	0xbff821e8cc1dd214	-1.5082786534595742
232	0xbfe40b91d9783093	-0.6264123198939323
233	0x3fcaccbfb689defd	0.20937343991294446
234	0xbff4090ea596be7c	-1.252211233931944
235	0x3fe37d99bef310db	0.6090821008188202
236	0x3f8b48e4261f32c2	0.013322622693430989
237	0xbfe8cd4ebfa3be2c	-0.7750619643174494
238	0xbfd932c7236aca2d	-0.39372423609453017
239	0xbff2bc80a425c55e	-1.1710211193097488
240	0x3fe8e6f32f808021	0.7781921317837296
241	0xbfc3093b4a81d41b	-0.1487192262463005
242	0x3fe86b1c5d19e7d4	0.7630750482924165
243	0xbf8e05742768a9bd	-0.014658839657461504
244	0xbff92d5ab15c4bd5	-1.5735728195329461
245	0xbfe0173ef5178f18	-0.5028376376107841
246	0x3fe08f64c8c0254b	0.517504112330394
247	0xbfe9a392f0f1051d	-0.8012175279510846
248	0x3fee9a229da1bbba	0.956315334200432
249	0xbfb0ed0f4180161e	-0.06611724232796987
250	0x3fc71cd3513152cc	0.18056718315587827
251	0xbfea6a37197a7289	-0.825465726625752
252	0x3fe14ff7c000e5a0	0.5410116910999712
253	0xbfbb8b857248d0a4	-0.10759767570636086
254	0x3ff2308a9058bb7d	1.136850894788693
255	0xbffccb9126266386	-1.7996989717705403
