MACE_models/mace02_com1_swa_compiled.model (torch, 541575 bytes, 51 tensors)

r_max f8 []
0	0x4010000000000000	4.0

weight f8 [48]
0	0x3fee7f100ca40263	0.9530105826270979
1	0x3fb9a8f5ca13e9a6	0.10023437675037047
2	0x3fe6bed3ee548c66	0.7107944159400972
3	0x3fd79a3026c82647	0.3687858942726944
4	0x3fdb31b8d8aff24e	0.42490979348057045
5	0x3fd553f86c26b278	0.33325014649998463
6	0x3fe09b7cf9eab094	0.5189804917513521
7	0xbff1eb501e3ec91a	-1.1199494534926715
8	0xbfdeae5e33631699	-0.4793925763918679
9	0xbfa2ffed919a1291	-0.03710882570616037
10	0xbfee49b108e53e97	-0.9464955495586364
11	0x3fd40935285fa0f3	0.3130619901917406
12	0x3ff2f69c0a62808d	1.1852074056296573
13	0x3ff3c2c99d8cb052	1.2350555567054653
14	0x3ff3946eb44552f9	1.223738388235857
15	0x3fe3fef924e974c1	0.6248746605812344
16	0xbff973b94c90a03f	-1.5907528868501826
17	0xbfe9eb6512dff980	-0.809984719147721
18	0x3ff6aaef449c7e9c	1.416732090008657
19	0xbfe61ca05679b7b8	-0.6909944237684078
20	0xbff0c18722fe9dc4	-1.0472480170227394
21	0x3fd17bc045541fb4	0.2731781651532359
22	0xbff571a4e3aaa160	-1.340245141336787
23	0x3fac598e1c1d7177	0.05537075131607854
24	0xbfdd1abcdf515937	-0.45475694473624934
25	0x3fde4533234f8736	0.4729736180143961
26	0xbfe1012b2b305a8d	-0.5313926547558637
27	0x3f97a95d3aedb65c	0.023107010575975515
28	0xbfc9e7f3aafde472	-0.2023911080284822
29	0x3ff65d915cf8887f	1.3978437072442202
30	0xbfeac5a08ce1fc3b	-0.8366244079223927
31	0x3ff4cda96343a211	1.300210368872403
32	0x3fe2eb928378eae3	0.591256386548903
33	0xbfb8f14ae476fafc	-0.09743183210137468
34	0x3fd2df7816a8718e	0.294889471175133
35	0xbff49e942b92231f	-1.288715524862887
36	0x3fb945c3bf9696d4	0.0987207739586567
37	0x3ff8e3d9e7abe326	1.5556277322450085
38	0xbfd6579b2b8f8a06	-0.34909705404257385
39	0xbffbafbb3a83fea0	-1.73040316445978
40	0xbfe216a1cfe9f1e7	-0.56526270492719
41	0xbfdbdfd7581d051e	-0.4355371819002175
42	0xbfdea6a4fde152df	-0.47892117302880693
43	0xbfdeb07420153052	-0.4795198739345824
44	0x3fd5208f316790f5	0.33011226486838946
45	0xbfe9a1ba779c6e32	-0.8009922348168799
46	0x3ffbc4d85e530123	1.7355579075375054
47	0x3ff16bad284c76af	1.0887881826560422

output_mask f8 [16]
0	0x3ff0000000000000	1.0
1	0x3ff0000000000000	1.0
2	0x3ff0000000000000	1.0
3	0x3ff0000000000000	1.0
4	0x3ff0000000000000	1.0
5	0x3ff0000000000000	1.0
6	0x3ff0000000000000	1.0
7	0x3ff0000000000000	1.0
8	0x3ff0000000000000	1.0
9	0x3ff0000000000000	1.0
10	0x3ff0000000000000	1.0
11	0x3ff0000000000000	1.0
12	0x3ff0000000000000	1.0
13	0x3ff0000000000000	1.0
14	0x3ff0000000000000	1.0
15	0x3ff0000000000000	1.0

bessel_weights f8 [8]
0	0x3fe921fb54442d18	0.7853981633974483
1	0x3ff921fb54442d18	1.5707963267948966
2	0x4002d97c7f3321d2	2.356194490192345
3	0x400921fb54442d18	3.141592653589793
4	0x400f6a7a2955385e	3.9269908169872414
5	0x4012d97c7f3321d2	4.71238898038469
6	0x4015fdbbe9bba775	5.497787143782138
7	0x401921fb54442d18	6.283185307179586

r_max f8 []
0	0x4010000000000000	4.0

prefactor f8 []
0	0x3fe6a09e667f3bcd	0.7071067811865476

p f8 []
0	0x4014000000000000	5.0

r_max f8 []
0	0x4010000000000000	4.0

atomic_energies f8 [3]
0	0xc0256a179c46187a	-10.707211383396714
1	0xc0486c79161c72bb	-48.847445262804705
2	0xc059a48e175aab87	-102.57117256025786

weight f8 [256]
0	0x4000cc59801c0550	2.099780083518148
1	0xbfcb48a4ae9f02ce	-0.21315439726278956
2	0x3fda7f83617a4371	0.41403278846069386
3	0xbfd2eabda258d63f	-0.29557743887139404
4	0x3fc9543b7fe559a2	0.19788306946675244
5	0x3fe545f326784885	0.6647887946476351
6	0x3feb832c493dc651	0.8597623281950267
7	0x3fd84a10cc06b03a	0.37952060627390305
8	0x3fedeccc4d5d14b4	0.9351560126312024
9	0x3fe51f1916bdfe93	0.6600461429770398
10	0xbfd17e90a8fd8320	-0.2733499193473552
11	0x3fe8a89e4b4e034a	0.7705832930370005
12	0xbfc503a4b4d4c57b	-0.16417368726392198
13	0x3f9f92bac0b79073	0.03083316613437188
14	0xc004e719aa2549a1	-2.612841920149734
15	0xc00130ef2197e7cd	-2.148893606613433
16	0xbfd02071cb2234bf	-0.25198025548236197
17	0xbfe6d1f4c1667fe9	-0.7131294038153985
18	0x3fdaea7c127b8f53	0.4205618076796231
19	0x3fc18b8f41beb432	0.1370715209026528
20	0xbfce375d9f5e949a	-0.2360646274729888
21	0xbff3ca5a33591cc9	-1.2369024282250385
22	0xbfc856e3e93818db	-0.19015168082859799
23	0xbfc7a4ef17113cb6	-0.18472088457426644
24	0xbfc39632b203367a	-0.15302118007678073
25	0xbfd112189ac11b9a	-0.2667294989845971
26	0x3f89618d5ff8f6cd	0.01239309739241481
27	0x3fd257a66df8d8c2	0.28659973849734055
28	0x3ffd77dce5131cd3	1.8417633960942126
29	0xbfc73a24bfe99433	-0.18146190043185725
30	0x3fb0068b68ff140d	0.0625998622263781
31	0xbfb0576790dcd4c8	-0.06383368765530684
32	0x3fea4ff2339601b8	0.8222590453661303
33	0xbff009f1e306fd70	-1.0024279468778694
34	0xbfc30028230ac858	-0.1484422846893405
35	0xbffa642af3cbcebd	-1.649455025032622
36	0x3feeee0c38b66714	0.9665585620561807
37	0xbfcb8a5869bf054e	-0.2151594654406303
38	0x3fee31178b87601e	0.9434926724598005
39	0xbfefad529c64717e	-0.9899075560129373
40	0x3ff818c71560b5cb	1.5060492358273787
41	0x3fb250d797aaa469	0.0715460534362521
42	0xbff41bfde96e1913	-1.2568339460718263
43	0xbfd25f9cc2c48f2f	-0.2870857145337479
44	0xbfeea9abdbfd5c56	-0.958211831729282
45	0xbffcf2d48e3273ef	-1.8092847399304863
46	0xc00303f4604cf4f3	-2.376930954311882
47	0xbfd7718af1ad7d9f	-0.366305099500062
48	0xbfed2f3910b153d3	-0.9120145154980669
49	0x3ff8e660e3f6b920	1.556244745715567
50	0xbfe20ae4329d7794	-0.5638295162750517
51	0x3ff478546b458a3a	1.2793773832605795
52	0x3ffb64f813f48371	1.7121506480691233
53	0x3fc0cfae95a9c059	0.13133795078056457
54	0x3fdb25afe3b3eb8e	0.42417523609736285
55	0xbfcc001dd9703aec	-0.2187535583220418
56	0x3fe42fbd20e5d4e2	0.63082748818729
57	0xbff55179f5df8475	-1.3323917011660147
58	0xbfe7e63a2a87f6e5	-0.7468539076505435
59	0x3fe89362b040ea6d	0.7679913942768742
60	0xbfef018797b2f535	-0.9689367258903646
61	0x3fe8ef080008e5ea	0.7791786194495078
62	0xc0013e820aca156d	-2.155521473209481
63	0xbfd4470d1e80f23b	-0.31683662394405915
64	0x3fe6d46f6e13a4ac	0.7134320402084504
65	0x3fb08450e4038f13	0.06451898161645557
66	0x3ff7811777b27f92	1.4690165210413153
67	0x3ff05a03425d1bd9	1.02197576449702
68	0x3ffb9714936c62e8	1.724384857056231
69	0xbfe54c58acb8c33c	-0.6655696271392126
70	0xbff256ebc7406bb8	-1.1462209494845705
71	0x3fdc3b79309f0c0a	0.4411299681489146
72	0x3febd88a5754d60c	0.870183153695224
73	0x3fd017bef3235285	0.25144933456366686
74	0x3f9fa836e46a9202	0.030915124598907447
75	0xbfa078de43ee1794	-0.03217215136741838
76	0x3ff8d260a6c70d68	1.5513617052791577
77	0x3fc08efc3ad9fd71	0.12936356423959297
78	0x3fdbd8c3b8769df5	0.43510525716780474
79	0xbfe83e1755e7da1b	-0.7575794866414215
80	0xbfacf4e4e75389b9	-0.05655589412505741
81	0x3ff185498af5dec7	1.0950408390180415
82	0x3fe8683dc16dd8dd	0.7627247598564072
83	0x3fe0814e51bdf496	0.5157844158672045
84	0x3fe2b1d3e005daaa	0.5842074752279889
85	0x3ff1a14f6a0eab1c	1.101882375990221
86	0xbfdc93ca0eca1eaf	-0.4465203422955523
87	0xbfe1949b77f514a4	-0.5493905394474905
88	0x3ff8ab23b1b2e7a1	1.5417820874558645
89	0xbfec88ec258c6026	-0.8917141660085732
90	0xbfe24ae06933c06f	-0.5716402106027213
91	0xc000d55b504dd241	-2.1041780732869317
92	0x3fe32b126295ed9a	0.599007790136443
93	0xbfd763cdc6023717	-0.3654665406873944
94	0xbfe73fce81b97088	-0.7265388997725646
95	0x3ff256ec7089d65b	1.1462215801269824
96	0x3fed3cec9019cb9c	0.9136870207279233
97	0xbfd66f33e1af4bf4	-0.3505372718765891
98	0xbfe84eee34422da9	-0.759635068957711
99	0x3ff1a90e802119be	1.1037735943842644
100	0xbfdba1e2a8df351a	-0.4317557000293434
101	0xbff18787a0de83ce	-1.09558832969218
102	0x3ffd1e50e093afc3	1.8199013493094618
103	0x3fe1f4ba95a5051f	0.5611241266962316
104	0xbff6559ab684e15e	-1.3958994989062243
105	0xbfdf1fd947335ccf	-0.48631889298617365
106	0x3fc19f2a627fb50f	0.13766984757914044
107	0x3fef90ed37e6e7a8	0.9864412395320317
108	0xbfe56e29e3956929	-0.6696977086060417
109	0x3ff9815f6aa766b9	1.5940851370018392
110	0x3fe23871e8a7dcd6	0.569390253453913
111	0xbff63462eccf4782	-1.3877896547678295
112	0xbff1d3552f28c42a	-1.1140949098737658
113	0xbfe5d1eb72d79a85	-0.6818749659549473
114	0xbfe88b56c12678c2	-0.7670091412035378
115	0x3ffd1b26aa3ce54a	1.8191286706845227
116	0x3fe8ac949445660c	0.7710669418258376
117	0xbffd19499d357330	-1.8186737194984737
118	0xbfe3cae57978b009	-0.6185176250924097
119	0xbff618a42ec4dbe7	-1.3810159518159197
120	0x3fc537185aad0985	0.16574387004409288
121	0xc000591da0ccf791	-2.0435135424185735
122	0x3ff20c4092399c1d	1.1279912673869668
123	0x3ff6a2f020ceb453	1.4147797853031718
124	0x3fb1ee5864f61c13	0.07004311051251504
125	0x3fe885da87826594	0.7663395544688449
126	0x3fdd7bb6d9e666be	0.46067591933534036
127	0x3fe6ffc5c5fa89bb	0.7187222353716644
128	0xbfef22186155b5fe	-0.9729120160170053
129	0xbfc89db32356657e	-0.19231261468375388
130	0x3fe523a2fdc6e877	0.6606001812535983
131	0xbff1b942c141e742	-1.1077296780699304
132	0xbfeb607d3469bb24	-0.8555284522716176
133	0xbfe27b3a49daa29b	-0.577542442556552
134	0x3ff36a2c23acb8c2	1.213421000818514
135	0x3fee349ba614d1ed	0.9439218753601019
136	0x3fdf410c9627cbdc	0.4883452860223636
137	0xbfee3564b5aba3bd	-0.9440177486659348
138	0x40043967c49cf0a2	2.528029953040531
139	0xc0002f06b13554c6	-2.022961983146703
140	0xbfe07c67c0715fb7	-0.5151861914300672
141	0x3ff25d0703344f8e	1.1477117657823075
142	0x3fe4d4003c685c20	0.6508790187680269
143	0xbfc404001fb72e88	-0.1563720850812056
144	0xbfd42023fd18db07	-0.314461705365304
145	0xbfcb26804686b364	-0.21211245959912184
146	0x3f90c8e99d3cd65d	0.016391420576118743
147	0x3fe93be86c13ec0c	0.7885629759688313
148	0xbfe333f68fa330d2	-0.600093155424043
149	0x3febc7f76eccc30e	0.8681599773463817
150	0x3fd794ffd232cec1	0.36846919562524866
151	0xbfe115bc1da6ed7a	-0.53390317717951
152	0x3fd3fb74503baaff	0.3122225554968025
153	0xbffda47055850e92	-1.8526461926093458
154	0x3fb5bb181c6b8e94	0.0848860806832426
155	0xbfb37b4b143a6ab1	-0.07610005611278826
156	0xc004a9f643e47d94	-2.582989244852522
157	0x3fda6398277fe634	0.41232875687964854
158	0x3ff0674c036b1782	1.025218976357309
159	0x3ff171ad4b661f5b	1.0902531571645884
160	0x3fd8dde246b3d9f1	0.3885427179770025
161	0x3ff9d190724d3f0b	1.6136631455337376
162	0xbfe6b6b601ccf568	-0.7098035845917083
163	0x3fce7223a7bf423a	0.2378582543447168
164	0xbfd5680489b6a70f	-0.3344737381799953
165	0xbfead81eec7c512b	-0.838881933103527
166	0xbffd156c24498532	-1.8177300851314837
167	0xbf8fda8368c51a6b	-0.015553499827217728
168	0x3f8f75a77b91d372	0.015361126383348387
169	0x3fd88764502c8159	0.38326366261937533
170	0xbfe472265b6d15f7	-0.638934305731424
171	0xbfe2dfacd448db41	-0.5898040910895831
172	0xbfd2828cf766c60e	-0.2892181793241385
173	0xbfb3c1b11f5a2afa	-0.0771742536109449
174	0xbfe3cb331e7e3666	-0.6185546489302396
175	0xbfd41e5629069e15	-0.31435159689360265
176	0x3ffebf709a78767a	1.921738246346108
177	0xc0002d271c120919	-2.0220472519878396
178	0x3fec431b55678111	0.8831917446187011
179	0xbfeee1a8c88d0ff9	-0.965046302510472
180	0xbff011a45082261f	-1.0043070931300304
181	0x3fa1847a86861bfe	0.03421385662209529
182	0x40012b682a222d37	2.146194771926868
183	0xbfe80624d3a33441	-0.750749982218288
184	0xbfee46a1244d988f	-0.9461217602772808
185	0x4001dac137ea1750	2.2318138473810123
186	0xbfee29e3b4f2a550	-0.9426134618890192
187	0xbf71e40a45f6221c	-0.004367866640116815
188	0x3fe1b893181ddcda	0.5537810774830192
189	0x4004629f9eb1083c	2.5481560132766656
190	0xbff902a13c9ba72a	-1.5631420485974084
191	0xbff67c9618c9d15f	-1.4054165809912644
192	0x3fd6d6b5c2ad0da8	0.35685485850646126
193	0x3fbc68bd0918bc47	0.11097318145833511
194	0xbfe04053a0903b91	-0.5078523765567856
195	0x3ff0e2548eca9277	1.055256421831613
196	0xbff87846682aa168	-1.5293640202526948
197	0xbfb04c9742a81668	-0.06366868378980828
198	0x3fc738b392760082	0.1814178910390219
199	0xbfdc381dbd4def03	-0.4409250591922815
200	0x3febb9bda8ef3b6f	0.8664234447004285
201	0x3fc8e6dfe3d9fabf	0.1945457327419344
202	0xbfd8d7e60443ca63	-0.3881773988388543
203	0xbfa81b6eaabef9a6	-0.04708429178525657
204	0xbfdc35cee51eac75	-0.44078419089300463
205	0xc00866d2e536de67	-3.0502069384927384
206	0x3fe476b93357eaee	0.6394926073838556
207	0xbfb485e1d7af97a6	-0.08016788020867568
208	0xbff9ddacef1fe0a5	-1.6166200009156821
209	0xbfe7afce374ca071	-0.7402106361451058
210	0x3ff4362126346cfa	1.263215207326367
211	0x3fee2c988105a5f7	0.9429438133203679
212	0xbfe9be022d7c3453	-0.804444397772054
213	0xbfb3e852881db90c	-0.07776370833537188
214	0x3ff6c43046046550	1.422897599701475
215	0x3fcf59b2c5479a3c	0.2449248755721828
216	0xbfe5cc075dd91744	-0.6811558564156504
217	0x3ff2065220f0d682	1.1265431677578879
218	0xbfeab9a922da2c66	-0.835163658209592
219	0x3fe7a83fac381bc3	0.7392881740241751
220	0xbfea81ff4a40069d	-0.8283688020894321
221	0x3fd3cffdbd9e9457	0.309569773841138
222	0xbfe0123fd3e377fe	-0.502227701039146
223	0xbfcf529f22622c5e	-0.24470891169434855
224	0x3fcbaa710dcb27b8	0.21613896535410304
225	0x400839f67b279d02	3.0283021565879844
226	0x3ff1e7f4948ec8ea	1.11912973432896
227	0xbff319af435cac15	-1.193770659573379
228	0x3ff620e7dec46494	1.3830336286394287
229	0x3fe62bd86d451d93	0.6928522237948748
230	0xbfd9c8000560a950	-0.4028320362582649
231	0x3fdf696c751014c8	0.4908095496360372
232	0xbfdf38670feaa446	-0.4878175406871076
233	0x3fcc1ef1ccf41ff2	0.21969435222149475
234	0xbfc678af6320afa6	-0.17555801716059455
235	0xbff72a510a035098	-1.4478311911707689
236	0x3fc11f7bf12aa9c3	0.13377331996646377
237	0x3fe48aaea921efa1	0.6419289878244748
238	0xbff046332874c97e	-1.0171386318512243
239	0x3ff3388e1e2f5f92	1.2013074092010112
240	0xbfecceb4874fc217	-0.9002325671008887
241	0xbfdd5f69888a2774	-0.45894850095702755
242	0x3fc186e6d2f25a59	0.1369293718350544
243	0xbff8af3ee63f89cf	-1.54278459492399
244	0xbfb3dc28341b4669	-0.07757807991154099
245	0x3fed9863d58227f7	0.9248522920690893
246	0x3fe509908985a347	0.6574175535180097
247	0xbfd9561e55bf5d15	-0.3958812558534686
248	0x3fe0968ea74ad15e	0.5183785693575762
249	0xbfcde466b153c730	-0.23353274973447347
250	0xbff0bf3997869597	-1.04668578328833
251	0xbff4c1d709f5ac50	-1.297324217705654
252	0xbfc2de29075500c9	-0.14740479333887027
253	0xbfd4ef23d5776461	-0.3270959458000729
254	0xbff6b505edce2391	-1.419195107390099
255	0xbfe2a38aa719bf65	-0.5824635757144107

output_mask f8 [16]
0	0x3ff0000000000000	1.0
1	0x3ff0000000000000	1.0
2	0x3ff0000000000000	1.0
3	0x3ff0000000000000	1.0
4	0x3ff0000000000000	1.0
5	0x3ff0000000000000	1.0
6	0x3ff0000000000000	1.0
7	0x3ff0000000000000	1.0
8	0x3ff0000000000000	1.0
9	0x3ff0000000000000	1.0
10	0x3ff0000000000000	1.0
11	0x3ff0000000000000	1.0
12	0x3ff0000000000000	1.0
13	0x3ff0000000000000	1.0
14	0x3ff0000000000000	1.0
15	0x3ff0000000000000	1.0

output_mask f8 [144]
0	0x3ff0000000000000	1.0
1	0x3ff0000000000000	1.0
2	0x3ff0000000000000	1.0
3	0x3ff0000000000000	1.0
4	0x3ff0000000000000	1.0
5	0x3ff0000000000000	1.0
6	0x3ff0000000000000	1.0
7	0x3ff0000000000000	1.0
8	0x3ff0000000000000	1.0
9	0x3ff0000000000000	1.0
10	0x3ff0000000000000	1.0
11	0x3ff0000000000000	1.0
12	0x3ff0000000000000	1.0
13	0x3ff0000000000000	1.0
14	0x3ff0000000000000	1.0
15	0x3ff0000000000000	1.0
16	0x3ff0000000000000	1.0
17	0x3ff0000000000000	1.0
18	0x3ff0000000000000	1.0
19	0x3ff0000000000000	1.0
20	0x3ff0000000000000	1.0
21	0x3ff0000000000000	1.0
22	0x3ff0000000000000	1.0
23	0x3ff0000000000000	1.0
24	0x3ff0000000000000	1.0
25	0x3ff0000000000000	1.0
26	0x3ff0000000000000	1.0
27	0x3ff0000000000000	1.0
28	0x3ff0000000000000	1.0
29	0x3ff0000000000000	1.0
30	0x3ff0000000000000	1.0
31	0x3ff0000000000000	1.0
32	0x3ff0000000000000	1.0
33	0x3ff0000000000000	1.0
34	0x3ff0000000000000	1.0
35	0x3ff0000000000000	1.0
36	0x3ff0000000000000	1.0
37	0x3ff0000000000000	1.0
38	0x3ff0000000000000	1.0
39	0x3ff0000000000000	1.0
40	0x3ff0000000000000	1.0
41	0x3ff0000000000000	1.0
42	0x3ff0000000000000	1.0
43	0x3ff0000000000000	1.0
44	0x3ff0000000000000	1.0
45	0x3ff0000000000000	1.0
46	0x3ff0000000000000	1.0
47	0x3ff0000000000000	1.0
48	0x3ff0000000000000	1.0
49	0x3ff0000000000000	1.0
50	0x3ff0000000000000	1.0
51	0x3ff0000000000000	1.0
52	0x3ff0000000000000	1.0
53	0x3ff0000000000000	1.0
54	0x3ff0000000000000	1.0
55	0x3ff0000000000000	1.0
56	0x3ff0000000000000	1.0
57	0x3ff0000000000000	1.0
58	0x3ff0000000000000	1.0
59	0x3ff0000000000000	1.0
60	0x3ff0000000000000	1.0
61	0x3ff0000000000000	1.0
62	0x3ff0000000000000	1.0
63	0x3ff0000000000000	1.0
64	0x3ff0000000000000	1.0
65	0x3ff0000000000000	1.0
66	0x3ff0000000000000	1.0
67	0x3ff0000000000000	1.0
68	0x3ff0000000000000	1.0
69	0x3ff0000000000000	1.0
70	0x3ff0000000000000	1.0
71	0x3ff0000000000000	1.0
72	0x3ff0000000000000	1.0
73	0x3ff0000000000000	1.0
74	0x3ff0000000000000	1.0
75	0x3ff0000000000000	1.0
76	0x3ff0000000000000	1.0
77	0x3ff0000000000000	1.0
78	0x3ff0000000000000	1.0
79	0x3ff0000000000000	1.0
80	0x3ff0000000000000	1.0
81	0x3ff0000000000000	1.0
82	0x3ff0000000000000	1.0
83	0x3ff0000000000000	1.0
84	0x3ff0000000000000	1.0
85	0x3ff0000000000000	1.0
86	0x3ff0000000000000	1.0
87	0x3ff0000000000000	1.0
88	0x3ff0000000000000	1.0
89	0x3ff0000000000000	1.0
90	0x3ff0000000000000	1.0
91	0x3ff0000000000000	1.0
92	0x3ff0000000000000	1.0
93	0x3ff0000000000000	1.0
94	0x3ff0000000000000	1.0
95	0x3ff0000000000000	1.0
96	0x3ff0000000000000	1.0
97	0x3ff0000000000000	1.0
98	0x3ff0000000000000	1.0
99	0x3ff0000000000000	1.0
100	0x3ff0000000000000	1.0
101	0x3ff0000000000000	1.0
102	0x3ff0000000000000	1.0
103	0x3ff0000000000000	1.0
104	0x3ff0000000000000	1.0
105	0x3ff0000000000000	1.0
106	0x3ff0000000000000	1.0
107	0x3ff0000000000000	1.0
108	0x3ff0000000000000	1.0
109	0x3ff0000000000000	1.0
110	0x3ff0000000000000	1.0
111	0x3ff0000000000000	1.0
112	0x3ff0000000000000	1.0
113	0x3ff0000000000000	1.0
114	0x3ff0000000000000	1.0
115	0x3ff0000000000000	1.0
116	0x3ff0000000000000	1.0
117	0x3ff0000000000000	1.0
118	0x3ff0000000000000	1.0
119	0x3ff0000000000000	1.0
120	0x3ff0000000000000	1.0
121	0x3ff0000000000000	1.0
122	0x3ff0000000000000	1.0
123	0x3ff0000000000000	1.0
124	0x3ff0000000000000	1.0
125	0x3ff0000000000000	1.0
126	0x3ff0000000000000	1.0
127	0x3ff0000000000000	1.0
128	0x3ff0000000000000	1.0
129	0x3ff0000000000000	1.0
130	0x3ff0000000000000	1.0
131	0x3ff0000000000000	1.0
132	0x3ff0000000000000	1.0
133	0x3ff0000000000000	1.0
134	0x3ff0000000000000	1.0
135	0x3ff0000000000000	1.0
136	0x3ff0000000000000	1.0
137	0x3ff0000000000000	1.0
138	0x3ff0000000000000	1.0
139	0x3ff0000000000000	1.0
140	0x3ff0000000000000	1.0
141	0x3ff0000000000000	1.0
142	0x3ff0000000000000	1.0
143	0x3ff0000000000000	1.0

weight f8 [8, 64]
0	0x3fe50e3686c241e9	0.657984984589402
1	0x3f7865ad995a885c	0.005956342812767881
2	0x3ff02d8af3fb06cf	1.0111188440791243
3	0xbffe97d31c0b541e	-1.9120665641287427
4	0x3fea9e0113a095e2	0.8317876227708292
5	0x40007b9dd13117bf	2.0603596060854836
6	0x3fcfc6092c012576	0.24823107384353776
7	0x3fdd7f298bb42542	0.4608863701146967
8	0xbff8f2512cbbc010	-1.5591594455145277
9	0x3ff131b3ea5519cc	1.0746344712839457
10	0xbfcf0391d6b99546	-0.24229643807044904
11	0x3fe42379ca440da3	0.6293305349831154
12	0x3ff4a65609c3fdf0	1.2906093961208818
13	0x3fa4519793ad599a	0.03968499829959456
14	0xbff8c95208bc2e06	-1.549150499459644
15	0x3ff27681d7eb763c	1.1539324221006515
16	0xbfe0a3e8e2ae9fbe	-0.5200085093865636
17	0xbffeb90114003701	-1.920167043808249
18	0xbff382adee9826a7	-1.2194041557399176
19	0x3fe1059b6afb0d66	0.5319344605890535
20	0x3fc5dc2b676e4fdd	0.17078154135071957
21	0x3fe09e6b120cbbf1	0.5193381645711935
22	0x3fb594395e197d8d	0.08429297015526611
23	0x3fec163750385e27	0.8777119223404427
24	0x3fdc1ad28a6ee052	0.4391371108899921
25	0x3fceb7b7a3dffcf1	0.23998160840708452
26	0x3fd8dcf154a31f8a	0.3884852720770985
27	0xbfea37b59fc22e36	-0.8193004722865627
28	0x3ff8f48fd138a0e6	1.5597074673369717
29	0x3fa658bdd41b011b	0.043645794050009644
30	0x3ffd44010ca0c502	1.829102563217305
31	0xbfd743925fd4f56c	-0.3634992538316826
32	0x3feb4c1f0b1fd33f	0.8530421464225596
33	0x3fedbc1f87e143d5	0.9292142537980178
34	0xbf94e0b1e0e60946	-0.020388392783851537
35	0x3fdabc9491151589	0.41776003044318394
36	0x3ff3e149dea99352	1.2425020883321918
37	0x3fecb49fd35d1998	0.8970488670536723
38	0xbfdab9115a21b232	-0.41754564096371205
39	0x3fd25817316d2dc2	0.28662662340931544
40	0xbfeb6c88f5d45637	-0.8569989014965306
41	0x3ff6690470a9edc0	1.4006390000275672
42	0xbfdcede1de951f3a	-0.452019183507662
43	0xbfe413afc6e16f9d	-0.6274031528841878
44	0xbfecb798adac1ba6	-0.8974116699254082
45	0x3ff38b3da3336b6f	1.221494328978874
46	0x3fea07033a5f1070	0.8133560314240764
47	0xbffd8a3c637f2bb0	-1.8462489973633005
48	0x3fe189bd80a2cc91	0.5480639946384988
49	0x3fec497677a48681	0.8839676224490206
50	0xbfb29c1fc639dde0	-0.07269476499083494
51	0xbfee9b0b57ad4a53	-0.9564263069572213
52	0xbff3c99aa5d3ccb8	-1.2367197492247168
53	0x3ff313217b74807c	1.1921706030334738
54	0xbff2a34995ab821b	-1.1648650976641253
55	0x3fc5def6bb7a8ad4	0.17086681513054336
56	0x3ff2182820eae380	1.1308976446000258
57	0xbffe012ad9b10e77	-1.875285005910795
58	0x3fe06fb494914920	0.5136359121045508
59	0x3ff490d169c4c85d	1.285355961951175
60	0x3fdbb6e1b4555887	0.43303721056634753
61	0x3ffbf15977c24b04	1.7464232137760414
62	0x3ff850ed4587b4a4	1.5197575298327957
63	0xc0042657138f6f46	-2.518720772566584
64	0xbfc8045ee8efae35	-0.1876333844551127
65	0x3fe5a54365ed376e	0.676423739505237
66	0x3fbfe40134e3eaba	0.12457282582537746
67	0xbfe42ffedbcaf7f6	-0.6308588307217622
68	0x3ff1ed2ac13a6bd0	1.1204021022774562
69	0x3fe3ac8837cdcf9d	0.6148110475464709
70	0x3fea888216600d84	0.8291635930076358
71	0x3fd91aff44390111	0.3922727743374859
72	0x3fbace62ad96ae49	0.10471169221880773
73	0x3ff0c07cf0069cff	1.0469941497811417
74	0x3fc9e5d6a88892b0	0.20232661465810997
75	0x3fe5fbd2f5a310f0	0.6869902417752467
76	0x3ff10b228daccf00	1.065218499582386
77	0x3fd8ee605810c3ee	0.3895493373884723
78	0x400051f00f4bad37	2.0400086588830635
79	0xbfe714e73925abbc	-0.7213016620784098
80	0x3ffd55a4844ffc94	1.8334088486151687
81	0x3ff1a6216dbc1718	1.1030592237961567
82	0xbff6543f178117cb	-1.39556798154216
83	0x3fec877b571d11cb	0.8915383054195954
84	0xbff136a8d8d2c578	-1.0758446187649877
85	0xbfe454ead393c3ca	-0.6353658802382764
86	0xbfda967d0c29595e	-0.4154350870861857
87	0x3fe4c13d23b95ba6	0.6485887239203876
88	0x3feffe9f07c9ec84	0.99983169099086
89	0xbfde511837c8f6d4	-0.47369962165599344
90	0x4005414080c82aaa	2.656861311062433
91	0x3ff452d6ad616ddd	1.2702242634467134
92	0x3fe04336c7c0c437	0.5082048322129883
93	0xbfdb57aad1d88aa0	-0.42722578518638876
94	0x3fd2ce4080e1a5a2	0.29383862100675107
95	0x3fdb610156a33729	0.42779572926234494
96	0x3fcfe691874940ff	0.2492238913132567
97	0xbfdc8a34cef58bbd	-0.44593544207435426
98	0xbfe6164185a2246b	-0.6902167902018282
99	0xbffb6f2787c00f7d	-1.7146373083823783
100	0x3fc1745dcc5b2d18	0.13636372068717928
101	0x40004fdee77a0897	2.038999374782246
102	0xbfeab66861a1610b	-0.8347665697902199
103	0x3fcd0bac58434a2b	0.2269187384577703
104	0xbfe79ce082cd517e	-0.7379000239111944
105	0x3fc22ed3ade9cf13	0.1420540427385438
106	0x3ff65dbe2e538100	1.3978864488236127
107	0xbfa7d62d9c28334f	-0.04655592471326619
108	0xbfe67671f2b41fdb	-0.7019586315445808
109	0xbfa58c474e5d582e	-0.04208586532210777
110	0x3faa3cfaa2f76ca8	0.05124648322426967
111	0x3fc0c1587ab016bc	0.1309004401265862
112	0xbfd4e1f91d42fd23	-0.32629230363450484
113	0x3fc6dc55304ffc91	0.17859902247434836
114	0x3fcca7e61dd6724a	0.22387386757772482
115	0x3fe1cbaf93dd80fe	0.5561139953606753
116	0xbfe1c4023410d33b	-0.555176831904283
117	0x3f6a461f6a3c9980	0.0032072652410476965
118	0x3fdb08f7a65571e0	0.42242232554943193
119	0x3fbb2931fd32572a	0.10609733993109374
120	0x3fd84bcbc32d2bcb	0.37962621746254105
121	0xbfd9c8dcc5b44ce1	-0.40288466746387824
122	0xbfccd61e0f4819f3	-0.22528434511350745
123	0xbfc8c6c48267afa3	-0.19356590621407319
124	0x3fd79e5e76bb35a8	0.3690410766110639
125	0xbfa8b72f698ff27b	-0.048272592197439367
126	0x3fb7a14fb7b597ef	0.09230516657916586
127	0x3fc9b7cf3bfe31ab	0.20092192105620418
128	0xbff6b7195be24115	-1.4197019185267596
129	0x3ffd864c9749aed0	1.8452878865891087
130	0xbfe0c81cbd6c0a40	-0.5244277667664576
131	0xbff1e673001943fc	-1.118762016664049
132	0x3fe596e3084fab80	0.6746688043907483
133	0x3f6aca0965f19f7b	0.0032701667365024312
134	0xbff5c7c1bf84fe2c	-1.3612687569838142
135	0x3fedf99ce12ef2d4	0.9367203138459339
136	0x3ff8f7a347a7637a	1.5604584502200098
137	0xc0068a2d2165285c	-2.8174688920017115
138	0x3ff1fa1a949abb92	1.1235605053768478
139	0x3fe72cebcaf15a4c	0.7242335284925701
140	0x3fef4e283de2003e	0.9782906731270555
141	0x3ff8cce998d3a689	1.5500274629397686
142	0x3fd08004572e2587	0.2578135348672607
143	0x3fe64d156a4026ff	0.6969096255499777
144	0x3fe41175c7494157	0.6271313564593964
145	0xbfea4a530131c92b	-0.8215727828340155
146	0x3fcc0f5612840acc	0.21921802429286286
147	0xbfead05babb61981	-0.8379343370186662
148	0x3fd6da8ab0d69eb3	0.35708873051997186
149	0xbfb11fb03cc92f0d	-0.06688977703123218
150	0x3fce003b4b04ab21	0.23438206828117195
151	0x3fdb13cc09ce0906	0.42308331449034176
152	0xbfd53049aae1d7b2	-0.33107225120272255
153	0x3fb1c676dce701f1	0.06943457501530027
154	0xbfe4ab127f86b819	-0.6458828440424923
155	0x3fab8dc095398a12	0.0538158590468535
156	0x3fc6632336486002	0.1749004378368682
157	0x3feca78ae5929bdb	0.8954519733277907
158	0xbff33a7edd2c27d6	-1.2017811431455718
159	0xbf96bee175798fc0	-0.022212527079673583
160	0x3fe0f43e89f7b3ec	0.5298149771384693
161	0x3fca32272c285b5a	0.2046555486310478
162	0x3fd35bb40a71eea4	0.3024721242906969
163	0x3fe047afe44dc0cb	0.5087508639390078
164	0xbfbab271603cca20	-0.10428532218501418
165	0xbf9dac6a3d8e5d5f	-0.028978023535811356
166	0x3fcf6cd05e2badec	0.2455082378213399
167	0x3fd32c4a7a6ec274	0.29957830387414863
168	0xbff393db0fc25ef5	-1.2235975852581167
169	0x3fde5af1902948b5	0.4743007572007046
170	0xbfeb07901b1d638d	-0.8446732072435325
171	0x3ff3db008ff633c4	1.2409673331742264
172	0xbfc8d6c9b6d3a65e	-0.19405480792129287
173	0x3ffd0636fef81cae	1.814017291997327
174	0xbfd8ee3e9502b882	-0.3895412879163659
175	0x3ff161ab6faea795	1.0863451349818878
176	0x40047e35d885ff4b	2.561626140202781
177	0x3fa2d1e93b32b576	0.03675774428971128
178	0x3fb05bf13baf1a72	0.06390292842034187
179	0x3ff3b8856b331d7a	1.2325491130339672
180	0xbfe84ed435c9b82d	-0.759622674040434
181	0x3ffa1c888e2f964c	1.631966166890737
182	0x3fedb42c8143a06f	0.9282438778582341
183	0xbfd7646ac18e2787	-0.3655039682567964
184	0xbff24f6fdb13bcb5	-1.1443937833499096
185	0xbfc3efd4566af491	-0.1557565137826811
186	0xbfea5c3f62bc2d65	-0.8237606933993616
187	0xbff6d6b7f4409789	-1.4274215260606715
188	0x3fc4789d3adcb37f	0.1599308526432672
189	0xbfd05d1f9d74d8d2	-0.2556838071499331
190	0x3ff796245183b519	1.4741557296905
191	0x40067df79bf3b81c	2.811507433295459
192	0xbff4ebd2388937a1	-1.3075735290944765
193	0x3fb7ca2717cd3de1	0.0929283555135423
194	0xbff754140205ef7e	-1.4580268935232819
195	0x4006e59dfae2234d	2.8621177292119797
196	0xbfe9bb9853a8a9ae	-0.8041497835122777
197	0x3fe79fdf4e80b186	0.738265660596469
198	0xbffd7ff08a375be8	-1.8437352561065783
199	0xbfe834f70efe5e20	-0.7564654629558767
200	0xbff7fe9ca17f6a54	-1.4996610935692347
201	0xbfe39cd436375362	-0.6128941592129247
202	0xbfff9772c9c6a3b3	-1.9744747049210047
203	0xbfe34842963d5559	-0.6025708135954729
204	0xc0003708a5c67b39	-2.026871962661428
205	0x3fed39c912e5f3f6	0.9133038872820396
206	0xc00152d36f752d58	-2.165442343486273
207	0x3fb3a612d3dee141	0.07675283119795485
208	0x3fd24e8d03b42a25	0.28604436265655614
209	0x3fe9a42f0a3d6322	0.801291961669538
210	0xbffaed61cfe91d93	-1.6829546090610605
211	0xbff89a01b7e0a167	-1.5375992949212447
212	0x3fd8da1ac6b4b732	0.38831204800486596
213	0x3fc7b071823c7528	0.1850721250456584
214	0xbfd5512d672ab4ad	-0.3330796725738974
215	0x3ff505a1d8b4bfd3	1.3138750519828946
216	0xbfd2f9c5f962463e	-0.2964949546231742
217	0xbfd9d0b21faacad5	-0.4033627804994187
218	0xbff63571cb1d449f	-1.3880479749825907
219	0x3fe5a17a626414d5	0.6759616777132132
220	0xbffec3d30cf765ff	-1.9228086954593662
221	0xbfeee4437ab8ef48	-0.9653642079278848
222	0xbfca7292d70d8847	-0.20662150860431636
223	0x3fd6fbe4b6716335	0.35912435356799516
224	0x3ff1ca80407e03df	1.1119387168148405
225	0xbff55b46b7f84c14	-1.3347842394184726
226	0x3ff7926856bbf06b	1.4732440364887462
227	0xbff30a99efe63716	-1.1900882121148633
228	0x3fea565e278ddbcd	0.823042943243189
229	0x3ffa172ca8f8752a	1.630657825509227
230	0x3fde97ebedc1170f	0.47802255838574664
231	0x3fff1f489334dabb	1.945137572312588
232	0xbffd82f69a5cb780	-1.8444734601757489
233	0x3ff3764eead84896	1.2163838552119492
234	0x3fd1a03404888577	0.27540302698806535
235	0x3fdeb9622e283439	0.48006491191410167
236	0xbfd629f125684941	-0.34630993512213953
237	0xbff0eb6795262c90	-1.0574718309533502
238	0x3fb84b35d8cf0b77	0.09489761870558576
239	0x3fd4f6b8643ac80b	0.3275586108021577
240	0xbfbd69366aa7e5ad	-0.11488666633513019
241	0x3fe1efd53afb4a85	0.5605264808639993
242	0xc007f8e1521befe6	-2.9965235152030685
243	0xbfe6e41325c55f5a	-0.7153411615099501
244	0x3fe83daab63972a1	0.7575276907987992
245	0x3fcb99e1b624a5a8	0.2156335963602889
246	0x3ff2e37b3335ba3e	1.1805374145875613
247	0xbf964d85d57f4a9c	-0.021780100971066405
248	0x3fbb64c7854bc1a4	0.10700652126593596
249	0x3ffc208667cbd6e2	1.7579406790295526
250	0x3fd7246024a10fac	0.36159518792214373
251	0x3fc9babbcc44dd2c	0.2010111567885614
252	0xbf959539aac12ef6	-0.02107706169799336
253	0xbff2518b5048f83b	-1.1449082504400525
254	0xbfb36ce10cd9172b	-0.07588011325523485
255	0x3fe682a4a12435d6	0.7034476420682789

weight f8 [64, 64]
0	0xbfaa75e41ac139a5	-0.05168068720432765
1	0xbf9d8bda8db78f10	-0.02885381212207877
2	0xbfc6b1fa945de6f8	-0.17730648273919036
3	0xbfd5c42c82fbbc10	-0.3400985030302204
4	0x3ff081a6c8792a8c	1.0316531973827834
5	0xbfdaf7cb5c5920fc	-0.42137416857123333
6	0x3fd00db81ecb07d4	0.25083735472810287
7	0x40006e7a6166f0de	2.053944359735495
8	0xbfd5381add8d2def	-0.3315493739689534
9	0x3fe3bb7f313962ce	0.6166377984437419
10	0x3ffc11cc401ae1ac	1.7543451789953037
11	0xbfe448e334e07f86	-0.6338974030258988
12	0xbff17a695175e233	-1.0923855955171689
13	0x3fe1589e325065e1	0.5420676214882257
14	0xbfba964aa49b06f4	-0.10385576742831032
15	0x3ffdc474e3fa13d6	1.8604630380007072
16	0xbfe1d3de1fd48a9e	-0.5571127530750635
17	0xbfc7b20e7203eced	-0.1851213509288309
18	0x3fc25d0855a9ad2a	0.14346412832979044
19	0xbfd8ad6c97aed95b	-0.38558497250359886
20	0x3fe6b14068169c25	0.7091371567702295
21	0x3fda1b53d074cede	0.40791793210085625
22	0x4001ff1b3dca0853	2.2495636775284225
23	0x3feef44898138449	0.9673197717894563
24	0x3ff3fa2c9cae6154	1.2485777016027741
25	0xbff49160ce7505b6	-1.2854927124720752
26	0x3fdf6c455efe6c7e	0.4909833362268684
27	0x3ff05a9edc98ac0c	1.0221241585775287
28	0xbff50b6d09cdeb49	-1.315289533899618
29	0xbfce2d26c8660e99	-0.23575291428652603
30	0x3fddb133918b5bbc	0.4639405175525402
31	0x3fe0d22e22e0acc5	0.5256567650989373
32	0xbffe3b48cbe4ab2d	-1.8894737209872787
33	0xbffec42e9fd076de	-1.9228960268732673
34	0x3fe94804742c8ee2	0.7900411862396732
35	0xbff6a423cf973b14	-1.4150732144368634
36	0x3fc0e378684ed1e0	0.1319418439212674
37	0x3fdd39a6a79eaa77	0.4566437374984739
38	0x3ff166aede95c3e9	1.0875691122748725
39	0x3fe609d3e0f99a93	0.688699664501501
40	0x3fe746f6c3b5c2b6	0.7274125883542044
41	0xbfe86372d2c81a60	-0.7621397129849576
42	0x3ff9ab3b37873147	1.604304520517944
43	0x3fe0c3d719b14bfb	0.5239062787826464
44	0x3ffda3c7d6554ebe	1.8524855015174775
45	0xbff301dda12bae80	-1.1879555030563154
46	0xbfe12e73d2ba44e2	-0.5369204631589606
47	0xbfc74108a74d6cce	-0.18167217415871167
48	0x3fd39fa2c5c5a4b7	0.3066183978431342
49	0x3fd5184174c28fbf	0.3296054496988709
50	0xc00148cb8104a9f2	-2.160544403033094
51	0xbfd8300700210e5f	-0.37793135655031124
52	0xbfe2efe6cdf196c7	-0.5917848608339334
53	0xbff098d9b4aa3c9b	-1.0373169953561845
54	0xbfc708e12cb376da	-0.17995848353068916
55	0x3fc22f4a8317eac6	0.14206820870443532
56	0xbfd8d59e9f4aa027	-0.38803830676852374
57	0xbff6e1cab87ad2e8	-1.4301249700776513
58	0x3fe4fc4866e1063d	0.6557962426524636
59	0xbfee7d956f7c9a78	-0.9528300454592928
60	0xbfc330ff6d9a4454	-0.14993279315652563
61	0x3ff791e9c5737dff	1.4731233323035438
62	0x3fed1335fbff4f9d	0.9085950776884492
63	0x3ff16bc337a16988	1.0888092206065227
64	0x3ff52416289c2878	1.321310194618972
65	0xbfbf7cee58d17e62	-0.12300004642883658
66	0x3fe6e2bc8c886862	0.71517779777356
67	0xbfe2485177faf99d	-0.571327909790671
68	0x3ff2bd86ab753e72	1.1712710092141632
69	0x3fef28d147523e1f	0.9737326043122642
70	0xbff608febc87b65c	-1.3771960606058178
71	0x3ff7f333dd1af26a	1.4968756329464221
72	0xbfee51828a44f693	-0.9474499416898702
73	0xbfcf549f7f752602	-0.24476999019161388
74	0x3fc2cf9eedf8a571	0.14696108455363402
75	0xbfb778855044be0e	-0.09168275079422747
76	0x3fd497cff58e5357	0.3217658899314321
77	0x3fe42a2f2045cdf2	0.6301494245839747
78	0x3fe9ca2d86177497	0.8059299105622298
79	0x3fe88d1bb7f610ab	0.7672251313201931
80	0xbfe9cc8897ee2596	-0.8062174765956793
81	0xbfdd02c15b18d074	-0.4532931699388947
82	0x3ffdde4aaa5e5057	1.8667704253212116
83	0x3ff0760f50cb762e	1.0288231998487265
84	0x3fffe6e0a357eb9e	1.9938665752986036
85	0xbfd9c27f6acbbbd2	-0.4024961989334176
86	0xbfd75cbf0f69b25e	-0.36503578667796954
87	0x3fc9acdc3b3443ce	0.20058777705028635
88	0x3fd87f2f0c80c3ab	0.38276268216128057
89	0x3fc71a6974d8dbf2	0.18049352841782668
90	0x3f86cbfb01521689	0.011131249406626924
91	0xbfe1be970c6bd718	-0.5545153849222713
92	0x3fed69379568e69d	0.9190938871535824
93	0xbfeac6134e7e2705	-0.8366791279852072
94	0xbfc7e2ca458de9f8	-0.18660858532150804
95	0x3fed7ef32494e727	0.9217467989430802
96	0x3fd1a27dae065835	0.27554265970809705
97	0xbfe27fbfa4bd6f98	-0.578094312436849
98	0x4000ae55051dd21c	2.08512310025459
99	0x3fcb2975b1f46239	0.21220275105658162
100	0xbfed42e8f3850262	-0.9144177204362445
101	0x3fece8601eb8ff7a	0.9033661460925793
102	0xbfbc04be5c2b4ed5	-0.10944738149856488
103	0x3fb3213a5cbc2372	0.07472576869998962
104	0x3fea1a3c9c6d11b1	0.8157027297207177
105	0x3ff3b1db4ba95a4e	1.2309220271614723
106	0xbfe3777b938ef8e2	-0.6083352930070556
107	0x3fd569704221a118	0.3345604558767419
108	0xbff19d54dba7c37e	-1.1009110050474358
109	0xbff0c35208e499fe	-1.0476856562978578
110	0x3ff4ed0427a005fc	1.3078652904372339
111	0xbfee583b549c21d6	-0.9482704784905376
112	0xbfe40409ca5497a3	-0.6254929496542342
113	0xbfe660eb3fb99b98	-0.6993309254292965
114	0xbff2113455492812	-1.129200299403696
115	0xbfd914f4749eca97	-0.39190398586939906
116	0xbfee15002a7147ab	-0.9400635556178164
117	0x3fe314bfb069eadc	0.5962828107434137
118	0xbfc260d398de45cd	-0.1435799118449225
119	0x3fd4bd4247d2c4e1	0.32405144704814687
120	0x3ff1d0686bd133a1	1.1133808337792532
121	0xbfea046bc22552ad	-0.8130396644506469
122	0x3fefec6172163d8f	0.9976050594577134
123	0x3ff770649f56d31e	1.4649397110162634
124	0x3ff51c4af5415caf	1.3194074230466801
125	0x3fbe8ed8fa37007c	0.11936718090783133
126	0x3ff5a016ca7c5b24	1.3515842351532195
127	0x3ff25fc20643f34a	1.1483783955329323
128	0x3fe135b3d886bf03	0.5378054837255778
129	0xbff190c224782214	-1.0978413986760005
130	0xbfb2f5ae2b41229b	-0.0740612845994612
131	0xbfaae8ebb063a071	-0.05255829361141274
132	0x3fe0ca65d7044d29	0.5247067641779825
133	0x3fca59c2cbae7528	0.20586428590187578
134	0xbff45e82a449880f	-1.2730738084287656
135	0xbfc98c9d3722d532	-0.19960370247069076
136	0xbff1e8754cd6fdb0	-1.1192524911456125
137	0x3ff390371b5a2163	1.2227088039818106
138	0xbfed474f7ab1cd79	-0.9149548908593906
139	0x3fe9c6d5bbaba2cd	0.805521837753156
140	0xbfb2eefa7fa94fe3	-0.07395902268154901
141	0xbf934cb18b70c0ee	-0.018847250114220886
142	0xbff802d9cbe3089e	-1.5006959881143653
143	0x3fffb7c1e8adbdac	1.9823626603136786
144	0xbfdeadc969ae3a3e	-0.47935710258835573
145	0xbfd2921e43d28b02	-0.2901683485344365
146	0xbfeafae4a27b63f5	-0.8431265996433682
147	0xbfe772e1b56a431f	-0.7327736418975269
148	0x3f90e779818c69d1	0.016508005649578387
149	0xbfde790b52de80a2	-0.4761379536885305
150	0x3fe26c3448c1e7cd	0.5757085248035253
151	0xbf97a3fd7127dcd1	-0.0230865097346083
152	0x3f689f5186aaf413	0.003005656462248493
153	0xbfe70a18a28fdaf2	-0.7199824500119958
154	0x3ff6dedd70d061af	1.4294104010387902
155	0x3fcf4fb81eabe57e	0.2446203374636688
156	0xbfeb2199987bcb6f	-0.8478515604204925
157	0x40072d5ddacb531a	2.897151669816947
158	0xbffca8fa07f2843d	-1.791254073185214
159	0xbff307af5cfb4625	-1.1893762237635965
160	0x3ffaac2d48cd1ec4	1.6670353740500312
161	0xbfd28b45b7e514d2	-0.2897505088661322
162	0xbff1a6f91f07c37e	-1.1032649242517603
163	0xbf9f07512b490be1	-0.030301349894454325
164	0xbfe7c46661ee32ea	-0.7427246010498412
165	0x3fe588b83682a747	0.6729394020705762
166	0x3ff8d37758760c74	1.5516274886620325
167	0xbfe221a550201867	-0.5666071476887397
168	0x3fffd95a09de99a6	1.9905643830803483
169	0x3f8b3a71dd9d1af1	0.013295068336117906
170	0x3fde88732e3946a9	0.47707824243580405
171	0x3ffbf3ce68819f3d	1.7470230181006194
172	0xbfb6eeba4561b55b	-0.08958019441498292
173	0xbff54d9cbf42eff7	-1.3314483138228732
174	0xbf9c61a7844abfa0	-0.027716271829092087
175	0xbfbb7a1e6de49380	-0.10733213599139724
176	0xbfc5c0a68b4b9924	-0.1699417286064967
177	0x3fd100b6de7309c8	0.2656685993535146
178	0xbfe6950610ea0263	-0.7056913690904135
179	0xbfd4866c061a4925	-0.3207044658276053
180	0x4001a8a0111f743d	2.2073365533565537
181	0x3fed005a8a20613a	0.9062931726248629
182	0xbff19967daaf58b7	-1.099952558744503
183	0xbff990d0f2d85116	-1.5978555189258876
184	0xbfb6f8dae4e5e056	-0.08973472679451908
185	0x3f9dcbb07e444bfe	0.029097325998986172
186	0xbfec95125c1d6f6e	-0.8931972312088712
187	0xbff0f4aaff8e4e6d	-1.0597333891536451
188	0xc004a5c282d9f2b9	-2.580937406803369
189	0xc00283fc85555894	-2.314446489016584
190	0xbfddd5accacfd80b	-0.4661666851601473
191	0xbff988d440c5d512	-1.5959055452524962
192	0xbffe673829db8c46	-1.900200046068464
193	0x3ffc2b2127c9d596	1.760529666350839
194	0xbfa08d0870b02080	-0.03232599616609466
195	0x40017b9e9d8850a9	2.185361128542429
196	0xbff535f1f8a08d99	-1.3256702148436033
197	0x3feff9aa5252bbf0	0.9992267234682668
198	0x3fe5368e8ddbe1a9	0.6629097719842793
199	0xbff2b7cf9d83a654	-1.1698757317448285
200	0x3fed0479f762809a	0.9067964393361934
201	0xbfa81ee8e4fede01	-0.04711082263332501
202	0xbfd5837adf6ad384	-0.3361499006089661
203	0xbfd1d1b99b4d8344	-0.2784255997303726
204	0xbfec286b40599f23	-0.8799339539373005
205	0xbfb13fbf43cb3c30	-0.06737895398258398
206	0x3ff29c328df74f2b	1.1631341500805756
207	0xbfc54438af056f3c	-0.16614445253332544
208	0xbfdd6172e931624c	-0.4590728070520853
209	0x3fe4d477ebebd541	0.6509360893093473
210	0xbfec6bdb1cb37662	-0.8881660042349717
211	0x3fe64c97c292616e	0.6968497085791066
212	0x3fe3cd3a59db15c3	0.6188022379871473
213	0xbfe6cec8bd50c595	-0.7127422044342661
214	0xbfe8c606f08579de	-0.7741732309039511
215	0xbfef904887735b23	-0.9863627095718112
216	0x3fdd14443a3c4e58	0.4543619698244803
217	0x3febf589381528fc	0.8737226577152621
218	0xbff2d6feebad00d2	-1.1774892049871153
219	0x3fe9d34d0018917a	0.8070435525774393
220	0x3ff14414a78343c3	1.0791212600199607
221	0xbffb893e878d615f	-1.7210068984041624
222	0x3ffced8d5875f62d	1.807996125745727
223	0xbfde8cf5b925a3dc	-0.47735350685849
224	0x3fc4d5d3fda6a72c	0.16277551541616597
225	0x3fdf5a2726bac79d	0.48987749845684353
226	0xbff24af881e2cd8c	-1.143303401343334
227	0xbf836a8c872d1e7a	-0.009480569720508248
228	0x3fd8ef12221e0854	0.3895917256523991
229	0xbffeeb6b7b802bf2	-1.9324755501027053
230	0x3ff6f042ad866f34	1.4336573389363823
231	0xbff8fe9bff918439	-1.5621604903356128
232	0xbfe3afa262472943	-0.6151897353641193
233	0x3fcd5f147430e842	0.22946410821333713
234	0xbff3dad157ee2906	-1.2409223017480726
235	0x3fe2a1f3cd1535d2	0.5822695737385237
236	0x3f9947c926331c26	0.02468790336277151
237	0xbfe883e94da1dbb1	-0.766102458596711
238	0xbfda7a830b71d2ea	-0.4137275325549995
239	0xbff2c8f152dbbdc4	-1.1740582691817147
240	0x3fe82dc7ee4decd5	0.7555884985335078
241	0xbfc25206b01996fa	-0.14312823866492136
242	0x3fe90831cbb0c9b2	0.7822503069240183
243	0xbf9f354b8b2841bf	-0.030476742142185872
244	0xbff9da0586660cfd	-1.6157279252955157
245	0xbfe0d44c614901e1	-0.5259153270818012
246	0x3fe08f8ed1088e2a	0.5175241549190492
247	0xbfeacd07c060e38d	-0.8375281102554354
248	0x3fedb4d3cf0d1154	0.9283236545530067
249	0xbfb01571e4028b53	-0.06282722298287284
250	0x3fc3269d5d66a830	0.14961592732044116
251	0xbfe9df76bf98a6ef	-0.8085283033480816
252	0x3fe20c41fe60c19a	0.5639963119811455
253	0xbfbcbd86cd052cb1	-0.1122669458902006
254	0x3ff21883c636e5a7	1.130985044741786
255	0xbffcdf9f5a9868d9	-1.8045953310852865
