MACE_models/mace_PracI_Sec3_200conf_run-123_swa.model (torch, 658527 bytes, 51 tensors)

r_max f8 []
00000000: 0000 0000 0000 1040
4.0

weight f8 [96]
00000000: aa29 5815 f0ed da3f 0d11 2b04 5b08 d03f
00000010: 0634 8d28 270a e13f 54f2 d43f c351 d73f
00000020: 425d 0c9f bbd9 e03f 48fd d7a4 8a41 c33f
00000030: 0b54 9779 6a3d e33f 4d1b d2da 3ac2 eebf
00000040: 843b ca00 9e22 d6bf a23d 9e06 aa95 b73f
00000050: eb6d 1c4d 8a95 f4bf a087 e045 de51 d83f
00000060: 38f8 fd6f d5cf f23f ec9d 6065 cb73 f43f
00000070: 3bcb 555f 7e91 f43f 12ad 1fd0 0517 e43f
00000080: 3f90 979e 3667 f9bf 1601 94df 6307 e4bf
00000090: a4eb 9b5e 2e64 f23f ff79 92c9 655e eabf
000000a0: e1e8 293a a12e ddbf b728 fe9d 0baf 8c3f
000000b0: 78a2 98fc 8e13 eebf 8c4a 2041 c601 c63f
000000c0: db74 481a 9dc1 e1bf 4f71 87f5 d483 dd3f
000000d0: ea69 8f56 2505 d6bf 6309 3b1d 9cad a0bf
000000e0: 9c3e 5a9d 147e bdbf fa9c 13de 0ffa f73f
000000f0: 063d 5b46 f3eb f2bf e03d 9123 eb16 ee3f
00000100: 82bc c50e 88af ee3f 00fb 8213 a62e a83f
00000110: b2ce f63b e66c c23f f8cc d22e e671 f0bf
00000120: e366 48e7 fc36 cf3f 49ba 735d 5fe4 f63f
00000130: 552e 6679 1d2d b4bf 06c8 02b5 6920 fabf
00000140: 8fd4 56f1 ad9f ebbf 7502 fe78 f48f e1bf
00000150: f28c 4a82 f085 dbbf 70c2 3110 c493 e2bf
00000160: 3954 fb6d bdf0 dc3f 3550 e661 b0a6 dfbf
00000170: 4b38 bc44 cb8f f83f fd7c 5813 3538 e13f
00000180: 4ebf 41c5 e69c 0040 86b4 c2b6 71b3 d2bf
00000190: 716a 50ac 8ea9 d53f 1579 e7bf b6d9 e1bf
000001a0: eb9e 2f0a 3abf b2bf 6174 a9a0 666d ec3f
000001b0: 55d9 960d 20ce ef3f 54c8 3344 6028 d43f
000001c0: bb45 ec8d 043f e53f f07a e98a 9462 e43f
000001d0: d4f6 f3aa 4527 c9bf 5a6c 79cf 7423 ec3f
000001e0: 8871 1f11 6b9f d7bf 0d02 4e79 5f4a c2bf
000001f0: c247 f499 b90b 06c0 4ee5 5a03 9eb9 00c0
00000200: c87f a26c 920a dfbf 553b 7e4c 4df0 e5bf
00000210: a903 4d12 d1a7 cc3f ce94 21b0 60be 92bf
00000220: 209b d939 86f9 e2bf e270 50e0 91f1 f0bf
00000230: 2c11 4888 211a b33f 0f87 cb5e b3d5 eabf
00000240: 49f2 0627 0da2 e0bf 40f3 805f 6938 b8bf
00000250: d48f 8f70 390b d2bf b44a b872 497d d33f
00000260: 8665 3082 1036 0040 c814 f62d caa4 aebf
00000270: 8090 bd2b 566a cc3f c03c 2682 dee9 be3f
00000280: 166e 0caf 5373 ee3f 93c8 3578 9320 e8bf
00000290: 39d5 7b42 be98 cf3f 0a5e db53 59f9 f9bf
000002a0: 9cb9 d556 4c86 f53f a67b 1fb4 581d d3bf
000002b0: cd52 0b4e b2c2 f33f 55e5 42a9 9ca1 e2bf
000002c0: 3b0e 031c 45f5 fc3f a17d 3a81 ea69 9fbf
000002d0: 7880 b357 50cd ecbf 4b31 9647 0851 c5bf
000002e0: cc6b eb37 e865 ebbf 84b8 bca8 ded9 f9bf
000002f0: d692 1772 7552 03c0 7bd6 027c 70e0 e4bf
0.42077257236874266 0.25050998122266394 0.5324893753073645 0.3643653987271922 0.5265787226116247 0.15043767022141652 0.6012470602823908 -0.9612097047655453
-0.34586286618371553 0.0921274439008273 -1.2865088474417188 0.3799968416589028 1.1757406592073618 1.2782701454215113 1.2855209087399107 0.6278103890339557
-1.5876985735894917 -0.625902115512903 1.1494582839647842 -0.8240231453854107 -0.4559710567479112 0.014005747565324673 -0.9398875173111056 0.17192915134417708
-0.554884482702302 0.46117137887428766 -0.3440640778841543 -0.03257453781908983 -0.11520508615125852 1.4985502886646018 -1.1826050518319007 0.9402976698565304
0.9589271820567691 0.04723090160540799 0.14394834449705268 -1.0278074101486805 0.24386559765917246 1.4307550096961157 -0.07881340230795193 -1.6329133101212405
-0.8632421220451237 -0.5488226283196825 -0.43005001758338246 -0.5805378261848784 0.4521936010399404 -0.49454888878358655 1.5351059613199307 0.5381112459034793
2.0766120348634223 -0.29220240447723034 0.3384739573245162 -0.557826399624704 -0.07323038815195175 0.8883546007088051 0.99391176847602 0.3149643579519126
0.6639426013882067 0.6370337212682369 -0.1965109905940411 0.8793281604988679 -0.36910511657858835 -0.14289468215066883 -2.755725100295394 -2.09063341733114
-0.48502026184905533 -0.68558373394067 0.22387135881038248 -0.018304358244127177 -0.5929595117457644 -1.0589770090364756 0.07461747719941475 -0.8385865069833204
-0.5197816622017594 -0.09461077291139208 -0.28193508140816204 0.3045219059287476 2.0263986750621283 -0.05985099612284156 0.22199513564840245 0.12075606038546294
0.9515779894749723 -0.7539765689710002 0.24684885259891035 -1.6233762050304699 1.3452876464831212 -0.29866616811880886 1.2350333260157413 -0.5822280221829411
1.809880361005425 -0.030677475106697497 -0.900062724391332 -0.16653541083759146 -0.8561898319416001 -1.615690859918261 -2.4152630723423085 -0.6523973867503651

output_mask f8 [32]
00000000: 0000 0000 0000 f03f 0000 0000 0000 f03f
00000010: 0000 0000 0000 f03f 0000 0000 0000 f03f
00000020: 0000 0000 0000 f03f 0000 0000 0000 f03f
00000030: 0000 0000 0000 f03f 0000 0000 0000 f03f
00000040: 0000 0000 0000 f03f 0000 0000 0000 f03f
00000050: 0000 0000 0000 f03f 0000 0000 0000 f03f
00000060: 0000 0000 0000 f03f 0000 0000 0000 f03f
00000070: 0000 0000 0000 f03f 0000 0000 0000 f03f
00000080: 0000 0000 0000 f03f 0000 0000 0000 f03f
00000090: 0000 0000 0000 f03f 0000 0000 0000 f03f
000000a0: 0000 0000 0000 f03f 0000 0000 0000 f03f
000000b0: 0000 0000 0000 f03f 0000 0000 0000 f03f
000000c0: 0000 0000 0000 f03f 0000 0000 0000 f03f
000000d0: 0000 0000 0000 f03f 0000 0000 0000 f03f
000000e0: 0000 0000 0000 f03f 0000 0000 0000 f03f
000000f0: 0000 0000 0000 f03f 0000 0000 0000 f03f
1.0 1.0 1.0 1.0 1.0 1.0 1.0 1.0
1.0 1.0 1.0 1.0 1.0 1.0 1.0 1.0
1.0 1.0 1.0 1.0 1.0 1.0 1.0 1.0
1.0 1.0 1.0 1.0 1.0 1.0 1.0 1.0

bessel_weights f8 [8]
00000000: 182d 4454 fb21 e93f 182d 4454 fb21 f93f
00000010: d221 337f 7cd9 0240 182d 4454 fb21 0940
00000020: 5e38 5529 7a6a 0f40 d221 337f 7cd9 1240
00000030: 75a7 bbe9 bbfd 1540 182d 4454 fb21 1940
0.7853981633974483 1.5707963267948966 2.356194490192345 3.141592653589793 3.9269908169872414 4.71238898038469 5.497787143782138 6.283185307179586

r_max f8 []
00000000: 0000 0000 0000 1040
4.0

prefactor f8 []
00000000: cd3b 7f66 9ea0 e63f
0.7071067811865476

p f8 []
00000000: 0000 0000 0000 1440
5.0

r_max f8 []
00000000: 0000 0000 0000 1040
4.0

atomic_energies f8 [3]
00000000: 7a18 469c 176a 25c0 bb72 1c16 796c 48c0
00000010: 87ab 5a17 8ea4 59c0
-10.707211383396714 -48.847445262804705 -102.57117256025786

weight f8 [1024]
00000000: 5a76 b6fb 9ee8 f2bf 911f ad3c a675 f93f
00000010: cdc3 95bf 60cd d2bf 709f 2fdd 60ee e83f
00000020: 9f3b cad7 417d fd3f baf1 e2a6 7c72 e03f
00000030: a2f0 bf88 3f8e e93f 0529 8037 1cd5 d8bf
00000040: eca3 1898 534d e63f 58a9 e4e4 211f f2bf
00000050: c231 e524 4a47 e6bf 46dd e86c 4fc9 e83f
00000060: e08d 802a 3ffd f1bf dd6a 0ea7 5193 e33f
00000070: 28b1 28e3 6423 00c0 ed69 7285 ffa0 a73f
00000080: beac d31e 1764 e23f 3cda aa43 6402 c13f
00000090: 16a7 0c37 9ac5 f63f 5cda 65ad fec4 e93f
000000a0: d37f 62b3 09bc f83f e511 0965 3f1b e0bf
000000b0: 2f30 985f 37da f0bf aec6 6614 7372 da3f
000000c0: 6987 6081 5a31 e73f 6977 ccfb 4e4a d03f
000000d0: a327 e311 d068 ca3f b39a c1ef c6a8 80bf
000000e0: 9eaf da9c 61fe f43f 87ad 0726 2de2 a33f
000000f0: fd5e 0cea 4cb3 db3f cbf4 f9f7 2e8e e1bf
00000100: b6fd afa2 1b13 b4bf 0b17 a277 cad3 e73f
00000110: 4869 e4e4 7bed da3f 386e ab00 b971 ec3f
00000120: d07a 5ee5 20e7 e63f aba4 bb83 340e ef3f
00000130: 655a 5ee8 98be 903f 02b0 2a1c 1c14 d9bf
00000140: ac46 a5c5 e133 fc3f 5ae3 a6dc 642b debf
00000150: 716e 6274 8e24 d1bf 0a9c f70d 38a5 fabf
00000160: 8c00 519c 201e e13f 5f92 492a b080 cabf
00000170: b78d 53ad 4cbc e0bf 0bd4 30c3 684c ef3f
00000180: 91fe 0a68 60e1 f03f f41f 51e3 46a4 c8bf
00000190: 2f58 bf75 f262 e8bf 8b9c b044 5154 e23f
000001a0: 9e1f a623 ee23 dabf 57af 294e 09f2 f0bf
000001b0: 4348 ba24 e0dc fb3f d7ca 6352 ebe8 c33f
000001c0: 1254 75bf 5f43 f4bf d35c 2812 7b43 e5bf
000001d0: 614a c11f d111 cc3f f65d ddf1 d839 ec3f
000001e0: c455 7fc0 c0de e8bf 3058 0e02 ed9c fb3f
000001f0: 5980 59f1 4bbf eb3f c3e7 7816 df9e eebf
00000200: 1139 bea9 1680 f2bf 4802 f244 ece4 e9bf
00000210: 4068 3120 ebaa c1bf 7e30 aff0 eb37 f83f
00000220: 26bd 4253 0680 d93f 23d6 01fc 7039 febf
00000230: 2d36 7824 c6ac dfbf b705 4017 4826 f8bf
00000240: 524a ac0d 4900 c83f ac85 690c 87f3 00c0
00000250: ee7f 7b1d 644c dd3f 2cee e256 d036 f63f
00000260: 4789 fe8a 462a cc3f 96e8 b737 e754 e43f
00000270: e141 36e1 31f9 e13f 860a 5841 e138 e73f
00000280: cf11 ea5d 252b f4bf 6950 1c93 69a4 dfbf
00000290: 61ac 67c1 2ff4 e33f f119 b6f4 4774 f5bf
000002a0: 9222 bec7 e190 f3bf 12a3 5682 a03e a6bf
000002b0: 45b5 1eec 793f f23f ec67 6527 6d50 f23f
000002c0: 02d1 bb2d 5af4 c33f 62ae 127c bd0c eabf
000002d0: ec9e 5d1f 7621 0140 f6ac 4ac3 fdbe 01c0
000002e0: 9efc e5c4 b900 e6bf c061 d8c0 36a8 e83f
000002f0: 6598 10da b701 dd3f 8e83 43c2 9a45 d9bf
00000300: d6e9 e01e 0bd6 b4bf dfe4 6b48 c0de c4bf
00000310: 53d7 f0aa 440d d23f 6752 40ee b31b eb3f
00000320: 8961 1972 17c0 e5bf 0f49 d2d0 36cc e13f
00000330: 1c28 3f2f 5d3c d63f 44d2 27d1 c26e cabf
00000340: 2ebf c827 fc16 e13f 5ec5 1bc7 8948 02c0
00000350: 1fa0 6bb6 c694 bd3f a929 601e aa60 b4bf
00000360: fe71 b505 c716 01c0 b8a6 b1e0 3076 d23f
00000370: 9c06 1522 6ba9 f53f 2372 b1b3 21fb ec3f
00000380: 0d76 9f8e d4ee d13f 2006 d6c7 06b4 f43f
00000390: 28e4 0494 7eb4 e8bf dbf1 864b ae2d b33f
000003a0: b369 b524 24c7 e9bf 8590 c00d a582 debf
000003b0: b2cb ea98 f884 febf 32e0 88a8 c0c7 debf
000003c0: c321 b95e eacf cfbf 8137 7a1a 08e2 e23f
000003d0: 3225 a6f8 963f f6bf 2189 b57a 8942 e8bf
000003e0: 5642 1e88 03de d2bf 77df 4e8f c63d a0bf
000003f0: d7b6 d428 22e5 e4bf 0fc5 198b 0eb3 e1bf
00000400: 2da6 8efd fc13 fd3f efcf dcf0 aefa 00c0
00000410: 4273 7992 e822 f23f 67bc a18b a15b f5bf
00000420: 061e f83a 96e7 e6bf 22de 5781 db4e db3f
00000430: 9e57 51b3 3986 0540 5ab0 dfb6 a697 e3bf
00000440: e712 3c45 4ce3 e2bf 8ebe 5d57 00ba 0340
00000450: 51e4 8a0e 3c54 e3bf 7bcd cbc1 757f ca3f
00000460: 3516 48c3 6ef5 e13f a770 a61f b839 0340
00000470: d1c4 867f 452b f4bf 37b9 f1ab f1bb f4bf
00000480: 651a 0f25 6580 d63f fb80 0580 23d4 e43f
00000490: c043 2c3e 027c d3bf 4a45 2872 229a ed3f
000004a0: 36a1 2431 c5bb f7bf 4132 fb0a d980 d2bf
000004b0: 8251 371b 98d2 d43f 690a fe26 8ce7 d0bf
000004c0: 39e2 58b0 ab45 ee3f 08f6 8263 4ace be3f
000004d0: 7046 7599 c5c3 9b3f a6f1 aec4 482a cc3f
000004e0: b550 7523 0ffb ddbf 29ad ccfd e842 07c0
000004f0: b769 dc26 4997 eb3f f90b 421c 4643 c93f
00000500: 50db 58bd f948 fcbf 3741 3771 2749 d7bf
00000510: 7be0 9b04 c1ee f63f 50bc 2c39 0121 ee3f
00000520: a8d4 64bc b6cb bdbf beb4 09b5 b44f bc3f
00000530: 8644 b4e1 e8ca fc3f df71 8851 aaf9 ed3f
00000540: 694b 6e9f 86ea dbbf ed46 09e6 7414 f83f
00000550: bc60 5fea 213f d9bf 2372 0cde 9a2b f23f
00000560: f5f5 298c 5324 e9bf 9784 7520 c999 e03f
00000570: b165 db71 2210 d7bf 5f1a 83df 8edb d7bf
00000580: 9c90 e7dd 8394 db3f 8694 8247 225f 0940
00000590: 272b d8b3 13de f03f 6a9a f45d 18ee f4bf
000005a0: 6759 9950 fd48 f83f dca6 2681 2e2a d43f
000005b0: 67f5 e27e b4f4 d7bf 7c06 0ccb 8266 e13f
000005c0: a000 ec91 3761 d7bf 4c67 c3ed 9557 953f
000005d0: e700 ba1f 6b2a c83f aec6 1b85 1e38 f6bf
000005e0: d134 5c44 0d73 b3bf bfb1 80e0 efe7 e73f
000005f0: 1396 7fd4 cce6 eabf d5f1 3166 043b f83f
00000600: a59c a195 c8c9 eabf be47 d629 5d46 c2bf
00000610: 6339 8eca f80c e33f 22e3 a3f4 ca57 f5bf
00000620: 6d20 a9cc bb31 e2bf 94ee e962 b566 d93f
00000630: 652b db4d 89ea f13f 5d8c 85e6 f60d cbbf
00000640: 462d 550f ae4c e13f c0f4 1643 52e0 d4bf
00000650: 2924 1d42 1d33 edbf 74ab b725 34ab e5bf
00000660: 1262 dfb3 1072 be3f 4402 c0d7 8b97 b5bf
00000670: 5b70 cbe5 51c3 eebf e2ed 75e1 14c9 e0bf
00000680: 0706 d781 cca0 de3f 4bb0 79b0 65a7 ccbf
00000690: 59f1 36e0 947e f43f 1524 247b 556f fcbf
000006a0: d130 7791 950e 98bf 8383 c46c 076b fd3f
000006b0: dc5d 025c eece cb3f 1086 f96d 010d f13f
000006c0: 88cc 564b 2d02 ffbf e418 d41f b5de e63f
000006d0: 7f25 38fa 1c45 e7bf 98c0 0257 a283 e53f
000006e0: aa99 d90d 0172 f03f f6ec 5e66 3997 c33f
000006f0: 66e1 6e77 2c0e fbbf 441a 854b aa04 ee3f
00000700: 85a3 41e5 c91b e3bf 411b d2e9 88fb 00c0
00000710: 2f5b ebe9 7f2f f7bf fbff 3da5 dd18 e53f
00000720: f25b 3d49 d11f d33f 085f baef 44ca d23f
00000730: 6f04 9a09 453d d83f fcf9 2e18 b1f3 ee3f
00000740: 1419 e921 35bd 82bf 6f52 a957 718e cc3f
00000750: 80df 94f6 8eee c73f a019 e536 64f4 e6bf
00000760: a732 8afc 199a f93f c685 fe04 0176 d5bf
00000770: 73ac a34c 46ed f63f 4d7f 813b 6393 e9bf
00000780: 2c40 011f 8941 e53f b001 0e2f c933 f53f
00000790: fdb0 4789 7ab5 d83f 9d8c 4e46 f5db c53f
000007a0: dce4 5a2f cd77 eb3f a9ba fb35 a07e f13f
000007b0: 363e fd13 a5d1 dabf b221 ffbf ea21 debf
000007c0: 0863 fe59 5c90 ecbf 827f 9a31 2df9 f23f
000007d0: 136a f814 a4ed eabf 6d2f 28a4 8cff c7bf
000007e0: 02cd 0447 2896 dbbf af94 aeab 2926 e93f
000007f0: 43d3 8ced d21c ef3f 594f c0fb 1d24 f8bf
-1.1817922432450332 1.591222989098217 -0.29378527364229684 0.779098922733267 1.8430803708358565 0.5139754542829487 0.7986142798322542 -0.38800721569045066
0.6969392748479755 -1.1326006833210922 -0.6962023468600409 0.7745740058079853 -1.124327817939836 0.611733270913955 -2.0172822710793703 0.046150193252476025
0.5747180559241298 0.13288548759529017 1.4232427740448137 0.8052972208668723 1.5459076888291647 -0.5033261273716191 -1.0532754644546107 0.4132354449494454
0.724774601640303 0.25453543271748075 0.20632363198666068 -0.00813441676309643 1.3121048094862782 0.038834963695843654 0.4328186307552498 -0.5486063807763001
-0.07841656419622364 0.7446033798775898 0.4207448706889818 0.8888821614340889 0.7157139282097322 0.9704840252790253 0.01635207098260096 -0.39185240507754326
1.7626664848834634 -0.4713985590747619 -0.26785622945474247 -1.6653366609186855 0.5349276593260739 -0.20705225052656126 -0.5229857812195665 0.9780772983855298
1.0550235809495556 -0.19251333331544596 -0.7620785045389818 0.5727926580047024 -0.4084430072912201 -1.0590909054980864 1.7414246973680896 0.1555456306737912
-1.2664487341728585 -0.6644873957292482 0.21929372835673447 0.88206145514681 -0.7771915206637279 1.7258119659723086 0.8671016420230543 -0.9568934859191746
-1.1562716131771291 -0.8091946932400527 -0.13802851745532685 1.5136527444583687 0.39843900805404286 -1.889023765948317 -0.49492028771860214 -1.5093460949141055
0.1875087086451282 -2.118909928293496 0.4577875411905542 1.3883822816850495 0.22004014765577493 0.6353641594171389 0.5616692923231846 0.7256933475731138
-1.2605336826828653 -0.49440993658323024 0.6235579278412723 -1.3408889349972208 -1.2228715708207898 -0.04344655600590931 1.140497133582657 1.1446353472624606
0.1558945391949536 -0.8140551970768224 2.141338582081394 -2.218257451740665 -0.6875885816260909 0.7705339209087967 0.45322986884492017 -0.3948733231646252
-0.0813910436999444 -0.16304782425121453 0.28205982869564145 0.8471316960663672 -0.6796986797808567 0.5561784819167616 0.3474343263047801 -0.2065051575915665
0.5340557839426532 -2.2854190402364756 0.11555139497397747 -0.07959998361199062 -2.1361217924115854 0.28846380179184505 1.3538619357426915 0.9056557187682909
0.28020204475419136 1.2939517789931259 -0.7720330134390041 0.07491578430103323 -0.8055592267003732 -0.4767239221857909 -1.907463643391321 -0.48094192942108116
-0.24853257775454382 0.5900917546402838 -1.3905248368121872 -0.7581221958792278 -0.2948006467131895 -0.03172131060949728 -0.6529703900793845 -0.5531075207528903
1.8173799423769978 -2.1224039857279346 1.1335225793511232 -1.3348708586088607 -0.7157698775999399 0.4266880763165962 2.6905397423933683 -0.6122621127847296
-0.5902463295211334 2.4658209634288317 -0.6040325435670956 0.20701477015209577 0.5612100423902066 2.403183219210479 -1.2605643254758443 -1.2958847729274348
0.3515866147903693 0.6508958340091618 -0.3044438941151917 0.9250652532229335 -1.4833423537875894 -0.2891142470587376 0.3253536477834801 -0.2641325360092766
0.9460047191888129 0.12033524445993049 0.027113997927989464 0.22004041293793114 -0.46844843352051707 -2.907670958336571 0.8622174986842798 0.19736553554329797
-1.7678162952776866 -0.3638399701713015 1.4332895450625347 0.941528903645926 -0.1163896760889026 0.11059121532317115 1.7995384995049633 0.9367267219964183
-0.4361893231336383 1.5049942956724707 -0.3944783009333255 1.1356457399152837 -0.7856843698097565 0.5187726625409991 -0.36035977476930287 -0.37277576281886654
0.4309396426235794 3.171452101395121 1.0542180085346418 -1.3081287069450362 1.5178197048567996 0.3150745640983652 -0.37431061164155327 0.5437635389100275
-0.3653086590784458 0.020841925274772508 0.18879450844907028 -1.3887009810972972 -0.0759743015189145 0.7470626244371984 -0.8406738424643571 1.5144084922786665
-0.8371317789541491 -0.1427723364145645 0.5953334766543715 -1.33393378794262 -0.5685709950712529 0.39689383182096916 1.1197598496680368 -0.2113636613458735
0.5406103419749477 -0.32619148780561247 -0.9124895373616982 -0.6771488892239703 0.11892799750729235 -0.0843436624272807 -0.9613427627732664 -0.5245460895088707
0.47856438331299994 -0.22385855786285655 1.2809036978133774 -1.7771811304285212 -0.02349313450194829 1.838630127786218 0.2172525357498064 1.0656751914870064
-1.9380314772541016 0.7146859761858448 -0.7271866690727363 0.6723186206272826 1.0278330365195907 0.1530524968964994 -1.6909603753429905 0.9380694842337296
-0.5971421697296228 -2.1228197352642444 -1.4490965974307064 0.6592853762995213 0.2988169875365535 0.2935955372899888 0.3787396043554229 0.9672475311597846
-0.009149947259299775 0.22309700756399617 0.18696772613634138 -0.717332942215581 1.600122438892109 -0.33532739150731705 1.432928370830976 -0.7992416536544426
0.6642499547542733 1.3251430357050644 0.38607657819990476 0.17077508862448534 0.8583742070105944 1.093414507744152 -0.4190457053382234 -0.47082012891453495
-0.8926221616448808 1.1858341157567058 -0.8415089044168006 -0.18748624816395978 -0.4310398763220321 0.7859085419810493 0.9722685470247615 -1.5088176569015188

output_mask f8 [32]
00000000: 0000 0000 0000 f03f 0000 0000 0000 f03f
00000010: 0000 0000 0000 f03f 0000 0000 0000 f03f
00000020: 0000 0000 0000 f03f 0000 0000 0000 f03f
00000030: 0000 0000 0000 f03f 0000 0000 0000 f03f
00000040: 0000 0000 0000 f03f 0000 0000 0000 f03f
00000050: 0000 0000 0000 f03f 0000 0000 0000 f03f
00000060: 0000 0000 0000 f03f 0000 0000 0000 f03f
00000070: 0000 0000 0000 f03f 0000 0000 0000 f03f
00000080: 0000 0000 0000 f03f 0000 0000 0000 f03f
00000090: 0000 0000 0000 f03f 0000 0000 0000 f03f
000000a0: 0000 0000 0000 f03f 0000 0000 0000 f03f
000000b0: 0000 0000 0000 f03f 0000 0000 0000 f03f
000000c0: 0000 0000 0000 f03f 0000 0000 0000 f03f
000000d0: 0000 0000 0000 f03f 0000 0000 0000 f03f
000000e0: 0000 0000 0000 f03f 0000 0000 0000 f03f
000000f0: 0000 0000 0000 f03f 0000 0000 0000 f03f
1.0 1.0 1.0 1.0 1.0 1.0 1.0 1.0
1.0 1.0 1.0 1.0 1.0 1.0 1.0 1.0
1.0 1.0 1.0 1.0 1.0 1.0 1.0 1.0
1.0 1.0 1.0 1.0 1.0 1.0 1.0 1.0

output_mask f8 [288]
00000000: 0000 0000 0000 f03f 0000 0000 0000 f03f
00000010: 0000 0000 0000 f03f 0000 0000 0000 f03f
00000020: 0000 0000 0000 f03f 0000 0000 0000 f03f
00000030: 0000 0000 0000 f03f 0000 0000 0000 f03f
00000040: 0000 0000 0000 f03f 0000 0000 0000 f03f
00000050: 0000 0000 0000 f03f 0000 0000 0000 f03f
00000060: 0000 0000 0000 f03f 0000 0000 0000 f03f
00000070: 0000 0000 0000 f03f 0000 0000 0000 f03f
00000080: 0000 0000 0000 f03f 0000 0000 0000 f03f
00000090: 0000 0000 0000 f03f 0000 0000 0000 f03f
000000a0: 0000 0000 0000 f03f 0000 0000 0000 f03f
000000b0: 0000 0000 0000 f03f 0000 0000 0000 f03f
000000c0: 0000 0000 0000 f03f 0000 0000 0000 f03f
000000d0: 0000 0000 0000 f03f 0000 0000 0000 f03f
000000e0: 0000 0000 0000 f03f 0000 0000 0000 f03f
000000f0: 0000 0000 0000 f03f 0000 0000 0000 f03f
00000100: 0000 0000 0000 f03f 0000 0000 0000 f03f
00000110: 0000 0000 0000 f03f 0000 0000 0000 f03f
00000120: 0000 0000 0000 f03f 0000 0000 0000 f03f
00000130: 0000 0000 0000 f03f 0000 0000 0000 f03f
00000140: 0000 0000 0000 f03f 0000 0000 0000 f03f
00000150: 0000 0000 0000 f03f 0000 0000 0000 f03f
00000160: 0000 0000 0000 f03f 0000 0000 0000 f03f
00000170: 0000 0000 0000 f03f 0000 0000 0000 f03f
00000180: 0000 0000 0000 f03f 0000 0000 0000 f03f
00000190: 0000 0000 0000 f03f 0000 0000 0000 f03f
000001a0: 0000 0000 0000 f03f 0000 0000 0000 f03f
000001b0: 0000 0000 0000 f03f 0000 0000 0000 f03f
000001c0: 0000 0000 0000 f03f 0000 0000 0000 f03f
000001d0: 0000 0000 0000 f03f 0000 0000 0000 f03f
000001e0: 0000 0000 0000 f03f 0000 0000 0000 f03f
000001f0: 0000 0000 0000 f03f 0000 0000 0000 f03f
00000200: 0000 0000 0000 f03f 0000 0000 0000 f03f
00000210: 0000 0000 0000 f03f 0000 0000 0000 f03f
00000220: 0000 0000 0000 f03f 0000 0000 0000 f03f
00000230: 0000 0000 0000 f03f 0000 0000 0000 f03f
00000240: 0000 0000 0000 f03f 0000 0000 0000 f03f
00000250: 0000 0000 0000 f03f 0000 0000 0000 f03f
00000260: 0000 0000 0000 f03f 0000 0000 0000 f03f
00000270: 0000 0000 0000 f03f 0000 0000 0000 f03f
00000280: 0000 0000 0000 f03f 0000 0000 0000 f03f
00000290: 0000 0000 0000 f03f 0000 0000 0000 f03f
000002a0: 0000 0000 0000 f03f 0000 0000 0000 f03f
000002b0: 0000 0000 0000 f03f 0000 0000 0000 f03f
000002c0: 0000 0000 0000 f03f 0000 0000 0000 f03f
000002d0: 0000 0000 0000 f03f 0000 0000 0000 f03f
000002e0: 0000 0000 0000 f03f 0000 0000 0000 f03f
000002f0: 0000 0000 0000 f03f 0000 0000 0000 f03f
00000300: 0000 0000 0000 f03f 0000 0000 0000 f03f
00000310: 0000 0000 0000 f03f 0000 0000 0000 f03f
00000320: 0000 0000 0000 f03f 0000 0000 0000 f03f
00000330: 0000 0000 0000 f03f 0000 0000 0000 f03f
00000340: 0000 0000 0000 f03f 0000 0000 0000 f03f
00000350: 0000 0000 0000 f03f 0000 0000 0000 f03f
00000360: 0000 0000 0000 f03f 0000 0000 0000 f03f
00000370: 0000 0000 0000 f03f 0000 0000 0000 f03f
00000380: 0000 0000 0000 f03f 0000 0000 0000 f03f
00000390: 0000 0000 0000 f03f 0000 0000 0000 f03f
000003a0: 0000 0000 0000 f03f 0000 0000 0000 f03f
000003b0: 0000 0000 0000 f03f 0000 0000 0000 f03f
000003c0: 0000 0000 0000 f03f 0000 0000 0000 f03f
000003d0: 0000 0000 0000 f03f 0000 0000 0000 f03f
000003e0: 0000 0000 0000 f03f 0000 0000 0000 f03f
000003f0: 0000 0000 0000 f03f 0000 0000 0000 f03f
00000400: 0000 0000 0000 f03f 0000 0000 0000 f03f
00000410: 0000 0000 0000 f03f 0000 0000 0000 f03f
00000420: 0000 0000 0000 f03f 0000 0000 0000 f03f
00000430: 0000 0000 0000 f03f 0000 0000 0000 f03f
00000440: 0000 0000 0000 f03f 0000 0000 0000 f03f
00000450: 0000 0000 0000 f03f 0000 0000 0000 f03f
00000460: 0000 0000 0000 f03f 0000 0000 0000 f03f
00000470: 0000 0000 0000 f03f 0000 0000 0000 f03f
00000480: 0000 0000 0000 f03f 0000 0000 0000 f03f
00000490: 0000 0000 0000 f03f 0000 0000 0000 f03f
000004a0: 0000 0000 0000 f03f 0000 0000 0000 f03f
000004b0: 0000 0000 0000 f03f 0000 0000 0000 f03f
000004c0: 0000 0000 0000 f03f 0000 0000 0000 f03f
000004d0: 0000 0000 0000 f03f 0000 0000 0000 f03f
000004e0: 0000 0000 0000 f03f 0000 0000 0000 f03f
000004f0: 0000 0000 0000 f03f 0000 0000 0000 f03f
00000500: 0000 0000 0000 f03f 0000 0000 0000 f03f
00000510: 0000 0000 0000 f03f 0000 0000 0000 f03f
00000520: 0000 0000 0000 f03f 0000 0000 0000 f03f
00000530: 0000 0000 0000 f03f 0000 0000 0000 f03f
00000540: 0000 0000 0000 f03f 0000 0000 0000 f03f
00000550: 0000 0000 0000 f03f 0000 0000 0000 f03f
00000560: 0000 0000 0000 f03f 0000 0000 0000 f03f
00000570: 0000 0000 0000 f03f 0000 0000 0000 f03f
00000580: 0000 0000 0000 f03f 0000 0000 0000 f03f
00000590: 0000 0000 0000 f03f 0000 0000 0000 f03f
000005a0: 0000 0000 0000 f03f 0000 0000 0000 f03f
000005b0: 0000 0000 0000 f03f 0000 0000 0000 f03f
000005c0: 0000 0000 0000 f03f 0000 0000 0000 f03f
000005d0: 0000 0000 0000 f03f 0000 0000 0000 f03f
000005e0: 0000 0000 0000 f03f 0000 0000 0000 f03f
000005f0: 0000 0000 0000 f03f 0000 0000 0000 f03f
00000600: 0000 0000 0000 f03f 0000 0000 0000 f03f
00000610: 0000 0000 0000 f03f 0000 0000 0000 f03f
00000620: 0000 0000 0000 f03f 0000 0000 0000 f03f
00000630: 0000 0000 0000 f03f 0000 0000 0000 f03f
00000640: 0000 0000 0000 f03f 0000 0000 0000 f03f
00000650: 0000 0000 0000 f03f 0000 0000 0000 f03f
00000660: 0000 0000 0000 f03f 0000 0000 0000 f03f
00000670: 0000 0000 0000 f03f 0000 0000 0000 f03f
00000680: 0000 0000 0000 f03f 0000 0000 0000 f03f
00000690: 0000 0000 0000 f03f 0000 0000 0000 f03f
000006a0: 0000 0000 0000 f03f 0000 0000 0000 f03f
000006b0: 0000 0000 0000 f03f 0000 0000 0000 f03f
000006c0: 0000 0000 0000 f03f 0000 0000 0000 f03f
000006d0: 0000 0000 0000 f03f 0000 0000 0000 f03f
000006e0: 0000 0000 0000 f03f 0000 0000 0000 f03f
000006f0: 0000 0000 0000 f03f 0000 0000 0000 f03f
00000700: 0000 0000 0000 f03f 0000 0000 0000 f03f
00000710: 0000 0000 0000 f03f 0000 0000 0000 f03f
00000720: 0000 0000 0000 f03f 0000 0000 0000 f03f
00000730: 0000 0000 0000 f03f 0000 0000 0000 f03f
00000740: 0000 0000 0000 f03f 0000 0000 0000 f03f
00000750: 0000 0000 0000 f03f 0000 0000 0000 f03f
00000760: 0000 0000 0000 f03f 0000 0000 0000 f03f
00000770: 0000 0000 0000 f03f 0000 0000 0000 f03f
00000780: 0000 0000 0000 f03f 0000 0000 0000 f03f
00000790: 0000 0000 0000 f03f 0000 0000 0000 f03f
000007a0: 0000 0000 0000 f03f 0000 0000 0000 f03f
000007b0: 0000 0000 0000 f03f 0000 0000 0000 f03f
000007c0: 0000 0000 0000 f03f 0000 0000 0000 f03f
000007d0: 0000 0000 0000 f03f 0000 0000 0000 f03f
000007e0: 0000 0000 0000 f03f 0000 0000 0000 f03f
000007f0: 0000 0000 0000 f03f 0000 0000 0000 f03f
1.0 1.0 1.0 1.0 1.0 1.0 1.0 1.0
1.0 1.0 1.0 1.0 1.0 1.0 1.0 1.0
1.0 1.0 1.0 1.0 1.0 1.0 1.0 1.0
1.0 1.0 1.0 1.0 1.0 1.0 1.0 1.0
1.0 1.0 1.0 1.0 1.0 1.0 1.0 1.0
1.0 1.0 1.0 1.0 1.0 1.0 1.0 1.0
1.0 1.0 1.0 1.0 1.0 1.0 1.0 1.0
1.0 1.0 1.0 1.0 1.0 1.0 1.0 1.0
1.0 1.0 1.0 1.0 1.0 1.0 1.0 1.0
1.0 1.0 1.0 1.0 1.0 1.0 1.0 1.0
1.0 1.0 1.0 1.0 1.0 1.0 1.0 1.0
1.0 1.0 1.0 1.0 1.0 1.0 1.0 1.0
1.0 1.0 1.0 1.0 1.0 1.0 1.0 1.0
1.0 1.0 1.0 1.0 1.0 1.0 1.0 1.0
1.0 1.0 1.0 1.0 1.0 1.0 1.0 1.0
1.0 1.0 1.0 1.0 1.0 1.0 1.0 1.0
1.0 1.0 1.0 1.0 1.0 1.0 1.0 1.0
1.0 1.0 1.0 1.0 1.0 1.0 1.0 1.0
1.0 1.0 1.0 1.0 1.0 1.0 1.0 1.0
1.0 1.0 1.0 1.0 1.0 1.0 1.0 1.0
1.0 1.0 1.0 1.0 1.0 1.0 1.0 1.0
1.0 1.0 1.0 1.0 1.0 1.0 1.0 1.0
1.0 1.0 1.0 1.0 1.0 1.0 1.0 1.0
1.0 1.0 1.0 1.0 1.0 1.0 1.0 1.0
1.0 1.0 1.0 1.0 1.0 1.0 1.0 1.0
1.0 1.0 1.0 1.0 1.0 1.0 1.0 1.0
1.0 1.0 1.0 1.0 1.0 1.0 1.0 1.0
1.0 1.0 1.0 1.0 1.0 1.0 1.0 1.0
1.0 1.0 1.0 1.0 1.0 1.0 1.0 1.0
1.0 1.0 1.0 1.0 1.0 1.0 1.0 1.0
1.0 1.0 1.0 1.0 1.0 1.0 1.0 1.0
1.0 1.0 1.0 1.0 1.0 1.0 1.0 1.0

weight f8 [8, 64]
00000000: ebfd 555b ce99 eb3f 6fe8 2e2e 6a96 ee3f
00000010: 30fc c712 7337 d33f ecc0 69df 745d f9bf
00000020: f451 108a b868 fabf e1d1 90cb 7b40 de3f
00000030: 44a7 206b c0d6 c6bf 06cb 25f3 79d2 bcbf
00000040: a21f 0327 a709 cf3f 278b 231c 7e15 f13f
00000050: 4ff8 55f8 65c0 ecbf 897d 400b e390 d7bf
00000060: fbde f809 4f6b e1bf 7788 0998 fc44 0340
00000070: 2f93 1994 fc08 f43f 2e49 4fec 8140 e03f
00000080: 5358 ddfc 5014 d7bf dc1a e7f2 af78 f3bf
00000090: 6e39 6213 a62d dbbf 529f 13f2 39ca cfbf
000000a0: ead1 2a19 fc65 f03f f640 ede0 ef90 f83f
000000b0: a284 d963 50cf b8bf 1efd 455a 5470 f13f
000000c0: a6a0 5fda b8f2 fe3f 9aed 1ed3 7f0b ffbf
000000d0: f0c2 4458 d11b e3bf c360 9fb3 9c2f f03f
000000e0: 9aeb ac97 252e e93f a38c ff59 b9c7 f23f
000000f0: 0961 f6af 9d3f c43f e4a3 fdb6 1a32 e6bf
00000100: 20cd 6b07 9064 f93f cd05 5aa9 ed7c c7bf
00000110: 9786 9f88 de1c ed3f 29c7 7cdf 0cd6 e03f
00000120: 7784 d9a9 b8c9 cabf 552a c022 cb38 ebbf
00000130: ac7c 8dd3 2e0e e83f e0e7 14f9 eef4 d03f
00000140: 157e 7d7d 666b e13f 4441 35fc fcbc e5bf
00000150: bc72 9ca0 fa57 e53f eb51 9f85 56b9 d2bf
00000160: eb6d 261a a2a5 e0bf 519f 54e5 dbec b3bf
00000170: 8bf5 f8ad f9e0 c2bf e7c9 c65c 906a f1bf
00000180: c4ea e2db f269 e13f e63d 1155 885c b2bf
00000190: d11c f6cd 7852 0040 4282 5c23 b180 e3bf
000001a0: 52cc 5bfb 1d4f fcbf dc75 8e24 06dd fe3f
000001b0: 0cf7 1f1a 4f19 c53f e9d7 29bd 8d3e 0340
000001c0: 2b54 c12c b829 f8bf 1770 f174 c628 f03f
000001d0: 3983 3c2b a29e d5bf e8ce 06ec fdee fabf
000001e0: c194 46a9 8fa5 f83f 5dba 7e13 3535 b1bf
000001f0: 79e7 f5d2 0bae 883f 250c af97 761f ebbf
00000200: e1b6 a618 721c f0bf 8245 b701 e00c aebf
00000210: bdcf 3036 9fd2 dfbf 0ec8 f3ce 6cb2 d8bf
00000220: 57e5 ad15 14b6 ed3f 40c5 84de 20ad f93f
00000230: 8078 8ae1 0c6d e4bf 147b a692 99ec ef3f
00000240: 0932 52c1 6e83 fb3f bd45 62ef 2521 e7bf
00000250: f78d ce6b 3fbc f0bf 05bb 4a2d a416 e93f
00000260: 89a8 3741 02a6 ea3f bf1e 87dc a8ab fb3f
00000270: a0e1 0486 3fb7 f0bf 0505 db07 d733 debf
00000280: 5880 342b 2da8 e43f c4f4 d3dc cc15 eabf
00000290: 16d4 dc8e 3164 ec3f a7a0 ac94 0c53 fa3f
000002a0: 635c 1949 1cbf fd3f d6f1 cd88 136c d13f
000002b0: b0e5 c61c fc9a ffbf 8276 0ee5 5fb2 dd3f
000002c0: 23b3 120f de88 e13f 9225 ffed 7687 d43f
000002d0: 4ac6 8169 2fcd c2bf 3d28 4230 753a ec3f
000002e0: 672a 0a9d 9376 fd3f 1408 301b a98d d33f
000002f0: 4e6a 0f3d b021 d5bf 54dc 6ad6 17b4 da3f
00000300: e120 c3eb 1077 d9bf 32d4 d1f9 287a e8bf
00000310: 938b 65df 58de d53f ec59 5ff6 8e28 dfbf
00000320: 84a4 4dc2 f4f3 f03f 1791 f55a 7ddf efbf
00000330: 67ef 0f0a 7d93 fb3f 1987 42f9 6d24 e7bf
00000340: 9efd c391 8119 c2bf 3cc9 4945 6ffb da3f
00000350: 85ea ead1 9f73 febf eb05 6224 fc4c 0640
00000360: 1182 f0ee 6b55 fc3f 4318 939b 65cb f23f
00000370: 6d7b fbc0 f42c ec3f e9d8 be30 b471 c9bf
00000380: fe84 53ec 1ba2 d6bf 41dd a0dc 9e11 fdbf
00000390: 0e14 ee19 f83c dfbf a1a3 2ebc a5a0 e13f
000003a0: 0e7f eefc 4bc0 debf 6714 12bf 5bfc eb3f
000003b0: f3d0 a3ae e71c 963f a967 4ab6 853b f8bf
000003c0: 01dd ba88 a0e8 e4bf 337e c44b fe8c f93f
000003d0: e6b6 1b02 d5c1 eb3f ed0c 48aa 8efb f4bf
000003e0: b242 6a56 a60c e1bf 0dfb b562 5c00 efbf
000003f0: ab30 277e d387 d23f 56e8 a1ac 70b4 0140
00000400: cf9b 73ed 548d 9c3f f3b3 6563 e693 fabf
00000410: aee1 2e13 a80d fa3f ebf7 df72 3b19 ebbf
00000420: f83d cd58 13bc dfbf fd26 6419 a05f da3f
00000430: 8bcd c9e5 bd7c e43f 064b 3e03 d29b dc3f
00000440: 8e77 0db3 8913 c03f 5c51 cf26 ec08 dabf
00000450: e615 2252 0588 e3bf ce5c 4144 ba8a d63f
00000460: d1c2 d75f 8d4e e43f b8b1 44f5 1075 febf
00000470: 9400 4a28 ce83 f13f 0ece b594 8b21 eb3f
00000480: f07b d7ab ac2b f63f 3be7 0723 850f f63f
00000490: 8c9b da00 e05a e9bf a9eb 4f43 6bcd fabf
000004a0: 7b6b cd82 3e34 d43f 7ec9 e51a b4f8 e3bf
000004b0: 838f fbf3 8c70 0040 f754 dc35 a30d f1bf
000004c0: cacf 5d5d 84a9 f0bf dd54 c20d 8f35 d1bf
000004d0: b58a 1965 c63d febf f642 a2c6 6444 fe3f
000004e0: 1fbd 3838 6dd6 efbf ddc0 4d06 1bbc f23f
000004f0: be52 ba7e 78e6 eb3f 17ee 92d9 1034 ee3f
00000500: 1eb3 e73d b4bc 92bf 9a49 3e89 6d2c e0bf
00000510: d4f5 5682 4fe8 f1bf 3b4b 6566 896a e63f
00000520: 6150 34c6 f4d0 d53f 5f2c e8e3 f5dd e2bf
00000530: 9123 8f2f ffea cbbf c879 a055 ef84 ff3f
00000540: dcfa 0328 7827 dd3f 1170 1dd7 d4af e4bf
00000550: 82c5 5678 e1b9 ed3f acd8 6ee5 3286 dabf
00000560: 3445 7d20 fd56 91bf 492c 5bac 3794 dcbf
00000570: 2e1c ca9e 010c d13f d64f e525 e6e4 e3bf
00000580: 3f44 ab7c 7dd7 d9bf 6761 045c f6b7 d43f
00000590: 1dc2 9241 d86a f53f 9bcf 8d52 33e4 f3bf
000005a0: ede2 c074 c280 f33f 91ff 0bbe 8c84 e1bf
000005b0: 4290 cb0c 9ce4 943f 7c6c a3a0 b8fa 82bf
000005c0: d423 c5ca 1f12 d3bf 8016 8684 3bf5 ef3f
000005d0: 504e 3043 95e6 0040 7e53 0963 bee3 d83f
000005e0: 560d e952 0d78 f13f 5590 ce97 629e e5bf
000005f0: 26db 9991 72b4 d3bf 2d07 0639 dea1 f4bf
00000600: c721 cd49 a430 d83f b766 f353 7caa e7bf
00000610: 53a2 6e14 eeb8 f4bf fc4a 3599 605d d33f
00000620: 56fa 1fca 647f f3bf 3ff3 6f85 8f2c e7bf
00000630: 8f94 7d5a d641 f23f 4197 1de6 2be0 f6bf
00000640: f86e fde4 32d1 ffbf 8c32 b885 224b acbf
00000650: febc 7c35 41e8 c23f 5f1e e920 e2bb c3bf
00000660: 42bc 9179 0cf7 f43f aca9 ca2c 2906 e3bf
00000670: ffe6 9344 5ce6 ef3f 408c b350 c7a4 ef3f
00000680: a257 28ae 7a3e debf 4d2d 05d9 d470 f13f
00000690: 4bcd a5cc caec d03f c70c 3b8d 841a e7bf
000006a0: 74eb 84f0 2505 f03f 9e99 4b22 6027 ddbf
000006b0: 3b85 f8e0 f86e dabf 4ee9 491a 8d55 e8bf
000006c0: a34e fe81 2a91 d3bf de80 b378 3c11 e7bf
000006d0: 44d1 7749 984a d8bf a40c 0927 a2d5 e23f
000006e0: 752b 90dc 99a3 ddbf a632 37a5 ffee c63f
000006f0: d740 3f9f b3f3 02c0 35fd 319f 1592 f23f
00000700: 7bbe 7c4b d750 f43f 7d91 846b fa53 fb3f
00000710: 77b0 16d1 8f12 f73f b356 4ff0 fa27 e8bf
00000720: 1f97 ad77 0531 edbf 357d 8e67 9226 d7bf
00000730: efb1 e433 b056 ec3f e291 3719 6e2c fb3f
00000740: e5e9 820a b85a d73f 1184 8765 f6cd e23f
00000750: 0762 a83a e92d e1bf b0fc d33e 35b9 d7bf
00000760: a2d4 90b6 b81e c03f 36bc cf1c 7244 03c0
00000770: abb7 4a31 8bc7 f5bf 7c47 a672 95df f03f
00000780: 3f79 aa42 9881 d33f 3351 3465 a6ce 0040
00000790: a7ca 1d22 84c2 d9bf 6339 52fe 3cc2 b7bf
000007a0: 53bd 02bd e843 d83f 3290 37a3 9122 dcbf
000007b0: 4910 6ca7 9ee9 f33f fa24 9878 12c2 d3bf
000007c0: c36d 45e0 7b74 f0bf a3b7 5c78 2cf3 db3f
000007d0: ba56 e564 463e d93f 3fda c875 11cf 8d3f
000007e0: 57d3 9169 d20b e3bf 8527 25d4 cd96 da3f
000007f0: eeb7 d372 8c33 e93f 2b32 2ff1 5c40 de3f
0.8625251563934716 0.9558611776367466 0.3002593692216946 -1.5853165366243571 -1.650566615401769 0.47268576507056365 -0.17842869978749765 -0.11258661447736182
0.24248208432095192 1.0677472209142225 -0.8984861231144893 -0.368218193996619 -0.5443492121475794 2.408684909621168 1.2521940026428628 0.507874452154544
-0.3606150121098654 -1.2169646728886425 -0.4246611775678478 -0.24835895843647876 1.0248986228081045 1.5353850160791445 -0.09691336095558481 1.0899241949371752
1.9342583208290676 -1.9403074499995001 -0.5971457218166432 1.0116240517145776 0.786883159867432 1.1737607493931044 0.15819140521922062 -0.6936162542380058
1.5870514192473095 -0.18350001114963135 0.9097740810795639 0.5261291851986459 -0.20928104680482182 -0.8506828001712373 0.7517313129318572 0.26494955372220197
0.5443603945713585 -0.6793198514879255 0.666989625638585 -0.2925621323495579 -0.5202188978905132 -0.07783293103113677 -0.1474907016253549 -1.088516580971026
0.5441831869751117 -0.07172443463172548 2.040269478867778 -0.6094594660426724 -1.7693157023138792 1.9289609363544207 0.16483486915233703 2.4055437830347626
-1.510185408425296 1.0099548881617062 -0.3378072187643287 -1.683347627619634 1.5404202091533963 -0.06721812940552625 0.012050716758256407 -0.8475907290052233
-1.0069447482050509 -0.0586919786543474 -0.4972303418355713 -0.38589019975836514 0.9284763739989711 1.6047676746496364 -0.638311806211064 0.9976318229927039
1.7195880462269335 -0.7227964091745701 -1.0459589205937598 0.7840138325317133 0.8327647470262188 1.7294090856902782 -1.0447383151168665 -0.47191406027930355
0.6455293506478581 -0.81516116266689 0.8872306623731017 1.6452756698218225 1.8591578345711006 0.27222145423709543 -1.9753380893801982 0.46401212090300004
0.5479574484248569 0.32076810113775267 -0.14688675548272762 0.8821359579608338 1.841449368893018 0.30552127509156546 -0.3301811786929293 0.4172420114441071
-0.39789221786169376 -0.7649121169366764 0.3416959935768144 -0.48685049114047163 1.0595595922443701 -0.9960314537570721 1.723507918649341 -0.7231969707829392
-0.1414033853288687 0.4215963532107201 -1.90322858809546 2.7875902979292184 1.7708548863957996 1.174657447541464 0.8804878014742435 -0.19878246669913516
-0.3536443527101055 -1.8168018930717411 -0.4880962613318055 0.5508602786477362 -0.48048686695436593 0.8745554668281671 0.02159463885705377 -1.5145318146446505
-0.6533968611246622 1.5969222030324886 0.8674111405541367 -1.311415352975753 -0.5327941596788917 -0.9687940528818629 0.2895401699031576 2.213105534258868
0.027882887833495403 -1.6611083872514854 1.6283341168728884 -0.8468301051759658 -0.4958542220310558 0.41208651046382255 0.6402272689869489 0.4470105201409499
0.12559624903491023 -0.4067945841791436 -0.6103540996706982 0.3522172609859354 0.6345888969354637 -1.903580625609818 1.0946790288726662 0.8478448776717771
1.3856627190177697 1.3787890785592498 -0.7923431412390172 -1.6751511220343025 0.31568873189615204 -0.6241093182891715 2.0549563466210556 -1.065829477685211
-1.041385998451903 -0.26889396995222886 -1.890081782265651 1.8916976699003363 -0.9949251268462013 1.1709242101897452 0.871883628382953 0.9438556909075854
-0.018297973898302115 -0.5054233246358308 -1.1192164508241733 0.700504970542489 0.3408786712254877 -0.5895947886759919 -0.21810903379653415 1.9699548096465254
0.45553401859062403 -0.646463794847934 0.9289405203218595 -0.4144408455425814 -0.016933398349754117 -0.4465464766660188 0.26635780817781807 -0.6216917743827206
-0.40377747702320116 0.32372817026182193 1.3385851441818268 -1.2432130074275622 1.2189354477579244 -0.547430392442026 0.020403326302485654 -0.009267275240224963
-0.2979812126328032 0.9986856067996115 2.112589383041076 0.3889003722336425 1.091809581631272 -0.6755841221788709 -0.30788864344451594 -1.2895185687525086
0.37796885687978626 -0.7395612373031416 -1.2951489256030484 0.30257430040107614 -1.2186019797806202 -0.7241895300099727 1.1410735640322718 -1.4297293652429774
-1.9885739273949508 -0.055260733435806036 0.14771285163576658 -0.154171243734015 1.310314631347652 -0.5945020556294387 0.9968701686295559 0.9888645721624769
-0.47256342895104286 1.0900467374184075 0.26445264802096763 -0.7219870336924935 1.0012568850786154 -0.45552829121734273 -0.41302320451548596 -0.7604432595683563
-0.3057352323023485 -0.7208540303654691 -0.3795529096089647 0.5885782968911326 -0.46311041392680546 0.17916865889710215 -2.368994945638501 1.160665151459239
1.2697365711900648 1.7080024909892864 1.4420316855930915 -0.7548803990891514 -0.9122340524160996 -0.3617292414946463 0.8855820668737219 1.69834718561571
0.3649120428705415 0.5876419051165859 -0.536854376378927 -0.37067919860414644 0.12593754686682695 -2.4084207774062873 -1.3612167287314871 1.05458588395092
0.30478483686774277 2.1009033114043176 -0.4024973233382902 -0.09280759057057746 0.3791448446090346 -0.43960991801418736 1.2445360698630046 -0.30872022415913103
-1.0284384499162662 0.4367171454822431 0.3944259629546242 0.014555107504844787 -0.5951931058794838 0.41545434682176846 0.7875425570216501 0.47267840912971576

weight f8 [64, 64]
00000000: 32ac 100a 5433 cf3f 3ee2 3d69 9b43 fb3f
00000010: ef1c c689 0b00 e83f 4dd2 fca6 172c ce3f
00000020: 9406 ed2e 73e1 dd3f 0171 9e1f e025 e8bf
00000030: 2f7b 297e ec16 efbf c241 7a09 b154 f0bf
00000040: d364 146c 9565 d8bf e1b1 a20c 75ce e63f
00000050: 2d58 9db8 b94f f13f 61ea 2bbe a2e7 b73f
00000060: c45b f5b6 5238 bdbf 376c b8ef 44b6 d8bf
00000070: ca2f 7938 6fb6 e3bf c273 1de4 a30a e23f
00000080: b29f 9345 be29 f03f 8ffc 1872 e01e d9bf
00000090: d759 d0a6 663c e9bf abda 2431 6055 d63f
000000a0: 0ea2 d6c7 cd39 82bf 010f 0d05 58bf e43f
000000b0: 848c 39bc 74bf e63f b747 af38 b6a0 d3bf
000000c0: d5c8 e03f b490 f7bf b72e 70a6 1dc3 df3f
000000d0: b12d 016b 8c5b ea3f b355 5f9e a299 fabf
000000e0: 261e fc4e 5db8 fabf 4fa6 3d22 b245 eb3f
000000f0: 6b97 60cb a717 d9bf dc4a 972a dd76 d23f
00000100: e277 6da4 d662 e2bf ff9a 1b5c 2c51 0040
00000110: fe46 7c63 fba1 d8bf 4e87 b502 a94d ae3f
00000120: 6d1d ce37 fe82 f53f 2523 b664 971b d2bf
00000130: 1a2e 279e 79eb c03f 97cc 6f5b 219e e5bf
00000140: 0dd0 ee7a 4171 b1bf a2a7 9125 1fb1 eebf
00000150: 02f2 4c1b cf03 d33f 1762 b635 38c9 ef3f
00000160: 8328 616a 7182 d7bf 54df 19cb 9db3 f0bf
00000170: bf09 214b aff4 ea3f 2d13 3074 9379 ed3f
00000180: 0061 b5ae b608 e03f 7b3f 8451 fecc e93f
00000190: 4a21 f7eb 84b6 f3bf e80a c784 2314 e13f
000001a0: 3904 8520 034a f9bf 7305 d55f c626 edbf
000001b0: 3437 9387 1dff f03f 7bfd 7ea5 f753 ecbf
000001c0: f3d3 5b8b f96c e93f 5b63 bee2 1c7f c1bf
000001d0: 2470 bab2 c5ae edbf bd5a b313 e904 d53f
000001e0: 07fd 093b 4a98 e13f a443 68d5 1dec da3f
000001f0: 84f8 d92e 3f41 02c0 fc26 0513 bb9f f0bf
00000200: c087 a1c8 6895 d43f d658 4d33 08ff dfbf
00000210: 790b c440 fa7a f1bf c620 6095 2018 e03f
00000220: 1882 6a9a 6d14 db3f 5f67 031b a2bb eb3f
00000230: b85d 7a08 735c afbf 8244 71c9 d640 d4bf
00000240: e888 7398 6f9d ed3f dc60 fe61 a903 d53f
00000250: 81bd acc1 9543 dfbf b74a 7059 f235 f63f
00000260: 5fc6 cfe4 66a7 a53f 550e dc8f cfcb f03f
00000270: 74f7 1f14 4731 f63f 7d0f 4924 d519 f23f
00000280: 7888 2f98 5ddf c1bf 04af d2eb f799 773f
00000290: 3252 379c 968f ebbf d204 8c0e 1f0a f53f
000002a0: a0a8 0346 89dd f8bf 1a09 ff30 bf2d e13f
000002b0: 215c 1504 256a d53f 45b6 2f46 c92d e13f
000002c0: 5ab1 6554 8441 eebf 8810 905e 5c4d 9d3f
000002d0: b8e5 987e c62b b8bf df20 d40a a9d0 e0bf
000002e0: 1b14 9d32 bfa9 dd3f e91d e315 9e0c d23f
000002f0: fc49 df20 b875 02c0 b1e2 10a8 2c52 cc3f
00000300: ba3f 6c49 e5c5 ecbf 7e8d 66d7 7c4c c73f
00000310: dd20 0477 1c03 f7bf da96 31f5 a730 d33f
00000320: a861 0377 0f45 ff3f e85c 6497 9ef9 e33f
00000330: bc8e 7cf8 5faa fc3f 462b d48e ddc1 f53f
00000340: 8cca 784d 9552 ffbf 3446 d1b9 d55e febf
00000350: 4057 82d7 d067 e2bf 9e66 cb0a d6c6 c23f
00000360: 4cb9 9bc2 00b8 05c0 9467 8e3d 10a4 d1bf
00000370: 4dba 8500 6f8e d0bf d290 c8be d5f7 f4bf
00000380: 7db4 bbbe bb8f eabf a007 d2a6 a53c bbbf
00000390: 2de7 6674 b716 ee3f 6ea1 e104 a9b5 e23f
000003a0: 7740 bda2 e95f d2bf 9155 92f7 2fd9 f63f
000003b0: 5555 c237 85fd d5bf 4132 6820 55f0 d53f
000003c0: bd6f a7b5 2994 bd3f 71bc 7f77 3dc6 e0bf
000003d0: 230a a2d1 8fad c73f fbce be98 d66c d7bf
000003e0: d3ad 6ac6 2b8a e9bf b74f 8618 31b9 febf
000003f0: 0c70 318f 58cc e03f c526 eba5 f7e4 e9bf
00000400: 1c4f fcf3 65db eb3f d167 6492 a6e4 f63f
00000410: 4bee 0e57 d78d d23f c4ac 876f ebef f9bf
00000420: 7238 b4b0 ecb5 93bf 55fe fff6 4f6f e33f
00000430: ddd2 a6cb c871 fcbf 1af2 fe7e d3e4 f0bf
00000440: 386a 214a 81a9 e73f 9e67 a430 342c f13f
00000450: c493 c822 b6d6 d63f f99b 5aa3 6e4d fd3f
00000460: a1d1 dfa2 4736 e53f a7ce 9f10 657e e03f
00000470: fdec af99 d1ad e1bf 59aa 8717 b118 9a3f
00000480: e792 e590 c874 ef3f c1af 059c 0718 ec3f
00000490: 79a3 f7b4 f31f e4bf 557d 5e61 5b8e d93f
000004a0: fa5b d1ae 8a46 f73f 6428 e7bc 5a57 e83f
000004b0: 5a07 a638 330b c5bf ae3a d02f dc58 fb3f
000004c0: b5d4 eabf 80e6 df3f 2246 d6df 964f dcbf
000004d0: d619 5914 4f45 e4bf c655 73a9 c426 ed3f
000004e0: 4bcd 6a38 e9ea e73f 56f1 d476 c7a9 f73f
000004f0: 1db3 b375 59ea 04c0 291e 7bc5 c45b f73f
00000500: 81e4 fd39 3f1f ffbf 8484 d874 9fa2 f1bf
00000510: 94b7 0648 17d5 99bf de14 17e1 bca6 f4bf
00000520: 5e90 327a 454f eebf 3508 60cd 6e3a e2bf
00000530: 957d ea0d 11b2 d23f 3cc6 71a7 8aa3 f4bf
00000540: 989c 1387 2f0d d23f c35d 2721 ef7c dc3f
00000550: 6962 8e60 a2f4 d5bf 9d77 7cb4 046b c9bf
00000560: d015 7800 e491 f0bf de2a 1ffb d7e5 f2bf
00000570: 210e b308 4d85 c03f d919 1d33 c477 d33f
00000580: 6ac8 9865 3f0c cabf 1222 ead0 54b0 f5bf
00000590: 9245 a926 be40 d43f d961 8e0f 3f62 d83f
000005a0: 796f d46c d886 ed3f 7db5 e5d3 8132 ec3f
000005b0: 61bc a130 fa90 e13f d170 d373 0eb9 a03f
000005c0: c3f6 3f36 5f79 ed3f bdba 754d 7704 d6bf
000005d0: 637b f932 cad2 f53f f0fc bd29 1c01 fabf
000005e0: 89f2 8c1a 008b d03f e2e4 1ec9 e068 be3f
000005f0: fd21 7560 8e64 dcbf e07d 1344 2703 dd3f
00000600: 2023 b546 1a34 e83f 5e93 9800 4a83 e23f
00000610: e2de 905b e800 e03f 2273 2bef b4fa db3f
00000620: 8ed7 ad3b 5675 0240 86ec f8f2 c73f ec3f
00000630: 67f3 e6c8 7fbb e6bf a486 3339 78cc f03f
00000640: 2049 96ba 7f83 c73f 9c87 9171 8a9b f13f
00000650: c30b f9da c3f1 fdbf 3b96 b7b2 536c ecbf
00000660: 06a0 43f3 a51a f2bf c8f5 eb69 6b10 f6bf
00000670: 9cf5 a2f9 e9ab a0bf 81b3 253f c345 f8bf
00000680: 74a3 3a0a c1ce d9bf bc66 eda6 97d9 e0bf
00000690: 9438 6dd4 ac3c f4bf 09e1 0646 b34f e8bf
000006a0: c182 dc8f e52e 02c0 dd0f a334 9df2 f23f
000006b0: 741c 1359 4119 f7bf d76d 3432 1431 e93f
000006c0: 88a9 38fb e84c ed3f 128d cc27 17f8 e13f
000006d0: 674c 185a 203e d63f 1a23 b108 8812 e2bf
000006e0: 5ad1 f767 70c4 d5bf e77f 79fc cc54 e1bf
000006f0: 6a17 99f8 5ffb f33f 63c6 fd1a c46b f4bf
00000700: 9446 0506 1f0a d93f 6daa c74a 84f4 cebf
00000710: 95e0 fbd1 4c9a dbbf 9f0b 1eef ad25 e6bf
00000720: 45e4 500a 16df f03f 3c4e 03e7 91f0 f1bf
00000730: 94bc 0fb7 ecf5 f93f bff6 59f7 ee01 df3f
00000740: f81a 5308 36e6 e4bf ed53 20a7 7e6f d7bf
00000750: faf5 9df7 8e6c fb3f c060 02ab a314 02c0
00000760: d0e8 d492 ea5e ee3f 6f2b 1267 8dea f4bf
00000770: 6054 7997 12e6 d83f 5d2f a171 d1d5 d1bf
00000780: 11e3 8b9d d35f febf 4b54 98e3 6348 f53f
00000790: 1729 1cba ad60 f43f db84 9b3e 6083 d03f
000007a0: 894d 60c6 3c51 c8bf c225 d7ff 9b99 0140
000007b0: 55b5 5ab1 361f e8bf 82d7 2368 572a e8bf
000007c0: 0dcc efde aaf4 a2bf 1a62 691b bd8d e83f
000007d0: 9211 72c9 07f2 cbbf 6c52 bb4a e361 bc3f
000007e0: d913 f196 a7be edbf ab7d 49c2 bcb4 da3f
000007f0: df43 7fc6 5d99 e13f 8d5f 888a 2744 dabf
0.2437539147516375 1.7040056334500515 0.7500055018325876 0.23572059301081297 0.46688537199597957 -0.7546234719807502 -0.9715483154394401 -1.0206766481606881
-0.38120017580656657 0.7127022978580123 1.081964226866613 0.09337823050365436 -0.11414067236670095 -0.38612483415790017 -0.616019830989438 0.5637988524791739
1.010191222938357 -0.3925095667108928 -0.7886231668551841 0.3489609222337246 -0.008899314557155893 0.6483574007656615 0.7108710933938629 -0.3066840699731261
-1.472828149341287 0.4962839246152088 0.823675354951254 -1.6625086008474284 -1.6700108609528654 0.8522577923551554 -0.39206881390634035 0.2885048786094282
-0.5745652400471466 2.039635390846683 -0.3848865958726576 0.059186250286770034 1.3444807224167008 -0.2829340442190634 0.1321861288291622 -0.6755530153153754
-0.06813439608851031 -0.9591212972420531 0.29710748354025907 0.9933129357405645 -0.36733661068559104 -1.043851655353099 0.8423687426914553 0.9210908192913841
0.5010636722827542 0.8062736122246713 -1.232060357799201 0.5337083428679223 -1.5805693884178835 -0.9109832641335472 1.0622840209866355 -0.8852499229760008
0.7945525857782044 -0.1366916758677473 -0.9275845042025179 0.32842471050154726 0.5498400834184459 0.42066140976481337 -2.281858793284359 -1.0389967673276592
0.3216192206656352 -0.4999409199712209 -1.0925238161005082 0.5029452245226131 0.42312183456127306 0.8666544463733138 -0.061252207550917814 -0.3164574591838304
0.9254682519497495 0.328348489472331 -0.4885000602107184 1.3881705754944684 0.04229280036078075 1.0497584933772448 1.3870306764724463 1.1313067834280155
-0.13962907725278106 0.005762070123789934 -0.8612778712363875 1.314971024345415 -1.5540859923299095 0.5368343312223118 0.33460355185292384 0.5368391390636097
-0.9454976700194877 0.028615420600559577 -0.09441795912507345 -0.5254712306496251 0.4634855264924355 0.28202011239451835 -2.307480103315582 0.22125776487680107
-0.899157184032439 0.18202171819312335 -1.4382595681254806 0.29984473175714543 1.9543604515984985 0.6242211300731499 1.7915954309946036 1.359830434727614
-1.9576619173282408 -1.8981530436034406 -0.5751728257334676 0.14669299628331073 -2.7148451999447953 -0.2756386376510076 -0.25869345713627895 -1.3105065777281664
-0.8300455785043962 -0.10639415095104576 0.9402730248905066 0.5846753211344955 -0.28710404293543185 1.4280242605940183 -0.34359865613199264 0.34279373326060997
0.11554203686631488 -0.5241992315258256 0.18498418556198812 -0.3660179607061164 -0.7981165767027342 -1.920212837027959 0.5249445721378847 -0.8092001190754777
0.8705320134490395 1.4308229177899998 0.2899072981051389 -1.6210741383209077 -0.01924867466464559 0.6073379348963025 -1.777779384149816 -1.0558657608772877
0.7394415328847748 1.0732919597707915 0.35685494801355966 1.8314043408406617 0.6628759556902432 0.5154290508930516 -0.5524681092933005 0.025484816609529257
0.9830057935729116 0.8779333159741257 -0.6289003881948779 0.39931377896023906 1.4547221020527545 0.7606633843909205 -0.16440429941217866 1.7091943614683873
0.49844378225254654 -0.4423577485950735 -0.6334605595991956 0.910982447584211 0.747425661268076 1.4789499894969445 -2.6144284434761986 1.4599044527148044
-1.945128656893104 -1.1022028507507295 -0.02522693993676446 -1.2907074730476817 -0.9471766840620253 -0.5696329127533831 0.29211832388860987 -1.2899271527097786
0.2820547885043623 0.44512537229226384 -0.3430562918597731 -0.1985784417419695 -1.0356178301166103 -1.1811141786044383 0.1290680210569102 0.3041849612385739
-0.20349876843244213 -1.355549636910045 0.3164515855360942 0.3809964801708055 0.9227106214125192 0.8811654223078872 0.5489474248733012 0.03266186870470878
0.9210659083907661 -0.34402258457604856 1.3639623633568696 -1.6252709990074514 0.2584839114459006 0.11878781232998706 -0.4436374608963261 0.4533174671941804
0.7563601857192204 0.578526497997341 0.5001107967754843 0.43717692715090284 2.3072933828761455 0.8827857728532684 -0.7103880809660098 1.0499193415093169
0.18370052920051538 1.100473827006204 -1.8715246728540798 -0.8882235041207375 -1.1315059187418242 -1.379008687741008 -0.03256159946748058 -1.5170319048586125
-0.4032442664998179 -0.5265615711498053 -1.26481326083334 -0.7597290389740304 -2.272898792187647 1.1842319542056352 -1.4436658362845067 0.7872410755693932
0.9156384379069076 0.5615344788861043 0.3475418929894602 -0.564762131668519 -0.3401146903336404 -0.5416016513008771 1.2488708220348266 -1.276310067591475
0.39124274814558047 -0.2418370595108458 -0.431292729437254 -0.6920995397816688 1.0544643786399928 -1.1212328933660407 1.6225402022207946 0.4844930091420387
-0.6531019365873751 -0.36618009873319474 1.7140035316982662 -2.2600777969456374 0.9490864627653313 -1.3072637582979174 0.38904251854302707 -0.2786754235901208
-1.898395171561962 1.3301733866149046 1.273603178970523 0.2580185519601181 -0.18997916876160684 2.2000045764477543 -0.7538102592422243 -0.7551686319336428
-0.03702291461367944 0.7673020873435832 -0.21832368217668524 0.11086865019326247 -0.9295232723312622 0.41728133176180887 0.5499714733979281 -0.41040981796822323
