MACE_models/mace02_com1.model (torch, 459047 bytes, 51 tensors)

r_max f8 []
4.0
00000000: 0000 0000 0000 1040

weight f8 [48]
0.9401750471301838 0.13901788471065965 0.6840714334980424 0.37948401844554164 0.4342557954037847 0.30930023168504595 0.5297556428589123 -1.086467714506221
-0.4502237848482547 -0.023077633357160315 -0.9690586531047779 0.2937810369784388 1.1761414884950605 1.2407626967763046 1.1970298172025482 0.6044990695117103
-1.5805206383249928 -0.7977295899053797 1.4021039352733877 -0.680292800798419 -1.0118032491434417 0.26987563083678184 -1.3027807818935475 0.06713576600920738
-0.45687901346485665 0.47063283162258407 -0.5200936421345708 0.029886099698871828 -0.1987346960883967 1.3911206927795667 -0.8598908982287087 1.2699590247963506
0.5972815301096728 -0.08160691611626934 0.2852500052829619 -1.2642611637228762 0.11179458475916976 1.5277559874985627 -0.3105649453962245 -1.712827430691454
-0.5711361918202801 -0.4364172317055327 -0.4716844024557314 -0.4715146617229695 0.3067748483026156 -0.7929169435383266 1.7155844962932743 1.0618780469048967
00000000: 8d0f fefa e915 ee3f cb18 328a 56cb c13f
00000010: d20f 60c6 e9e3 e53f 3f02 2556 7749 d83f
00000020: ece4 d6d1 d8ca db3f 34e1 ee32 93cb d33f
00000030: 5e6a 1e1b c2f3 e03f e36c 5ff8 2b62 f1bf
00000040: 797e f36b 77d0 dcbf 08ff 26c2 a9a1 97bf
00000050: e1b4 df4a 8702 efbf 9c78 80fa 4ecd d23f
00000060: 77e1 c8bc 79d1 f23f 1104 4cfc 29da f33f
00000070: 818c d3bc 0827 f33f bc7c c06e 0e58 e33f
00000080: 6824 4402 d049 f9bf 3d3e 7634 0087 e9bf
00000090: 3f79 3989 046f f63f 3e45 6468 f5c4 e5bf
000000a0: 05ec 909a 5830 f0bf 319b 1b70 a445 d13f
000000b0: 0871 41a9 30d8 f4bf b3c5 663f cf2f b13f
000000c0: 01dc 4379 813d ddbf 3c8b 0f2b d91e de3f
000000d0: 926a fa6b 9ba4 e0bf 2a21 3f33 769a 9e3f
000000e0: 61dc 2376 2370 c9bf 036f 84c5 0742 f63f
000000f0: dba6 c0ea 3984 ebbf 832a ec8d c051 f43f
00000100: a46d ca27 ee1c e33f 5fc7 d8db 30e4 b4bf
00000110: 0df2 f73c 8941 d23f b7ae fce9 693a f4bf
00000120: c418 69e5 919e bc3f 3331 2943 b071 f83f
00000130: 1cb1 f0ca 4be0 d3bf 1c2f 68bc bd67 fbbf
00000140: 43c3 2d68 bf46 e2bf f282 658a 42ee dbbf
00000150: ac29 a5c6 1330 debf 6cd1 ebd4 4b2d debf
00000160: 707c 2cf9 32a2 d33f e11f 9e5a 935f e9bf
00000170: feaa 91ba 0873 fb3f 0bc0 bcd5 73fd f03f

output_mask f8 [16]
1.0 1.0 1.0 1.0 1.0 1.0 1.0 1.0
1.0 1.0 1.0 1.0 1.0 1.0 1.0 1.0
00000000: 0000 0000 0000 f03f 0000 0000 0000 f03f
00000010: 0000 0000 0000 f03f 0000 0000 0000 f03f
00000020: 0000 0000 0000 f03f 0000 0000 0000 f03f
00000030: 0000 0000 0000 f03f 0000 0000 0000 f03f
00000040: 0000 0000 0000 f03f 0000 0000 0000 f03f
00000050: 0000 0000 0000 f03f 0000 0000 0000 f03f
00000060: 0000 0000 0000 f03f 0000 0000 0000 f03f
00000070: 0000 0000 0000 f03f 0000 0000 0000 f03f

bessel_weights f8 [8]
0.7853981633974483 1.5707963267948966 2.356194490192345 3.141592653589793 3.9269908169872414 4.71238898038469 5.497787143782138 6.283185307179586
00000000: 182d 4454 fb21 e93f 182d 4454 fb21 f93f
00000010: d221 337f 7cd9 0240 182d 4454 fb21 0940
00000020: 5e38 5529 7a6a 0f40 d221 337f 7cd9 1240
00000030: 75a7 bbe9 bbfd 1540 182d 4454 fb21 1940

r_max f8 []
4.0
00000000: 0000 0000 0000 1040

prefactor f8 []
0.7071067811865476
00000000: cd3b 7f66 9ea0 e63f

p f8 []
5.0
00000000: 0000 0000 0000 1440

r_max f8 []
4.0
00000000: 0000 0000 0000 1040

atomic_energies f8 [3]
-10.707211383396714 -48.847445262804705 -102.57117256025786
00000000: 7a18 469c 176a 25c0 bb72 1c16 796c 48c0
00000010: 87ab 5a17 8ea4 59c0

weight f8 [256]
2.0865635232318698 -0.2152827107876476 0.4095141549271112 -0.31068707012789576 0.19074419527874595 0.6595890980016889 0.8596294792148594 0.36451622357455865
0.924610678478173 0.6501644538427794 -0.25750902985046165 0.7904159848918193 -0.17098098726587513 0.026227856760005646 -2.610404221895089 -2.13205258983145
-0.2673411915846834 -0.705454592520642 0.41639988677786954 0.10171144897175521 -0.2534077503184477 -1.2176509494553927 -0.19699385687807028 -0.21119940998690334
-0.16082224805089423 -0.2652296846865716 0.011916715454913783 0.29346526771561066 1.837811622293146 -0.1980017066935505 0.06601530415204997 -0.04357368817548394
0.8376972595390086 -1.0297909470734565 -0.1368866104009067 -1.5919067767312642 0.995875575548653 -0.2627119612318891 0.959852054020187 -0.9522598127820061
1.5130888965296116 0.052475087937576846 -1.2246807399693747 -0.2782540394093419 -0.9539318406685727 -1.7716395321400582 -2.3803945853030437 -0.3839153556659425
-0.9260850822342589 1.5569175178758228 -0.5430829099533796 1.2583365628969703 1.6966503630484169 0.15277912036760483 0.41735422674037514 -0.23630248401193857
0.6448855899261351 -1.3332587993876641 -0.7381110840089561 0.7568308754263041 -0.9601314494234658 0.752653544280993 -2.1507246395954955 -0.2943335847958364
0.698540565187383 0.06558621847512673 1.4654251089153827 0.9995360939352508 1.7122828822698395 -0.6623033445416613 -1.1491836010560166 0.420675482156479
0.8607069695269678 0.24594403427868894 0.041169107712105704 -0.01706643313956064 1.5459526797395926 0.12035509863953514 0.438315513220453 -0.738412790898393
-0.048309045574181225 1.0864776598139378 0.7371251446211055 0.5386831336933571 0.6025035063684083 1.059350600403593 -0.43611785449731816 -0.5281875031215728
1.5271784477909343 -0.9075817393523402 -0.5505112779012878 -2.075720691990714 0.579383384278641 -0.32810988596667096 -0.7306991252958357 1.1296089406551175
0.8983387220447022 -0.3486782453184251 -0.7588425945882569 1.0783668416504693 -0.44671610958286495 -1.08546324290736 1.8146700270973237 0.5399591261353769
-1.4013465951623676 -0.48984663670326606 0.1466892935782799 0.9953556037062591 -0.6723624963888732 1.5802915460222897 0.5733011005929648 -1.3670264183436884
-1.111897732400387 -0.6700457538315175 -0.7583997428290392 1.8040954323729366 0.7527543186321001 -1.7841373605570674 -0.629794380932724 -1.4045457931380338
0.17786453555863346 -2.008874807013658 1.0863190342766418 1.3831044142244069 0.08814870759792776 0.751325488732748 0.46287250026175053 0.7220090677652197
-0.9814695876581988 -0.1715100553585643 0.66028164765206 -1.1431824214832573 -0.8821147562053127 -0.5328367586996914 1.1958607424786514 0.9119142932129957
0.49364331729118743 -0.9193754398681825 2.482646509411451 -2.0462650861818834 -0.5116854863681594 1.1180511304567993 0.6540635060727298 -0.1409935874429546
-0.3017806625327728 -0.21906105893423636 0.03364348169662527 0.8176687502312726 -0.5908409389065049 0.8689752748029832 0.3677389431098303 -0.5069063677825406
0.3270234319278044 -1.8537523635863733 0.08763591060350254 -0.09557995352707309 -2.5710606849102016 0.41321561876080515 1.0250325019943516 1.0784743910884536
0.3855446323353608 1.637672500425981 -0.7167622866816251 0.21043223451965914 -0.36858360003055374 -0.8049411438334653 -1.8327984453049933 -0.053516571293129714
0.016349717800905814 0.4241369278055443 -0.7090953306956207 -0.6128157640675052 -0.2892180327474184 -0.09134024703377568 -0.6166287696696435 -0.3077250570997424
1.9127088348800194 -2.037074116551112 0.9071994296976064 -0.9621070738543925 -1.0034173055291933 0.03337229428881881 2.14495776647096 -0.7450902651260659
-0.9291916376769146 2.2173953022797166 -0.906468525907166 -0.010337523390966392 0.5822652964384194 2.534655808079384 -1.5589380915861362 -1.3918288536051358
0.3474451918263167 0.09358867981738611 -0.5026705665183302 1.0636049944923027 -1.5136077355263335 -0.08517156148444295 0.1888688877497989 -0.4200271478442871
0.8625394546749301 0.1551190973856509 -0.32728346553044974 -0.021658104222443048 -0.4444385767371008 -3.047549608261471 0.6413361120969074 -0.07136943289963701
-1.6072271480721094 -0.768679893172277 1.2829080326521574 0.9882463573455574 -0.7767989292895462 -0.10850407440392579 1.4321891428085927 0.2975702880102697
-0.6678115995751975 1.0995882630380078 -0.7929783333559497 0.7420540846027821 -0.8166539288446373 0.32102327518818224 -0.5023381076984379 -0.2521402943168204
0.2078059599666214 3.0209092954619425 1.1106223193342932 -1.1917384759242429 1.3903767634318915 0.6687901872585877 -0.3960947083283516 0.5000944104957626
-0.5005369866083869 0.19434532857244144 -0.1471286341930431 -1.4187384208707439 0.11990076952836151 0.6486910001701118 -1.0173034832735408 1.2085787926268408
-0.8856589414108821 -0.4811098595306682 0.13785137659451574 -1.4951216965602019 -0.04904383792928292 0.8743192297478638 0.6730973828022445 -0.3642613371539782
0.5157791733323166 -0.2510417775621242 -1.0154477817213123 -1.2794459285447652 -0.148544681257648 -0.2831707834175072 -1.4235556520169919 -0.6024065942550526
00000000: 9775 6a37 48b1 0040 0014 1d45 628e cbbf
00000010: 264e aadb 7a35 da3f da51 5f05 4ce2 d3bf
00000020: ebe0 4f48 4e6a c83f 7fe4 9698 5a1b e53f
00000030: 7df8 7cae 1582 eb3f 4b4e c7da 3b54 d73f
00000040: 7313 3322 6996 ed3f 97d8 48af 25ce e43f
00000050: 9479 6827 077b d0bf 6212 ab76 164b e93f
00000060: 96b9 457a b4e2 c5bf 0b14 1dac 79db 9a3f
00000070: b209 d39b 1be2 04c0 ea6c 9596 710e 01c0
00000080: 72b6 ae3a 1e1c d1bf a10d 7682 1593 e6bf
00000090: 2838 f1b5 4ba6 da3f e063 f6f2 c209 ba3f
000000a0: 33ec 0a24 d537 d0bf 0dab dd8f 7f7b f3bf
000000b0: 91f0 663e 1837 c9bf f403 6a0f 9508 cbbf
000000c0: 6684 eccb d295 c4bf d80f 6aed 85f9 d0bf
000000d0: f99a 3c79 ca67 883f 7c6d d68b 22c8 d23f
000000e0: 0353 df28 ad67 fd3f a286 66b3 1e58 c9bf
000000f0: 2359 5e04 61e6 b03f 750f 5c5b 4a4f a6bf
00000100: 5a67 b57b 6ace ea3f 995b 7612 067a f0bf
00000110: ed51 771d 8085 c1bf 0177 853d 7378 f9bf
00000120: 88bb 7b74 36de ef3f 3093 70d4 45d0 d0bf
00000130: ef7b a0a7 1bb7 ee3f 9a33 2692 e978 eebf
00000140: 0a91 e8b3 9c35 f83f 23de 17c5 03de aa3f
00000150: 4b5a e3d4 4a98 f3bf 9e8d cf07 eace d1bf
00000160: 771b 4911 9c86 eebf 067a adb1 a258 fcbf
00000170: cf9d fb50 0c0b 03c0 981d 41b6 1192 d8bf
00000180: bf4e b02e 7da2 edbf d989 dd57 22e9 f83f
00000190: 5a85 2869 ef60 e1bf 7a0e 1085 2522 f43f
000001a0: b3a1 e0d9 7a25 fb3f 0ac9 be26 448e c33f
000001b0: 3ca0 ac80 eeb5 da3f 49bd 65e8 283f cebf
000001c0: 119f cc1a e7a2 e43f 7f96 c72d 0755 f5bf
000001d0: 3f46 d422 9b9e e7bf 8be3 5162 f537 e83f
000001e0: ce50 e496 65b9 eebf a6f8 bce2 bc15 e83f
000001f0: c11c ae1e af34 01c0 fc00 3488 5cd6 d2bf
00000200: e317 4dbe 715a e63f 4b42 6b27 42ca b03f
00000210: fe75 5899 6172 f73f 99f3 531e 33fc ef3f
00000220: e097 4dbc 8265 fb3f b6cf 9ac8 9631 e5bf
00000230: 6129 fa57 0e63 f2bf bad4 85db 58ec da3f
00000240: d2d7 b157 e98a eb3f 60c7 ef17 187b cf3f
00000250: e23e 7506 1e14 a53f 326f c6f0 dc79 91bf
00000260: 6152 8ae0 38bc f83f dc4b 907c 97cf be3f
00000270: 8f1f a782 5c0d dc3f f569 7bdc 13a1 e7bf
00000280: 5c25 af95 f6bb a8bf 83c4 0b66 3662 f13f
00000290: 139f a678 8796 e73f 1cd5 4369 e43c e13f
000002a0: 0a7c f26e b547 e33f cdb3 7b9d 19f3 f03f
000002b0: 7921 91dc 5ae9 dbbf 8804 827a e9e6 e0bf
000002c0: 90b0 06ab 526f f83f 14e2 1edc e80a edbf
000002d0: 4f49 d5d3 c99d e1bf 48d8 3d73 139b 00c0
000002e0: 7152 ea05 4f8a e23f 2d27 6e9b c0ff d4bf
000002f0: c290 cb21 e361 e7bf 8020 16d3 e012 f23f
00000300: a132 fdd8 30bf ec3f 0709 1e8f be50 d6bf
00000310: ec2f d243 7048 e8bf 58ac df96 fd40 f13f
00000320: f14d 502a ff96 dcbf 65c1 94b4 0e5e f1bf
00000330: 8ba1 3670 e308 fd3f acb3 7d5c 5847 e13f
00000340: 4855 4968 ea6b f6bf 3f8d 2cb5 a559 dfbf
00000350: 75c8 4bfb b6c6 c23f 07e1 b9fe f3d9 ef3f
00000360: 1482 a15a fe83 e5bf e9f9 c4c9 df48 f93f
00000370: c7d7 b98c 7b58 e23f d3dd f817 57df f5bf
00000380: e27f d246 55ca f1bf 0bf6 f0ca 0371 e5bf
00000390: 6adb 9789 cf44 e8bf d379 0e2c 93dd fc3f
000003a0: 0353 8e39 9016 e83f 3da1 f29d d38b fcbf
000003b0: 90f0 a98b 4627 e4bf 1f32 7402 0579 f6bf
000003c0: 00d9 abdd 43c4 c63f 480e 6ff4 2c12 00c0
000003d0: 01d9 5311 9061 f13f c7c0 2018 3221 f63f
000003e0: 2459 51e8 e990 b63f 8f44 58c0 db0a e83f
000003f0: d6e2 b5fa b39f dd3f 35f2 aec2 b21a e73f
00000400: 9556 a0e8 3268 efbf 9b9f 599f 0af4 c5bf
00000410: 2511 5afa 0621 e53f 731f 9aa6 794a f2bf
00000420: 0c11 a7b9 483a ecbf 2219 97ac ff0c e1bf
00000430: e341 b8df 3e22 f33f 495a 43e2 662e ed3f
00000440: fde4 e923 da97 df3f b957 df0a 866b edbf
00000450: 1d9b ebc5 75dc 0340 51c8 c03a c05e 00c0
00000460: 4b40 b93d ba5f e0bf a315 0995 89e3 f13f
00000470: f4dc 0297 16ee e43f beb0 81ef 130c c2bf
00000480: a42e 09d7 5f50 d3bf e98e f959 310a ccbf
00000490: f59d 38eb b739 a13f 558b a6a7 572a ea3f
000004a0: 53b9 b741 2be8 e2bf 33f7 493c a5ce eb3f
000004b0: 2fd4 87eb 0889 d73f 3b53 f8b3 9338 e0bf
000004c0: 63f5 49b0 f3ed d43f 5fc7 073d f8a8 fdbf
000004d0: 024a ff99 4e6f b63f 7b4e 8d86 ed77 b8bf
000004e0: f2c3 ad43 8891 04c0 3c8a 31ec 1f72 da3f
000004f0: d971 167b 8866 f03f 56c6 f45c 6e41 f13f
00000500: 87d6 c164 c3ac d83f cc35 6e14 e833 fa3f
00000510: 5fb8 8976 b7ef e6bf 2ea0 a486 71ef ca3f
00000520: 7748 feaa df96 d7bf ae06 ffed 13c2 e9bf
00000530: d8e9 6b76 2453 fdbf b2ff fe26 8666 abbf
00000540: 0ccf 03fd fabd 903f b1d8 7c36 0f25 db3f
00000550: 18b0 e2b0 e8b0 e6bf fc94 24ce 2f9c e3bf
00000560: 5612 045a 8c82 d2bf 9391 d10d 1362 b7bf
00000570: 6c1f f041 6cbb e3bf d2cc 1970 c4b1 d3bf
00000580: 7747 4994 749a fe3f c3eb b083 ed4b 00c0
00000590: c508 3019 c707 ed3f 518e 2ec6 94c9 eebf
000005a0: 2ed0 f74d ff0d f0bf de3c 2061 2c16 a13f
000005b0: 115a 129e df28 0140 fd19 298a c7d7 e7bf
000005c0: bb3f f119 f0bb edbf 6ac3 8cbf 39bd 0140
000005d0: c7fc 3348 ca01 edbf 0431 16e7 d62b 85bf
000005e0: 6a8f b9d4 eaa1 e23f 0d8a d29f f946 0440
000005f0: 239e 7d11 69f1 f8bf cacf fd54 ee44 f6bf
00000600: 7af9 02c2 8a3c d63f cc6b 177f 6df5 b73f
00000610: e874 7b95 e015 e0bf a54e b3ab 8604 f13f
00000620: 78ee b0be bc37 f8bf c9fb 1faf cdcd b5bf
00000630: 1303 0f10 db2c c83f 7e18 db8b b9e1 dabf
00000640: fcd4 aa57 ec99 eb3f 09d2 204d f1da c33f
00000650: 8863 3e59 36f2 d4bf 78a4 50c5 8a2d 96bf
00000660: 23aa 0a80 ae71 dcbf 735d 63b0 6161 08c0
00000670: 7666 664f d385 e43f 0eee 3c64 4445 b2bf
00000680: b168 63d0 33b7 f9bf 0791 4893 0699 e8bf
00000690: 7844 c092 ca86 f43f ed16 26d3 b69f ef3f
000006a0: b1b9 9b6d 89db e8bf 4c30 0c4b ecc6 bbbf
000006b0: 70c9 a029 3fea f63f 77fc d03f 640b d33f
000006c0: d513 826e b65e e5bf df04 cddc e997 f13f
000006d0: 9869 0619 1460 e9bf e86d 2735 e8be e73f
000006e0: 4034 916b 0722 eabf 0709 0c35 a58b d43f
000006f0: 9a2d 035e 2713 e0bf 3e0d 860b 1123 d0bf
00000700: 233a fcbc 6299 ca3f 1488 217e d22a 0840
00000710: aff9 bbe8 1bc5 f13f 0fac 375d 5c11 f3bf
00000720: cfee 80b4 fb3e f63f c829 c5ad ba66 e53f
00000730: 36e4 989e 9d59 d9bf 01bc 3ffe c500 e03f
00000740: 347c 7d24 6604 e0bf 5fac 2cc7 4ee0 c83f
00000750: b706 1570 1cd5 c2bf 187f f30e 27b3 f6bf
00000760: 4ab9 e31b d1b1 be3f cc15 dea0 13c2 e43f
00000770: 9244 6c04 e046 f0bf 0c8b 4fb7 5656 f33f
00000780: 89a1 986b 5157 ecbf 74e9 1d02 81ca debf
00000790: 984c 1729 1da5 c13f f541 64ba 04ec f7bf
000007a0: 3204 f41f 461c a9bf d5fd 4052 6cfa eb3f
000007b0: 2915 c585 038a e53f 1b82 91c8 0e50 d7bf
000007c0: 6772 2d53 4381 e03f 26c7 2388 1111 d0bf
000007d0: db9e 542c 463f f0bf 179a 414b 9c78 f4bf
000007e0: 2588 ff19 8303 c3bf 437f 7d59 781f d2bf
000007f0: d82e 974a e2c6 f6bf d10b a731 ea46 e3bf

output_mask f8 [16]
1.0 1.0 1.0 1.0 1.0 1.0 1.0 1.0
1.0 1.0 1.0 1.0 1.0 1.0 1.0 1.0
00000000: 0000 0000 0000 f03f 0000 0000 0000 f03f
00000010: 0000 0000 0000 f03f 0000 0000 0000 f03f
00000020: 0000 0000 0000 f03f 0000 0000 0000 f03f
00000030: 0000 0000 0000 f03f 0000 0000 0000 f03f
00000040: 0000 0000 0000 f03f 0000 0000 0000 f03f
00000050: 0000 0000 0000 f03f 0000 0000 0000 f03f
00000060: 0000 0000 0000 f03f 0000 0000 0000 f03f
00000070: 0000 0000 0000 f03f 0000 0000 0000 f03f

output_mask f8 [144]
1.0 1.0 1.0 1.0 1.0 1.0 1.0 1.0
1.0 1.0 1.0 1.0 1.0 1.0 1.0 1.0
1.0 1.0 1.0 1.0 1.0 1.0 1.0 1.0
1.0 1.0 1.0 1.0 1.0 1.0 1.0 1.0
1.0 1.0 1.0 1.0 1.0 1.0 1.0 1.0
1.0 1.0 1.0 1.0 1.0 1.0 1.0 1.0
1.0 1.0 1.0 1.0 1.0 1.0 1.0 1.0
1.0 1.0 1.0 1.0 1.0 1.0 1.0 1.0
1.0 1.0 1.0 1.0 1.0 1.0 1.0 1.0
1.0 1.0 1.0 1.0 1.0 1.0 1.0 1.0
1.0 1.0 1.0 1.0 1.0 1.0 1.0 1.0
1.0 1.0 1.0 1.0 1.0 1.0 1.0 1.0
1.0 1.0 1.0 1.0 1.0 1.0 1.0 1.0
1.0 1.0 1.0 1.0 1.0 1.0 1.0 1.0
1.0 1.0 1.0 1.0 1.0 1.0 1.0 1.0
1.0 1.0 1.0 1.0 1.0 1.0 1.0 1.0
1.0 1.0 1.0 1.0 1.0 1.0 1.0 1.0
1.0 1.0 1.0 1.0 1.0 1.0 1.0 1.0
00000000: 0000 0000 0000 f03f 0000 0000 0000 f03f
00000010: 0000 0000 0000 f03f 0000 0000 0000 f03f
00000020: 0000 0000 0000 f03f 0000 0000 0000 f03f
00000030: 0000 0000 0000 f03f 0000 0000 0000 f03f
00000040: 0000 0000 0000 f03f 0000 0000 0000 f03f
00000050: 0000 0000 0000 f03f 0000 0000 0000 f03f
00000060: 0000 0000 0000 f03f 0000 0000 0000 f03f
00000070: 0000 0000 0000 f03f 0000 0000 0000 f03f
00000080: 0000 0000 0000 f03f 0000 0000 0000 f03f
00000090: 0000 0000 0000 f03f 0000 0000 0000 f03f
000000a0: 0000 0000 0000 f03f 0000 0000 0000 f03f
000000b0: 0000 0000 0000 f03f 0000 0000 0000 f03f
000000c0: 0000 0000 0000 f03f 0000 0000 0000 f03f
000000d0: 0000 0000 0000 f03f 0000 0000 0000 f03f
000000e0: 0000 0000 0000 f03f 0000 0000 0000 f03f
000000f0: 0000 0000 0000 f03f 0000 0000 0000 f03f
00000100: 0000 0000 0000 f03f 0000 0000 0000 f03f
00000110: 0000 0000 0000 f03f 0000 0000 0000 f03f
00000120: 0000 0000 0000 f03f 0000 0000 0000 f03f
00000130: 0000 0000 0000 f03f 0000 0000 0000 f03f
00000140: 0000 0000 0000 f03f 0000 0000 0000 f03f
00000150: 0000 0000 0000 f03f 0000 0000 0000 f03f
00000160: 0000 0000 0000 f03f 0000 0000 0000 f03f
00000170: 0000 0000 0000 f03f 0000 0000 0000 f03f
00000180: 0000 0000 0000 f03f 0000 0000 0000 f03f
00000190: 0000 0000 0000 f03f 0000 0000 0000 f03f
000001a0: 0000 0000 0000 f03f 0000 0000 0000 f03f
000001b0: 0000 0000 0000 f03f 0000 0000 0000 f03f
000001c0: 0000 0000 0000 f03f 0000 0000 0000 f03f
000001d0: 0000 0000 0000 f03f 0000 0000 0000 f03f
000001e0: 0000 0000 0000 f03f 0000 0000 0000 f03f
000001f0: 0000 0000 0000 f03f 0000 0000 0000 f03f
00000200: 0000 0000 0000 f03f 0000 0000 0000 f03f
00000210: 0000 0000 0000 f03f 0000 0000 0000 f03f
00000220: 0000 0000 0000 f03f 0000 0000 0000 f03f
00000230: 0000 0000 0000 f03f 0000 0000 0000 f03f
00000240: 0000 0000 0000 f03f 0000 0000 0000 f03f
00000250: 0000 0000 0000 f03f 0000 0000 0000 f03f
00000260: 0000 0000 0000 f03f 0000 0000 0000 f03f
00000270: 0000 0000 0000 f03f 0000 0000 0000 f03f
00000280: 0000 0000 0000 f03f 0000 0000 0000 f03f
00000290: 0000 0000 0000 f03f 0000 0000 0000 f03f
000002a0: 0000 0000 0000 f03f 0000 0000 0000 f03f
000002b0: 0000 0000 0000 f03f 0000 0000 0000 f03f
000002c0: 0000 0000 0000 f03f 0000 0000 0000 f03f
000002d0: 0000 0000 0000 f03f 0000 0000 0000 f03f
000002e0: 0000 0000 0000 f03f 0000 0000 0000 f03f
000002f0: 0000 0000 0000 f03f 0000 0000 0000 f03f
00000300: 0000 0000 0000 f03f 0000 0000 0000 f03f
00000310: 0000 0000 0000 f03f 0000 0000 0000 f03f
00000320: 0000 0000 0000 f03f 0000 0000 0000 f03f
00000330: 0000 0000 0000 f03f 0000 0000 0000 f03f
00000340: 0000 0000 0000 f03f 0000 0000 0000 f03f
00000350: 0000 0000 0000 f03f 0000 0000 0000 f03f
00000360: 0000 0000 0000 f03f 0000 0000 0000 f03f
00000370: 0000 0000 0000 f03f 0000 0000 0000 f03f
00000380: 0000 0000 0000 f03f 0000 0000 0000 f03f
00000390: 0000 0000 0000 f03f 0000 0000 0000 f03f
000003a0: 0000 0000 0000 f03f 0000 0000 0000 f03f
000003b0: 0000 0000 0000 f03f 0000 0000 0000 f03f
000003c0: 0000 0000 0000 f03f 0000 0000 0000 f03f
000003d0: 0000 0000 0000 f03f 0000 0000 0000 f03f
000003e0: 0000 0000 0000 f03f 0000 0000 0000 f03f
000003f0: 0000 0000 0000 f03f 0000 0000 0000 f03f
00000400: 0000 0000 0000 f03f 0000 0000 0000 f03f
00000410: 0000 0000 0000 f03f 0000 0000 0000 f03f
00000420: 0000 0000 0000 f03f 0000 0000 0000 f03f
00000430: 0000 0000 0000 f03f 0000 0000 0000 f03f
00000440: 0000 0000 0000 f03f 0000 0000 0000 f03f
00000450: 0000 0000 0000 f03f 0000 0000 0000 f03f
00000460: 0000 0000 0000 f03f 0000 0000 0000 f03f
00000470: 0000 0000 0000 f03f 0000 0000 0000 f03f

weight f8 [8, 64]
0.6205543153411134 -0.062323737621274605 0.9864974423273541 -1.8538984864510055 0.767104341178316 1.9764671586159168 0.2596827063308184 0.4720319758406193
-1.5757041255621973 1.0172260415112624 -0.3076531176590304 0.5829956011633386 1.213751834155812 0.02141837331479511 -1.5848515574466135 1.1135431356760779
-0.5554346999821004 -1.9110369583285245 -1.2024929524387173 0.5148725960533801 0.2041995675906711 0.5034673221506013 0.11099107894781743 0.8762044743313246
0.38400154154051663 0.25336284310890966 0.316073077190263 -0.7792479378352313 1.5521388441487325 -0.026244849258657596 1.7304244030126918 -0.37828498732412974
0.7670232719262481 0.9978802759009161 0.021116834734428765 0.3712834509629221 1.1286529933857592 0.9111434377608258 -0.3381351469007747 0.21901779157940046
-0.8636817232479908 1.3301987533481527 -0.5243980808806977 -0.5645999449575353 -0.8376392994338632 1.1325717012355123 0.8645364615761586 -1.7749588712747437
0.4626045495943747 0.8834099552936159 -0.10672732521086677 -0.9615575039591404 -1.1721515032086711 1.1717923225721385 -1.1239686689889543 0.16106254770154288
1.0936269445590592 -1.815763214922041 0.5762807176144285 1.2114042257097717 0.5065444864988986 1.6722805837940315 1.472365284630076 -2.4456437001540037
-0.22272541893652578 0.6377082597041877 0.10314609711894672 -0.6030762109533642 1.0854079501558045 0.5700722291779295 0.8232880503896505 0.398309431070332
0.08193905897716612 1.0122748285731822 0.16389604150860607 0.6642579309322298 1.0209736931962548 0.3776213388417874 2.0136805381811556 -0.7622470346565946
1.817099893829819 1.101325979637069 -1.385953816286624 0.8927412733009766 -1.0609383827402288 -0.6347329886846371 -0.403487711453849 0.6389642205335356
0.9602364916318293 -0.46108078894933713 2.605614556935922 1.2922451021870598 0.509934045655225 -0.45774618756625873 0.24406911368334458 0.4440368625155369
0.20053354234769283 -0.41164254055024146 -0.6702798230921256 -1.7413794556397286 0.07899135824716637 2.0388290370680346 -0.7737406893827252 0.1989349583789057
-0.7587558956548185 0.09847140544314045 1.3453597390441887 -0.01977297404450046 -0.6595196791580776 -0.09630293221002509 0.0852947422351301 0.1570758213976451
-0.3711902838902967 0.1591584294444298 0.21133897014330802 0.5518413224425477 -0.5188748080050738 -0.0029636039886594043 0.4396295855966891 0.10488999617544846
0.3479894368192943 -0.38154938711283687 -0.19450490224088546 -0.21875999737879812 0.4172658401727145 -0.0852652046167096 0.06428457197499296 0.22567216419715289
-1.4198641348329515 1.849876622246001 -0.5285297519017648 -1.113884302146571 0.6760432912317641 -0.0020522893434865774 -1.3536952172096397 0.9383844195116512
1.572868747006361 -2.7747903827469655 1.1107517113492464 0.7176733980800261 0.9615913325501853 1.5346269941867994 0.24746507067936557 0.6770255033217432
0.6318410322673657 -0.8269038258572432 0.21957165091657693 -0.8083102285276945 0.35881537408418995 -0.046904905175702574 0.22785263336172518 0.40862071104556347
-0.3165999332507026 0.07256775852558883 -0.6629338908702685 0.06590517077814556 0.19026434965915673 0.8880190422423387 -1.2022382813805508 0.004845778441622857
0.5158548485949119 0.20327708935903038 0.29919999418800813 0.4993945120651502 -0.10807092909760077 -0.029695853617275548 0.2383900825838953 0.3041241413705813
-1.2159437957894341 0.5076849871411001 -0.8493149185472979 1.238392804978807 -0.2214070413695841 1.8243903607885312 -0.39206606614585293 1.0808336547236457
2.543597858327887 0.014800960368376338 0.06664548642420338 1.2325068441971339 -0.7530533083755201 1.6352788922352215 0.9281452186754042 -0.3398053121512233
-1.1474944955464075 -0.18280251090181351 -0.8620657602546932 -1.3984002842564331 0.17694822661685683 -0.2418175336541203 1.4698125724121691 2.7965695356111353
-1.2677898557313683 0.11307426323987912 -1.439395722584182 2.8752339914871547 -0.7860880039692334 0.7537166978183266 -1.8244085522598823 -0.758463551973781
-1.471259388192118 -0.5735742689645174 -1.9683960111176146 -0.5965379742249498 -2.023685465030704 0.9015578575876789 -2.1587635049863247 0.09668352180511648
0.2956503835148839 0.8016665622872048 -1.684844479779666 -1.5167307493686517 0.3920288383025058 0.19466671162788138 -0.3504145508810678 1.3076022938750294
-0.26596400385805313 -0.41415093334402114 -1.3726989707192554 0.6796444263884626 -1.902910631620121 -0.9629091017826109 -0.18703709544565725 0.3675747928916364
1.125080520569981 -1.3543779012596802 1.4558509669925577 -1.185905042984191 0.8448825896414656 1.6494355297160976 0.44274034049810396 1.9478271505762512
-1.8286744218017024 1.2606550635393543 0.2938768663654077 0.4745814049222309 -0.38975447314573824 -1.0191450018581754 0.09441473524920785 0.31401775185776387
-0.11345383404649914 0.5673463612552393 -2.9995847173136085 -0.6995476022822541 0.7448173649959906 0.21780118939911963 1.1784262293388401 -0.00684330236498825
0.13814088910845457 1.733245734665148 0.3365045405610825 0.22851395498941238 -0.020351026237163995 -1.1155032931780915 -0.059316348334417776 0.6898306336832829
00000000: 1f04 39b9 94db e33f 9c1a b29d e5e8 afbf
00000010: b746 8c15 6391 ef3f 5393 9675 91a9 fdbf
00000020: 3460 3f67 1e8c e83f 7af9 fd06 9c9f ff3f
00000030: cfc4 c136 a49e d03f d0b5 b99a c535 de3f
00000040: 0164 7787 1536 f9bf f6e2 4ed0 8e46 f03f
00000050: 13e9 b6b3 96b0 d3bf 34ab 1664 e6a7 e23f
00000060: 338c 120b 876b f33f 5ca8 aeb3 b2ee 953f
00000070: 47f7 834e 8d5b f9bf ee9f 669b 12d1 f13f
00000080: fd92 effd 1ec6 e1bf 457e 577d 9b93 febf
00000090: ff50 0640 693d f3bf 05fd 3418 d679 e03f
000000a0: 1663 5420 3623 ca3f 9bba 6780 671c e03f
000000b0: 7e87 3a4e e969 bc3f c694 3bf7 dd09 ec3f
000000c0: 3bed a133 7b93 d83f 7c28 4bc9 1837 d03f
000000d0: aa68 6b92 8a3a d43f ce49 0f5f 99ef e8bf
000000e0: 5085 678a 8fd5 f83f 4c7d 0405 eedf 9abf
000000f0: c43c b27f d1af fb3f 8efe 473c d235 d8bf
00000100: 7b36 8663 748b e83f 2b2c ca9d a2ee ef3f
00000110: 6f50 51ca a69f 953f 1fa2 dba9 1bc3 d73f
00000120: 4cfd f170 f60e f23f 70ba 6448 1628 ed3f
00000130: 7349 6499 01a4 d5bf 87af 0966 c608 cc3f
00000140: ee18 70da 47a3 ebbf eff6 ec7c 7e48 f53f
00000150: e3f7 ee7b dec7 e0bf fd4f 5de7 3311 e2bf
00000160: 9b35 9dee f0cd eabf dee7 1281 031f f23f
00000170: c669 955e 48aa eb3f eceb fd45 3b66 fcbf
00000180: 0846 df1c 509b dd3f 064d 5ef4 e444 ec3f
00000190: 55c7 5e63 7b52 bbbf f24a 173e 14c5 eebf
000001a0: d2d0 43ef 21c1 f2bf 636b 724e a9bf f23f
000001b0: 4f94 3092 c6fb f1bf 5a89 7e93 b29d c43f
000001c0: 317d 8ef7 7e7f f13f 76eb 95ba 5d0d fdbf
000001d0: 2c05 6f42 e470 e23f 048e ba65 e961 f33f
000001e0: 966b 6fc8 9c35 e03f 3419 1249 a9c1 fa3f
000001f0: d107 94e6 ce8e f73f 96a3 eea4 ad90 03c0
00000200: d9fe 283b 4482 ccbf a631 fa26 1b68 e43f
00000210: 97fe d559 c867 ba3f 1b4a 617b 664c e3bf
00000220: 1fcd 0bba d45d f13f 2faa 951d 083e e23f
00000230: 888e 732e 6058 ea3f 16ab 08d7 e67d d93f
00000240: e76a 924a f5f9 b43f bc92 3417 4732 f03f
00000250: cd95 1ca5 8bfa c43f 3ecd 2ed9 9941 e53f
00000260: 04ab e582 e855 f03f b638 26b1 f22a d83f
00000270: 50a3 c08a 041c 0040 7256 aae4 5364 e8bf
00000280: bd06 9956 d712 fd3f 066c 8cfd 079f f13f
00000290: a57a abe8 dd2c f6bf 39bf 9325 5691 ec3f
000002a0: ef0b 8f86 9af9 f0bf aaf8 828e bb4f e4bf
000002b0: 020f 421f bed2 d9bf 6d2e d017 6572 e43f
000002c0: e680 ffe0 41ba ee3f 647b 56ff 5882 ddbf
000002d0: a72b e071 4cd8 0440 1ff4 4433 09ad f43f
000002e0: e298 2634 6151 e03f 10cf 5daa b64b ddbf
000002f0: efe8 9d1e a83d cf3f 6140 ae96 196b dc3f
00000300: 1833 1147 15ab c93f 9f8f 53f4 5958 dabf
00000310: d62d ebab ee72 e5bf f761 3eb4 b0dc fbbf
00000320: 3d94 5614 c738 b43f 32bd 2299 854f 0040
00000330: 3077 8fd5 7bc2 e8bf e75e 2262 b376 c93f
00000340: 1f82 af71 ba47 e8bf 862d f809 6c35 b93f
00000350: 54cc 08ef 9786 f53f b190 76d3 5d3f 94bf
00000360: e7ac a103 c91a e5bf b2d8 5918 4fa7 b8bf
00000370: a7ae 6b50 e0d5 b53f a896 f27d 0f1b c43f
00000380: c3b6 79e4 94c1 d7bf bb5b acac 4d5f c43f
00000390: d362 91c6 270d cb3f b71b 0f22 afa8 e13f
000003a0: c833 6357 9f9a e0bf 6bf0 b4c6 2047 68bf
000003b0: da79 1f21 e422 dc3f 2749 401f 12da ba3f
000003c0: 4a82 9f7c 7545 d63f b557 dd1e 4e6b d8bf
000003d0: d4a4 0461 89e5 c8bf 2f1e 35dd 5300 ccbf
000003e0: c8e7 51c8 7bb4 da3f a7c5 50c1 f0d3 b5bf
000003f0: a21b 4526 f474 b03f 7912 6c52 d3e2 cc3f
00000400: 0cef 7d74 c3b7 f6bf 82e7 a23a 1899 fd3f
00000410: c131 ec39 b7e9 e0bf f6f4 9358 78d2 f1bf
00000420: 01a9 508a 25a2 e53f 2e2d 9773 f6cf 60bf
00000430: 1cac ea50 bca8 f5bf 8f1c 1cc3 3e07 ee3f
00000440: 62af 546b 782a f93f 733a d94c c532 06c0
00000450: 6789 2396 a3c5 f13f 16d0 be33 2ef7 e63f
00000460: 8271 ad2f 5bc5 ee3f 1675 f908 d58d f83f
00000470: a22f bc78 efac cf3f fa64 6a63 31aa e53f
00000480: b37e 3baf 0a38 e43f fccf 1f03 ff75 eabf
00000490: e45f e881 ec1a cc3f 3b8f 9169 addd e9bf
000004a0: 2c97 3fc2 d4f6 d63f d2d4 8073 eb03 a8bf
000004b0: 9e4c 4c6c 462a cd3f 6b2c 9a7b d726 da3f
000004c0: 3190 ce5d 2c43 d4bf a086 9cf5 cc93 b23f
000004d0: ad54 9622 c136 e5bf 5422 2149 29df b03f
000004e0: a0bd b00b 955a c83f abfe 14e9 a66a ec3f
000004f0: 9a75 4835 5e3c f3bf ae0c e3be 2ad9 733f
00000500: 7a57 0607 e281 e03f 825b 69d1 fb04 ca3f
00000510: 800e 80bb 1726 d33f e4c9 4766 14f6 df3f
00000520: 225e 1f52 89aa bbbf bdb6 7300 9768 9ebf
00000530: a5bc 31f4 9083 ce3f 2816 471a c576 d33f
00000540: 1a09 4b7b 8174 f3bf 5b1e 0e96 f43e e03f
00000550: 2c4c e57a 962d ebbf 5bc5 4ff9 74d0 f33f
00000560: 78ab e4e0 1057 ccbf 1297 6bf2 b330 fd3f
00000570: 9ef0 fd44 9c17 d9bf 7644 f73a 184b f13f
00000580: 248d 7dd5 4959 0440 9440 da45 f74f 8e3f
00000590: fd32 9eb8 ad0f b13f 06c4 be18 59b8 f33f
000005a0: 3fc2 7340 0319 e8bf 85d4 1f33 1a2a fa3f
000005b0: c4c9 049a 5db3 ed3f b194 acc7 5ebf d5bf
000005c0: b063 2b30 235c f2bf b398 f99a 1266 c7bf
000005d0: f772 e9ee 0a96 ebbf 6493 f9f9 d85f f6bf
000005e0: d4c9 334f 3da6 c63f e468 527f e0f3 cebf
000005f0: 8b28 1c30 5a84 f73f 9384 43d9 5f5f 0640
00000600: 8d11 0904 de48 f4bf 9073 a256 6ff2 bc3f
00000610: 8805 28cf c307 f7bf 6b47 cead 7a00 0740
00000620: c16c 9a07 a227 e9bf c185 f27a 721e e83f
00000630: 80fb a705 c730 fdbf aeee dd5a 5545 e8bf
00000640: 677d c348 478a f7bf 62f3 e06c b85a e2bf
00000650: 6c3b d5d0 8c7e ffbf b5c8 43ce d616 e3bf
00000660: 5494 4d01 8230 00c0 1b4f 39dd 8fd9 ec3f
00000670: 7fb7 edcc 2545 01c0 5d0f 3754 40c0 b83f
00000680: 1dc3 0f96 efeb d23f d43f 6aa2 40a7 e93f
00000690: 2dff 377c 1ff5 fabf d103 5676 8744 f8bf
000006a0: d647 e61f 0017 d93f f3e2 07bc d6ea c83f
000006b0: e3e8 0427 316d d6bf a4e2 0562 f0eb f43f
000006c0: 95f2 9ee2 8d05 d1bf 3382 94ea 7281 dabf
000006d0: 7edf 2732 93f6 f5bf 75e8 07ab a5bf e53f
000006e0: 544e 206b 5272 febf 63aa a5bf 26d0 eebf
000006f0: 8ff9 09e0 d4f0 c7bf 646d 936c 5886 d73f
00000700: 826f 936e 5400 f23f fa5d 8529 88ab f5bf
00000710: 0354 3162 2a4b f73f 0b75 fc90 77f9 f2bf
00000720: 4809 6f36 4709 eb3f 72db 8f82 1664 fa3f
00000730: eeca c394 db55 dc3f 1cc6 5fcd 4c2a ff3f
00000740: 68b8 4a1c 4042 fdbf 6503 d7a4 a42b f43f
00000750: edc8 85ea e0ce d23f d690 5baf 8a5f de3f
00000760: ab5c e8be bcf1 d8bf b6cd 4dfd 6a4e f0bf
00000770: 88e5 2768 902b b83f 29ec a5e9 dd18 d43f
00000780: fae4 d57a 4f0b bdbf 3d11 638e b327 e23f
00000790: fd8b b345 26ff 07c0 1785 39a7 b162 e6bf
000007a0: 54d2 043a 8bd5 e73f 30e3 bfcc e8e0 cb3f
000007b0: 8324 3c76 d5da f23f b710 abfd b807 7cbf
000007c0: c807 7bc4 99ae c13f c617 25e1 5fbb fb3f
000007d0: 2c95 2a57 4a89 d53f 5ff8 adfd f13f cd3f
000007e0: bdbe 8340 e6d6 94bf b67b 2cfb 19d9 f1bf
000007f0: cece 6d60 b65e aebf 645b 6eb1 1713 e63f

weight f8 [64, 64]
-0.05116401048771802 -0.011645557167653788 -0.2012591969630442 -0.30871074004927557 0.9870824516765321 -0.42407602823033325 0.24709347955903188 2.0290154549832486
-0.31742524686504037 0.5950360633703279 1.763946589665414 -0.6290521584991858 -1.0778901627123665 0.49727902023517967 -0.11528558040762318 1.8616516479729
-0.5432757251620404 -0.18082179883229713 0.10518021735694798 -0.4035088799114387 0.6816461550765771 0.4176610865137492 2.2218678252892903 0.9563490980501747
1.2418262199649457 -1.2855274771545984 0.4661507173428322 1.030142880424963 -1.310186899347765 -0.2135417503683867 0.4802390845131599 0.544750312237053
-1.905949045882938 -1.9432865925997198 0.779521564538393 -1.4225189488976384 0.15237488100696575 0.4206425213123951 1.0868989259748851 0.653013963459238
0.7423932579756598 -0.7528115869470947 1.6198169526403774 0.5133602923877789 1.8582682237725185 -1.1833556057353565 -0.5625408998959214 -0.19838468126156084
0.2861053823449849 0.3436436006587377 -2.1417230229356137 -0.3720758649841677 -0.6318043502217869 -1.0483882015546246 -0.18115455059856467 0.10599647200533957
-0.4251338876900426 -1.4362779490189752 0.6274017914433263 -0.934244180495946 -0.12456342596994335 1.4512389565143524 0.9210074539202592 1.0921898496808615
1.3245077218672623 -0.13118960810051422 0.7109374461063536 -0.5747826470785135 1.146860242939968 0.9584023645905915 -1.3877299380057335 1.5038331803869511
-0.9519004505184958 -0.24215883137899563 0.14897227805160668 -0.091702449759546 0.32395017092443185 0.6317990425430267 0.8043221648974012 0.7744876818121812
-0.80510826523286 -0.46050321893147345 1.8662736177304626 1.0173523991377238 1.9898276622346223 -0.39252186268184136 -0.3878668606596099 0.20339972799110653
0.38606425923400683 0.1857100880466611 0.0060097643537094176 -0.553021577675059 0.9237273378193454 -0.8287099974253015 -0.1870651997589967 0.9194466589127225
0.27817881176070514 -0.5976662800857919 2.0801770690884704 0.2009766967251679 -0.9170452614254527 0.8990504100465266 -0.1091502359982495 0.052594553455458236
0.8161119429367449 1.243337099751811 -0.6071044176784437 0.3186721013493447 -1.1008100642355645 -1.0375412489229798 1.3016950026622431 -0.9487737295651667
-0.643018263098919 -0.6939302112579262 -1.130431323394189 -0.3924202414408589 -0.9632088909623693 0.5835157341411029 -0.13764092441867276 0.30854897078464316
1.110206053904601 -0.8043620734828694 0.99511137684216 1.4689765539963857 1.3215356034253911 0.11148361445810928 1.3455415418984453 1.1421358593899793
0.5385780498389128 -1.0695655382224323 -0.11124964260734181 -0.00672404982961575 0.45282258339741904 0.1998675232763444 -1.2655124288610708 -0.23907510736647797
-1.0966911485279276 1.1806345921678907 -0.8972108845456456 0.8060218748459448 -0.04352576132697399 -0.08247192050181455 -1.529889447700871 1.9859501822106926
-0.45507950447159434 -0.2886189374598739 -0.9049559109433153 -0.7499836653518627 -0.018069411615636816 -0.45647607012036123 0.5283118892493798 -0.03313036998373401
1.0316965793093542e-05 -0.7172780263398758 1.3900645134640452 0.25952023013238557 -0.8470696290705172 2.949493651852881 -1.7786752009473783 -1.1472203717154419
1.6330680350837399 -0.31277340582381935 -1.1125387654555632 -0.045482540858846884 -0.7142968289338497 0.6152852244485852 1.5380827429100785 -0.6219797125824756
2.0177156932154965 0.009328341812111528 0.5092086605732751 1.7328911104060285 -0.0882323613205101 -1.326259582808574 -0.05556023535042435 -0.11325791306427209
-0.18517445238896116 0.2825260350242787 -0.6742709715807305 -0.30267182996638314 2.159929722083365 0.9129428724909753 -1.1036549773611737 -1.6537365646928026
-0.15515808452621344 0.006200203821238535 -0.9563886283087344 -1.034651225213673 -2.572019006320318 -2.3393771889271253 -0.4318386539942595 -1.605213230965507
-1.9104057537284724 1.759618643677658 -0.019533947127400673 2.1554512724925585 -1.2672527669738871 0.9933259430096741 0.6589358071200867 -1.136575756717946
0.906826239418674 -0.02681129076555635 -0.32811228238316803 -0.27144877606977275 -0.8829547295632484 -0.042277809532293605 1.1602609362033753 -0.16738649336566014
-0.46609976256024493 0.646780388762529 -0.8434001717339232 0.7030440438576693 0.6525913468011215 -0.7256045379959057 -0.7387354072476018 -0.974126636558927
0.459942640205214 0.8763445468330282 -1.162541804114046 0.7979758340501438 1.0725448285246795 -1.74644657044005 1.7976684426989153 -0.48667467870433495
0.17128884390982277 0.5104873892378955 -1.136104457761289 -0.006899013268891831 0.3782609645769653 -1.900247727741939 1.4430493765595094 -1.508278653453145
-0.6264123199008678 0.2093734399160568 -1.252211233930129 0.6090821008260807 0.0133226226981205 -0.7750619643188218 -0.39372423609228424 -1.1710211193032922
0.7781921317807061 -0.14871922624792341 0.7630750482900084 -0.014658839660956548 -1.573572819531062 -0.5028376376142933 0.5175041123319787 -0.801217527946852
0.9563153342063583 -0.06611724232505915 0.1805671831624885 -0.8254657266307829 0.5410116911025771 -0.10759767570416424 1.1368508947862959 -1.7996989717709595
00000000: 61cc 8d4f 2b32 aabf b41f 6e39 a0d9 87bf
00000010: 19dd 7c82 dcc2 c9bf cee0 1bb1 eac1 d3bf
00000020: a3ff 0cf0 2d96 ef3f 2314 11c8 0f24 dbbf
00000030: ba64 e156 c2a0 cf3f 58da 7174 6c3b 0040
00000040: de71 8dfb b150 d4bf 6fb7 0312 890a e33f
00000050: 180f 280f 2039 fc3f 476e 07fe 3121 e4bf
00000060: c979 58c1 093f f1bf c268 3962 6bd3 df3f
00000070: 3216 8d15 5b83 bdbf e668 093d 53c9 fd3f
00000080: 4203 09c6 8362 e1bf e1bd 3130 2b25 c7bf
00000090: abf8 bb39 17ed ba3f c65f b7e8 16d3 d9bf
000000a0: f8ef ef98 0bd0 e53f 36db d890 f5ba da3f
000000b0: 9737 6da3 62c6 0140 39e8 756c 699a ee3f
000000c0: 3109 a12b 85de f33f 6fd0 8742 8591 f4bf
000000d0: 52a4 7fd1 69d5 dd3f 891e da19 777b f03f
000000e0: 6c8a c589 86f6 f4bf 2fd7 1409 5655 cbbf
000000f0: 1cae 8fb6 3cbc de3f e267 f134 986e e13f
00000100: d08d 3e6d c47e febf 8389 9fae b317 ffbf
00000110: 4a03 4735 d7f1 e83f 5a4a b73a a3c2 f6bf
00000120: 5512 5425 0581 c33f 82ff 159c ceeb da3f
00000130: 1dea d120 f063 f13f c670 1c8a 7de5 e43f
00000140: dcd7 7881 afc1 e73f af9a 3f53 0817 e8bf
00000150: 808c 512e c5ea f93f 34db 5b90 726d e03f
00000160: 9cc8 0476 77bb fd3f fbbe a249 06ef f2bf
00000170: 7ee4 f6c5 5500 e2bf 60dc 0553 ab64 c9bf
00000180: fd66 18f3 8c4f d23f 0bc6 93ba 41fe d53f
00000190: 2dca 24ae 3f22 01c0 f339 ef49 17d0 d7bf
000001a0: 148a b5c1 bd37 e4bf a807 f3b4 32c6 f0bf
000001b0: 2cd4 2b83 1230 c7bf a81a c1b4 9522 bb3f
000001c0: 5934 03c4 6435 dbbf 0d0a 3096 fefa f6bf
000001d0: c46d f6eb ac13 e43f 4aab 360d 54e5 edbf
000001e0: 5491 d180 63e3 bfbf a190 0e57 4638 f73f
000001f0: 31b6 be9f e478 ed3f 7670 5610 9c79 f13f
00000200: 7b82 4b02 2f31 f53f 2af2 2e32 d2ca c0bf
00000210: e4e9 10e3 ffbf e63f 3956 f093 9e64 e2bf
00000220: 0c28 4820 8a59 f23f cc6b 8a6f 3bab ee3f
00000230: bfa2 b64e 2434 f6bf 0d6d 8661 b30f f83f
00000240: 92c9 00ef f775 eebf 3ced 9a82 0fff cebf
00000250: ae02 1f0b 8611 c33f 502a aece cf79 b7bf
00000260: dfdb 697f 99bb d43f a6b9 2ba0 b237 e43f
00000270: 0dd5 35d6 01bd e93f b538 1164 9ac8 e83f
00000280: fe42 9d68 72c3 e9bf a7db 407e e278 ddbf
00000290: 9ba3 98b9 41dc fd3f cddb 2c4f 1347 f03f
000002a0: d694 df87 55d6 ff3f a7be cb04 141f d9bf
000002b0: bd0d 6f86 cfd2 d8bf 3d59 de95 0009 ca3f
000002c0: 2f21 e4dd 46b5 d83f e74d 5921 59c5 c73f
000002d0: 398e b1d5 b19d 783f 2f18 c34e 5ab2 e1bf
000002e0: 105e 4ba2 2c8f ed3f d1ea 19d4 ca84 eabf
000002f0: e7a0 97a1 c0f1 c7bf a14a 4e66 1b6c ed3f
00000300: 9cf3 bc80 aecd d13f 967e dc08 1520 e3bf
00000310: 2ffe 0ce0 33a4 0040 9baa d8b9 9ab9 c93f
00000320: 58c5 d84d 6f58 edbf fa5d 935d 05c5 ec3f
00000330: e291 f615 45f1 bbbf ebec 135e aced aa3f
00000340: 103a 19cb 961d ea3f 7966 5571 b5e4 f33f
00000350: 0af4 653e 666d e3bf a75a 5cab 1f65 d43f
00000360: 94fd 8f03 eb9c f1bf cb00 46da c499 f0bf
00000370: c3d0 9c23 bed3 f43f b129 79b9 5a5c eebf
00000380: d6b2 5709 9b93 e4bf ace4 6121 ad34 e6bf
00000390: f6a1 c527 3f16 f2bf f1b8 d1c9 691d d9bf
000003a0: 36cb bc73 9bd2 eebf 89cc 5a30 29ac e23f
000003b0: 8a15 7cc2 379e c1bf 1402 af2e 44bf d33f
000003c0: ae76 556c 67c3 f13f b40d f887 55bd e9bf
000003d0: 7a44 6dd0 f3d7 ef3f 8615 208f ed80 f73f
000003e0: 0b63 5384 0225 f53f 1030 23ae 308a bc3f
000003f0: d1cf 5d91 5687 f53f 78b3 3a40 3046 f23f
00000400: d0d9 cc08 083c e13f f680 f9c0 f01c f1bf
00000410: 57b2 b048 db7a bcbf 2486 d661 ad8a 7bbf
00000420: e741 a592 0bfb dc3f c590 004e 4295 c93f
00000430: ba3c eaf5 893f f4bf 7c9e b65b 039a cebf
00000440: 90d7 8b04 0c8c f1bf be32 1e19 e1e3 f23f
00000450: 15a4 d799 f3b5 ecbf b35d 0a63 eeca e93f
00000460: 279f dd32 0249 a6bf 53c3 6439 e11c b5bf
00000470: 91ee 855b 6d7a f8bf 5c48 c1b2 73c6 ff3f
00000480: b943 32c9 0520 ddbf 125f 5990 bb78 d2bf
00000490: 8559 3a19 66f5 ecbf ff0d 67be ddff e7bf
000004a0: 85da c9af c980 92bf 1db5 2468 e736 ddbf
000004b0: fb3f cd55 eee7 e03f e545 2bbf 76f6 a0bf
000004c0: 8fbd 4afb e0a2 e53e 3b9d 280c f1f3 e6bf
000004d0: 1888 8a49 b43d f63f 546a 44bd fa9b d03f
000004e0: fb5d 49c4 311b ebbf ebbd b320 9098 0740
000004f0: 4b67 a420 7475 fcbf 222a 9dbf 035b f2bf
00000500: 073e adf2 0b21 fa3f 0799 44bf 7a04 d4bf
00000510: 2a9f d272 f5cc f1bf c632 0ed3 7c49 a7bf
00000520: 5909 fd05 85db e6bf 89ff 96a3 6ab0 e33f
00000530: c473 75a6 fc9b f83f 9b26 8aff 41e7 e3bf
00000540: 68e4 1720 4824 0040 0c49 12d8 bc1a 833f
00000550: de11 00f6 6f4b e03f 7b91 6b07 ecb9 fb3f
00000560: c408 5262 6596 b6bf fbb5 e2f7 5b38 f5bf
00000570: 8586 9323 6472 acbf 7dcf 9f78 78fe bcbf
00000580: a95b 88e4 cbb3 c7bf 35a9 2c14 e814 d23f
00000590: b09a 72b7 a093 e5bf d511 c8aa f95e d3bf
000005a0: 270d f03b 8947 0140 95e1 8ef8 d336 ed3f
000005b0: 7f57 1d1f 92a8 f1bf 2ee1 d878 b475 fabf
000005c0: f602 6059 38dc c3bf fe86 408a 6265 793f
000005d0: 2846 1b53 bc9a eebf e5f1 7071 ee8d f0bf
000005e0: 81b0 66b3 7e93 04c0 749a 3b63 0bb7 02c0
000005f0: cf74 0398 3ea3 dbbf 4fa7 a111 f4ae f9bf
00000600: 10aa a59f 0591 febf 4e70 00e1 6527 fc3f
00000610: 29c1 4b00 b500 94bf 26d1 9b3c 5d3e 0140
00000620: 94b1 5ed6 aa46 f4bf 4ed6 ef7c 53c9 ef3f
00000630: f7cf b78b 0016 e53f 017b 880f 6a2f f2bf
00000640: e1a6 2e76 b804 ed3f 66a6 0144 6b74 9bbf
00000650: 9a1a 90a8 caff d4bf d791 f0af 6a5f d1bf
00000660: 5d53 ea46 2a41 ecbf c94f 93e2 6fa5 a5bf
00000670: 101e 7dc5 6d90 f23f c818 66ad eb6c c5bf
00000680: cfa7 3719 94d4 ddbf 3cbc 2dc9 6cb2 e43f
00000690: 2a37 615b 22fd eabf 5c85 0039 567f e63f
000006a0: aa3a 853f 07e2 e43f fcb0 1002 2738 e7bf
000006b0: 76d2 d06f b8a3 e7bf b4db c59f 0b2c efbf
000006c0: 10e8 6d41 b36f dd3f 20a0 15b8 030b ec3f
000006d0: 5271 4e6f c599 f2bf 51cc c79d 0489 e93f
000006e0: 6b1e 20c4 2429 f13f a205 84f5 71f1 fbbf
000006f0: e716 27fc 3fc3 fc3f 2be4 348d ad25 dfbf
00000700: 4794 61f7 caec c53f 8782 39a6 e955 e03f
00000710: f5ca 2ede 7b2d f2bf 5c3d d5c5 2342 7cbf
00000720: e588 0d7a 6d35 d83f f432 4f29 6a67 febf
00000730: 6961 6df1 ba16 f73f f960 1dcc e821 f8bf
00000740: 9824 79d9 910b e4bf 0395 8bb6 bfcc ca3f
00000750: 8e9e 96a5 0e09 f4bf 5010 f4be 997d e33f
00000760: 9972 4826 e448 8b3f 75ee a3bf 4ecd e8bf
00000770: 222c 6a23 c732 d9bf c853 25a4 80bc f2bf
00000780: c015 802f f3e6 e83f 83b8 824a 3b09 c3bf
00000790: 1a93 195d 1c6b e83f e167 8727 7405 8ebf
000007a0: b02a 5cb1 5a2d f9bf 900a 18f5 3e17 e0bf
000007b0: 0d5d c0c8 648f e03f 3170 f0f0 92a3 e9bf
000007c0: 3d8c a29d 229a ee3f d3e2 7c41 0fed b0bf
000007d0: 1af5 3451 d31c c73f 8b23 7b19 376a eabf
000007e0: 5041 01c0 f74f e13f 5966 4672 858b bbbf
000007f0: 5191 5890 8a30 f23f e66a 2626 91cb fcbf
