MACE_models/mace02_com1_swa_compiled.model (torch, 542151 bytes, 51 tensors)

r_max f8 []
00000000: 0000 0000 0000 1040
4.0

weight f8 [48]
00000000: bfda a30c 107f ee3f 207c 26ca f5a8 b93f
00000010: 2dd8 52ee d3be e63f f1d8 cb26 309a d73f
00000020: 5037 b1d8 b831 db3f 6976 226c f853 d53f
00000030: 734a ecf9 7c9b e03f cfb1 3d1e 50eb f1bf
00000040: e11f 6533 5eae debf 9606 7f91 edff a2bf
00000050: 1613 e608 b149 eebf e0d0 5f28 3509 d43f
00000060: 3ebe 620a 9cf6 f23f 8ac3 8d9d c9c2 f33f
00000070: b819 44b4 6e94 f33f d399 e724 f9fe e33f
00000080: c907 914c b973 f9bf c5a4 df12 65eb e9bf
00000090: 023d 9c44 efaa f63f ad05 7b56 a01c e6bf
000000a0: 510b ff22 87c1 f0bf a628 5445 c07b d13f
000000b0: ede8 aae3 a471 f5bf 3e72 2b1c 8e59 ac3f
000000c0: 4fd9 50df bc1a ddbf 06c9 5123 3345 de3f
000000d0: 3e1d 312b 2b01 e1bf d321 e93a 5da9 973f
000000e0: b4cb f7aa f3e7 c9bf 2cfb f85c 915d f63f
000000f0: 10bc e38c a0c5 eabf 5a3c 4363 a9cd f43f
00000100: 047d 7883 92eb e23f f83d 83e4 4af1 b8bf
00000110: 30fc a716 78df d23f 6d5f 922b 949e f4bf
00000120: 6c61 98bf c345 b93f 1982 ace7 d9e3 f83f
00000130: 40b8 912b 9b57 d6bf 7f38 843a bbaf fbbf
00000140: 44e1 e7cf a116 e2bf ed37 1c58 d7df dbbf
00000150: 4c0f e0fd a4a6 debf 2e16 1720 74b0 debf
00000160: 493b 6231 8f20 d53f 761e 9e77 baa1 e9bf
00000170: 84e7 535e d8c4 fb3f 3908 4d28 ad6b f13f
0.9530105826259713 0.10023437676726177 0.710794415927699 0.36878589428614733 0.4249097934851891 0.33325014648457923 0.5189804917630013 -1.1199494534767955
-0.47939257639927574 -0.03710882569386091 -0.9464955495646759 0.31306199019242165 1.185207405633164 1.2350555567211097 1.2237383882180506 0.6248746605677361
-1.590752886856068 -0.8099847191453128 1.416732090004928 -0.6909944237778994 -1.0472480170289666 0.273178165153363 -1.3402451413408543 0.055370751322446385
-0.4547569447344317 0.4729736180226073 -0.5313926547613972 0.023107010574934094 -0.20239110801739246 1.3978437072507388 -0.8366244079351208 1.3002103688666211
0.5912563865457803 -0.0974318321125266 0.2948894711734651 -1.288715524866315 0.09872077396028595 1.5556277322540437 -0.3490970540505067 -1.7304031644630695
-0.5652627049121652 -0.43553718189730156 -0.47892117302420867 -0.4795198739414869 0.3301122648489821 -0.8009922348291656 1.735557907550601 1.088788182664315

output_mask f8 [16]
00000000: 0000 0000 0000 f03f 0000 0000 0000 f03f
00000010: 0000 0000 0000 f03f 0000 0000 0000 f03f
00000020: 0000 0000 0000 f03f 0000 0000 0000 f03f
00000030: 0000 0000 0000 f03f 0000 0000 0000 f03f
00000040: 0000 0000 0000 f03f 0000 0000 0000 f03f
00000050: 0000 0000 0000 f03f 0000 0000 0000 f03f
00000060: 0000 0000 0000 f03f 0000 0000 0000 f03f
00000070: 0000 0000 0000 f03f 0000 0000 0000 f03f
1.0 1.0 1.0 1.0 1.0 1.0 1.0 1.0
1.0 1.0 1.0 1.0 1.0 1.0 1.0 1.0

bessel_weights f8 [8]
00000000: 182d 4454 fb21 e93f 182d 4454 fb21 f93f
00000010: d221 337f 7cd9 0240 182d 4454 fb21 0940
00000020: 5e38 5529 7a6a 0f40 d221 337f 7cd9 1240
00000030: 75a7 bbe9 bbfd 1540 182d 4454 fb21 1940
0.7853981633974483 1.5707963267948966 2.356194490192345 3.141592653589793 3.9269908169872414 4.71238898038469 5.497787143782138 6.283185307179586

r_max f8 []
00000000: 0000 0000 0000 1040
4.0

prefactor f8 []
00000000: cd3b 7f66 9ea0 e63f
0.7071067811865476

p f8 []
00000000: 0000 0000 0000 1440
5.0

r_max f8 []
00000000: 0000 0000 0000 1040
4.0

atomic_energies f8 [3]
00000000: 7a18 469c 176a 25c0 bb72 1c16 796c 48c0
00000010: 87ab 5a17 8ea4 59c0
-10.707211383396714 -48.847445262804705 -102.57117256025786

weight f8 [256]
00000000: b715 1c80 59cc 0040 4860 96ae a448 cbbf
00000010: 0783 7a61 837f da3f 3757 57a2 bdea d2bf
00000020: 1d58 f07f 3b54 c93f 90e0 7726 f345 e53f
00000030: e077 3e49 2c83 eb3f facd 0acc 104a d83f
00000040: 2a6f 5b4d ccec ed3f a2a3 bc16 191f e53f
00000050: a36e fda8 907e d1bf a2f6 4e4b 9ea8 e83f
00000060: 636e d2b4 a403 c5bf 5753 c9c0 ba92 9f3f
00000070: c164 25aa 19e7 04c0 804a 9821 ef30 01c0
00000080: 2c9f 21cb 7120 d0bf d124 63c1 f4d1 e6bf
00000090: 1d55 7b12 7cea da3f a7fd bf41 8f8b c13f
000000a0: 4857 559f 5d37 cebf 881c 5933 5aca f3bf
000000b0: 6b4f 37e9 e356 c8bf 6dd5 0a17 efa4 c7bf
000000c0: d8a5 08b2 3296 c3bf b640 c29a 1812 d1bf
000000d0: cf36 de5f 8d61 893f b264 fa6d a657 d23f
000000e0: dd7d 13e5 dc77 fd3f e343 e8bf 243a c7bf
000000f0: afe3 f968 8b06 b03f 690d f190 6757 b0bf
00000100: e9e2 9533 f24f ea3f 7b1f 09e3 f109 f0bf
00000110: fc25 0923 2800 c3bf a9ae caf3 2a64 fabf
00000120: 2834 b438 0cee ee3f 53ee c669 588a cbbf
00000130: 4dc8 898b 1731 ee3f c355 669c 52ad efbf
00000140: d925 6015 c718 f83f 72ce a997 d750 b23f
00000150: 97a6 6de9 fd1b f4bf 3509 c3c2 9c5f d2bf
00000160: b948 fedb aba9 eebf 331d 328e d4f2 fcbf
00000170: 89c2 4c60 f403 03c0 ade8 a5f1 8a71 d7bf
00000180: 6fe8 b010 392f edbf 34f8 f6e3 60e6 f83f
00000190: e21f 9e32 e40a e2bf 3429 466b 5478 f43f
000001a0: 787f f413 f864 fb3f 74cc a595 aecf c03f
000001b0: 1828 b8e3 af25 db3f 35a4 70d9 1d00 ccbf
000001c0: e300 e220 bd2f e43f 7682 dff5 7951 f5bf
000001d0: 4ee8 882a 3ae6 e7bf 0574 43b0 6293 e83f
000001e0: 9620 b297 8701 efbf be3c 0900 08ef e83f
000001f0: da3b ca0a 823e 01c0 9861 821e 0d47 d4bf
00000200: d4f1 136e 6fd4 e63f 1e91 17e4 5084 b03f
00000210: 857f b277 1781 f73f 2477 5d42 035a f03f
00000220: d4b5 6d93 1497 fb3f 170f b9ac 584c e5bf
00000230: b022 40c7 eb56 f2bf 6da4 a230 793b dc3f
00000240: 3a06 5357 8ad8 eb3f 8255 21f3 be17 d03f
00000250: b5c3 67e4 36a8 9f3f af86 dd43 de78 a0bf
00000260: 006b c7a6 60d2 f83f 2ef7 db3a fc8e c03f
00000270: f38b 75b8 c3d8 db3f 2fba e955 173e e8bf
00000280: 52d1 58e7 e4f4 acbf be32 f68a 4985 f13f
00000290: 2158 6fc1 3d68 e83f 0741 be51 4e81 e03f
000002a0: bbc2 06e0 d3b1 e23f 9297 0e6a 4fa1 f13f
000002b0: 3c99 cc0e ca93 dcbf 3e55 f477 9b94 e1bf
000002c0: 536f b3b1 23ab f83f 81bc 8d25 ec88 ecbf
000002d0: 9895 3269 e04a e2bf 5b2b 4e50 5bd5 00c0
000002e0: 54a8 9462 122b e33f 7d82 ffc5 cd63 d7bf
000002f0: cee3 b881 ce3f e7bf 106e 8a70 ec56 f23f
00000300: 1423 1a90 ec3c ed3f 654f aae1 336f d6bf
00000310: 8e6b 4234 ee4e e8bf f790 2180 0ea9 f13f
00000320: 9813 dba8 e2a1 dbbf e6b7 dea0 8787 f1bf
00000330: f233 94e0 501e fd3f 6547 a695 baf4 e13f
00000340: 4f2e 86b6 9a55 f6bf 56c1 3447 d91f dfbf
00000350: 9092 7e62 2a9f c13f 4960 e837 ed90 ef3f
00000360: cf96 94e3 296e e5bf 0a9e a76a 5f81 f93f
00000370: 5144 a7e8 7138 e23f 9926 d0ec 6234 f6bf
00000380: 47c1 282f 55d3 f1bf edab d872 ebd1 e5bf
00000390: 5750 27c1 568b e8bf 2a62 3caa 261b fd3f
000003a0: 2947 4494 94ac e83f 70f2 349d 4919 fdbf
000003b0: b2d9 7879 e5ca e3bf 1738 c52e a418 f6bf
000003c0: b5d6 af5a 1837 c53f a638 cca0 1d59 00c0
000003d0: 1c9e 3992 400c f23f 1da0 ce20 f0a2 f63f
000003e0: 627b ff64 58ee b13f d483 8187 da85 e83f
000003f0: b0c5 e5d9 b67b dd3f a525 fac5 c5ff e63f
00000400: 29a0 5561 1822 efbf 5823 5323 b39d c8bf
00000410: 78f4 c5fd a223 e53f bebc 42c1 42b9 f1bf
00000420: 1545 6934 7d60 ebbf c547 d949 3a7b e2bf
00000430: 094e ac23 2c6a f33f 8e9d 15a6 9b34 ee3f
00000440: 7e71 2996 0c41 df3f 14b4 aab5 6435 eebf
00000450: 13a7 9cc4 6739 0440 0067 35b1 062f 00c0
00000460: e63d 70c0 677c e0bf 2ed1 3303 075d f23f
00000470: 6dc9 673c 00d4 e43f 53f0 c21f 0004 c4bf
00000480: c50f 19fd 2320 d4bf c205 9346 8026 cbbf
00000490: 24f2 2a9d e9c8 903f 64f3 146c e83b e93f
000004a0: 23ec a68f f633 e3bf 63d6 cb6e f7c7 eb3f
000004b0: 176d 35d2 ff94 d73f 09cb aa1d bc15 e1bf
000004c0: c0d5 3a50 74fb d33f 0975 8455 70a4 fdbf
000004d0: 6336 6a1c 18bb b53f 5aa4 3314 4b7b b3bf
000004e0: 3ea1 e443 f6a9 04c0 8b08 7f27 9863 da3f
000004f0: 9449 6b03 4c67 f03f 68c4 674b ad71 f13f
00000500: e8c9 b346 e2dd d83f f9a1 4d72 90d1 f93f
00000510: 3eb0 cd01 b6b6 e6bf b55e b7a7 2372 ce3f
00000520: 2e56 b489 0468 d5bf fbe1 7aec 1ed8 eabf
00000530: a3f3 4a24 6c15 fdbf 5bce 4b68 83da 8fbf
00000540: 6891 2b7c a775 8f3f 5aac 2f50 6487 d83f
00000550: 0f2a 6d5b 2672 e4bf 7571 4ad4 acdf e2bf
00000560: 4292 64f7 8c82 d2bf e846 601f b1c1 b3bf
00000570: e5c1 7e1e 33cb e3bf 044b 0b29 561e d4bf
00000580: d6b0 789a 70bf fe3f 5fa8 121c 272d 00c0
00000590: 2d11 6755 1b43 ec3f e9b7 8ac8 a8e1 eebf
000005a0: a820 8350 a411 f0bf acc0 7486 7a84 a13f
000005b0: 27eb 222a 682b 0140 230a a5d3 2406 e8bf
000005c0: da60 5124 a146 eebf 7b17 ea37 c1da 0140
000005d0: 5c3a f3b4 e329 eebf 4b9d 4c44 0ae4 71bf
000005e0: 72e9 1d18 93b8 e13f f62d b19e 9f62 0440
000005f0: 04cc 9b3c a102 f9bf c5b7 c818 967c f6bf
00000600: 8776 adc2 b5d6 d63f ccbe 1b09 bd68 bc3f
00000610: fad1 8fa0 5340 e0bf 2f68 cb8e 54e2 f03f
00000620: 475c 2a68 4678 f8bf 2ec0 b042 974c b0bf
00000630: 7e38 8192 b338 c73f 0846 4fbd 1d38 dcbf
00000640: f7ee eba8 bdb9 eb3f e3e5 cfe3 dfe6 c83f
00000650: 319c 4404 e6d7 d8bf dc22 9aaa 6e1b a8bf
00000660: dc1f 1fe5 ce35 dcbf 82b2 36e5 d266 08c0
00000670: 46d6 5733 b976 e43f e218 a9d7 e185 b4bf
00000680: f6c2 1fef acdd f9bf 9b1a 5137 ceaf e7bf
00000690: ea63 3426 2136 f43f 4e26 0981 982c ee3f
000006a0: 3b0b 802d 02be e9bf e9e5 2b88 52e8 b3bf
000006b0: 7d41 0646 30c4 f63f 19f8 33c5 b259 cf3f
000006c0: a0b5 db5d 07cc e5bf 8ebe f020 5206 f23f
000006d0: 1e47 da22 a9b9 eabf 0f7e 3aac 3fa8 e73f
000006e0: e994 404a ff81 eabf 0adc 9fbd fdcf d33f
000006f0: edea e2d3 3f12 e0bf 093a 5322 9f52 cfbf
00000700: faab cb0d 71aa cb3f 3605 287b f639 0840
00000710: 3011 8f94 f4e7 f13f 8f4d 5c43 af19 f3bf
00000720: ad87 c5de e720 f63f 6057 446d d82b e63f
00000730: b907 6005 00c8 d9bf c84a 1475 6c69 df3f
00000740: 6072 ec0f 6738 dfbf 766d e8cc f11e cc3f
00000750: 3e48 2063 af78 c6bf 3725 030a 512a f7bf
00000760: e8e9 29f1 7b1f c13f d3b2 22a9 ae8a e43f
00000770: 4bcb 7428 3346 f0bf ceef 2e1e 8e38 f33f
00000780: 11f4 4f87 b4ce ecbf a4d5 8e88 695f ddbf
00000790: f2eb f6d2 e686 c13f 5fc9 3ee6 3eaf f8bf
000007a0: deb2 2234 28dc b3bf c5e0 80d5 6398 ed3f
000007b0: 28eb 8589 9009 e53f 5814 c155 1e56 d9bf
000007c0: 3bd1 4aa7 8e96 e03f 8870 55b1 66e4 cdbf
000007d0: d5d7 8597 39bf f0bf 35bb f509 d7c1 f4bf
000007e0: 104b 5907 29de c2bf e42e 75d5 23ef d4bf
000007f0: 13c3 cded 05b5 f6bf f877 16a7 8aa3 e2bf
2.0997800835200127 -0.21315439724708285 0.41403278846159747 -0.29557743886595084 0.19788306948675052 0.6647887946446804 0.8597623282000733 0.37952060628887774
0.9351560126192215 0.6600461429671791 -0.27334991934706404 0.7705832930439167 -0.16417368725966516 0.03083316613841033 -2.612841920152818 -2.148893606624654
-0.2519802554802364 -0.7131294037909816 0.42056180767879586 0.13707152090499372 -0.23606462745618217 -1.236902428225024 -0.19015168082716669 -0.18472088456261862
-0.15302118008666699 -0.2667294989887624 0.01239309738937369 0.28659973850296716 1.8417633960997286 -0.1814619004294676 0.0625998622216588 -0.06383368767369792
0.8222590453652546 -1.0024279469089084 -0.1484422846863679 -1.6494550250162467 0.9665585620401815 -0.21515946545501893 0.9434926724773135 -0.9899075560267011
1.5060492358191964 0.07154605343549195 -1.2568339460653186 -0.287085714528206 -0.9582118317360006 -1.809284739925556 -2.3769309543061508 -0.3663050994724795
-0.9120145154950147 1.5562447457191526 -0.5638295162798352 1.2793773832696163 1.7121506480688975 0.13133795077337462 0.4241752361127751 -0.2187535583227899
0.6308274881594368 -1.3323917011659012 -0.7468539076574048 0.7679913942953368 -0.9689367258843216 0.7791786194519756 -2.1555214732138497 -0.3168366239492797
0.7134320402106433 0.06451898163465272 1.4690165210413124 1.0219757645022094 1.7243848570754965 -0.6655696271413686 -1.1462209494804192 0.44112996816199407
0.8701831536820415 0.25144933455643337 0.030915124598269467 -0.03217215135988504 1.551361705284478 0.12936356424318646 0.43510525716391085 -0.7575794866550661
-0.05655589412745833 1.0950408390228143 0.7627247598673003 0.5157844158693771 0.5842074752345846 1.1018823759891103 -0.44652034230456983 -0.5493905394420506
1.541782087463578 -0.8917141660184741 -0.5716402105942278 -2.1041780732970614 0.5990077901271982 -0.36546654067755197 -0.7265388997685649 1.146221580135606
0.9136870207304093 -0.35053727185844813 -0.7596350689594702 1.1037735943910414 -0.4317557000143153 -1.0955883296951412 1.8199013493169756 0.5611241267053911
-1.3958994989251499 -0.4863188929912402 0.13766984757707634 0.9864412395427361 -0.6696977086000632 1.5940851370049836 0.5693902534495782 -1.3877896547805106
-1.1140949098736017 -0.681874965962718 -0.767009141209665 1.819128670677069 0.7710669418176838 -1.818673719491155 -0.6185176250935938 -1.38101595182116
0.1657438700491888 -2.0435135423968687 1.1279912673870802 1.414779785302023 0.07004311052103909 0.7663395544624287 0.46067591933305163 0.7187222353688197
-0.9729120160163848 -0.1923126146778269 0.6606001812466635 -1.1077296780820656 -0.8555284522682621 -0.5775424425466943 1.2134210008124475 0.9439218753658893
0.48834528602835536 -0.9440177486591232 2.5280299530321684 -2.0229619831487753 -0.5151861914218301 1.147711765775124 0.6508790187638575 -0.15637208510259146
-0.3144617053660535 -0.21211245962153497 0.01639142057205069 0.788562975976316 -0.6000931554511947 0.8681599773396552 0.3684691956347747 -0.5339031772076349
0.3122225554937721 -1.8526461926006184 0.08488608068201979 -0.07610005610662665 -2.5829892448565763 0.41232875687649856 1.0252189763601551 1.0902531571885223
0.38854271797677464 1.613663145539361 -0.7098035845970185 0.23785825433036725 -0.33447373817157 -0.8388819330930909 -1.8177300851523135 -0.015553499813427843
0.015361126400826833 0.3832636626309004 -0.6389343057319951 -0.5898040911011281 -0.2892181793161265 -0.0771742536165011 -0.6185546489342043 -0.3143515969106121
1.9217382463494252 -2.022047252005947 0.883191744615521 -0.9650463024934172 -1.0043070931442717 0.03421385661420237 2.1461947719484615 -0.7507499822316429
-0.9461217603048013 2.2318138473810314 -0.9426134618932553 -0.004367866615928871 0.5537810774833771 2.5481560132809546 -1.5631420485995031 -1.4054165809752572
0.35685485850795157 0.11097318146107255 -0.5078523765537846 1.0552564218437614 -1.5293640202487653 -0.06366868379768739 0.18141789105942857 -0.4409250591971561
0.8664234446764273 0.1945457327235963 -0.38817739884183583 -0.04708429176850412 -0.4407841908946446 -3.050206938487748 0.6394926073832685 -0.08016788020276835
-1.6166200009139948 -0.7402106361776818 1.2632152073258518 0.9429438133458434 -0.8044443977999899 -0.0777637083482642 1.4228975997285425 0.24492487553646994
-0.6811558564347031 1.1265431677565263 -0.8351636582103514 0.7392881740415208 -0.8283688020934764 0.30956977384579487 -0.5022277010351367 -0.24470891166716083
0.2161389653550428 3.028302156599831 1.1191297343330682 -1.193770659568006 1.3830336286559757 0.6928522237892416 -0.4028320362559686 0.4908095496513565
-0.48781754069367445 0.21969435220021766 -0.1755580171598598 -1.447831191168303 0.13377331996510056 0.6419289878300226 -1.0171386318513267 1.201307409194658
-0.9002325671023091 -0.4589485009740548 0.1369293718433649 -1.5427845949130512 -0.07757807991829277 0.9248522920597898 0.6574175535200526 -0.3958812558597109
0.5183785693575723 -0.23353274973749572 -1.0466857832775436 -1.2973242177065007 -0.147404793346674 -0.3270959457920368 -1.419195107384614 -0.5824635756905527

output_mask f8 [16]
00000000: 0000 0000 0000 f03f 0000 0000 0000 f03f
00000010: 0000 0000 0000 f03f 0000 0000 0000 f03f
00000020: 0000 0000 0000 f03f 0000 0000 0000 f03f
00000030: 0000 0000 0000 f03f 0000 0000 0000 f03f
00000040: 0000 0000 0000 f03f 0000 0000 0000 f03f
00000050: 0000 0000 0000 f03f 0000 0000 0000 f03f
00000060: 0000 0000 0000 f03f 0000 0000 0000 f03f
00000070: 0000 0000 0000 f03f 0000 0000 0000 f03f
1.0 1.0 1.0 1.0 1.0 1.0 1.0 1.0
1.0 1.0 1.0 1.0 1.0 1.0 1.0 1.0

output_mask f8 [144]
00000000: 0000 0000 0000 f03f 0000 0000 0000 f03f
00000010: 0000 0000 0000 f03f 0000 0000 0000 f03f
00000020: 0000 0000 0000 f03f 0000 0000 0000 f03f
00000030: 0000 0000 0000 f03f 0000 0000 0000 f03f
00000040: 0000 0000 0000 f03f 0000 0000 0000 f03f
00000050: 0000 0000 0000 f03f 0000 0000 0000 f03f
00000060: 0000 0000 0000 f03f 0000 0000 0000 f03f
00000070: 0000 0000 0000 f03f 0000 0000 0000 f03f
00000080: 0000 0000 0000 f03f 0000 0000 0000 f03f
00000090: 0000 0000 0000 f03f 0000 0000 0000 f03f
000000a0: 0000 0000 0000 f03f 0000 0000 0000 f03f
000000b0: 0000 0000 0000 f03f 0000 0000 0000 f03f
000000c0: 0000 0000 0000 f03f 0000 0000 0000 f03f
000000d0: 0000 0000 0000 f03f 0000 0000 0000 f03f
000000e0: 0000 0000 0000 f03f 0000 0000 0000 f03f
000000f0: 0000 0000 0000 f03f 0000 0000 0000 f03f
00000100: 0000 0000 0000 f03f 0000 0000 0000 f03f
00000110: 0000 0000 0000 f03f 0000 0000 0000 f03f
00000120: 0000 0000 0000 f03f 0000 0000 0000 f03f
00000130: 0000 0000 0000 f03f 0000 0000 0000 f03f
00000140: 0000 0000 0000 f03f 0000 0000 0000 f03f
00000150: 0000 0000 0000 f03f 0000 0000 0000 f03f
00000160: 0000 0000 0000 f03f 0000 0000 0000 f03f
00000170: 0000 0000 0000 f03f 0000 0000 0000 f03f
00000180: 0000 0000 0000 f03f 0000 0000 0000 f03f
00000190: 0000 0000 0000 f03f 0000 0000 0000 f03f
000001a0: 0000 0000 0000 f03f 0000 0000 0000 f03f
000001b0: 0000 0000 0000 f03f 0000 0000 0000 f03f
000001c0: 0000 0000 0000 f03f 0000 0000 0000 f03f
000001d0: 0000 0000 0000 f03f 0000 0000 0000 f03f
000001e0: 0000 0000 0000 f03f 0000 0000 0000 f03f
000001f0: 0000 0000 0000 f03f 0000 0000 0000 f03f
00000200: 0000 0000 0000 f03f 0000 0000 0000 f03f
00000210: 0000 0000 0000 f03f 0000 0000 0000 f03f
00000220: 0000 0000 0000 f03f 0000 0000 0000 f03f
00000230: 0000 0000 0000 f03f 0000 0000 0000 f03f
00000240: 0000 0000 0000 f03f 0000 0000 0000 f03f
00000250: 0000 0000 0000 f03f 0000 0000 0000 f03f
00000260: 0000 0000 0000 f03f 0000 0000 0000 f03f
00000270: 0000 0000 0000 f03f 0000 0000 0000 f03f
00000280: 0000 0000 0000 f03f 0000 0000 0000 f03f
00000290: 0000 0000 0000 f03f 0000 0000 0000 f03f
000002a0: 0000 0000 0000 f03f 0000 0000 0000 f03f
000002b0: 0000 0000 0000 f03f 0000 0000 0000 f03f
000002c0: 0000 0000 0000 f03f 0000 0000 0000 f03f
000002d0: 0000 0000 0000 f03f 0000 0000 0000 f03f
000002e0: 0000 0000 0000 f03f 0000 0000 0000 f03f
000002f0: 0000 0000 0000 f03f 0000 0000 0000 f03f
00000300: 0000 0000 0000 f03f 0000 0000 0000 f03f
00000310: 0000 0000 0000 f03f 0000 0000 0000 f03f
00000320: 0000 0000 0000 f03f 0000 0000 0000 f03f
00000330: 0000 0000 0000 f03f 0000 0000 0000 f03f
00000340: 0000 0000 0000 f03f 0000 0000 0000 f03f
00000350: 0000 0000 0000 f03f 0000 0000 0000 f03f
00000360: 0000 0000 0000 f03f 0000 0000 0000 f03f
00000370: 0000 0000 0000 f03f 0000 0000 0000 f03f
00000380: 0000 0000 0000 f03f 0000 0000 0000 f03f
00000390: 0000 0000 0000 f03f 0000 0000 0000 f03f
000003a0: 0000 0000 0000 f03f 0000 0000 0000 f03f
000003b0: 0000 0000 0000 f03f 0000 0000 0000 f03f
000003c0: 0000 0000 0000 f03f 0000 0000 0000 f03f
000003d0: 0000 0000 0000 f03f 0000 0000 0000 f03f
000003e0: 0000 0000 0000 f03f 0000 0000 0000 f03f
000003f0: 0000 0000 0000 f03f 0000 0000 0000 f03f
00000400: 0000 0000 0000 f03f 0000 0000 0000 f03f
00000410: 0000 0000 0000 f03f 0000 0000 0000 f03f
00000420: 0000 0000 0000 f03f 0000 0000 0000 f03f
00000430: 0000 0000 0000 f03f 0000 0000 0000 f03f
00000440: 0000 0000 0000 f03f 0000 0000 0000 f03f
00000450: 0000 0000 0000 f03f 0000 0000 0000 f03f
00000460: 0000 0000 0000 f03f 0000 0000 0000 f03f
00000470: 0000 0000 0000 f03f 0000 0000 0000 f03f
1.0 1.0 1.0 1.0 1.0 1.0 1.0 1.0
1.0 1.0 1.0 1.0 1.0 1.0 1.0 1.0
1.0 1.0 1.0 1.0 1.0 1.0 1.0 1.0
1.0 1.0 1.0 1.0 1.0 1.0 1.0 1.0
1.0 1.0 1.0 1.0 1.0 1.0 1.0 1.0
1.0 1.0 1.0 1.0 1.0 1.0 1.0 1.0
1.0 1.0 1.0 1.0 1.0 1.0 1.0 1.0
1.0 1.0 1.0 1.0 1.0 1.0 1.0 1.0
1.0 1.0 1.0 1.0 1.0 1.0 1.0 1.0
1.0 1.0 1.0 1.0 1.0 1.0 1.0 1.0
1.0 1.0 1.0 1.0 1.0 1.0 1.0 1.0
1.0 1.0 1.0 1.0 1.0 1.0 1.0 1.0
1.0 1.0 1.0 1.0 1.0 1.0 1.0 1.0
1.0 1.0 1.0 1.0 1.0 1.0 1.0 1.0
1.0 1.0 1.0 1.0 1.0 1.0 1.0 1.0
1.0 1.0 1.0 1.0 1.0 1.0 1.0 1.0
1.0 1.0 1.0 1.0 1.0 1.0 1.0 1.0
1.0 1.0 1.0 1.0 1.0 1.0 1.0 1.0

weight f8 [8, 64]
00000000: 4f76 c386 360e e53f cdba ae99 ad65 783f
00000010: ec3b fbf3 8a2d f03f 0f0c 0b1c d397 febf
00000020: 56c1 a113 019e ea3f e23e 31d1 9d7b 0040
00000030: 0eb7 0b2c 09c6 cf3f 54a7 b48b 297f dd3f
00000040: fc8f bb2c 51f2 f8bf dde2 54ea b331 f13f
00000050: bbc6 b5d6 9103 cfbf 84bf 44ca 7923 e43f
00000060: e159 c409 56a6 f43f 9f28 aa93 9751 a43f
00000070: 2c19 bc08 52c9 f8bf 3041 ecd7 8176 f23f
00000080: 3ff3 aee2 e8a3 e0bf eaac ff13 01b9 febf
00000090: 7060 97ee ad82 f3bf 5c40 fc6a 9b05 e13f
000000a0: 5053 7067 2bdc c53f 6a18 0c12 6b9e e03f
000000b0: b25a 1d5e 3994 b53f ee51 3950 3716 ec3f
000000c0: a931 6d8a d21a dc3f 15a6 e3a3 b7b7 ce3f
000000d0: b206 a954 f1dc d83f 221d c19f b537 eabf
000000e0: e65d 38d1 8ff4 f83f e1b5 1bd4 bd58 a63f
000000f0: 377c a10c 0144 fd3f 95d7 d75f 9243 d7bf
00000100: 81b1 210b 1f4c eb3f bc12 e287 1fbc ed3f
00000110: 0262 eee0 b1e0 94bf 880a 1491 94bc da3f
00000120: 1060 a9de 49e1 f33f 0aec 5ed3 9fb4 ec3f
00000130: 7caf 255a 11b9 dabf 19a4 6c31 1758 d23f
00000140: 2ac5 d3f5 886c ebbf a88b a870 0469 f63f
00000150: 9971 92de e1ed dcbf 6f23 e1c6 af13 e4bf
00000160: 09f4 acad 98b7 ecbf 500e 34a3 3d8b f33f
00000170: 3fa9 603a 0307 ea3f 52e0 7d63 3c8a fdbf
00000180: 0905 a480 bd89 e13f c456 a377 7649 ec3f
00000190: 2bd0 3ac6 1f9c b2bf 20cd ac57 0b9b eebf
000001a0: d0de d3a5 9ac9 f3bf ff84 747b 2113 f33f
000001b0: 57e0 aa95 49a3 f2bf 97ae 78bb f6de c53f
000001c0: 4e0d eb20 2818 f23f 5a74 b0d9 2a01 febf
000001d0: 8e49 9294 b46f e03f d9c8 c369 d190 f43f
000001e0: 3ef6 5bb4 e1b6 db3f 5323 c277 59f1 fb3f
000001f0: 92a6 8745 ed50 f83f 1a0c 8f13 5726 04c0
00000200: 948c ece8 5e04 c8bf 98d7 ed65 43a5 e53f
00000210: b504 e434 01e4 bf3f 281f cbdb fe2f e4bf
00000220: 631d 3bc1 2aed f13f 69a1 ce37 88ac e33f
00000230: 02a4 6216 8288 ea3f 19d8 3944 ff1a d93f
00000240: a511 9aad 62ce ba3f 3c94 06f0 7cc0 f03f
00000250: c4c3 8ca8 d6e5 c93f 30d3 a3f5 d2fb e53f
00000260: ea35 ad8d 220b f13f c299 1058 60ee d83f
00000270: 0db6 4b0f f051 0040 cfb3 2339 e714 e7bf
00000280: e8ff 4f84 a455 fd3f 38ab bc6d 21a6 f13f
00000290: cd6a 8017 3f54 f6bf b6a0 1d57 7b87 ec3f
000002a0: 1f93 d2d8 a836 f1bf 561a 94d3 ea54 e4bf
000002b0: bb35 280c 7d96 dabf 3422 ba23 3dc1 e43f
000002c0: 735f c907 9ffe ef3f 9c0c c737 1851 debf
000002d0: dc9e c880 4041 0540 7ea9 61ad d652 f43f
000002e0: dcdc bfc7 3643 e03f fb0b d8d1 aa57 dbbf
000002f0: 2ba3 e480 40ce d23f 727f a156 0161 db3f
00000300: 2ff2 4e87 91e6 cf3f dd0d f6ce 348a dcbf
00000310: 7f40 a285 4116 e6bf 2ed8 bf87 276f fbbf
00000320: 656c 60cc 5d74 c13f 1f4c 7ae7 de4f 0040
00000330: ba65 a461 68b6 eabf 6d71 4558 ac0b cd3f
00000340: f79e cc82 e09c e7bf deec e1ad d32e c23f
00000350: fa8a 542e be5d f63f f232 279c 2dd6 a7bf
00000360: 61bc b4f2 7176 e6bf b810 3b4e 478c a5bf
00000370: ef90 03a3 fa3c aa3f b197 b47a 58c1 c03f
00000380: d5a3 411d f9e1 d4bf 12cb 4b30 55dc c63f
00000390: a5a0 d71d e6a7 cc3f 54e5 dd93 afcb e13f
000003a0: 2f3c 1134 02c4 e1bf 5eba 5c6a 1f46 6a3f
000003b0: 21bb 56a6 f708 db3f 2456 2cfd 3129 bb3f
000003c0: 9773 2ec3 cb4b d83f bbfd b2c5 dcc8 d9bf
000003d0: b4a9 480f 1ed6 ccbf e24d 6982 c4c6 c8bf
000003e0: 33ed bb76 5e9e d73f aa52 9469 2fb7 a8bf
000003f0: a7fe b8b7 4fa1 b73f 13e7 023c cfb7 c93f
00000400: 8fc4 e25b 19b7 f6bf c372 4997 4c86 fd3f
00000410: 09ad 6cbd 1cc8 e0bf 9678 1900 73e6 f1bf
00000420: d92b 4f08 e396 e53f 8d37 0066 09ca 6a3f
00000430: 1c90 85bf c1c7 f5bf ac75 2fe1 9cf9 ed3f
00000440: 12a0 a747 a3f7 f83f 039d 6521 2d8a 06c0
00000450: 9fb7 9a94 1afa f13f 22c1 f1ca eb2c e73f
00000460: 3c43 e23d 284e ef3f 0aa3 d398 e9cc f83f
00000470: 93e2 2d57 0480 d03f 4945 416a 154d e63f
00000480: ef0c 49c7 7511 e43f 5d9c 3001 534a eabf
00000490: af66 8c12 560f cc3f 005f b7ab 5bd0 eabf
000004a0: 7a78 d7b0 8ada d63f 3793 c63c b01f b1bf
000004b0: ef2e 074b 3b00 ce3f b798 cf09 cc13 db3f
000004c0: f317 e4aa 4930 d5bf 6b14 ecdc 76c6 b13f
000004d0: 0dfa 867f 12ab e4bf e937 3e95 c08d ab3f
000004e0: 0ec1 4536 2363 c63f 5708 93e5 8aa7 ec3f
000004f0: d8f8 2bdd 7e3a f3bf 2cec 8d75 e1be 96bf
00000500: 79a9 f789 3ef4 e03f 8ebc 242c 2732 ca3f
00000510: 78fb 720a b45b d33f 1777 4ee4 af47 e03f
00000520: d544 3960 71b2 babf 3632 983d 6aac 9dbf
00000530: db10 2d5e d06c cf3f b5ee 6e7a 4a2c d33f
00000540: 80f0 c20f db93 f3bf 157c 2b90 f15a de3f
00000550: e8d5 1c1b 9007 ebbf fb83 f68f 00db f33f
00000560: 5f9a d2b6 c9d6 c8bf cbff f7fe 3606 fd3f
00000570: 334d 0595 3eee d8bf efad ae6f ab61 f13f
00000580: da01 86d8 357e 0440 987a 3a3b e9d1 a23f
00000590: f286 af3b f15b b03f 7b60 336b 85b8 f33f
000005a0: 7b23 c935 d44e e8bf 29a8 2f8e 881c fa3f
000005b0: e705 4481 2cb4 ed3f 4815 8fc1 6a64 d7bf
000005c0: c3af 13db 6f4f f2bf c436 6556 d4ef c3bf
000005d0: daa4 bc62 3f5c eabf 7e8d 40f4 b7d6 f6bf
000005e0: 23dd d83a 9d78 c43f 1e24 789d 1f5d d0bf
000005f0: 74d4 8351 2496 f73f 5115 f49b f77d 0640
00000600: a764 8a38 d2eb f4bf d133 c417 27ca b73f
00000610: 2117 0602 1454 f7bf a034 e2fa 9de5 0640
00000620: 3312 ab53 98bb e9bf 1dc8 7f4e df9f e73f
00000630: 62fd 388a f07f fdbf 3d7e fd0e f734 e8bf
00000640: 7b4b 7fa1 9cfe f7bf 15fa 3836 d49c e3bf
00000650: febd c7c9 7297 ffbf 0f92 3d96 4248 e3bf
00000660: 05a2 c6a5 0837 00c0 ed1e e612 c939 ed3f
00000670: 6f60 756f d352 01c0 fbfe dad3 12a6 b33f
00000680: c9b8 b303 8d4e d23f bd1c 3e0a 2fa4 e93f
00000690: 2340 e8cf 61ed fabf 5a6f e1b7 019a f8bf
000006a0: 5cf8 b4c6 1ada d83f 2591 3e82 71b0 c73f
000006b0: 2a69 2867 2d51 d5bf 9b16 b5d8 a105 f53f
000006c0: 0c32 65f9 c5f9 d2bf 98c4 ab1f b2d0 d9bf
000006d0: 1806 1ecb 7135 f6bf 6585 6462 7aa1 e53f
000006e0: c194 f70c d3c3 febf a9ba b87a 43e4 eebf
000006f0: 3618 0fd7 9272 cabf 0264 70b6 e4fb d63f
00000700: b051 7d40 80ca f13f e99f f8b7 465b f5bf
00000710: 2e92 bc56 6892 f73f b7a4 e6ef 990a f3bf
00000720: 3578 8d27 5e56 ea3f 9fb6 f8a8 2c17 fa3f
00000730: aeb2 c5ed eb97 de3f 690c 3493 481f ff3f
00000740: 125b 5d9a f682 fdbf 7b24 d9ea 4e76 f33f
00000750: 3c27 8604 34a0 d13f 6e7d 2b2e 62b9 de3f
00000760: cdba 6625 f129 d6bf 8260 2795 67eb f0bf
00000770: 1f8a bcd8 354b b83f a74c 3964 b8f6 d43f
00000780: 159f af6a 3669 bdbf 0a46 fc3a d5ef e13f
00000790: 993d 1c52 e1f8 07c0 6461 c325 13e4 e6bf
000007a0: 6b18 3cb6 aa3d e83f d7d6 22b6 e199 cb3f
000007b0: 4a19 3633 7be3 f23f dd00 7fd5 854d 96bf
000007c0: a6be 4485 c764 bb3f d84f cd67 8620 fc3f
000007d0: 7a7f a124 6024 d73f c921 3ecc bbba c93f
000007e0: 4805 c6aa 3995 95bf 6e31 4a50 8b51 f2bf
000007f0: c0e5 e40c e16c b3bf 7cda 26a1 a482 e63f
0.6579849845981672 0.005956342817553928 1.0111188440821435 -1.9120665641246466 0.8317876227793402 2.060359606089933 0.24823107386276216 0.4608863701165451
-1.5591594455117948 1.0746344712808231 -0.2422964380635245 0.629330534988171 1.290609396126108 0.03968499829814331 -1.5491504994584586 1.153932422112188
-0.520008509388937 -1.9201670438003995 -1.2194041557286504 0.5319344605977778 0.17078154135438206 0.5193381645665458 0.08429297015878026 0.8777119223473713
0.43913711088387203 0.2399816084137433 0.3884852720985733 -0.8193004722788013 1.5597074673331632 0.04364579405033076 1.8291025632277191 -0.36349925384217247
0.8530421464361525 0.9292142538038983 -0.02038839278574934 0.4177600304393896 1.242502088329278 0.8970488670669294 -0.41754564097822544 0.28662662340735917
-0.856998901492408 1.4006390000074393 -0.45201918349791864 -0.6274031528820226 -0.8974116699315583 1.2214943289881326 0.8133560314356955 -1.8462489973444645
0.5480639946473796 0.8839676224403878 -0.07269476499169573 -0.9564263069536629 -1.2367197492257453 1.1921706030337302 -1.16486509765493 0.17086681512715948
1.1308976446024022 -1.8752850059020347 0.513635912111839 1.2853559619366506 0.43303721059041667 1.7464232137737852 1.5197575298319959 -2.5187207725553096
-0.1876333844494168 0.6764237395097892 0.12457282582546976 -0.6308588307228762 1.12040210228755 0.6148110475524337 0.8291635930264649 0.3922727743405417
0.10471169222188921 1.0469941497806436 0.20232661466573465 0.6869902417807676 1.065218499588236 0.389549337387873 2.040008658884068 -0.7213016620640874
1.833408848615358 1.1030592238045767 -1.3955679815323265 0.8915383054236574 -1.0758446187621258 -0.6353658802407363 -0.4154350870820413 0.6485887239260308
0.9998316909868507 -0.473699621649027 2.6568613110756427 1.2702242634501029 0.5082048322064128 -0.42722578518458904 0.29383862101763 0.4277957292560962
0.24922389132361064 -0.44593544207620345 -0.6902167902026263 -1.7146373083792343 0.136363720696724 2.0389993747899235 -0.8347665698121809 0.22691873846168722
-0.7379000239061203 0.14205404272420358 1.3978864488387317 -0.046555924712810795 -0.7019586315490295 -0.04208586530651942 0.05124648322979108 0.13090044013477845
-0.32629230362959777 0.1785990224667207 0.22387386757987318 0.556113995363527 -0.555176831907266 0.00320726524196084 0.4224223255541109 0.10609733992563314
0.3796262174671993 -0.4028846674591155 -0.22528434511452888 -0.19356590621701658 0.3690410766136722 -0.04827259219942921 0.09230516658225928 0.2009219210647691
-1.4197019185342332 1.8452878865856952 -0.5244277667710843 -1.1187620166670391 0.6746688043871202 0.0032701667369172184 -1.3612687569921098 0.9367203138496527
1.5604584502234542 -2.8174688920149733 1.1235605053766233 0.7242335284954928 0.9782906731289596 1.5500274629395698 0.25781353486630926 0.6969096255581145
0.627131356457907 -0.8215727828254661 0.21921802430806767 -0.8379343370279173 0.35708873052306667 -0.06688977702885955 0.23438206828574645 0.4230833144960217
-0.3310722512109116 0.06943457501991339 -0.6458828440443668 0.05381585904898129 0.1749004378321008 0.895451973330874 -1.2017811431429006 -0.022212527084303144
0.5298149771381723 0.2046555486244625 0.3024721242945172 0.508750863944189 -0.10428532218181215 -0.02897802353804676 0.24550823782386186 0.2995783038747775
-1.2235975852663898 0.4743007572087106 -0.8446732072395067 1.240967333178786 -0.19405480791938864 1.814017291995685 -0.3895412879257549 1.0863451349822488
2.5616261402030718 0.03675774429324469 0.06390292842072734 1.232549113037776 -0.7596226740362079 1.6319661668917524 0.9282438778611181 -0.36550396826017506
-1.1443937833491737 -0.15575651377223754 -0.8237606934027568 -1.4274215260601006 0.15993085263628712 -0.2556838071619171 1.4741557296922823 2.8115074333060552
-1.3075735291115878 0.0929283555053211 -1.458026893525535 2.8621177292139492 -0.8041497835298003 0.7382656605898351 -1.843735256130309 -0.7564654629495134
-1.4996610935674812 -0.6128941592249385 -1.9744747049370512 -0.6025708135971984 -2.026871962665839 0.9133038872832607 -2.165442343492081 0.07675283119442249
0.2860443626549452 0.8012919616748132 -1.6829546090484733 -1.5375992949329516 0.388312048005792 0.18507212504949525 -0.3330796725655484 1.3138750519878275
-0.29649495463380116 -0.40336278050296803 -1.3880479749935883 0.6759616777164125 -1.922808695462024 -0.9653642079263892 -0.20662150860715806 0.35912435356436856
1.111938716804712 -1.3347842394232379 1.4732440364979413 -1.190088212121095 0.8230429432403584 1.6306578255129478 0.47802255840251007 1.9451375723008602
-1.8444734601850468 1.2163838552244488 0.2754030269794503 0.48006491192605594 -0.3463099351164772 -1.0574718309708548 0.09489761868875533 0.32755861079676624
-0.11488666634215534 0.5605264808711479 -2.996523515211902 -0.7153411614954561 0.7575276908180631 0.21563359635700038 1.1805374145929641 -0.021780100971000905
0.10700652125955887 1.7579406790509804 0.3615951879237326 0.201011156776316 -0.021077061699093208 -1.1449082504578558 -0.07588011326597321 0.7034476420875104

weight f8 [64, 64]
00000000: ca8e bd1a e475 aabf 15a1 ae8d da8b 9dbf
00000010: bc6d 5e94 fab1 c6bf fc88 f882 2cc4 d5bf
00000020: 6d69 78c8 a681 f03f 5061 585c cbf7 dabf
00000030: ecef ca1e b80d d03f 7630 6761 7a6e 0040
00000040: f94d 8ddd 1a38 d5bf d29c 3a31 7fbb e33f
00000050: 8004 1b40 cc11 fc3f 0e51 e134 e348 e4bf
00000060: 939e 7551 697a f1bf a486 4e32 9e58 e13f
00000070: 8934 a4a4 4a96 babf 7054 fae3 74c4 fd3f
00000080: 5bcc d31f ded3 e1bf 74c4 0872 0eb2 c7bf
00000090: c43e aa55 085d c23f e253 af97 6cad d8bf
000000a0: f836 1768 40b1 e63f 1b41 74d0 531b da3f
000000b0: 44e3 c93d 1bff 0140 e7a7 1398 48f4 ee3f
000000c0: 77a7 ae9c 2cfa f33f 158f 74ce 6091 f4bf
000000d0: bf53 ff5e 456c df3f 2b87 98dc 9e5a f03f
000000e0: 5b8c cd09 6d0b f5bf bdce 66c8 262d cebf
000000f0: 1824 8a91 33b1 dd3f 7c9c de22 2ed2 e03f
00000100: 0599 e5cb 483b febf ce88 d09f 2ec4 febf
00000110: 8b64 2d74 0448 e93f 9d04 97cf 23a4 f6bf
00000120: 267a 4d68 78e3 c03f edcf 9da7 a639 dd3f
00000130: 1b48 96de ae66 f13f f256 f9e0 d309 e63f
00000140: 267d b5c3 f646 e73f 1e4f c6d2 7263 e8bf
00000150: ec02 8737 3bab f93f 2f17 b319 d7c3 e03f
00000160: 5300 56d6 c7a3 fd3f b79f 2ba1 dd01 f3bf
00000170: f58c bcd2 732e e1bf ce68 4aa7 0841 c7bf
00000180: 68fe c6c5 a29f d33f 6449 c474 4118 d53f
00000190: 5a76 0481 cb48 01c0 3bd5 2100 0730 d8bf
000001a0: c5b9 f2cd e6ef e2bf 20f5 a9b4 d998 f0bf
000001b0: da11 b72c e108 c7bf f768 1e83 4a2f c23f
000001c0: 5117 4c9f 9ed5 d8bf 6fa5 7ab8 cae1 f6bf
000001d0: 8270 e066 48fc e43f eb26 7d6f 957d eebf
000001e0: bb4b 946d ff30 c3bf 4a19 73c5 e991 f73f
000001f0: 9579 fffb 3513 ed3f 5cd5 a237 c36b f13f
00000200: 756b 9c28 1624 f53f ae33 d658 ee7c bfbf
00000210: 3bf0 878c bce2 e63f 0268 fd77 5148 e2bf
00000220: 5d80 76ab 86bd f23f cb03 5347 d128 ef3f
00000230: 30cb 87bc fe08 f6bf 2ce5 1add 33f3 f73f
00000240: c28f 448a 8251 eebf 901f 767f 9f54 cfbf
00000250: 3a5a fbed 9ecf c23f cee3 4150 8578 b7bf
00000260: ec4a 8ef5 cf97 d43f 465d 4720 2f2a e43f
00000270: 720a 1786 2dca e93f 088e f5b7 1b8d e83f
00000280: 6bd7 ee97 88cc e9bf bd95 175b c102 ddbf
00000290: 2a75 5eaa 4ade fd3f 6a33 cb50 0f76 f03f
000002a0: f979 57a3 e0e6 ff3f 5d13 cd6a 7fc2 d9bf
000002b0: 4f52 670f bf5c d7bf 2122 333b dcac c93f
000002c0: 58f2 7f0c 2f7f d83f a574 d774 691a c73f
000002d0: 0899 3301 fbcb 863f c701 6c0c 97be e1bf
000002e0: ca52 6895 3769 ed3f 5e4e 7e4e 13c6 eabf
000002f0: 7027 8e45 cae2 c7bf f120 9624 f37e ed3f
00000300: 1f56 08ae 7da2 d13f e5a9 bca4 bf7f e2bf
00000310: 8fb8 1d05 55ae 0040 4359 fab1 7529 cb3f
00000320: 362d 85f3 e842 edbf 5ac8 b91e 60e8 ec3f
00000330: 9e8b 2c5c be04 bcbf 0e29 c85c 3a21 b33f
00000340: e4b9 6d9c 3c1a ea3f be0d a84b dbb1 f33f
00000350: a590 8d93 7b77 e3bf 5a28 2342 7069 d53f
00000360: 0f32 a8db 549d f1bf 3d2f e508 52c3 f0bf
00000370: 317a a027 04ed f43f ca1e 9c54 3b58 eebf
00000380: 1993 54ca 0904 e4bf 46c5 b93f eb60 e6bf
00000390: 0a11 4a55 3411 f2bf 861d 9e74 f414 d9bf
000003a0: 9243 702a 0015 eebf 7b7b 69b0 bf14 e33f
000003b0: 255e d898 d360 c2bf e2b5 d147 42bd d43f
000003c0: 5928 d16b 68d0 f13f 6a5d 25c2 6b04 eabf
000003d0: bc1a 1872 61ec ef3f 456a 569f 6470 f73f
000003e0: d50b 42f5 4a1c f53f 3804 3efa d88e be3f
000003f0: 0a48 7bca 16a0 f53f dd6d 4306 c25f f23f
00000400: 47f6 87d8 b335 e13f 63dd 7724 c290 f1bf
00000410: 861f 422b aef5 b2bf 1725 46b0 ebe8 aabf
00000420: c00a 04d7 65ca e03f 69ab aecb c259 ca3f
00000430: 1784 49a4 825e f4bf 123d 1b37 9d8c c9bf
00000440: 021e d74c 75e8 f1bf db86 5b1b 3790 f33f
00000450: 10f4 b17a 4f47 edbf 26bb aabb d5c6 e93f
00000460: d808 a07f faee b2bf 77c2 678b b14c 93bf
00000470: c0b8 e3cb d902 f8bf cb5b aee8 c1b7 ff3f
00000480: 909c ac69 c9ad debf 0680 d443 1e92 d2bf
00000490: 49da 78a2 e4fa eabf afd6 6ab5 e172 e7bf
000004a0: 973a bc81 79e7 903f 12ac de52 0b79 debf
000004b0: eb67 c248 346c e23f c80f 1f71 fda3 97bf
000004c0: 0d6d bf86 519f 683f 478f 8ea2 180a e7bf
000004d0: bd1f d170 ddde f63f 4631 ab1e b84f cf3f
000004e0: 578d 7b98 9921 ebbf 003c cbda 5d2d 0740
000004f0: f978 f207 faa8 fcbf a036 fc5c af07 f3bf
00000500: e340 cc48 2dac fa3f b6bd e5b7 458b d2bf
00000510: d899 071f f9a6 f1bf 5ec3 382b 5107 9fbf
00000520: 5829 ee61 66c4 e7bf 2cd1 8336 b888 e53f
00000530: cf24 7758 77d3 f83f d7cd 1e50 a521 e2bf
00000540: d85a de09 5ad9 ff3f 6caa eedd 713a 8b3f
00000550: 17d9 3a2e 7388 de3f 47b9 8268 cef3 fb3f
00000560: f2f2 5345 baee b6bf 3da3 42bf 9c4d f5bf
00000570: 46eb 6384 a761 9cbf 3c36 d96d 1e7a bbbf
00000580: 4cbf 4f8b a6c0 c5bf 893c 72de b600 d13f
00000590: 43b0 e810 0695 e6bf 0e31 1906 6c86 d4bf
000005a0: ea26 1f11 a0a8 0140 828b 208a 5a00 ed3f
000005b0: f353 afda 6799 f1bf a075 d7f2 d090 f9bf
000005c0: 15de d5e4 daf8 b6bf 0a4c 5f7e b0cb 9d3f
000005d0: 64aa 1c5c 1295 ecbf 50b8 8eff aaf4 f0bf
000005e0: ecec d982 c2a5 04c0 173f 5585 fc83 02c0
000005f0: 847c ccca acd5 ddbf 251c c640 d488 f9bf
00000600: a8dd dc29 3867 febf 8715 ca27 212b fc3f
00000610: 6756 c570 088d a0bf c62b 889d 9e7b 0140
00000620: 9fd6 a0f8 f135 f5bf 6c16 5252 aaf9 ef3f
00000630: 8ee7 da8d 8e36 e53f e0d4 839d cfb7 f2bf
00000640: 04fe 62f7 7904 ed3f 6eb1 25e5 e81e a8bf
00000650: a031 6bdf 7a83 d5bf 8146 499b b9d1 d1bf
00000660: ff65 5940 6b28 ecbf 528b d043 bf3f b1bf
00000670: 163a f78d 329c f23f 99df 04af 3844 c5bf
00000680: d8b9 31e9 7261 ddbf 8406 edeb 77d4 e43f
00000690: eb98 b31c db6b ecbf 1b2d 91c2 974c e63f
000006a0: 51e8 da59 3acd e33f d1af 50bd c8ce e6bf
000006b0: db16 87f0 06c6 e8bf 9cb3 7287 4890 efbf
000006c0: abd7 3a3a 4414 dd3f fb91 1338 89f5 eb3f
000006d0: 7a71 adeb fed6 f2bf 8cba 1800 4dd3 e93f
000006e0: 0044 83a7 1444 f13f c273 8d87 3e89 fbbf
000006f0: 209d 7658 8ded fc3f 0a3f 23b9 f58c debf
00000700: 7e32 aefd d3d5 c43f ea51 b726 275a df3f
00000710: c1b1 e381 f84a f2bf 3d7d 6387 8c6a 83bf
00000720: 5ec9 1f22 12ef d83f 889f 807b 6beb febf
00000730: 8901 86ad 42f0 f63f 51ed 91ff 9bfe f8bf
00000740: 65e6 4662 a2af e3bf 1522 3174 145f cd3f
00000750: 7daa ee57 d1da f3bf 8483 12cd f3a1 e23f
00000760: d53c 1326 c947 993f 0e02 a14d e983 e8bf
00000770: 35ac 700b 837a dabf 0fa5 dc52 f1c8 f2bf
00000780: 876e 4cee c72d e83f 2c7e 1ab0 0652 c2bf
00000790: 6cad b0cb 3108 e93f d8fc 098b 4b35 9fbf
000007a0: 4e03 6686 05da f9bf 8493 4a61 4cd4 e0bf
000007b0: cdfc 08d1 8e8f e03f 69fa 63c0 07cd eabf
000007c0: ebe2 0bcf d3b4 ed3f 669d fee3 7115 b0bf
000007d0: ca9c 655d 9d26 c33f f40f 97bf 76df e9bf
000007e0: 05ce 5efe 410c e23f f610 14cd 86bd bcbf
000007f0: 6569 37c6 8318 f23f 0ba0 995a 9fdf fcbf
-0.051680687202659906 -0.02885381212004841 -0.17730648274014793 -0.3400985030185806 1.0316531973718057 -0.4213741685685095 0.25083735472776314 2.053944359742725
-0.3315493739694087 0.6166377984526668 1.7543451789972835 -0.633897403031854 -1.0923855955133248 0.542067621474605 -0.10385576743665771 1.8604630380043794
-0.5571127530696559 -0.18512135093763826 0.143464128330825 -0.3855849725053401 0.7091371567746299 0.4079179320988417 2.2495636775242094 0.9673197717904686
1.248577701606761 -1.285492712465332 0.4909833362301547 1.0221241585754324 -1.3152895338942219 -0.23575291428789127 0.4639405175481115 0.5256567650839226
-1.8894737210007986 -1.922896026874287 0.7900411862457458 -1.4150732144337674 0.13194184391882507 0.4566437374953683 1.087569112282387 0.6886996644995789
0.7274125883522273 -0.7621397129719047 1.604304520515309 0.5239062787956977 1.8524855015275719 -1.187955503055475 -0.536920463175561 -0.18167217415322628
0.3066183978480468 0.32960544970514705 -2.1605444030272283 -0.3779313565531372 -0.5917848608422039 -1.0373169953521213 -0.17995848353724747 0.1420682087162459
-0.38803830677385515 -1.4301249700750664 0.655796242648208 -0.9528300454632846 -0.1499327931456643 1.4731233322978192 0.908595077689642 1.088809220627204
1.3213101946227799 -0.12300004643311865 0.7151777977701451 -0.5713279098083606 1.171271009232462 0.9737326043178823 -1.3771960606070017 1.4968756329456694
-0.947449941686948 -0.24476999019338708 0.14696108455855655 -0.0916827507916331 0.3217658899313125 0.6301494245953243 0.805929910559213 0.7672251313164802
-0.8062174766007336 -0.4532931699344223 1.8667704253233048 1.0288231998449313 1.9938665752921436 -0.40249619893829963 -0.3650357866693285 0.20058777704822808
0.3827626821583059 0.1804935284152737 0.011131249403160584 -0.5545153849234844 0.919093887149381 -0.8366791279863255 -0.1866085853219448 0.9217467989519986
0.27554265971534336 -0.57809431243123 2.085123100251685 0.2122027510674319 -0.9144177204374617 0.9033661460982885 -0.10944738149969033 0.07472576871092348
0.8157027297254982 1.2309220271425683 -0.608335292996817 0.334560455882302 -1.1009110050537207 -1.0476856563063415 1.3078652904438395 -0.948270478490451
-0.6254929496541052 -0.6993309254304811 -1.1292002994169388 -0.39190398586693964 -0.940063555610424 0.5962828107402481 -0.14357991183418153 0.3240514470442958
1.113380833778612 -0.8130396644509521 0.9976050594712755 1.4649397110103035 1.3194074230566362 0.11936718091421106 1.3515842351375817 1.148378395525348
0.5378054837344245 -1.0978413986720958 -0.07406128460035974 -0.05255829359800595 0.524706764176095 0.20586428590226127 -1.27307380842854 -0.19960370245687692
-1.1192524911474497 1.2227088040021303 -0.9149548908604874 0.805521837746572 -0.07395902267311116 -0.018847250112175886 -1.5006959881243773 1.9823626603226667
-0.479357102582477 -0.2901683485415564 -0.8431265996249034 -0.7327736419017209 0.016508005660450378 -0.4761379536891478 0.5757085248071666 -0.023086509732607202
0.0030056564628303585 -0.7199824500025692 1.4294104010495936 0.24462033746238826 -0.8478515604187277 2.8971516698143205 -1.7912540731845736 -1.1893762237772663
1.6670353740374189 -0.28975050886853226 -1.1032649242493928 -0.030301349890751943 -0.7427246010495692 0.6729394020790429 1.5516274886779688 -0.5666071476793445
1.9905643830767783 0.013295068345390258 0.4770782424415229 1.7470230181166515 -0.08958019440246881 -1.3314483138185118 -0.027716271834815197 -0.10733213598106145
-0.16994172861404377 0.2656685993505979 -0.7056913690808034 -0.320704465823625 2.207336553347763 0.9062931726260646 -1.099952558744232 -1.5978555189134127
-0.08973472677995915 0.029097326005125303 -0.893197231203271 -1.059733389159664 -2.5809374068027093 -2.314446489013686 -0.4661666851479327 -1.5959055452565363
-1.900200046087642 1.7605296663544736 -0.032325996175740106 2.1853611285382355 -1.3256702148477542 0.9992267234635626 0.6629097719771708 -1.1698757317474744
0.9067964393397578 -0.047110822650980974 -0.3361499006103035 -0.27842559971495723 -0.8799339539356764 -0.06737895398741259 1.1631341500793773 -0.16614445253230484
-0.4590728070533294 0.6509360893180234 -0.8881660042359533 0.6968497085703435 0.6188022379858557 -0.7127422044336474 -0.7741732309156889 -0.9863627095670497
0.45436196981915583 0.8737226577036944 -1.177489204993519 0.8070435525786066 1.0791212600199742 -1.7210068984052076 1.807996125755217 -0.4773535068497813
0.16277551542988883 0.489877498444257 -1.1433034013563061 -0.00948056972668942 0.3895917256587803 -1.9324755501092756 1.4336573389301484 -1.5621604903415867
-0.6151897353622188 0.229464108213748 -1.2409223017554318 0.5822695737189041 0.024687903355524583 -0.7661024585905254 -0.41372753255081146 -1.1740582691948622
0.7555884985226421 -0.1431282386665641 0.7822503069232147 -0.030476742135303464 -1.6157279252949652 -0.5259153270932164 0.5175241549221937 -0.837528110277913
0.9283236545444117 -0.06282722297929907 0.14961592731854118 -0.8085283033365145 0.5639963119669466 -0.1122669459037445 1.1309850447492746 -1.8045953311029759
