MACE_models/mace02_com3.model (torch, 458151 bytes, 51 tensors)

r_max f8 []
000000 00 00 00 00 00 00 10 40
       4.0

weight f8 [48]
000000 7e 5d 16 4d 4e d3 e1 3f b7 44 aa b6 e4 a2 f2 3f
       0.5570441728222446 1.1647688994747065
000010 f2 87 54 e6 ac 94 f7 bf 95 f0 5d 2b 3e 46 c8 bf
       -1.473797702529279 -0.18964364163901296
000020 c8 22 2a 0c a1 f7 f2 bf 69 40 9f 19 d4 33 f4 3f
       -1.1854563212565825 1.2626534462797514
000030 b6 de 15 20 f5 23 f3 3f 88 79 dd 4f bb 3b be bf
       1.196278691610059 -0.11809893321831144
000040 e6 51 d2 a3 10 bd 9b 3f 3e 8d a4 81 58 50 f8 bf
       0.027088413237452168 -1.519615656296835
000050 d7 aa 1e de 1f ec d5 bf 29 df 11 02 d2 a9 b2 bf
       -0.34253689471613086 -0.07290375280888085
000060 97 6a 33 69 d8 0e dc 3f e8 83 75 f8 de 53 cc 3f
       0.4384060885765079 0.22130953914441354
000070 52 b5 da 88 7f 7a ba 3f 88 c7 56 6d e4 13 e1 bf
       0.10343167391939304 -0.533678258469295
000080 3f 04 7a 1d 7e fe d7 3f dc 2e 01 67 88 4c f3 3f
       0.3749079978807152 1.2061847709291476
000090 d8 33 38 b9 29 4c dc bf 85 4c 01 1f 0a 07 f5 3f
       -0.442148619535883 1.3142186366210649
0000a0 a6 f5 10 90 c2 42 c7 3f 84 22 06 9a 7c ec ec bf
       0.1817248538444975 -0.9038680084496069
0000b0 2f 51 c3 47 b4 3e fd bf 98 0f 69 4f 41 0a f0 3f
       -1.8278086474648025 1.0025036909073375
0000c0 38 e0 2e bf 5d b1 dd bf 38 6e 58 a7 ae 7b f2 3f
       -0.46395057363725156 1.1551958596163683
0000d0 3e a3 ca e4 a1 6f f2 3f 40 b4 e0 fa 11 4e ec bf
       1.1522540032548956 -0.8845300579029143
0000e0 0d c2 1e a1 1f 7c e9 bf 0c b7 b6 45 2e 4a f4 bf
       -0.7964018008115673 -1.2681105349724389
0000f0 0f d7 d6 55 b8 b4 ff bf d2 91 01 57 6e da f9 3f
       -1.9816211083502286 1.6158278845479015
000100 91 b7 f7 fb 84 d8 01 c0 1b c3 c6 68 2f 79 df bf
       -2.2307223973247763 -0.49177155716010795
000110 9b ac c9 dc 36 32 e4 bf f9 01 62 fa a4 38 ff 3f
       -0.631129676080849 1.951329210336665
000120 2f 0a 63 0e c5 6d fd bf a5 cb d1 ec 0f 52 e6 bf
       -1.8392992555606147 -0.6975173592930913
000130 04 6e 2a 1a 47 6e f7 bf e5 4b 76 97 75 17 e5 3f
       -1.4644232771014467 0.6591136892551474
000140 5d ac 4e 75 ff 0a e5 bf f8 e5 c5 ac 2c 40 f6 3f
       -0.6575925151022478 1.3906676052996527
000150 26 a0 7c 4c 19 1d d5 bf 25 df 3a 69 67 43 e1 3f
       -0.32990105122962843 0.5394780211708833
000160 85 2f 81 51 36 47 e4 3f d0 8f f3 18 d1 c0 ff bf
       0.6336928932082492 -1.9845744108833863
000170 06 dc be 42 60 20 c9 3f 99 e2 39 22 31 93 f5 bf
       0.19630053767261318 -1.3484355294187138

output_mask f8 [16]
000000 00 00 00 00 00 00 f0 3f 00 00 00 00 00 00 f0 3f
       1.0 1.0
000010 00 00 00 00 00 00 f0 3f 00 00 00 00 00 00 f0 3f
       1.0 1.0
000020 00 00 00 00 00 00 f0 3f 00 00 00 00 00 00 f0 3f
       1.0 1.0
000030 00 00 00 00 00 00 f0 3f 00 00 00 00 00 00 f0 3f
       1.0 1.0
000040 00 00 00 00 00 00 f0 3f 00 00 00 00 00 00 f0 3f
       1.0 1.0
000050 00 00 00 00 00 00 f0 3f 00 00 00 00 00 00 f0 3f
       1.0 1.0
000060 00 00 00 00 00 00 f0 3f 00 00 00 00 00 00 f0 3f
       1.0 1.0
000070 00 00 00 00 00 00 f0 3f 00 00 00 00 00 00 f0 3f
       1.0 1.0

bessel_weights f8 [8]
000000 18 2d 44 54 fb 21 e9 3f 18 2d 44 54 fb 21 f9 3f
       0.7853981633974483 1.5707963267948966
000010 d2 21 33 7f 7c d9 02 40 18 2d 44 54 fb 21 09 40
       2.356194490192345 3.141592653589793
000020 5e 38 55 29 7a 6a 0f 40 d2 21 33 7f 7c d9 12 40
       3.9269908169872414 4.71238898038469
000030 75 a7 bb e9 bb fd 15 40 18 2d 44 54 fb 21 19 40
       5.497787143782138 6.283185307179586

r_max f8 []
000000 00 00 00 00 00 00 10 40
       4.0

prefactor f8 []
000000 cd 3b 7f 66 9e a0 e6 3f
       0.7071067811865476

p f8 []
000000 00 00 00 00 00 00 14 40
       5.0

r_max f8 []
000000 00 00 00 00 00 00 10 40
       4.0

atomic_energies f8 [3]
000000 7a 18 46 9c 17 6a 25 c0 bb 72 1c 16 79 6c 48 c0
       -10.707211383396714 -48.847445262804705
000010 87 ab 5a 17 8e a4 59 c0
       -102.57117256025786

weight f8 [256]
000000 b1 ec 04 01 b8 74 f3 bf 8f e3 44 1f ed 42 de bf
       -1.215995792371171 -0.47283485463736324
000010 8c 79 32 b1 95 40 f6 bf a4 26 75 2b fe b3 f7 bf
       -1.3907677575840323 -1.4814435670436206
000020 11 00 e7 48 13 40 e6 3f 54 96 e3 df a6 f6 d3 3f
       0.6953216956972047 0.3119294344345225
000030 db 9b 58 5c 7e 27 f0 3f 69 e3 ca 26 fb d1 f7 bf
       1.0096419913550025 -1.488764907391863
000040 bd e8 32 29 4a 2d df 3f 0e 5d 9a 72 47 89 02 40
       0.4871392633755354 2.3170308068616867
000050 f7 29 20 88 eb 86 e2 3f 71 01 c7 82 12 38 d6 bf
       0.5789697321609414 -0.3471723820803368
000060 78 2f 79 24 ce 8c f9 bf 31 92 09 e5 33 d2 f0 bf
       -1.5968762802831105 -1.0513190218708923
000070 dc 99 e6 fe 73 06 a9 3f e1 1d 7f 41 40 c3 e7 3f
       0.04887735830861903 0.7425843505124555
000080 a5 12 3d c6 28 e4 fd 3f e8 2c 59 68 78 b9 f2 bf
       1.868202947968862 -1.1702808452708329
000090 89 af 94 4d 0d 75 c6 bf 1c 3f 11 39 3b 0e f0 3f
       -0.17544714248776597 1.003474448127185
0000a0 b2 c3 b5 2a 06 53 f5 bf c9 15 cc 4d ef 7d e0 bf
       -1.3327695530281116 -0.5153728980519016
0000b0 38 84 2a 62 3e 9d d8 bf 9b b4 dc 23 fb 72 e8 3f
       -0.38459739290744066 0.764035768550133
0000c0 85 cf ad 03 f6 c8 b3 bf 93 84 e9 60 f5 c5 f0 3f
       -0.07728517141168652 1.0483297143585204
0000d0 68 c6 a6 44 1e bc e4 bf f6 e8 7f 15 14 64 c1 bf
       -0.6479636517380643 -0.135866652009845
0000e0 18 f5 62 ba d8 7d f6 3f 11 fa eb 78 89 96 ea bf
       1.405724266121359 -0.8308760988000491
0000f0 ef 9d c8 4b 86 55 d1 bf 82 a3 96 44 d6 02 e2 3f
       -0.27084500694988284 0.5628463115327664
000100 f8 5c 55 88 a7 7d a3 bf 71 06 9f 9a cb a8 d5 bf
       -0.038068042175547434 -0.3384274492237643
000110 d4 98 d2 3c 43 a6 fe bf f1 3c 73 56 fa 47 fb 3f
       -1.9155914665112066 1.7050727250060016
000120 26 2a 16 d1 c7 4f db 3f 6f 10 64 f3 1e 3b e7 bf
       0.4267444173680438 -0.7259669069030802
000130 10 7b e5 a5 6c 55 e1 bf 79 50 4f db 55 28 ed bf
       -0.5416777839817275 -0.9111737521548228
000140 21 0f 51 51 93 d2 d6 3f 17 c2 99 38 c3 1e e5 3f
       0.35660250607564775 0.6600051980477158
000150 71 90 ce 3e a9 b7 f7 3f e3 f6 79 71 42 df cb 3f
       1.4823391393083762 0.21775084057656277
000160 53 ba 65 7d 2c 51 df 3f e0 c0 5a 0d 1b f0 d3 bf
       0.489329454859136 -0.3115298872389882
000170 e0 3d 16 a7 8c 42 e7 bf 59 5d 7e 6b 67 fd e3 bf
       -0.726873709050718 -0.6246831035122496
000180 e1 0b c0 fe 46 88 04 40 a3 e0 0c ae fc 05 e7 3f
       2.5665416624410544 0.7194808387203192
000190 4f 33 4e bf ca de a5 3f cf ec e5 c3 d5 98 09 40
       0.04271539292594772 3.1996264748137047
0001a0 32 84 00 3b 42 e8 d3 bf c8 7a 0b 6a 80 3a bb 3f
       -0.3110509468261312 0.10636141385064513
0001b0 5f 68 b1 3f 9f e0 c1 bf fc a4 bd 81 c1 f7 c0 3f
       -0.1396674214364024 0.13256090960502565
0001c0 7b 0b 43 ab 8c 7b e4 bf fd 74 82 b6 7b 80 b1 bf
       -0.6400817246397844 -0.06836674886513446
0001d0 6e 57 df b8 75 92 8c bf d1 0f f5 e1 b5 4a ea 3f
       -0.01395122499881626 0.8216199315288525
0001e0 7c 5e 06 b7 d7 83 e9 bf e0 0e 70 a7 7e 35 f9 3f
       -0.7973440718369171 1.575560239843007
0001f0 80 e5 f8 21 04 c8 c4 bf b2 cc 1f ae 73 94 02 40
       -0.16235400828172075 2.322486267419287
000200 61 c2 c4 25 bf e9 f3 3f b2 d9 6e 61 6b 79 ff bf
       1.2445670581183992 -1.9671434217430996
000210 57 aa 9b 5c 09 01 aa 3f e1 a1 c1 94 8f 88 d3 3f
       0.05078915839643077 0.3052100136469829
000220 30 0a 5a 11 13 87 f0 3f 56 46 cd b4 a3 d5 09 40
       1.0329771688271983 3.2293161511559374
000230 9c 9a 0c 98 dd 07 db 3f 07 a8 7b 0a 04 49 db bf
       0.42235507820661566 -0.42633152984365136
000240 95 67 c5 76 14 14 bf bf ce c8 40 30 42 bd f7 bf
       -0.12140014552769991 -1.4837057003865541
000250 44 1e 83 13 9a 04 ee bf ae 45 e4 06 98 ed ef bf
       -0.9380617505166318 -0.9977531561473165
000260 46 b5 0d 2b ca bd d7 3f ca ff ca 5d 8b 11 d6 bf
       0.370958845180969 -0.34482082519025126
000270 ec c2 92 de b4 e9 f3 bf 51 c2 44 c8 f2 d1 df 3f
       -1.244557256152059 0.49718923146705146
000280 84 8a e3 81 91 a2 fb 3f 6e 00 68 90 96 92 bd bf
       1.7271895478994859 -0.11551800752204297
000290 e0 4f 47 43 c5 a9 ab bf b5 1e ec 4c 23 fc fb bf
       -0.05402962156554714 -1.7490571026591344
0002a0 4c c1 df b4 f7 5a ef 3f 2a 93 52 5b 4b 0a 04 40
       0.9798544438072354 2.50502654405354
0002b0 d7 ad 80 41 0b ed f8 bf 5d 5c 9b f9 4b 21 c4 3f
       -1.5578720625588767 0.1572661370071015
0002c0 35 60 bd ac cc 9e d1 3f ae 2e 73 b2 49 36 bb 3f
       0.27531735295406473 0.1062971172970559
0002d0 d5 21 27 b6 48 29 b9 bf ed 91 76 87 88 65 c7 bf
       -0.09828619429675396 -0.1827860509339553
0002e0 66 23 80 90 ec f2 c5 3f 36 02 5f f2 27 d5 de 3f
       0.17147595458689152 0.4817600123315374
0002f0 08 d0 10 71 a9 ee e8 3f 49 e5 ff 5d 13 fe bc bf
       0.7791335304559661 -0.11325188679611133
000300 c0 72 11 05 ad 4c c9 bf 14 32 2a 36 59 d2 ff bf
       -0.1976524615046369 -1.9888546100438633
000310 c0 0f 41 1a 2a 91 df 3f 22 5e a4 2c bf 01 bf 3f
       0.49323513568765165 0.12112040367025448
000320 da 8d 49 6d da e8 db bf ad 7c 11 87 a5 55 fe 3f
       -0.43608723328199306 1.8959098125558669
000330 c4 29 07 25 fd c2 e8 3f ed 7b 01 9c 90 aa f5 3f
       0.7738023493960147 1.3541418165184453
000340 75 e1 d4 34 e7 8f e9 3f cc 47 4f b6 36 d5 d6 3f
       0.7988163024775036 0.3567635326736507
000350 61 b1 88 7a 40 de e8 3f 25 a6 c0 ed 40 49 f4 bf
       0.7771303551904049 -1.2678841864784627
000360 f1 ee 73 5b f0 55 c3 3f 2b b8 1f 58 bd a9 fd 3f
       0.1510601469561759 1.8539403383579252
000370 20 ef 7e 36 64 09 c1 bf 71 1c db f0 0e e0 eb 3f
       -0.13309910450868134 0.8711008743492937
000380 ee 7d dc b1 e4 20 dc bf c0 da e8 bb cc 64 b4 3f
       -0.43950765008227577 0.07966308200489447
000390 36 84 cf 54 ca 9f c6 3f bb 21 15 ed 89 e1 f2 3f
       0.1767514146913826 1.180063177207656
0003a0 63 0d 37 0f 4e c7 d4 bf 35 3f f4 fe a6 0a c9 3f
       -0.3246646069130376 0.19563758324556493
0003b0 0f b9 ca 0f 61 44 ee bf 33 36 40 23 47 66 00 40
       -0.9458470638690261 2.0499403718920575
0003c0 4f 3b 3b c1 5d 03 eb bf 73 45 ae 4e 1a c0 b8 bf
       -0.8441609167146938 -0.09668125554005318
0003d0 a7 03 73 0d f2 fb fb 3f 2d e7 8a 53 d2 f7 cf 3f
       1.749010136162022 0.24975041465023065
0003e0 b1 f0 bd 2c a1 46 b9 bf 29 69 a3 d7 c7 55 00 c0
       -0.09873397199948176 -2.0418850752586377
0003f0 83 8d 94 7b b0 80 e7 bf c8 d9 a5 af a6 07 fe 3f
       -0.7344591535260608 1.8768679486507711
000400 b0 7f 08 d5 8d c4 e8 bf 80 1a 6c f2 ba f5 eb bf
       -0.7739934120945602 -0.8737463698206085
000410 e0 9c a7 16 29 b8 da 3f 23 7a 02 12 2b 7b fc 3f
       0.4174902650106116 1.7800703719618773
000420 a7 ef 2e b9 4e e5 e1 3f 6b d7 c3 c8 87 4a d6 3f
       0.5592416397916978 0.3482989750476608
000430 36 33 bb eb 6b cc e7 3f d6 ad ab 21 4a 88 c8 3f
       0.7437038044095974 0.1916592277915316
000440 f6 8c cc 48 c2 48 de 3f 03 3b 9d a5 0c d8 b8 bf
       0.4731908522537219 -0.09704665225329383
000450 65 80 c1 6d 09 ec 00 40 6a 47 06 bd 82 f1 d8 bf
       2.1152523588826164 -0.38974064311434253
000460 15 1a 2b b0 06 6c ff 3f 63 12 82 25 df ba 7e bf
       1.963873565824206 -0.00750243345840271
000470 62 f0 d5 72 77 8c c9 bf 48 80 8a e7 b2 6c f7 bf
       -0.19959920031749606 -1.4640378040858355
000480 92 90 b6 54 63 ac e2 bf 18 a5 01 d7 44 20 e9 bf
       -0.5835434584191879 -0.7851890754074331
000490 54 93 1d f1 56 1c e7 bf 05 9d 4d 83 e8 0e d2 bf
       -0.7222094258582765 -0.2821599275834646
0004a0 bd 6d f5 cc be 78 fb 3f 4e 0b e8 ef 09 02 e6 bf
       1.7169788366507952 -0.687748879019958
0004b0 f1 16 9b ff 7a d6 d0 bf e9 c7 e5 9b 16 cf 8f 3f
       -0.26309084855561965 0.015531708366982104
0004c0 8f 09 69 35 7f 72 c5 3f 47 e2 d0 f7 ca 37 d8 bf
       0.16755666835713298 -0.37840532494331963
0004d0 f4 20 7f eb 9e 68 c9 3f 6f 22 4f ed 24 81 e0 bf
       0.19850527285439734 -0.515764678472875
0004e0 09 e5 25 43 10 c5 f7 3f 71 97 1c 2b e5 bb ee bf
       1.4856112120599525 -0.960436424448501
0004f0 2c b3 70 63 10 23 f2 3f f0 b4 f7 f2 85 43 f2 3f
       1.1335605511078013 1.1414851656839424
000500 7c 0c d0 b5 ef de e9 3f fa db f1 14 ff 17 d0 bf
       0.8084639121083366 -0.25146462483775134
000510 22 08 cb 41 30 ce f2 3f 20 4f 9f 97 e6 8f e5 3f
       1.175338990215558 0.6738160096524304
000520 d9 56 c6 66 93 42 e1 3f c8 5c b4 a8 31 d1 02 c0
       0.539376927120169 -2.3521454982797856
000530 f4 86 b8 18 a3 f2 cd bf fc 89 75 9b 6f 8d f0 3f
       -0.23396719653197062 1.034530265104535
000540 9a 27 dc c6 49 c4 ed bf ca cd 19 25 82 4b 0e 40
       -0.9302109607681246 3.786869325494739
000550 65 8b 1d c5 6c ba be bf 77 1d c1 9f 39 f5 f5 3f
       -0.12003211796176812 1.3723694076923871
000560 ba fe 70 da fb 16 f8 bf 39 0b 23 60 74 d5 da bf
       -1.505611279760997 -0.4192782343708817
000570 08 27 0f a5 d9 25 f3 3f fd 5e 7d 0c 85 97 ff 3f
       1.1967407653450568 1.9744921195869545
000580 72 58 72 02 8d c5 fb bf 8a af 12 f8 ae e0 eb 3f
       -1.7357301803181397 0.8711771817374807
000590 8d 60 ac 32 a0 0b 04 40 58 85 ac 4f f4 7e e0 bf
       2.5056766470771152 -0.5154973560458229
0005a0 22 dc 9a 4d b1 e5 d4 3f 4b 10 7b 42 cf 97 e4 bf
       0.32651932314496623 -0.6435314463092338
0005b0 73 2b 47 78 83 59 e2 3f 6d b7 85 fc 09 9d d7 bf
       0.5734269475154704 -0.36895990047820854
0005c0 f9 99 fb 22 ed 61 f4 bf cc e3 d2 0f e5 08 d5 3f
       -1.2739077917591415 0.3286678938416656
0005d0 f6 f6 36 89 57 22 eb bf 0b dd ca 0d 62 d4 f3 bf
       -0.8479421310400699 -1.2393513239638334
0005e0 2f cd c0 a9 fb de df bf a8 8b cb d7 6f 4a c9 3f
       -0.49798480584577737 0.19758413349981407
0005f0 e5 8f 95 e1 b7 a3 e2 3f 38 c5 a0 9c e1 65 ec bf
       0.5824851423208172 -0.8874366816654975
000600 c9 d4 62 fe 06 de e8 3f 41 68 0c 0b 21 9e e0 3f
       0.7771029442289087 0.5193028655805919
000610 6f da 1a 64 eb db f6 3f c8 73 a6 86 69 9b e5 bf
       1.4286912832591516 -0.675221217144661
000620 7a f0 87 f9 8e cb 00 c0 c4 ef 39 3b 5f 47 d8 bf
       -2.099393796406784 -0.3793562010175686
000630 a3 9d ea 60 82 28 f4 3f 54 89 28 2c b1 8a ed bf
       1.2598899637031102 -0.9231801855533299
000640 72 f7 3f c4 94 46 e3 3f 3b 45 55 58 b3 8d e2 3f
       0.6023658593182815 0.5797974324470155
000650 4e 22 35 a0 06 68 04 c0 69 98 4a 98 f7 6c f2 3f
       -2.5507938877310954 1.151603312385783
000660 94 6e 26 c1 d7 a5 f2 3f a4 75 de d0 c9 a2 e4 bf
       1.1654889626433134 -0.644871623942596
000670 db 48 12 35 e7 a5 f9 3f da 01 57 bd 8b d3 e3 bf
       1.6030036995985515 -0.6195734689754844
000680 9e 66 ae 81 04 57 e7 bf d2 01 a4 5f 68 9e b4 bf
       -0.7293722660862902 -0.08054210982300639
000690 17 a5 8a e7 22 a1 fc 3f 39 5e dc 2e 9b 2f e3 bf
       1.7893399281113653 -0.599561301732087
0006a0 31 2c fc b3 79 59 fe 3f b9 e5 50 8a 25 16 ec bf
       1.8968445807138432 -0.8777034474834898
0006b0 12 e3 ba 99 d4 e8 f3 3f 2e 43 74 e9 44 be b2 3f
       1.2443433766440575 0.07321577739299975
0006c0 fb 17 ad 89 45 e3 dc bf 0e ee f6 c1 ef e5 d7 bf
       -0.45137155957161185 -0.3734092134652379
0006d0 3e 53 87 e1 fd c2 f4 3f 16 12 27 5c 57 a7 af 3f
       1.2976054010116083 0.06182358741674336
0006e0 b8 33 db 6c 14 1d 02 40 fc d9 ec 9a 74 7e f0 bf
       2.2641991142649793 -1.030872922112052
0006f0 26 7b 40 76 30 9a ed bf fe 8d 3b ab 78 eb f5 bf
       -0.9250719365698827 -1.369988125684244
000700 81 54 3a 08 82 4f e3 3f d2 3d 8d 2d 8f ef c7 3f
       0.6034555588436349 0.18699826931195546
000710 fc 5a 98 35 68 60 f4 3f 7e 99 21 22 12 5d f7 3f
       1.273536881786355 1.4602223714115037
000720 49 2d d9 e6 3e e8 e9 3f a8 a1 db 31 ba c8 ef 3f
       0.8096003063923628 0.9932528470790674
000730 1a 8d 6b e4 45 4a dc 3f 3b 96 ea a6 2b 3b f6 bf
       0.4420332651772739 -1.3894459266824828
000740 60 7d 71 fd 0a 1e ca 3f cf e8 0b e8 13 8c de 3f
       0.20404183745538784 0.4772996679381664
000750 9c 3d bb e2 0d f4 ed 3f c7 0b ca 3c 2a 2e dc 3f
       0.9360417774532155 0.4403176873822158
000760 ce 00 ad 1d 31 4f db 3f 4c a8 72 e0 05 57 ee 3f
       0.4267084874918624 0.9481229194400469
000770 25 ed 83 97 ef 53 e7 3f 25 84 5e fb 94 a5 d3 3f
       0.7289960822376186 0.30698132083677115
000780 39 5e e9 83 5e 93 f9 bf 06 42 a5 45 21 c5 da bf
       -1.5984788086697235 -0.41828185845682275
000790 8c 06 0b 5d 33 2b fe bf d2 57 e4 f5 85 7a 7d bf
       -1.8855470308775777 -0.007196925433410288
0007a0 d6 54 ed 61 b4 14 d1 bf eb ac d2 fe 23 1c fe bf
       -0.2668887096709346 -1.8818702653905415
0007b0 86 db 01 39 e0 19 00 40 17 3a ad 9a 0b 0f e5 bf
       2.012634702080905 -0.6580865880039849
0007c0 bf 8b 94 14 17 ac f0 bf 6c ae a7 57 07 4a fc 3f
       -1.0420141986767104 1.7680734085105554
0007d0 d5 cb 70 59 70 04 c2 3f 52 cb 02 64 97 2a fc 3f
       0.14076046340195938 1.7603982836414684
0007e0 60 3e da 35 b0 f8 f2 3f 4d b5 8c 8e 53 a5 e2 3f
       1.1857149222959364 0.582681444566029
0007f0 af 76 df 0a f6 cd a7 bf 98 d9 1c 7b 86 18 c5 bf
       -0.046493233515986325 -0.16481095324861594

output_mask f8 [16]
000000 00 00 00 00 00 00 f0 3f 00 00 00 00 00 00 f0 3f
       1.0 1.0
000010 00 00 00 00 00 00 f0 3f 00 00 00 00 00 00 f0 3f
       1.0 1.0
000020 00 00 00 00 00 00 f0 3f 00 00 00 00 00 00 f0 3f
       1.0 1.0
000030 00 00 00 00 00 00 f0 3f 00 00 00 00 00 00 f0 3f
       1.0 1.0
000040 00 00 00 00 00 00 f0 3f 00 00 00 00 00 00 f0 3f
       1.0 1.0
000050 00 00 00 00 00 00 f0 3f 00 00 00 00 00 00 f0 3f
       1.0 1.0
000060 00 00 00 00 00 00 f0 3f 00 00 00 00 00 00 f0 3f
       1.0 1.0
000070 00 00 00 00 00 00 f0 3f 00 00 00 00 00 00 f0 3f
       1.0 1.0

output_mask f8 [144]
000000 00 00 00 00 00 00 f0 3f 00 00 00 00 00 00 f0 3f
       1.0 1.0
000010 00 00 00 00 00 00 f0 3f 00 00 00 00 00 00 f0 3f
       1.0 1.0
000020 00 00 00 00 00 00 f0 3f 00 00 00 00 00 00 f0 3f
       1.0 1.0
000030 00 00 00 00 00 00 f0 3f 00 00 00 00 00 00 f0 3f
       1.0 1.0
000040 00 00 00 00 00 00 f0 3f 00 00 00 00 00 00 f0 3f
       1.0 1.0
000050 00 00 00 00 00 00 f0 3f 00 00 00 00 00 00 f0 3f
       1.0 1.0
000060 00 00 00 00 00 00 f0 3f 00 00 00 00 00 00 f0 3f
       1.0 1.0
000070 00 00 00 00 00 00 f0 3f 00 00 00 00 00 00 f0 3f
       1.0 1.0
000080 00 00 00 00 00 00 f0 3f 00 00 00 00 00 00 f0 3f
       1.0 1.0
000090 00 00 00 00 00 00 f0 3f 00 00 00 00 00 00 f0 3f
       1.0 1.0
0000a0 00 00 00 00 00 00 f0 3f 00 00 00 00 00 00 f0 3f
       1.0 1.0
0000b0 00 00 00 00 00 00 f0 3f 00 00 00 00 00 00 f0 3f
       1.0 1.0
0000c0 00 00 00 00 00 00 f0 3f 00 00 00 00 00 00 f0 3f
       1.0 1.0
0000d0 00 00 00 00 00 00 f0 3f 00 00 00 00 00 00 f0 3f
       1.0 1.0
0000e0 00 00 00 00 00 00 f0 3f 00 00 00 00 00 00 f0 3f
       1.0 1.0
0000f0 00 00 00 00 00 00 f0 3f 00 00 00 00 00 00 f0 3f
       1.0 1.0
000100 00 00 00 00 00 00 f0 3f 00 00 00 00 00 00 f0 3f
       1.0 1.0
000110 00 00 00 00 00 00 f0 3f 00 00 00 00 00 00 f0 3f
       1.0 1.0
000120 00 00 00 00 00 00 f0 3f 00 00 00 00 00 00 f0 3f
       1.0 1.0
000130 00 00 00 00 00 00 f0 3f 00 00 00 00 00 00 f0 3f
       1.0 1.0
000140 00 00 00 00 00 00 f0 3f 00 00 00 00 00 00 f0 3f
       1.0 1.0
000150 00 00 00 00 00 00 f0 3f 00 00 00 00 00 00 f0 3f
       1.0 1.0
000160 00 00 00 00 00 00 f0 3f 00 00 00 00 00 00 f0 3f
       1.0 1.0
000170 00 00 00 00 00 00 f0 3f 00 00 00 00 00 00 f0 3f
       1.0 1.0
000180 00 00 00 00 00 00 f0 3f 00 00 00 00 00 00 f0 3f
       1.0 1.0
000190 00 00 00 00 00 00 f0 3f 00 00 00 00 00 00 f0 3f
       1.0 1.0
0001a0 00 00 00 00 00 00 f0 3f 00 00 00 00 00 00 f0 3f
       1.0 1.0
0001b0 00 00 00 00 00 00 f0 3f 00 00 00 00 00 00 f0 3f
       1.0 1.0
0001c0 00 00 00 00 00 00 f0 3f 00 00 00 00 00 00 f0 3f
       1.0 1.0
0001d0 00 00 00 00 00 00 f0 3f 00 00 00 00 00 00 f0 3f
       1.0 1.0
0001e0 00 00 00 00 00 00 f0 3f 00 00 00 00 00 00 f0 3f
       1.0 1.0
0001f0 00 00 00 00 00 00 f0 3f 00 00 00 00 00 00 f0 3f
       1.0 1.0
000200 00 00 00 00 00 00 f0 3f 00 00 00 00 00 00 f0 3f
       1.0 1.0
000210 00 00 00 00 00 00 f0 3f 00 00 00 00 00 00 f0 3f
       1.0 1.0
000220 00 00 00 00 00 00 f0 3f 00 00 00 00 00 00 f0 3f
       1.0 1.0
000230 00 00 00 00 00 00 f0 3f 00 00 00 00 00 00 f0 3f
       1.0 1.0
000240 00 00 00 00 00 00 f0 3f 00 00 00 00 00 00 f0 3f
       1.0 1.0
000250 00 00 00 00 00 00 f0 3f 00 00 00 00 00 00 f0 3f
       1.0 1.0
000260 00 00 00 00 00 00 f0 3f 00 00 00 00 00 00 f0 3f
       1.0 1.0
000270 00 00 00 00 00 00 f0 3f 00 00 00 00 00 00 f0 3f
       1.0 1.0
000280 00 00 00 00 00 00 f0 3f 00 00 00 00 00 00 f0 3f
       1.0 1.0
000290 00 00 00 00 00 00 f0 3f 00 00 00 00 00 00 f0 3f
       1.0 1.0
0002a0 00 00 00 00 00 00 f0 3f 00 00 00 00 00 00 f0 3f
       1.0 1.0
0002b0 00 00 00 00 00 00 f0 3f 00 00 00 00 00 00 f0 3f
       1.0 1.0
0002c0 00 00 00 00 00 00 f0 3f 00 00 00 00 00 00 f0 3f
       1.0 1.0
0002d0 00 00 00 00 00 00 f0 3f 00 00 00 00 00 00 f0 3f
       1.0 1.0
0002e0 00 00 00 00 00 00 f0 3f 00 00 00 00 00 00 f0 3f
       1.0 1.0
0002f0 00 00 00 00 00 00 f0 3f 00 00 00 00 00 00 f0 3f
       1.0 1.0
000300 00 00 00 00 00 00 f0 3f 00 00 00 00 00 00 f0 3f
       1.0 1.0
000310 00 00 00 00 00 00 f0 3f 00 00 00 00 00 00 f0 3f
       1.0 1.0
000320 00 00 00 00 00 00 f0 3f 00 00 00 00 00 00 f0 3f
       1.0 1.0
000330 00 00 00 00 00 00 f0 3f 00 00 00 00 00 00 f0 3f
       1.0 1.0
000340 00 00 00 00 00 00 f0 3f 00 00 00 00 00 00 f0 3f
       1.0 1.0
000350 00 00 00 00 00 00 f0 3f 00 00 00 00 00 00 f0 3f
       1.0 1.0
000360 00 00 00 00 00 00 f0 3f 00 00 00 00 00 00 f0 3f
       1.0 1.0
000370 00 00 00 00 00 00 f0 3f 00 00 00 00 00 00 f0 3f
       1.0 1.0
000380 00 00 00 00 00 00 f0 3f 00 00 00 00 00 00 f0 3f
       1.0 1.0
000390 00 00 00 00 00 00 f0 3f 00 00 00 00 00 00 f0 3f
       1.0 1.0
0003a0 00 00 00 00 00 00 f0 3f 00 00 00 00 00 00 f0 3f
       1.0 1.0
0003b0 00 00 00 00 00 00 f0 3f 00 00 00 00 00 00 f0 3f
       1.0 1.0
0003c0 00 00 00 00 00 00 f0 3f 00 00 00 00 00 00 f0 3f
       1.0 1.0
0003d0 00 00 00 00 00 00 f0 3f 00 00 00 00 00 00 f0 3f
       1.0 1.0
0003e0 00 00 00 00 00 00 f0 3f 00 00 00 00 00 00 f0 3f
       1.0 1.0
0003f0 00 00 00 00 00 00 f0 3f 00 00 00 00 00 00 f0 3f
       1.0 1.0
000400 00 00 00 00 00 00 f0 3f 00 00 00 00 00 00 f0 3f
       1.0 1.0
000410 00 00 00 00 00 00 f0 3f 00 00 00 00 00 00 f0 3f
       1.0 1.0
000420 00 00 00 00 00 00 f0 3f 00 00 00 00 00 00 f0 3f
       1.0 1.0
000430 00 00 00 00 00 00 f0 3f 00 00 00 00 00 00 f0 3f
       1.0 1.0
000440 00 00 00 00 00 00 f0 3f 00 00 00 00 00 00 f0 3f
       1.0 1.0
000450 00 00 00 00 00 00 f0 3f 00 00 00 00 00 00 f0 3f
       1.0 1.0
000460 00 00 00 00 00 00 f0 3f 00 00 00 00 00 00 f0 3f
       1.0 1.0
000470 00 00 00 00 00 00 f0 3f 00 00 00 00 00 00 f0 3f
       1.0 1.0

weight f8 [8, 64]
000000 72 3f 08 09 ba c9 fd 3f 02 04 dd 75 5c 47 f0 bf
       1.861749682695486 -1.0174221614872754
000010 cf 76 23 ed 94 7f 00 c0 e0 b0 ec 16 19 72 ea bf
       -2.0622957731673988 -0.8264279792543014
000020 ee bf 48 53 39 83 ea 3f 08 d6 ee 48 f5 08 f4 bf
       0.8285185457843889 -1.2521870469039431
000030 90 13 81 96 04 d1 ec 3f 8b 6d b6 ae f0 a7 e2 3f
       0.9005148829970597 0.5830005085330624
000040 04 42 03 2f 28 39 ea 3f 70 fa 91 22 62 e8 d7 bf
       0.8194771688668543 -0.37355855346678535
000050 34 12 ac 60 64 78 ee bf 6e f5 60 35 d4 f0 b5 bf
       -0.9521963012817367 -0.08570600798789993
000060 18 ef 5d 40 85 ce d3 bf 02 31 dd 5c 01 2b f9 bf
       -0.30948001180489504 -1.572999346494783
000070 0a 5a 78 d3 9e 0f ea bf cb 5e 6c 21 f4 69 f5 3f
       -0.8144067888522966 1.3383675866697782
000080 59 3f b6 29 fe 4c f1 bf 2e 56 62 89 96 97 c7 bf
       -1.081297076165319 -0.18431359966477728
000090 03 15 11 87 c8 d6 c7 bf e2 8c 85 ef 05 6a c8 3f
       -0.18624216647200606 0.19073557086367204
0000a0 28 b5 b5 25 7d ee e3 bf 09 55 55 31 d5 ea f0 3f
       -0.622862409259743 1.0573322226603656
0000b0 27 b9 9e 95 9d 99 c3 3f 04 41 c9 19 6a 07 ee bf
       0.1531254749838322 -0.9384050849567136
0000c0 f8 48 0a 8e 9b aa d7 bf e3 10 cd bb d3 1d e3 3f
       -0.3697880637274831 0.597391001509575
0000d0 67 51 5b c2 14 22 fd 3f db 2c 76 4e 63 46 fc 3f
       1.8208205787714975 1.7671845497996432
0000e0 14 df a9 0f c5 77 e2 bf 9f c8 84 22 d3 05 f1 bf
       -0.5771203332833204 -1.0639220569978887
0000f0 f7 0c 90 69 2f f4 d9 bf ed d5 64 e6 ca f2 c3 bf
       -0.4055288821111413 -0.1558469414682543
000100 16 71 26 35 ea 40 ed bf de d5 43 28 aa a7 01 c0
       -0.9141741788949129 -2.2068675180150725
000110 36 9c 21 09 c1 13 e1 bf f3 79 30 1d b0 9a c7 3f
       -0.5336613825173859 0.18440820145856626
000120 07 3e b8 2d 63 f3 f2 3f 1a c3 6f e0 ef 95 9c bf
       1.184420755951466 -0.027915714334031262
000130 33 f6 11 fd e7 a3 e8 3f 38 1b 4a 0b 65 d1 c1 bf
       0.7700080817009564 -0.1392027192234424
000140 5e a9 5d 0f 21 d2 a8 bf a3 29 a1 fb 73 3d dd bf
       -0.04847815811702348 -0.4568757970161192
000150 55 2f 05 b9 fb 70 05 c0 3a cb 35 87 52 de e0 bf
       -2.6801676230151465 -0.5271389618704696
000160 92 2e d0 86 15 72 be 3f 73 f0 2c f6 74 26 fc bf
       0.11892828503931188 -1.7593888870460688
000170 1b 00 62 83 27 5c ea 3f 7e 4e b8 2d 20 52 ea 3f
       0.8237493101187313 0.8225251095741013
000180 74 43 e1 65 c1 4f fa 3f fc 13 1a 29 6e 03 f4 bf
       1.6444715480504017 -1.2508374791661927
000190 63 73 f5 47 ec 0d 02 40 f1 38 56 fc 4e 42 f4 3f
       2.2567983266621225 1.2661886078745364
0001a0 1f e2 cb 6f 73 b4 db bf 83 c1 03 97 f1 ae bc bf
       -0.43288885038012553 -0.11204442917710904
0001b0 4f e2 b8 8c 1d 56 eb bf e3 0f 84 27 9f d0 f3 3f
       -0.8542621372681171 1.238433031424386
0001c0 ad a9 8a d7 ff f0 dd 3f 97 98 5a 4a 8c e8 fe bf
       0.46783443497647675 -1.931774416394125
0001d0 87 ea 46 b1 c2 c2 df bf d9 85 40 af 78 85 e4 3f
       -0.49626223861893276 0.641292898453851
0001e0 74 54 55 8f e7 87 01 c0 7c 86 3f c7 41 18 e3 bf
       -2.191359634200632 -0.5967110530438755
0001f0 70 20 d8 0a 06 d1 f2 bf 98 a5 ac e4 a2 d2 d9 3f
       -1.176031153068859 0.40348121959194705
000200 ae 13 4c ba 29 31 e7 bf fd cf 1f 06 b3 1a 04 c0
       -0.7247513426415162 -2.5130367735346213
000210 fa 2c 69 29 55 3b f3 bf f5 52 15 75 43 24 ff 3f
       -1.2019855134593045 1.94635339484847
000220 0d 07 3b 57 02 54 ef bf 8a e6 59 d8 1e 88 c7 bf
       -0.9790050224039263 -0.18384156765005272
000230 de 2c e0 c8 ad ba 02 40 b2 16 fd 63 40 f2 fb 3f
       2.341151780453955 1.7466434388929142
000240 5f 84 10 2e 71 a6 e9 bf af 26 f3 f4 d4 6f f1 3f
       -0.8015676402757314 1.0898027008392253
000250 63 ec 5b e6 1e 76 f8 3f 38 dc f9 3d 7f 89 f6 bf
       1.5288380621339221 -1.4085686131418367
000260 55 ff 6b 31 74 85 d6 3f 61 f3 ea 5c 81 f5 0c 40
       0.35189537836412416 3.619875646515013
000270 77 e0 51 75 c9 1e d5 bf 10 1b 54 da 0a 75 e8 bf
       -0.33000408608450676 -0.7642874016026742
000280 88 d0 d7 3b a7 57 e5 bf 92 a5 69 67 22 81 a7 3f
       -0.6669498604592414 0.045907092212313164
000290 be 8a 33 33 8e 3c fc 3f 4b 45 a9 bc 81 68 f2 bf
       1.7647840499927692 -1.150514351804605
0002a0 74 e6 3f 29 aa 64 f7 3f 80 74 bc d8 d4 be d2 bf
       1.4620763408005617 -0.29289742627754123
0002b0 c9 43 ee ba ab e8 f3 bf f8 54 c6 41 01 cf c9 3f
       -1.24430439967931 0.20162978850991187
0002c0 62 87 45 ca 45 09 ed 3f e6 4c cc 3c 9a da ca 3f
       0.907381911336625 0.2097962185731383
0002d0 d2 f6 bd fa 02 44 e6 3f fd 05 f0 15 ba b2 f1 3f
       0.6958022019677748 1.1061344963967479
0002e0 b0 e8 62 0d 10 8b e3 bf 92 ed 45 b9 bb 01 fd 3f
       -0.6107254277660754 1.8129231679184596
0002f0 69 90 d6 bb 8d d3 d1 bf 1f 2e 01 87 d5 84 e7 3f
       -0.27853720992630443 0.7349650990303792
000300 66 e1 72 01 b1 c8 f0 bf ad 47 6a d2 ba d8 9e 3f
       -1.048996930751025 0.030123633473131118
000310 a7 50 d0 0f bf 7a dd bf d8 3f f2 fb 86 7e e3 bf
       -0.46061684173879275 -0.609195224840728
000320 3f 57 9c 48 81 96 d7 3f 86 25 6b df 02 86 ed 3f
       0.368561097058194 0.9226087916987786
000330 f4 78 52 f8 05 c5 e1 3f 51 96 8f a8 e4 e0 d0 bf
       0.5553006982843542 -0.2637263914205948
000340 1f ef 16 32 2d 80 d2 bf d9 c0 cb 8c 92 db b8 bf
       -0.28907327548562195 -0.09710040986442738
000350 9b cc 2d 4a 9e 28 db bf 46 ff f6 d8 6f 60 fd 3f
       -0.42435414546998523 1.8360441661061073
000360 2e e8 05 60 87 ed ce bf fd 44 01 b3 56 01 fd bf
       -0.24162380398394262 -1.8128268234616478
000370 77 69 09 e4 3a cb f3 bf 6f a0 ef b5 12 30 df 3f
       -1.2371167094885018 0.48730914847556667
000380 c6 fb 24 00 5a 50 eb bf bf 67 ed 49 d0 54 d2 bf
       -0.8535585406133286 -0.28642661303967637
000390 aa 91 cf a6 03 0a e6 3f ac f6 72 2b 70 e1 e1 bf
       0.6887224443458326 -0.5587693070044302
0003a0 6e 4c 34 52 3d 1d fc bf a2 ee 96 3c e0 89 d0 bf
       -1.7571385584931494 -0.2584152785964112
0003b0 65 60 8f 81 aa aa d6 bf cb b4 ec 2b 85 5a f9 3f
       -0.3541666283831602 1.5845996585660937
0003c0 23 f6 a0 d1 20 aa cd 3f 3a 95 59 3a 1f b1 df bf
       0.23175440059451188 -0.4951856679748122
0003d0 fb ec 27 7b e8 fc ee bf c6 8d c2 32 54 87 eb bf
       -0.9683725743665542 -0.8602696410566117
0003e0 e9 7d 56 47 98 c4 ce 3f 3c 8e b7 89 23 fc d8 3f
       0.24037459834379085 0.39038933228423267
0003f0 d0 a4 74 70 ad 72 bb 3f cc 0a 8d e7 cf a6 fa bf
       0.10721858973979015 -1.6657256169279888
000400 d9 7c 93 7b f9 9e ca 3f 6b 6b 0d 86 d5 e3 8d 3f
       0.20797651800146502 0.014594715264754496
000410 eb aa cb 1b e1 69 f5 3f 2f 97 34 a7 31 10 e2 3f
       1.3383494458927838 0.5644768014651386
000420 e0 59 74 7b 68 8a f1 bf 6b ad 94 4f 4a 9d d5 3f
       -1.096291048282744 0.3377252366214722
000430 c1 94 33 b5 6f 1a c7 bf a5 ef 8a f7 7d 58 d7 bf
       -0.18049427364090856 -0.36477612661451025
000440 7b 45 fa 74 4d 92 f0 3f 61 a2 73 dd 95 99 c7 bf
       1.0357183999479662 -0.18437455475875011
000450 c4 fd 73 9a c1 49 04 40 5f 39 45 b1 4b ef f4 bf
       2.536013800301335 -1.3084217953324566
000460 b6 9d 12 87 97 e5 b9 bf 41 6f 16 ee 1b 88 fb 3f
       -0.10115954444574168 1.7207297611521002
000470 99 62 0f 0c da 40 c4 3f 3d e8 38 a2 06 8e e6 bf
       0.15822911824104294 -0.7048371475605176
000480 6a f9 51 0d 89 e5 b8 3f e7 41 41 cb ee 93 e2 bf
       0.09725243163300026 -0.5805582017729279
000490 f6 57 ac 54 43 81 f5 bf 23 73 93 8c 4a aa c1 bf
       -1.3440583522365137 -0.13800937522946652
0004a0 0c cf a5 82 29 2d d9 bf 72 5f a0 e8 fa bc f2 3f
       -0.3933814788681367 1.1711377226801827
0004b0 8a 0b be 27 81 6e ec 3f a7 e2 88 b8 be cb e4 bf
       0.8884893203943289 -0.6498712162202381
0004c0 2b eb 9e 28 16 0a db 3f f2 00 d8 43 e2 c8 d8 3f
       0.4224906346022858 0.3872609770333063
0004d0 77 2e f9 45 f3 0f d8 bf 49 cd d6 df fe 4f eb 3f
       -0.37597352822624636 0.8535150882584414
0004e0 2d 8a d7 97 c6 82 ed bf 89 36 91 d7 f9 0c e3 bf
       -0.9222138372099998 -0.5953339777276635
0004f0 90 e6 b9 51 bf 37 c8 bf c5 95 81 ec 90 32 f9 bf
       -0.18920127382789476 -1.5748452414057834
000500 64 7e 67 3c 33 a2 ff 3f cf 09 d9 56 3b 73 af 3f
       1.9770996436635864 0.0614260238185299
000510 eb dd 2a 00 a9 59 cd bf 5f 0c b5 c4 93 b5 f1 3f
       -0.22929871090103346 1.10683037604101
000520 37 ef 96 e1 a0 5c f1 3f 56 fb 35 07 00 7f e1 bf
       1.0851143657773272 -0.5467529431187852
000530 91 5a 9f 25 03 e9 da 3f 6d 13 f1 1d b2 cf 04 40
       0.4204719417006482 2.6014139498897095
000540 88 50 59 81 65 fe e1 bf 2f 7d 29 46 7d 26 9e 3f
       -0.5623042608590518 0.02944370022521275
000550 62 b8 91 8a dc c2 ff bf 31 02 ac 5e 02 91 cb 3f
       -1.9850736058101792 0.21536283133174686
000560 bd bf 6f 38 b1 d9 e1 3f 7b 9d ad 1e de 71 d2 3f
       0.5578237631107111 0.28819993015209605
000570 e9 14 09 61 3b 04 d9 bf 06 e2 52 ad 68 ff b1 3f
       -0.3908832976924957 0.07030348044907705
000580 fd ec bd 88 3d 4d da 3f b5 82 49 da 42 10 e4 bf
       0.41096437791539114 -0.6269850028439438
000590 1f 49 32 b7 00 97 ed bf 6e 41 0e 80 19 69 af bf
       -0.9246829584174384 -0.061348721391484826
0005a0 3f 84 c2 71 81 69 f0 bf c1 85 b1 be 37 f0 e0 bf
       -1.025758213400209 -0.5293234562379255
0005b0 12 c6 4d 84 92 5c ab bf 99 a3 73 8a b7 21 02 c0
       -0.053440645838133474 -2.2664633575954665
0005c0 bc 67 b4 00 4c 72 f2 bf 1f a0 36 e6 6f 4c f3 3f
       -1.1529045131232882 1.206161402960795
0005d0 25 f2 17 8f 71 65 fe 3f fd 13 01 b6 29 21 eb 3f
       1.899766501387725 0.8477982096452475
0005e0 45 b6 25 5c 17 d0 f3 3f 94 c9 8b f4 db 73 c9 3f
       1.2383035277847665 0.19884824219441255
0005f0 39 38 4b 5f 42 bb ee 3f a6 3d d7 0d 8c e2 ef 3f
       0.9603587971885253 0.9964046736076184
000600 df a0 57 04 34 63 f2 3f b9 3f 32 30 12 06 d6 bf
       1.1492195291157754 -0.3441205473582119
000610 10 45 4f 0e 6c 44 ef 3f bf 50 fd f4 f9 37 e0 bf
       0.9771023063168816 -0.5068330559684212
000620 d7 b3 17 42 7b 86 de 3f 77 bd 81 82 a5 04 de 3f
       0.4769580979762486 0.4690336012344782
000630 07 05 b3 db a3 cd d3 bf 19 f0 54 03 74 ab ea 3f
       -0.30942627387055704 0.8334293427537914
000640 dc ff e5 4f 1b 51 d2 3f 70 67 a3 e2 bb 95 01 c0
       0.28620035936910226 -2.1981122690312347
000650 b2 04 ae 93 82 1d f5 bf 01 0e 08 1a df 9e f7 3f
       -1.3197046059361068 1.4762869850973177
000660 03 38 de 72 3e c9 c1 bf 97 34 48 48 d6 60 d9 3f
       -0.13895397766867754 0.3965354638938349
000670 d4 43 a2 66 a4 66 e7 3f 97 45 7c 35 92 94 e7 bf
       0.7312795643393835 -0.7368861240994872
000680 a1 ff a8 d4 a2 f2 ef 3f 3a 7d f5 1c 77 70 ab bf
       0.9983686593550268 -0.053592417035128695
000690 e0 cf a1 6d 95 87 f5 bf 97 a6 0c b7 c2 7d de bf
       -1.3456014902594617 -0.47642581821365
0006a0 99 c0 57 df d7 80 e1 3f 37 21 12 41 92 b1 e1 3f
       0.5469779359973642 0.5529261847414436
0006b0 7d da b3 9e 2a f3 ff 3f 25 57 31 2c 67 27 dd 3f
       1.9968668174093687 0.4555299693650901
0006c0 34 e9 80 f2 e5 36 fe bf d0 ec 42 82 04 1a cc 3f
       -1.8884028885646105 0.2195439945261115
0006d0 0c b2 f4 fe 1d ff c9 bf ce e0 91 b0 5f 78 ee 3f
       -0.20309805821433746 0.9521940659169787
0006e0 f8 07 08 0d 06 80 f3 bf 31 dc b8 47 95 99 e0 bf
       -1.2187557705915406 -0.5187479401419123
0006f0 8c 9b be 1d e6 bf d7 bf eb 5d 39 e2 31 28 01 40
       -0.37108757881872445 2.1446263955838183
000700 e5 e4 37 7e 5f 20 e2 3f 1d e3 f4 78 be 38 05 40
       0.5664517846300013 2.6527070474370604
000710 51 8c 8a e3 b1 54 e9 bf 8c 5a da 0b 13 27 01 c0
       -0.791588730255521 -2.144079296685339
000720 88 c0 31 10 25 64 04 c0 42 22 3b 61 3c 1a e8 bf
       -2.5488988175566796 -0.7532026194613268
000730 bc 14 8f 29 94 11 e2 3f e8 9c 58 fc 39 b5 e7 bf
       0.5646458446214164 -0.740872376311839
000740 98 8d 9c ef 06 68 dd bf dc 82 7a 09 98 01 e2 3f
       -0.4594743099171068 0.5626945672157393
000750 4a e2 df 8a e4 df e9 bf 9d 45 68 b4 f0 9a e9 3f
       -0.808580657233571 0.8001636050777737
000760 91 07 0f 93 6f 3e de bf e6 bc a4 c0 c5 ab 94 bf
       -0.47256078110887595 -0.020186509974505017
000770 53 d9 a1 9b e2 37 a2 3f 24 90 12 4f c1 2f ee 3f
       0.03558262014205362 0.943329481543064
000780 07 50 9e 05 5c 10 f5 bf 79 ae 71 46 e4 52 dc bf
       -1.3164940089673125 -0.4425593078546864
000790 8f 14 14 67 36 01 c7 bf 85 31 47 21 3f 35 e9 3f
       -0.1797245028793992 0.7877498292887571
0007a0 c0 e2 fb 54 e2 ea f1 bf 08 8f a1 09 a6 36 b4 3f
       -1.1198447532353129 0.0789588712228203
0007b0 6d f3 ea fe 09 81 04 c0 17 45 35 27 73 57 02 40
       -2.5630073466731376 2.2927001059657743
0007c0 25 32 0e 99 11 6e f9 3f a3 40 07 d6 e5 dc f7 bf
       1.5893722513893718 -1.4914301262361185
0007d0 6f ef 28 d8 8e 65 f0 3f d3 ac 5a 39 29 f2 da bf
       1.024794430136321 -0.421030336389504
0007e0 3c 81 ec c0 05 fe e9 bf df b2 f9 cb 5c 91 d2 bf
       -0.8122586029094587 -0.2901222221324086
0007f0 73 d8 e1 36 f2 fa fb 3f e7 81 40 b0 7e 45 fd 3f
       1.748766149886731 1.8294665226786664

weight f8 [64, 64]
000000 9c a4 46 26 03 4a f0 3f 69 ad 8e 48 54 49 e9 bf
       1.0180694098619716 -0.7902013222823544
000010 17 fe 44 8f 85 4a f5 bf 38 03 01 0e 2a ef f4 bf
       -1.3306937786545683 -1.3083897158650881
000020 92 5d c3 5b 1a da f0 bf a5 dc 8f 4d 07 28 02 c0
       -1.053247793626586 -2.269545179322068
000030 ca 12 c9 5c 1d 25 c0 3f 4e a9 5e d2 32 73 fa bf
       0.12613265066661078 -1.6531246392792869
000040 87 16 3e 47 a1 10 c3 3f 57 bf c7 0a 9d 09 fa bf
       0.14894500712050648 -1.6273470326522863
000050 cd 4e 30 3a 9c ef eb 3f 9e a9 2c 7c ca 1d f9 3f
       0.872999299669084 1.569773182922837
000060 96 3f aa 3c ad 11 de 3f 6e f1 23 09 42 cb d0 3f
       0.46982890056914905 0.26240588085763406
000070 38 d3 d0 42 53 de f3 3f 86 e4 99 e0 6f 9f e7 3f
       1.2417786226262262 0.7382125269642905
000080 eb 40 d3 36 49 e0 e9 3f 69 6a ca 93 72 33 f6 3f
       0.808628661232459 1.3875604413102798
000090 fc 12 c2 e0 bf e9 06 c0 70 ec 28 84 56 05 dd 3f
       -2.8641355094172223 0.4534508028625117
0000a0 57 3b 5a c5 09 43 ea 3f 0a 44 8e 84 f5 90 d1 bf
       0.820683370069541 -0.2744725985040196
0000b0 cb fb 0f 49 07 4f e1 bf 21 8b 53 c7 1b 4e e3 3f
       -0.5408970286369991 0.603284730252515
0000c0 bc 18 35 c9 4a 8a e1 3f fd 54 88 58 c4 76 fc 3f
       0.5481313638527108 1.7789958437254534
0000d0 87 15 01 f9 c3 dd e2 bf b1 93 ce ab c4 46 ff 3f
       -0.5895709861148796 1.9547774039467465
0000e0 00 71 9b b4 3b 39 ed 3f 7a c3 eb e0 27 b0 02 c0
       0.9132364776119459 -2.3360135623883567
0000f0 40 b0 89 5b f9 7e db 3f bb b1 6c 43 bb 4f e9 3f
       0.42962488116495834 0.7909828488241638
000100 3e 11 0f 74 fe e3 de 3f ae fd ce 63 f5 af dd 3f
       0.48266564687607516 0.4638646578495934
000110 ef f4 69 d5 34 2c dc bf e6 01 5a 59 26 56 d5 3f
       -0.44019814339829016 0.33338316655866007
000120 3b 25 1d f9 70 8d 9a bf 53 a2 39 f2 da f8 e1 bf
       -0.025930180744841307 -0.5616278391799575
000130 fb c9 9c a8 de 23 d6 3f a3 e5 80 55 97 4c d2 bf
       0.3459393164258981 -0.2859247527117878
000140 06 37 a4 b0 20 0a d6 3f 14 46 7d 59 92 2e f4 3f
       0.34436814546721484 1.2613700385740048
000150 f6 33 5a 78 c0 22 dc bf be 1d 36 37 99 a9 f5 3f
       -0.43962108376655296 1.3539058834738706
000160 f3 7b 49 8b 93 cb 04 40 e0 0b 48 0c 30 3c c4 3f
       2.5994025117683974 0.1580867824523855
000170 78 28 b9 2b 6b a2 f5 3f 20 7f 4a 12 f5 f9 f1 bf
       1.352152987283743 -1.1235247339718129
000180 84 15 75 78 42 fa d1 3f e4 2b 3e 27 91 0c bb 3f
       0.28089963687337893 0.10566050727918214
000190 6b e4 3b ae d0 21 df bf 38 e3 75 a9 2e bc dd bf
       -0.4864389134887179 -0.4646107344520263
0001a0 b6 d6 81 6c 01 3f e9 3f f7 08 fa 23 e3 09 05 40
       0.7889411086350353 2.629827767436946
0001b0 64 91 b0 48 20 ee 96 3f 1b 35 7d a3 4c 15 f0 3f
       0.02239275401747544 1.0052000414173736
0001c0 55 87 7d ac 8b ae 02 40 6e 50 93 87 fb 77 e5 bf
       2.335227344113188 -0.6708963058431558
0001d0 3b 92 a5 d7 89 dd e8 bf ea 72 90 e2 5e 65 f1 bf
       -0.77704326742657 -1.0872486925283575
0001e0 0f 7a 8d e7 36 12 f4 bf d1 bc ba af 28 fc d3 3f
       -1.2544468922639032 0.3122655597789619
0001f0 bc 94 9c 6c 2e 91 b5 3f 67 e7 e2 0c 42 b6 e1 3f
       0.08424654151584127 0.5534982921301265
000200 2c d3 82 af b1 23 02 c0 26 17 9b c7 fb d6 d1 bf
       -2.2674287521171177 -0.2787465523982625
000210 bf 5c e8 6e 49 9d d8 bf fa e0 30 92 94 04 e6 3f
       -0.3846000273783367 0.688059125451246
000220 59 24 fe 9e 85 d6 05 c0 56 01 88 93 b7 53 da 3f
       -2.7297470494564036 0.41135968596792816
000230 f6 01 59 67 cc dc c5 3f d4 90 1c 35 d1 fd f9 3f
       0.17080073400758494 1.6244670939132009
000240 e1 5b bd f3 69 4a f5 bf 20 32 80 23 c2 bd c7 3f
       -1.3306674500542999 0.1854784653991297
000250 82 16 7e 90 2d 55 d0 3f a4 61 47 b0 00 47 ee bf
       0.2551988516864655 -0.9461673205324144
000260 b1 cc 45 5d dc 20 e5 bf d5 a2 fa 91 d0 b5 ee 3f
       -0.6602613279086623 0.9596941805985703
000270 bd bd 6e 0f 2b db 00 40 aa 64 31 de 95 27 ea bf
       2.107015724722912 -0.8173322047906784
000280 b6 99 ad d7 15 95 f6 3f 58 d2 e9 ee df eb 86 bf
       1.4113977837492775 -0.011192082861478145
000290 c0 b9 cb fe 4b 6f f0 bf 9a cb 2f a2 11 bd a0 bf
       -1.0271720841370637 -0.03269248108690377
0002a0 54 a5 90 85 f6 8b b6 3f da 22 ca 85 b8 6e db 3f
       0.08807316552033245 0.4286328608073241
0002b0 d3 c2 1f 7f f8 3c c4 3f e3 81 8c ec 97 63 f6 bf
       0.15811067778806506 -1.3993148079099391
0002c0 d3 e6 37 17 a6 70 f2 bf 1e 3e bb c0 c7 d4 db 3f
       -1.1525021464316765 0.4348620779173603
0002d0 6b 82 f8 08 9b 4e 97 3f b0 3c db c0 cf 48 00 c0
       0.02276079408886959 -2.035552508059105
0002e0 94 16 13 ce dd 3d d7 bf 06 13 16 10 3b a2 f4 3f
       -0.36315102695912427 1.2896071079605362
0002f0 cd c7 d0 4c 7b 05 e3 3f c0 29 7d 12 75 3b e1 3f
       0.5944191456130682 0.5385079728233038
000300 c5 e9 87 ab 6d 83 f0 bf 89 f8 30 33 64 6d f4 bf
       -1.0320870113779261 -1.2767068862590654
000310 da 9c 40 f6 6f c6 fb bf da a5 d2 f8 ed 65 c7 3f
       -1.735946618960773 0.182798143859414
000320 b7 dd 7f 0a c3 74 c3 3f cb b2 0c af 4e 74 ec 3f
       0.1520007897631623 0.889197675603634
000330 05 91 96 73 51 1d f4 3f a4 e4 84 28 65 30 ac bf
       1.257157756344044 -0.05505672568910683
000340 94 3d d2 1d 17 ef f6 bf da 52 e9 51 96 f1 b5 bf
       -1.4333716549770985 -0.08571757793226756
000350 57 2a c4 69 55 e7 c0 3f 2d a3 e0 02 45 e4 ba 3f
       0.13205974258774475 0.10504561729670732
000360 d7 43 6a c0 33 9c d1 3f 3c a1 93 02 bc 2f e9 3f
       0.2751588229230583 0.7870769548726808
000370 af 19 4c 25 70 14 ed bf 99 94 66 46 a4 6c f3 3f
       -0.908744881483292 1.2140238523509537
000380 3f 03 6a 92 db a9 f7 3f a3 a1 d4 03 f2 76 e9 bf
       1.478969165735364 -0.7957696986023176
000390 18 55 22 b9 d7 a4 f1 3f 42 45 d9 3f e6 2f f7 bf
       1.1027447921563347 -1.4491941923227647
0003a0 51 53 cd e9 93 9c e4 bf 23 ef 16 7e 99 80 ab 3f
       -0.6441134993025149 0.0537155119340851
0003b0 8a dd 9a 46 e6 72 f0 bf 6b d1 d8 9c f5 a9 e4 bf
       -1.0280516393666823 -0.6457470000664619
0003c0 9e 95 e2 14 1b ad f0 3f 55 78 69 c2 1a 8b f2 3f
       1.0422621551345865 1.1589610666483356
0003d0 26 06 c2 a0 54 6f d8 3f 11 8b 12 9e c9 29 f8 3f
       0.38179507922186173 1.5102020430283043
0003e0 c8 32 ab 61 8f 37 f2 bf 50 38 da 75 79 50 fd 3f
       -1.1385644736466691 1.8321470836267686
0003f0 ca 6e 82 0f db cf f4 3f 1b 5c c3 a6 ae 10 e1 bf
       1.300746021827694 -0.5332864052860516
000400 97 22 c6 cf b2 53 d6 bf 8c 1c 0e c5 9a a8 f0 3f
       -0.3488585499804144 1.0411632249322649
000410 7a 3f c4 47 b9 7e d8 3f f0 81 8b b4 d9 db f4 bf
       0.3827346039624825 -1.3036744167840162
000420 81 54 55 2c a7 9d ec 3f 70 9e 35 92 30 67 dc bf
       0.8942447534451646 -0.4437982013537072
000430 bf 68 1a 7b 5c ab b0 bf eb 83 92 cc c5 fc eb 3f
       -0.065114765219195 0.8746060367158156
000440 c9 b9 31 41 0c 89 e6 3f a4 de fb f0 6f bb af 3f
       0.7042294762921354 0.0619769078893431
000450 a1 a2 a2 a0 4d 1d fc bf a9 a3 29 7f 23 54 bd 3f
       -1.7571541094604657 0.1145651040511796
000460 a0 1f 24 3d 86 09 e6 bf 62 0d 94 c9 59 18 de bf
       -0.6886626428758866 -0.4702362507379886
000470 63 7c 35 32 68 a7 07 40 ca e0 8d 38 2d f6 b1 bf
       2.9567417070934865 -0.0701626074859433
000480 7c 02 42 43 fd 61 d9 bf 1e 02 65 cc f6 7c eb 3f
       -0.3966057926955171 0.8590044014054603
000490 bf d8 44 fa 66 18 e2 3f 19 1f 95 9e 75 9b d9 3f
       0.5654787910523494 0.40011349188397244
0004a0 ed f3 83 61 7f 18 ec bf a9 78 b0 5f 54 9d ed bf
       -0.8779904274557545 -0.9254552716190761
0004b0 41 c1 b4 4b e8 47 f4 bf 78 ea b6 cb 62 5a f8 bf
       -1.2675555188435086 -1.522066875228715
0004c0 0e b5 6a d8 ae cd f8 bf 11 d4 d6 34 71 9f f8 3f
       -1.550215573671554 1.5389263214140139
0004d0 b9 11 68 9f 3a 93 fd bf b1 0f 20 90 71 f5 e0 3f
       -1.8484445788209156 0.5299613776155551
0004e0 1f a2 8b 5b 44 50 e1 bf 5b 2a 42 a4 ba 0f e4 3f
       -0.5410482204434323 0.6269200523541473
0004f0 a2 df e2 0e 42 e8 f9 3f 86 94 07 c2 82 9c f0 3f
       1.6192036229603919 1.0382106379777567
000500 10 a0 8c e5 0e a8 da bf c6 c5 81 80 54 91 01 c0
       -0.41650745789456867 -2.195961955986351
000510 2b 23 77 b7 e7 e6 d8 3f 27 6a 77 00 2b a6 e8 bf
       0.38909333149472286 -0.7702841767416587
000520 01 b2 89 ec 02 2d cc bf 85 10 85 4a bd b5 e4 bf
       -0.22012363958073425 -0.6471849875893133
000530 b5 04 43 82 19 24 d3 bf 67 d6 f4 75 f1 88 ef bf
       -0.2990783474052237 -0.9854666999660368
000540 83 f8 9c 20 e3 ca f1 bf ee 43 fb 09 65 66 01 c0
       -1.1120330118133388 -2.1749974040799236
000550 21 cf fc ab 69 ec a7 3f 2f a9 95 54 14 fb b4 bf
       0.04672556137521001 -0.08195616784147285
000560 96 14 89 2e f3 30 d9 3f f6 0c 9d 7d 0c bc f4 3f
       0.39361266655425575 1.2959103495384716
000570 1a c4 21 90 0a 9e fe 3f f4 6e b9 b6 62 e8 ea bf
       1.9135842924263273 -0.8408673828921267
000580 ee f2 1d a5 e2 b6 e2 bf 78 d0 fe 4c 7d d0 f5 bf
       -0.5848248696271108 -1.36340074611965
000590 2f ab 7d 47 8e 3a f1 3f b0 69 9a 68 0d 02 de bf
       1.076795844327261 -0.4688752671733267
0005a0 2b 3c 9a 00 63 94 ea bf d7 15 73 71 b4 b7 e5 3f
       -0.8306136142508697 0.6786749091922343
0005b0 08 0d 1d ff c4 15 d7 bf 50 ec c7 d8 d7 02 ef bf
       -0.360703705915697 -0.9690970643999979
0005c0 53 72 43 07 cc 8d c1 3f f7 4b 44 56 70 78 01 40
       0.13713980059300698 2.183808015784503
0005d0 06 6a 66 65 e0 3c ea bf e1 3d c0 49 64 18 f8 3f
       -0.8199312191457586 1.5059550171753175
0005e0 da 2f 40 24 1b 10 f1 3f 85 91 65 f5 14 9c f2 3f
       1.0664321342510363 1.1631059251604665
0005f0 c5 88 b4 fe 8a f1 ca bf f4 db 17 d4 da dd cb bf
       -0.21049630581643988 -0.2177079711543396
000600 ff 9a 15 68 10 db eb bf 63 a4 10 64 59 9a 00 40
       -0.8704912217043271 2.07536581207073
000610 71 79 6d b5 e3 62 9c 3f 13 13 25 37 41 1b f5 bf
       0.02772098345610047 -1.319153991136038
000620 97 54 6a 1f ed aa d5 3f 2e ea a9 12 18 d1 d9 bf
       0.33855751102357473 -0.4033870870841011
000630 03 9f 7a c8 14 d3 d0 bf b1 47 a3 a1 30 b1 d8 bf
       -0.26288337305094006 -0.38581481728499073
000640 a9 c1 a0 3f 72 02 e1 bf 10 23 5a d4 08 46 b9 bf
       -0.5315486185773369 -0.09872489151360875
000650 34 51 c9 5b ce ca c6 3f ed 3f 07 d4 38 5f 08 c0
       0.17806415063626846 -3.0464951100075184
000660 4d c6 66 ca 41 fe f4 bf 87 b6 a6 1c 07 ce e7 3f
       -1.3120744615847741 0.7438998756021683
000670 fd fe 84 08 cd b9 f9 3f c3 2d 6f 6c 1c 35 c8 bf
       1.6078615505975329 -0.18912081999438443
000680 95 c0 76 55 26 a0 f5 bf 83 0c d4 03 b8 f7 ce bf
       -1.3515990580017718 -0.24193477808885086
000690 17 b3 ba e8 61 40 88 3f 9a 41 c5 5f b0 28 c7 3f
       0.011841549792131851 0.18092922855659027
0006a0 61 12 fb 08 bf 85 e1 bf af a0 fd 92 f4 77 fa 3f
       -0.5475764441876657 1.654285978491355
0006b0 45 6a 5f 82 2c 06 bc bf e5 4e cf 20 de 7a ce 3f
       -0.10946920569350833 0.23812462427178285
0006c0 d7 93 88 b1 88 1c f6 bf 90 d0 f1 d0 30 20 0a 40
       -1.3819662985708783 3.265718109492873
0006d0 82 2f 39 c9 52 fb dc bf fb 94 30 10 12 8b c6 3f
       -0.45283956194611374 0.17611909666553757
0006e0 d8 73 b1 08 d4 75 dc 3f 35 25 3d ec 14 90 d3 bf
       0.4446916661161686 -0.3056690508861551
0006f0 ca e6 01 bd 95 0b bc bf 8a a6 d5 95 12 87 f3 3f
       -0.1095517717784801 1.2204767086899744
000700 fb 57 e2 bf ca e0 fd bf b2 a9 0e b0 79 6b ec bf
       -1.867380857036095 -0.8881195486658753
000710 f7 93 e7 46 4c 4e d3 bf 7f a3 3c 5e f8 7c f4 3f
       -0.30165392803456775 1.2805102997901654
000720 36 36 7f ab 63 c6 cd bf 3e 47 65 ed b9 9f f4 3f
       -0.2326168620478925 1.288995673491129
000730 c2 7e 90 30 9f 1f e4 3f 10 22 d5 ac cb 50 e3 3f
       0.628860087253962 0.603612744868828
000740 2f 17 cf 0f 9a 0a bb bf 18 b1 cf c1 3b 88 d5 3f
       -0.10563052068672783 0.33644002844700216
000750 75 5c 3b 84 ac e7 ca 3f a6 af 41 b6 dc 6b c4 3f
       0.21019512611994498 0.15954169177291283
000760 b3 b7 f8 d6 bb e9 00 40 c7 df 7e 09 cf 54 fd bf
       2.114127807107218 -1.8332052584573704
000770 98 89 97 b2 45 e5 fb bf 2e 50 b5 3e 66 b1 d1 bf
       -1.7434746719596657 -0.27645259975293157
000780 0a 28 66 ca 01 e0 c6 3f c7 72 12 55 b2 43 05 40
       0.178711150958691 2.658054985642909
000790 c9 4c 13 35 04 52 dd bf bc 2a c1 46 f7 d8 f1 bf
       -0.45813088591712564 -1.115470196137422
0007a0 db 94 02 e7 14 7d e6 bf e1 f9 1a 92 49 e2 ea bf
       -0.7027687560954762 -0.8401229718800175
0007b0 c4 62 a3 06 be e4 ed bf 91 1d 2b 07 5d 0b e6 3f
       -0.9341726426747177 0.6888871326454354
0007c0 4d 54 54 4c d9 46 f3 3f 06 46 60 45 f4 76 e3 bf
       1.2047970754258757 -0.608270774364599
0007d0 43 4e 8c 21 c7 90 e3 3f d1 e5 4c bd 88 3e 96 3f
       0.6114230780826307 0.021722923807123543
0007e0 25 5b 19 f8 10 da e0 bf 70 76 ab c8 4a 35 f4 3f
       -0.5266194196400177 1.2630107725775837
0007f0 35 25 1a c1 af f2 d9 bf 97 00 94 d9 0b 11 b9 3f
       -0.40543741090421587 0.09791635572401201
