MACE_models/mace02_com2_compiled.model (torch, 527883 bytes, 51 tensors)

r_max f8 []
4.0
00000000: 0000 0000 0000 1040

weight f8 [48]
-0.664171134984213 -1.3900234877818192 -0.5105823044337328 -0.08944284560749172 -0.010242727901223147 -0.6594166265442044 0.4498955005011798 0.5606989577120083
1.0570496828122085 0.4695208270471189 -0.420117393099364 0.2601543271298262 -0.42657516729515416 -0.15925061650578895 0.13053349747778137 1.1184398104537412
-0.06433256845150949 0.33735689833877824 0.49905042029236035 1.1479263056516056 0.8635110357554897 1.461593275038627 -1.6934231944661577 -0.9991766245357067
-0.11686882932083989 -0.24083069226570605 0.6966459427282621 0.8830698312032431 -0.10042074432804446 -1.791121103170313 -2.0902416731314526 -0.29729397123889706
0.90318379464384 -0.41331553689190076 -0.7919932680797134 0.5220400726320455 1.689748975510613 0.5034092173405615 -1.3093926367955961 1.5079330214827211
-1.1757403282158463 -0.3481801934923601 1.4020048924013155 -1.11709091578126 0.38419756101584945 1.5876227597274932 -0.7118444548323302 -0.05154387159382562
00000000: 6a8a f6d2 e340 e5bf c61d cb44 893d f6bf
00000010: c0b1 6eb3 b056 e0bf 88cf bef0 b9e5 b6bf
00000020: f952 dcaa 23fa 84bf a945 aee5 f019 e5bf
00000030: a149 517f 16cb dc3f 94c7 c8f0 3ef1 e13f
00000040: 4bcf 9eed ace9 f03f ef53 3d15 a10c de3f
00000050: 40ec f50f 34e3 dabf 0edf bb55 5ea6 d03f
00000060: ed60 34ee 014d dbbf 474e e1fe 5262 c4bf
00000070: 7e8b 5957 52b5 c03f 9517 8724 21e5 f13f
00000080: 5121 9165 1978 b0bf b07b 5c63 4197 d53f
00000090: ce7c 8d2c 71f0 df3f 31de 4ff9 e75d f23f
000000a0: ddc1 49e5 e1a1 eb3f cf82 45a1 af62 f73f
000000b0: e751 68eb 4218 fbbf 7ddf a941 41f9 efbf
000000c0: 0ad5 da97 1deb bdbf 63be 9345 8ad3 cebf
000000d0: 5216 9d6e ec4a e63f f944 a3a9 1b42 ec3f
000000e0: 0e9b ba84 2cb5 b9bf c5ab 149a 6ea8 fcbf
000000f0: f2af 56a0 d0b8 00c0 bf37 f14a dd06 d3bf
00000100: 19b8 88b3 e1e6 ec3f 0348 7802 c373 dabf
00000110: b5be 2144 0258 e9bf c6fe e461 8db4 e03f
00000120: 0a48 c438 3609 fb3f 0472 9fa5 ed1b e03f
00000130: 8e90 8ab1 45f3 f4bf 613a 3d60 7e20 f83f
00000140: e667 2417 d5cf f2bf 7189 0a94 9548 d6bf
00000150: 6121 9bae 9c6e f63f f906 5fb9 9adf f1bf
00000160: c406 f15d b196 d83f 39a3 761f e766 f93f
00000170: 7800 ab05 6ec7 e6bf 3802 9c55 f563 aabf

output_mask f8 [16]
1.0 1.0 1.0 1.0 1.0 1.0 1.0 1.0
1.0 1.0 1.0 1.0 1.0 1.0 1.0 1.0
00000000: 0000 0000 0000 f03f 0000 0000 0000 f03f
00000010: 0000 0000 0000 f03f 0000 0000 0000 f03f
00000020: 0000 0000 0000 f03f 0000 0000 0000 f03f
00000030: 0000 0000 0000 f03f 0000 0000 0000 f03f
00000040: 0000 0000 0000 f03f 0000 0000 0000 f03f
00000050: 0000 0000 0000 f03f 0000 0000 0000 f03f
00000060: 0000 0000 0000 f03f 0000 0000 0000 f03f
00000070: 0000 0000 0000 f03f 0000 0000 0000 f03f

bessel_weights f8 [8]
0.7853981633974483 1.5707963267948966 2.356194490192345 3.141592653589793 3.9269908169872414 4.71238898038469 5.497787143782138 6.283185307179586
00000000: 182d 4454 fb21 e93f 182d 4454 fb21 f93f
00000010: d221 337f 7cd9 0240 182d 4454 fb21 0940
00000020: 5e38 5529 7a6a 0f40 d221 337f 7cd9 1240
00000030: 75a7 bbe9 bbfd 1540 182d 4454 fb21 1940

r_max f8 []
4.0
00000000: 0000 0000 0000 1040

prefactor f8 []
0.7071067811865476
00000000: cd3b 7f66 9ea0 e63f

p f8 []
5.0
00000000: 0000 0000 0000 1440

r_max f8 []
4.0
00000000: 0000 0000 0000 1040

atomic_energies f8 [3]
-10.707211383396714 -48.847445262804705 -102.57117256025786
00000000: 7a18 469c 176a 25c0 bb72 1c16 796c 48c0
00000010: 87ab 5a17 8ea4 59c0

weight f8 [256]
1.5493296634261218 -0.5570265843466421 -0.7695123140460587 0.8717763525086843 -0.5506511913284443 -0.5006405777938685 1.5177245528359224 0.8872447677635404
0.11181614302350744 0.12886863574950402 0.6804815528006628 -1.0727158071104723 -0.33645670573645575 -2.2904744286922933 -1.4356182277149854 -1.6613081538643732
0.34912372873905717 1.01295249062283 0.9307092723984751 -0.9859570717007804 -1.514204167734662 1.0323223736377527 -0.23421344674334926 1.5081551872532613
0.7438801663394204 -1.4458851669217385 0.7063359334598744 0.9909996988219543 -0.00789686257243312 0.9728327360990301 -1.6929513585892946 0.16929017973600527
-1.0761610417848482 -0.5311035422668227 -1.7415433873256487 2.599663083593218 0.5600048907606524 1.0738467909565608 -0.5772920556119019 0.01129820127660091
0.5421171230178721 -0.38103019636521807 1.9374239547143477 -0.38948505173908504 -0.8272159178700499 -0.7383822708258555 0.06892372310933166 -0.8995994250275748
-0.6984545678472969 0.6418085368542218 1.039481555537263 1.2139514339959268 -0.6618580820513837 -0.2999728956690642 -0.14546677874461716 -2.227137799705621
0.7412795850263423 2.0568879596994454 1.052799080363866 -1.3707572203207972 0.31920147827102596 -0.9599924811070306 0.8096729547406767 -0.3648932651916004
-0.8259987080510218 0.6308075646638291 -0.7759953961853744 0.41129908594004544 -1.0002083073899986 0.03324726316850061 0.25639547560676346 2.0903796015420073
1.6887387716339022 0.629950966122346 0.33932574069940646 0.7445940241473789 -0.30768389078066777 -0.7910477641238705 2.006124500779129 -1.1149254426291073
0.7596620029384458 -0.3164104317592957 -1.4026516713153314 -0.38636912018252184 -0.30675845221432385 0.3782925729851847 0.8580164100364057 0.8145976894817445
-0.6157414109603816 0.6681905568379475 0.08334639004975763 -2.7297069585777467 1.2201714848333456 -0.8495558473062313 -1.586638723405381 -0.05768412606858087
-0.9123603793492845 -0.16799286054340237 -0.14946668773431257 0.4621884314226389 0.884616124779181 -0.5762534251818767 0.8339608558049978 -1.4696674798137312
-1.0351994443511212 0.20935001804279116 0.7909593068149657 0.46072517136430524 -1.1506093408112692 1.6157575554973385 -2.174244871157867 0.25084681188448743
1.4927528533846 -0.8430626036002103 0.5762920662825228 0.19150760424834196 -0.2627991997377341 1.2451156785787554 -0.6941721282784261 0.006787234780194164
-1.884652560815667 0.5150337995012523 -0.8763686364121906 -0.21397454976655172 0.6330137751176079 -0.21862589277485917 -0.12452554340740465 -1.7222394863126873
0.875590215030643 0.40367890263367956 0.14222211490812586 -2.7779051593703263 -0.8902945020448341 1.6259235570923565 0.48737849096086877 1.175978384629078
0.22368675543966768 -0.022581331027017683 -1.6980627939949668 -1.590432257009951 -1.1551150437309725 1.5921339003123687 1.5060309141755641 1.1564959392694216
-0.5685018298064011 0.16918982550624004 1.2358787415095385 -0.06566778421810246 -1.1116701077033562 -1.203013757468 -0.06844486787597691 0.6724839713954971
-0.4503653547008643 -1.1746295372264792 -0.5208687055814397 0.46151469095888437 -0.2681539405380019 2.036379359648458 -0.6363405839585051 1.3460353948918446
-0.8433080429252237 -0.48897620377350903 0.24995439011430343 0.6600702538579237 -1.6571960627626454 -2.510125135492699 1.6964534070954536 -0.4095468660183311
0.9550915841109173 -0.39937936757753845 0.3877795516807525 -1.8928343720964178 1.083952173786805 -1.789034226788608 0.08017341495682638 0.9293737414747233
-0.022794019419870724 -0.24870360877418618 0.623441198145073 0.4140123958154078 1.5036610884120365 -1.1456219327918566 -0.06545979542972123 -1.3593893798775696
0.020518658375155537 1.1321105105123137 0.431421322970043 -0.5422843289472942 1.0953444923103801 0.29786355909746726 -0.44453438886940283 1.1516527107453942
0.6039887547532006 0.5436370445081545 0.903946246036395 1.1704576399665012 0.7959166731047181 0.8158270340812271 -1.3148065569823417 -0.9545883663817687
-0.41691197785413986 -0.15911154021748242 -0.8808974882772291 0.6827840376772186 -0.8586460983033498 1.6513939773422344 0.6267571965867292 -1.958060890943253
0.8417836268505655 -1.3896505122473553 0.6272719748581334 -0.08508237207578652 -0.54431578560762 0.05930472670396603 -0.5868727879034035 1.020829471853746
0.6399413890196209 0.4834595413412026 1.0256130513241937 -0.16171622454755014 0.08686067979418206 -0.525474200671658 -0.3647922102503527 -2.465242624039403
2.361174899667469 -1.6341499284717471 -0.0377081277992328 1.9138347429687035 0.8158585097882283 1.709024265780187 -0.61869905946235 -0.6131185242490755
-0.42143406392748534 -1.60474820268783 -0.6955107877991571 -1.0589666263089013 -1.5922470469954233 1.276011373117173 -0.16953882054636238 0.1994011854553333
0.5060592990595649 0.19317764159003953 1.6802334828514527 0.7749920317765767 1.119010826806001 -1.6094927417572389 -1.1030738286694244 0.8370385946194641
-0.7103657668774404 0.6237484924846248 -0.732050361723944 1.3573811025956117 0.06984252377283266 -0.435001072582268 -1.7116214914371244 -0.1209134016409312
00000000: c234 b2e6 0dca f83f 6baf 586a 29d3 e1bf
00000010: ac4e d649 d89f e8bf 526e 6e85 97e5 eb3f
00000020: 9b4a 483f ef9e e1bf 509b 9563 3f05 e0bf
00000030: a143 6c8a 9948 f83f beed a223 4f64 ec3f
00000040: 2369 7395 fb9f bc3f d41a 0378 c47e c03f
00000050: b3ec d93f 81c6 e53f 4c11 d70c d829 f1bf
00000060: 3b1c eab4 8188 d5bf 2376 dc41 e452 02c0
00000070: cc3c 99d1 4af8 f6bf 56cf d6db b794 fabf
00000080: e046 4c0d 0b58 d63f 6107 baab 0d35 f03f
00000090: 0c22 e1cf 5ec8 ed3f 78df 46d8 f58c efbf
000000a0: 4432 3e26 2e3a f8bf 7940 1b77 6484 f03f
000000b0: 5ae7 05cb b4fa cdbf 6cba 6855 6721 f83f
000000c0: 6944 52c7 ddcd e73f b534 1b7c 5822 f7bf
000000d0: b464 c6d0 4d9a e63f 1628 1900 45b6 ef3f
000000e0: e8b6 eaf3 3a2c 80bf c8c0 401e 7221 ef3f
000000f0: b2c1 ed29 5416 fbbf 6d03 c0f4 4cab c53f
00000100: 971f fba3 f437 f1bf 9a6c 1adb ccfe e0bf
00000110: 3f0f 5299 5cdd fbbf 0a36 a528 1ccc 0440
00000120: 8358 6d60 8feb e13f ea2a 01f9 792e f13f
00000130: daff 6230 2d79 e2bf 5c9c e4e7 8223 873f
00000140: ecd3 3e02 0659 e13f 1c55 0b7a cc62 d8bf
00000150: 01c3 bf42 b0ff fe3f e703 e0b5 52ed d8bf
00000160: 8770 3f84 8d78 eabf 9f95 24db d3a0 e7bf
00000170: d552 ac30 fca4 b13f 85cd bfbb 84c9 ecbf
00000180: a6ab d464 bd59 e6bf c9a3 820e b289 e43f
00000190: 793e 5d69 b7a1 f03f ef1d bf56 586c f33f
000001a0: 9620 2000 f12d e5bf 7971 2584 c132 d3bf
000001b0: a269 aec8 a79e c2bf 4b5e 6b9f 2dd1 01c0
000001c0: ce2d dcf6 8fb8 e73f f18f b3ac 8174 0040
000001d0: 34bf 36d9 43d8 f03f ff89 801f 9fee f5bf
000001e0: 0092 8009 cc6d d43f ca56 d826 42b8 eebf
000001f0: 0024 a241 d7e8 e93f 3dd4 2148 695a d7bf
00000200: aac1 b3d7 946e eabf 1e9e 8958 932f e43f
00000210: d1ce 0e4c f4d4 e8bf 192e bf66 b952 da3f
00000220: 48d7 166d da00 f0bf 85fd fa07 c905 a13f
00000230: d4b2 a491 c868 d03f 97c9 c6f0 18b9 0040
00000240: 277a 3af2 1205 fb3f d387 b2ed 8e28 e43f
00000250: e2ac bf4f 83b7 d53f 2352 d0d8 b6d3 e73f
00000260: 1f2d 1ac6 17b1 d3bf de8c 8f66 4350 e9bf
00000270: ce67 9400 8b0c 0040 1d20 990f bcd6 f1bf
00000280: aa4d 54b0 264f e83f 173e 218a 1140 d4bf
00000290: 5aaa ffe0 4271 f6bf ff90 d78b 45ba d8bf
000002a0: ec0d 0234 eea1 d3bf c0a0 520d f235 d83f
000002b0: bf34 91d4 de74 eb3f 8714 772c 2f11 ea3f
000002c0: 7cc4 db54 27b4 e3bf 31ae a329 d161 e53f
000002d0: c8dc 8063 3056 b53f 570a 169a 70d6 05c0
000002e0: 88ef ed88 d285 f33f 63c9 89be 8f2f ebbf
000002f0: 297e 3949 df62 f9bf b100 ed15 c688 adbf
00000300: 2415 ef64 0e32 edbf 5569 ff40 ca80 c5bf
00000310: 4385 d473 b921 c3bf 7a2f 63c9 7e94 dd3f
00000320: 571b ae79 c64e ec3f 10a7 eb05 ab70 e2bf
00000330: d073 3aad ceaf ea3f 28b7 1c0c c283 f7bf
00000340: fe34 e54a 2d90 f0bf 0795 743c fbcb ca3f
00000350: 6396 67e4 894f e93f 3409 dd6d 857c dd3f
00000360: b41a 1457 e568 f2bf fd03 3298 24da f93f
00000370: 3ff3 b87e da64 01c0 1a62 56c9 df0d d03f
00000380: b9c2 e4d0 50e2 f73f 4731 de6c 5efa eabf
00000390: 1e16 340f fc70 e23f ca49 9738 5283 c83f
000003a0: 6f77 12bc b3d1 d0bf bdb8 f36a feeb f33f
000003b0: 9004 9877 a836 e6bf 824e 9476 eecc 7b3f
000003c0: 416a 9071 8927 febf f528 a629 287b e03f
000003d0: d72c 143d 360b ecbf a03a b69e 8463 cbbf
000003e0: 2486 c11a a641 e43f ee6e c3e9 eefb cbbf
000003f0: 0291 73f0 e7e0 bfbf 3d7c d9fd 4a8e fbbf
00000400: 9122 48c5 d504 ec3f 8865 3909 e0d5 d93f
00000410: 7c30 2692 5534 c23f ee14 1757 2639 06c0
00000420: d8ea 42e5 4a7d ecbf 601f 786b c803 fa3f
00000430: 4dd9 dc8d 3531 df3f 8a8e ecb5 ced0 f23f
00000440: 55b3 9481 c4a1 cc3f aa75 0b79 8f1f 97bf
00000450: 4c34 6ce4 432b fbbf 80c7 2518 6972 f9bf
00000460: fe12 7fe9 597b f2bf de1c 8b65 6179 f93f
00000470: 6e62 32df b318 f83f 4be7 d1e2 0181 f23f
00000480: 4282 d7bf 2a31 e2bf 6fc0 ae1f 03a8 c53f
00000490: 83ae 89c9 28c6 f33f c616 9e99 9acf b0bf
000004a0: 6a6d 4898 66c9 f1bf 0169 8f5a 8b3f f3bf
000004b0: 873a 1b55 9a85 b1bf a04a 071b fd84 e53f
000004c0: 0744 6c35 c9d2 dcbf 7eda 7457 48cb f2bf
000004d0: a96d ffd8 f4aa e0bf 65af 12ea 7489 dd3f
000004e0: 2edf 3925 6f29 d1bf 3284 ff42 814a 0040
000004f0: af04 a7ed e65c e4bf 4a1a 0569 5c89 f53f
00000500: c729 1a26 61fc eabf 5caf eed8 624b dfbf
00000510: e42a 8465 81fe cf3f fc3a 2ca7 4b1f e53f
00000520: 2702 ca04 e083 fabf 3d78 ae7c bc14 04c0
00000530: 9d9a ea53 ac24 fb3f fa97 ee0e 0436 dabf
00000540: 801e ce39 1c90 ee3f 0a55 9c7a 6e8f d9bf
00000550: 1cb0 2153 61d1 d83f 8661 ceb1 0c49 febf
00000560: 9e7a 0d3c de57 f13f 1eb5 775a e29f fcbf
00000570: 778a 3fb3 3e86 b43f 9fa4 2c00 6ebd ed3f
00000580: 6999 cfbf 5057 97bf 1489 0a15 85d5 cfbf
00000590: 7d63 a0f4 3af3 e33f 339c 0ad9 2d7f da3f
000005a0: 9af5 efed fe0e f83f c9bd eea9 7754 f2bf
000005b0: 17d1 9220 f9c1 b0bf 80a9 1114 0fc0 f5bf
000005c0: 3f63 b7da d702 953f 66bb 21e9 1f1d f23f
000005d0: 5004 3d2e 689c db3f 2bc8 3eaa 645a e1bf
000005e0: 993a 45f2 8786 f13f 2d9a 3f51 3210 d33f
000005f0: 370d 895d 4073 dcbf fb04 9064 2b6d f23f
00000600: e822 9a39 e053 e33f d5cf e183 7965 e13f
00000610: 662f 82ad 20ed ec3f c526 50ca 31ba f23f
00000620: ab6d 2a3e 2678 e93f 1f4a d24b 411b ea3f
00000630: 67e3 ac99 7209 f5bf 700e d8e6 fc8b eebf
00000640: e36d 8c93 afae dabf 3c3c d356 c45d c4bf
00000650: 8eef e8ed 4f30 ecbf 59be 01e9 5dd9 e53f
00000660: e1a0 e161 077a ebbf b0f0 5717 1c6c fa3f
00000670: b5ec bb1b 650e e43f a8d8 22a8 3754 ffbf
00000680: cf34 7437 e4ef ea3f 788d ef2c 023c f6bf
00000690: 09d1 36ad 9c12 e43f 6117 8855 f5c7 b5bf
000006a0: 6833 3cf0 086b e1bf 512d 626b 305d ae3f
000006b0: 88a3 de70 a9c7 e2bf 077a c648 5155 f03f
000006c0: 5546 265d 667a e43f dcf9 bf49 00f1 de3f
000006d0: 649c 1c3b e968 f03f 7208 d503 1eb3 c4bf
000006e0: 253b 0663 803c b63f 30d9 5845 afd0 e0bf
000006f0: b017 376d c158 d7bf bca2 f71f d1b8 03c0
00000700: b3a9 71aa afe3 0240 13c0 3865 7a25 fabf
00000710: fcd6 61cf 7a4e a3bf 82fc ef2d 119f fe3f
00000720: 0285 364e 831b ea3f 828a 19d4 2958 fb3f
00000730: b89d 4ef8 61cc e3bf 0a17 47bd aa9e e3bf
00000740: 834a 7f94 c6f8 dabf 80be 8d73 0cad f9bf
00000750: 389a f3d6 9f41 e6bf bfd5 38fd 86f1 f0bf
00000760: 79f7 1f0a d879 f9bf 07cc cde6 8a6a f43f
00000770: b813 d3b4 72b3 c5bf 923a 2861 fa85 c93f
00000780: 3e85 6945 a331 e03f ea4b 7982 0bba c83f
00000790: d1db 2781 3ce2 fa3f fd82 e416 bccc e83f
000007a0: f106 90e5 77e7 f13f 8bf2 0f76 7bc0 f9bf
000007b0: c656 33be 30a6 f1bf 3c2c ac29 05c9 ea3f
000007c0: 5af8 1dfd 50bb e6bf 12d3 0466 bff5 e33f
000007d0: 4e23 54e1 f46c e7bf 86b4 3d3f d5b7 f53f
000007e0: 8373 791b 33e1 b13f 11cf 1dbd 0ed7 dbbf
000007f0: aea6 8d37 cd62 fbbf 4e27 b241 2ef4 bebf

output_mask f8 [16]
1.0 1.0 1.0 1.0 1.0 1.0 1.0 1.0
1.0 1.0 1.0 1.0 1.0 1.0 1.0 1.0
00000000: 0000 0000 0000 f03f 0000 0000 0000 f03f
00000010: 0000 0000 0000 f03f 0000 0000 0000 f03f
00000020: 0000 0000 0000 f03f 0000 0000 0000 f03f
00000030: 0000 0000 0000 f03f 0000 0000 0000 f03f
00000040: 0000 0000 0000 f03f 0000 0000 0000 f03f
00000050: 0000 0000 0000 f03f 0000 0000 0000 f03f
00000060: 0000 0000 0000 f03f 0000 0000 0000 f03f
00000070: 0000 0000 0000 f03f 0000 0000 0000 f03f

output_mask f8 [144]
1.0 1.0 1.0 1.0 1.0 1.0 1.0 1.0
1.0 1.0 1.0 1.0 1.0 1.0 1.0 1.0
1.0 1.0 1.0 1.0 1.0 1.0 1.0 1.0
1.0 1.0 1.0 1.0 1.0 1.0 1.0 1.0
1.0 1.0 1.0 1.0 1.0 1.0 1.0 1.0
1.0 1.0 1.0 1.0 1.0 1.0 1.0 1.0
1.0 1.0 1.0 1.0 1.0 1.0 1.0 1.0
1.0 1.0 1.0 1.0 1.0 1.0 1.0 1.0
1.0 1.0 1.0 1.0 1.0 1.0 1.0 1.0
1.0 1.0 1.0 1.0 1.0 1.0 1.0 1.0
1.0 1.0 1.0 1.0 1.0 1.0 1.0 1.0
1.0 1.0 1.0 1.0 1.0 1.0 1.0 1.0
1.0 1.0 1.0 1.0 1.0 1.0 1.0 1.0
1.0 1.0 1.0 1.0 1.0 1.0 1.0 1.0
1.0 1.0 1.0 1.0 1.0 1.0 1.0 1.0
1.0 1.0 1.0 1.0 1.0 1.0 1.0 1.0
1.0 1.0 1.0 1.0 1.0 1.0 1.0 1.0
1.0 1.0 1.0 1.0 1.0 1.0 1.0 1.0
00000000: 0000 0000 0000 f03f 0000 0000 0000 f03f
00000010: 0000 0000 0000 f03f 0000 0000 0000 f03f
00000020: 0000 0000 0000 f03f 0000 0000 0000 f03f
00000030: 0000 0000 0000 f03f 0000 0000 0000 f03f
00000040: 0000 0000 0000 f03f 0000 0000 0000 f03f
00000050: 0000 0000 0000 f03f 0000 0000 0000 f03f
00000060: 0000 0000 0000 f03f 0000 0000 0000 f03f
00000070: 0000 0000 0000 f03f 0000 0000 0000 f03f
00000080: 0000 0000 0000 f03f 0000 0000 0000 f03f
00000090: 0000 0000 0000 f03f 0000 0000 0000 f03f
000000a0: 0000 0000 0000 f03f 0000 0000 0000 f03f
000000b0: 0000 0000 0000 f03f 0000 0000 0000 f03f
000000c0: 0000 0000 0000 f03f 0000 0000 0000 f03f
000000d0: 0000 0000 0000 f03f 0000 0000 0000 f03f
000000e0: 0000 0000 0000 f03f 0000 0000 0000 f03f
000000f0: 0000 0000 0000 f03f 0000 0000 0000 f03f
00000100: 0000 0000 0000 f03f 0000 0000 0000 f03f
00000110: 0000 0000 0000 f03f 0000 0000 0000 f03f
00000120: 0000 0000 0000 f03f 0000 0000 0000 f03f
00000130: 0000 0000 0000 f03f 0000 0000 0000 f03f
00000140: 0000 0000 0000 f03f 0000 0000 0000 f03f
00000150: 0000 0000 0000 f03f 0000 0000 0000 f03f
00000160: 0000 0000 0000 f03f 0000 0000 0000 f03f
00000170: 0000 0000 0000 f03f 0000 0000 0000 f03f
00000180: 0000 0000 0000 f03f 0000 0000 0000 f03f
00000190: 0000 0000 0000 f03f 0000 0000 0000 f03f
000001a0: 0000 0000 0000 f03f 0000 0000 0000 f03f
000001b0: 0000 0000 0000 f03f 0000 0000 0000 f03f
000001c0: 0000 0000 0000 f03f 0000 0000 0000 f03f
000001d0: 0000 0000 0000 f03f 0000 0000 0000 f03f
000001e0: 0000 0000 0000 f03f 0000 0000 0000 f03f
000001f0: 0000 0000 0000 f03f 0000 0000 0000 f03f
00000200: 0000 0000 0000 f03f 0000 0000 0000 f03f
00000210: 0000 0000 0000 f03f 0000 0000 0000 f03f
00000220: 0000 0000 0000 f03f 0000 0000 0000 f03f
00000230: 0000 0000 0000 f03f 0000 0000 0000 f03f
00000240: 0000 0000 0000 f03f 0000 0000 0000 f03f
00000250: 0000 0000 0000 f03f 0000 0000 0000 f03f
00000260: 0000 0000 0000 f03f 0000 0000 0000 f03f
00000270: 0000 0000 0000 f03f 0000 0000 0000 f03f
00000280: 0000 0000 0000 f03f 0000 0000 0000 f03f
00000290: 0000 0000 0000 f03f 0000 0000 0000 f03f
000002a0: 0000 0000 0000 f03f 0000 0000 0000 f03f
000002b0: 0000 0000 0000 f03f 0000 0000 0000 f03f
000002c0: 0000 0000 0000 f03f 0000 0000 0000 f03f
000002d0: 0000 0000 0000 f03f 0000 0000 0000 f03f
000002e0: 0000 0000 0000 f03f 0000 0000 0000 f03f
000002f0: 0000 0000 0000 f03f 0000 0000 0000 f03f
00000300: 0000 0000 0000 f03f 0000 0000 0000 f03f
00000310: 0000 0000 0000 f03f 0000 0000 0000 f03f
00000320: 0000 0000 0000 f03f 0000 0000 0000 f03f
00000330: 0000 0000 0000 f03f 0000 0000 0000 f03f
00000340: 0000 0000 0000 f03f 0000 0000 0000 f03f
00000350: 0000 0000 0000 f03f 0000 0000 0000 f03f
00000360: 0000 0000 0000 f03f 0000 0000 0000 f03f
00000370: 0000 0000 0000 f03f 0000 0000 0000 f03f
00000380: 0000 0000 0000 f03f 0000 0000 0000 f03f
00000390: 0000 0000 0000 f03f 0000 0000 0000 f03f
000003a0: 0000 0000 0000 f03f 0000 0000 0000 f03f
000003b0: 0000 0000 0000 f03f 0000 0000 0000 f03f
000003c0: 0000 0000 0000 f03f 0000 0000 0000 f03f
000003d0: 0000 0000 0000 f03f 0000 0000 0000 f03f
000003e0: 0000 0000 0000 f03f 0000 0000 0000 f03f
000003f0: 0000 0000 0000 f03f 0000 0000 0000 f03f
00000400: 0000 0000 0000 f03f 0000 0000 0000 f03f
00000410: 0000 0000 0000 f03f 0000 0000 0000 f03f
00000420: 0000 0000 0000 f03f 0000 0000 0000 f03f
00000430: 0000 0000 0000 f03f 0000 0000 0000 f03f
00000440: 0000 0000 0000 f03f 0000 0000 0000 f03f
00000450: 0000 0000 0000 f03f 0000 0000 0000 f03f
00000460: 0000 0000 0000 f03f 0000 0000 0000 f03f
00000470: 0000 0000 0000 f03f 0000 0000 0000 f03f

weight f8 [8, 64]
-0.9883486528897473 0.6474278606376116 -0.9063548105210665 -0.5659191928881117 -0.8606571271943678 -0.9289125622216043 -0.15280887516417846 -1.066215546553598
0.7829582945023899 -0.34582389237865796 -0.020383353101013236 -1.022782244246831 -0.4506998401121566 0.9624351310765329 0.8234642105898569 0.7332683175242637
-1.7470712364256573 -0.8512921878334581 1.7426468278141103 -1.1830856559605405 -0.6336058144587048 1.0363896437930435 1.5318194690718925 1.6497947325055262
-0.2205478300041894 0.0059399526462574626 -1.0278466384504306 -0.6986182942021701 1.935448607698096 0.7037202100744638 0.4238345206671893 0.655320949343475
-0.42083297523292373 -0.48323727294632157 -0.41777453114742563 -1.1139075719426055 0.06254844680333768 -0.3049715214695213 1.3231495643076552 1.8127428063677
-1.1058521822473046 0.6892121026406287 0.14057905070970034 -0.672976576870511 0.5603911401575011 -0.20303054821565483 -0.4540874855755111 -0.4927368118127772
0.8204840995674942 -0.14359995582448573 -0.2655220456679772 -2.565021609545984 0.8564387629570235 -0.9717670083501416 -0.5866303588004615 -1.7827734508343631
1.4067780110263313 -0.28161385971166003 1.405011522331121 -1.248396559155478 0.7061294035652177 -0.9952872538718929 0.8191029818887028 -0.06947727784015563
1.9410271126979557 -0.08776866628922347 -0.623974586352215 1.3556707939812815 -1.1410955548354433 -0.7255367509640146 1.5832791087822007 1.0244511802053031
1.4892874691669165 1.8640327008669348 1.2347072083780979 -0.47897375013157445 -0.32942294156223195 0.6314537697230655 -0.0454355757085788 -1.6955744909715011
-1.1762204276558899 -0.09539859464065215 -1.4060772555716297 0.4865464711033422 -0.049601319489487504 -1.4214446742883171 -0.4244336368806143 -0.25631612457901326
-0.1358012470795478 0.2198765369651919 -0.8504940113200691 -1.0321974673825576 -0.5677265567463775 0.03512567572811452 -0.7566454947556575 0.9692150872163907
-1.1113311211846597 1.2597594660165499 1.0519278936785021 2.389641681930428 -1.7852482878674238 0.5422862928285179 -0.44685919535738156 -0.18667918868424985
1.5482548116155879 -0.2573162068972891 -1.8465256215180585 -0.11903778623577753 1.2747444276253679 1.7465975525790582 -0.006261283651477349 -1.3905643088677753
-0.2279729615954647 0.47514479784161107 0.21372187527787925 0.7661454255371474 0.29758192619908996 0.17701203399541857 0.751797089175646 0.344903086952429
-0.0055733515796099345 1.3627867179983184 1.7513011242364054 2.471940665106581 -0.5589373675867622 -0.28435186510952754 -1.316376845234998 1.482946577373793
0.13456334961290672 -0.06694797937229262 -0.9642166383846841 -0.023436236229140123 -0.9944181983078084 -1.716722285602687 -0.8856832539390113 -0.11340783274825932
0.4226533347946051 1.6078393791061398 -2.726842888460478 0.1971221057964302 -0.6716419815785359 0.606656497097777 -0.34029410998439663 0.8422566531762504
0.7279293042241577 -0.5165580230755419 -0.12059894406545729 0.31891317279665393 -0.1720764951546412 -0.5973891651371237 0.256995534386023 -0.7619443551864191
-1.5848013022731222 0.37906098659063514 -0.8823000819776761 -0.3544401616057717 -0.3654140629358749 1.4804679020109877 -0.6098765202834151 -2.349975898666563
-1.869416214584115 0.1709396628159455 1.0040999101957648 1.2920835715517403 0.9138299261569769 -0.027974348450995706 1.334094581934558 0.23640975219222274
1.2861168608641533 0.8666953035718893 0.606444751164446 -2.7438747746882424 -0.5334191822827016 0.16198098204025474 0.6086465423948901 -1.9709345052071232
0.4500634793916309 -0.11855186018793774 0.500327260526245 0.2132902741861663 0.25142125304320756 -0.18422867280236813 -0.5675879665340097 -0.1289021069231321
0.30737003196462426 2.548864057959153 0.6071754694387059 -0.9304956734304419 -1.537466076121673 0.7258733588925145 -1.0366466766565254 1.6556748664184935
-0.30359767529114595 -0.41575084570592175 -0.17950791801574806 -0.17967359066269264 1.1310425252321563 0.5140754225328512 0.4895293102498623 -0.6663299178607663
0.8972783233660577 -0.959551847690859 0.32359329166880313 0.5901086901616611 -0.7552217048100714 -2.5143556548747408 1.5614337940440195 0.4947797142002535
-0.2154594573419761 0.3088950250937467 -0.6154867850377304 0.9141798311854208 1.9099535940984715 -0.5520167300062983 -0.8607123762681522 -1.0764799777432223
-0.009994092990471725 2.7652100676051 0.08792796675210372 -0.44304813528740794 0.07825788523648124 0.3756061414423277 -0.8069814906382199 -0.10745911374431491
0.20797681398803494 0.9655240258141887 -0.7015430186580494 0.04310797476905704 -1.036256360833289 1.1280480426737047 -1.0737052823474265 -0.037797477982442804
0.013005047055426345 0.76403154789653 -1.3118518278282143 -0.8446476805990477 -0.011636562603938094 -1.4262282342323898 0.24354144658535765 -1.465861649194649
-0.9455602117797197 0.41508424806027555 0.06302371010000066 1.4079093244165226 -1.7851663002503813 0.8616205227124099 0.2851572652773994 -1.3191355045822604
-0.5085519531809642 -1.0515753617973238 -0.6530513141030005 1.243109413524923 0.6484610588823408 0.5801109594813382 -0.2056742601463409 -0.6756660124120851
00000000: bba0 a65a 8da0 efbf 32a6 fea1 bab7 e43f
00000010: 0754 b8cd db00 edbf cf42 3491 021c e2bf
00000020: d9cf cbd0 808a ebbf 3cbb 72d6 a6b9 edbf
00000030: 5631 afc0 3d8f c3bf 96f3 6e08 380f f1bf
00000040: 64a1 a08d fe0d e93f ca45 fc88 fa21 d6bf
00000050: 1d83 ceab 5fdf 94bf 9483 1fea 505d f0bf
00000060: 6a06 6624 44d8 dcbf 88d8 8fc2 44cc ee3f
00000070: d61d bd9d d159 ea3f 81b5 5e1e ef76 e73f
00000080: 0eb0 03f8 00f4 fbbf 40b8 421d c93d ebbf
00000090: 3409 dfa3 e1e1 fb3f c579 8b39 ebed f2bf
000000a0: 85fa 74b3 7f46 e4bf 4011 a04e 0d95 f03f
000000b0: 46a3 b021 5582 f83f bf96 5329 8f65 fa3f
000000c0: 772f 894a e93a ccbf 80fb afe5 7d54 783f
000000d0: 902b 1751 0f72 f0bf 428a bfc0 145b e6bf
000000e0: d26e 92f5 98f7 fe3f f5ba f93e e084 e63f
000000f0: 4a9c 4bd3 1a20 db3f 730b baa3 63f8 e43f
00000100: d20a 6d6e edee dabf b2cf e006 5ced debf
00000110: b750 1863 d1bc dabf 042a 04bf 90d2 f1bf
00000120: 2e99 6fcd 2c03 b03f b511 bb45 a784 d3bf
00000130: 3eb0 a6e0 9e2b f53f 5989 d699 fe00 fd3f
00000140: 0366 cf0e 92b1 f1bf 272a 1b8a 060e e63f
00000150: 8483 a68c 7efe c13f 8340 942c 0689 e5bf
00000160: 533a 7e66 b9ee e13f 956c 56ae e7fc c9bf
00000170: d575 04f5 c40f ddbf 165b 11fb ff88 dfbf
00000180: 00f9 d0de 6741 ea3f 2d92 fcbc 7b61 c2bf
00000190: e8b3 a02d 50fe d0bf 2a44 b40c 2a85 04c0
000001a0: e7aa bd43 f267 eb3f 7f42 0620 b718 efbf
000001b0: 7670 bc07 adc5 e2bf a32b 3874 3d86 fcbf
000001c0: b970 e1a8 2982 f63f 5df6 6323 f605 d2bf
000001d0: 3aa5 ae5c ed7a f63f f42f a0ab 6ef9 f3bf
000001e0: a2cf e1b0 9c98 e63f 7a2c b0a7 64d9 efbf
000001f0: f093 e874 1736 ea3f 9579 234c 43c9 b1bf
00000200: 0ffe 1a72 720e ff3f 8464 53df 0178 b6bf
00000210: 5e5f 3d8d 99f7 e3bf dcab c4db d3b0 f53f
00000220: 3811 9a69 ed41 f2bf 21f8 2dd9 9837 e7bf
00000230: a28d 8a79 1c55 f93f 3c49 b5eb 2664 f03f
00000240: daa1 e618 1fd4 f73f 5b5e 0ef4 13d3 fd3f
00000250: 03e9 8158 5cc1 f33f 1f49 1d84 81a7 debf
00000260: 42f6 23f6 4315 d5bf faaf 3c89 de34 e43f
00000270: ee8e 7cef 5443 a7bf 9b78 aab7 1221 fbbf
00000280: f7b4 da82 ccd1 f2bf e0e2 10d4 0a6c b8bf
00000290: f945 45dd 4a7f f6bf 47e0 57cf 9323 df3f
000002a0: 9b72 171a 5865 a9bf 6144 52c5 3cbe f6bf
000002b0: 7c5f 6eb3 eb29 dbbf d746 20bf 7b67 d0bf
000002c0: e138 7b6d ef61 c1bf 8b2c b613 ea24 cc3f
000002d0: 9b08 8237 3f37 ebbf f8c0 d67d e183 f0bf
000002e0: f17b 49e2 d02a e2bf 2e1a 0119 fefb a13f
000002f0: 6f85 d49c 7036 e8bf 404b cc5b cf03 ef3f
00000300: f53d 4824 03c8 f1bf 4de1 b58a f927 f43f
00000310: dd96 d157 b2d4 f03f a065 4875 fc1d 0340
00000320: da16 3a82 6090 fcbf e28f 98c8 685a e13f
00000330: 5d84 7e4f 5799 dcbf b10f 1f89 1ae5 c7bf
00000340: ab37 5cd6 a6c5 f83f 33b2 5665 de77 d0bf
00000350: 9256 3a73 5e8b fdbf 87f3 dea6 4279 bebf
00000360: 0f8c b669 5a65 f43f 739c 7946 10f2 fb3f
00000370: 5ea6 3988 6ea5 79bf a826 595c c03f f6bf
00000380: 5a5f 36cf 372e cdbf 3508 e6b9 c568 de3f
00000390: 650f 6108 3d5b cb3f 862f 5569 4384 e83f
000003a0: 40f8 3910 950b d33f 251f 8190 54a8 c63f
000003b0: be98 e7c4 b80e e83f 1402 b065 e412 d63f
000003c0: 1170 372c 15d4 76bf 809d 1372 f9cd f53f
000003d0: beb1 e053 5405 fc3f 3348 d2d3 88c6 0340
000003e0: e884 499e d0e2 e1bf f7ed 4c2a d232 d2bf
000003f0: 7eef b72a e10f f5bf b791 b830 26ba f73f
00000400: 64f0 e930 5f39 c13f 8bf1 efb5 8023 b1bf
00000410: 7fe1 03da dcda eebf 98fa 9430 abff 97bf
00000420: dcef 081d 46d2 efbf 87a5 8fc9 b177 fbbf
00000430: a70d 4968 8457 ecbf 4396 c3b4 4b08 bdbf
00000440: 243e 9f92 c00c db3f 85b5 e7c8 b5b9 f93f
00000450: b824 1a01 93d0 05c0 d46e db12 4c3b c93f
00000460: a803 3053 177e e5bf 9e1b dee2 ba69 e33f
00000470: dde1 59f2 60c7 d5bf 855f 8739 c4f3 ea3f
00000480: 5a2b 6e65 324b e73f 5511 f3b0 a487 e0bf
00000490: 4c7a b188 92df bebf e536 dbcb 1269 d43f
000004a0: f9bb 8c43 9a06 c6bf 44f5 e7e1 cf1d e3bf
000004b0: 1bfc d965 9d72 d03f 24b8 dc20 d961 e8bf
000004c0: 86bd 3e9c 585b f9bf 5429 2603 8942 d83f
000004d0: 8845 ab61 cd3b ecbf 6f16 9fc9 25af d6bf
000004e0: 65b7 73aa f162 d7bf 88a3 5e1c ffaf f73f
000004f0: c6e5 a6c3 1b84 e3bf ee49 f929 c0cc 02c0
00000500: a803 04fa 20e9 fdbf d31e b1d2 59e1 c53f
00000510: 4b51 4311 cb10 f03f b537 b8d2 5fac f43f
00000520: f268 de41 183e ed3f 2b4f e5be 4ea5 9cbf
00000530: 21e0 728f 7358 f53f ed7e 0fbd ac42 ce3f
00000540: 79ee 0346 ef93 f43f 8f04 0eca f7bb eb3f
00000550: 00a1 a2d2 fe67 e33f ccd7 2c9e 74f3 05c0
00000560: 13d3 de1a c511 e1bf f2ea 37f6 cabb c43f
00000570: e01a 4d50 087a e33f b5c2 a69e f288 ffbf
00000580: 071b 470d d7cd dc3f b91c 632a 6a59 bebf
00000590: 643d a850 ae02 e03f 4c9c 1780 184d cb3f
000005a0: 33c1 d52a 4917 d03f d1f8 551e ce94 c7bf
000005b0: 1fbc 3b3d ae29 e2bf 8c67 cf3e dd7f c0bf
000005c0: 0dbf c35a f3ab d33f 4613 d7d6 1264 0440
000005d0: ac86 0540 fb6d e33f fa80 cedc 9ec6 edbf
000005e0: b96e 3a07 7699 f8bf 8564 2fc4 5a3a e73f
000005f0: 27f3 5bd3 1a96 f0bf bf39 c1ed a47d fa3f
00000600: 2718 a1f1 246e d3bf 77d7 656f a99b dabf
00000610: 8416 a08e 1dfa c6bf adf2 ec51 8bff c6bf
00000620: 2c1e 040c c018 f23f 5e97 ee4c 4e73 e03f
00000630: df38 7dbe 7254 df3f 11de b11e 9352 e5bf
00000640: b28a c807 81b6 ec3f 6fc1 9413 a6b4 eebf
00000650: 380a 3ba3 c0b5 d43f 298d aa9e 2be2 e23f
00000660: 996f 6cb5 c62a e8bf ef98 617f 661d 04c0
00000670: ba9c 8400 a2fb f83f 59b7 cd88 78aa df3f
00000680: a7e7 72ed 2c94 cbbf f72e aba3 efc4 d33f
00000690: 766e 9b57 11b2 e3bf 7855 b30f f640 ed3f
000006a0: 507d f87f 2b8f fe3f e919 47fd 1eaa e1bf
000006b0: 71b1 6aae f48a ebbf 904b b311 4339 f1bf
000006c0: 46c9 6074 c877 84bf 8878 b774 261f 0640
000006d0: bba3 9a7d 7282 b63f ae3e e790 e65a dcbf
000006e0: bfab be71 b508 b43f a3fa 6a57 ee09 d83f
000006f0: 6d97 d8d8 cad2 e9bf c660 30c3 7082 bbbf
00000700: 49d3 33f7 fb9e ca3f 73f9 4ba4 92e5 ee3f
00000710: 38f3 3b58 0a73 e6bf c1e7 a89b 3f12 a63f
00000720: b3d0 c08c 8194 f0bf 229b b91a 7c0c f23f
00000730: 2398 1397 e52d f1bf 3e9b 9ce7 305a a3bf
00000740: edb8 49de 63a2 8a3f c87d ea49 f272 e83f
00000750: 2285 9b57 58fd f4bf d215 9a92 5a07 ebbf
00000760: 86fc 92fe e8d4 87bf 1f8f 6ab2 d4d1 f6bf
00000770: 82fe 26ba 5d2c cf3f ba06 3c58 2b74 f7bf
00000780: 72c4 3f7d 0742 eebf 8e3b a085 bd90 da3f
00000790: d288 c065 5222 b03f 82a3 81ed cb86 f63f
000007a0: 80f2 d789 0a90 fcbf 5a97 d333 6592 eb3f
000007b0: 9653 2542 0440 d23f b3c5 b2d4 2d1b f5bf
000007c0: 5155 e7be 0e46 e0bf 962e c3af 40d3 f0bf
000007d0: acd4 95de cbe5 e4bf 4f07 47b2 c6e3 f33f
000007e0: 4722 1468 31c0 e43f bfc0 e0db 4490 e23f
000007f0: 5b90 7abe 8853 cabf 2f84 4a54 0e9f e5bf

weight f8 [64, 64]
1.0109691834333614 1.1637718330104132 -3.7039052660565246 -1.3969375815753906 -0.36589914001006846 2.4164331407446173 -0.6625769800073499 -1.2600543281029053
-1.7292972051635973 -0.14450883045811744 0.4710700754636682 -2.4050596738986094 -0.30469249642243246 -0.3783082694074326 0.21007199655912226 -0.3569466687886106
-0.2596504383687819 0.5333125815852384 -1.894279205753523 -0.8871748075207396 -0.9208982407458581 -1.1277086564123293 0.3398781891572063 -0.03537070413667344
-0.926658318122097 0.33633522380292036 0.13195749474584173 -0.1146586360820054 -1.7551462675747511 -0.20897130872945935 1.4303259558285104 -0.1853186206839716
0.5785593083500765 -0.3185708875899061 -1.9981502901470514 1.224599571697869 -0.8769018358653055 0.9018979365915709 -0.7732839044848039 -0.16019069859531335
0.2875334000365291 0.6828742180243623 0.5246055120787907 0.10910171107061377 -0.12101865529129956 0.05352983698302273 1.0093536940836922 -0.6208206377289656
1.7583827026971128 -0.3179480587686759 -1.1454675901815015 0.3778891851151273 1.0488363193992356 -0.4918053819236898 0.8400371302243215 0.622735463109728
2.075872195582782 1.5023883561144307 -0.02986163765247949 0.14426328743910116 1.5735815738860897 0.11971697877402018 -0.7701717606819999 -0.5844277026092441
-0.20198381758146705 0.4913387544818089 1.2210777412570568 -0.14713454411614146 -0.9665531088661666 -0.29409459544580174 -0.881413857873789 -0.007330853935799821
-0.09815673259145534 0.4237864588444169 0.02797754875671516 0.45447998344602264 -1.3473478898754572 -2.0405027616530806 0.13295186724560445 -0.16428517071228216
-1.0632093327238252 0.1870583717248491 -1.361110212083356 0.16268150933388176 0.5603411233019835 1.4629717731858098 -0.11521279026210236 0.00044812441000268387
-2.988652779320951 -1.6732024677072612 1.61503016328273 0.32499127024315805 0.48678610780286125 -0.5884222022025959 0.8114386518182661 -0.1334307358552813
-0.5018925994702055 0.07983091750227483 -0.7317265623053386 0.8084029382330428 0.3157279830010544 -0.010716226878245591 1.204512599432611 1.20282881819195
-1.7063997146438292 -1.3116070547670615 0.6019054623500488 0.21849933836198326 0.02344318532156121 -0.6944151739284159 1.3929461331882391 -0.21137503674980174
1.4951575518850333 0.4717988262098807 0.26777515357510445 0.4932206178508303 -0.18144981722152898 -1.899008735362754 0.19633507053129232 -0.15247849710659997
-1.466211451821214 0.5478910642532087 0.23336696937255283 0.09966237270892787 2.035075696493767 -1.6659163116889957 -0.03918371242843479 -1.3663816694070203
-0.5394319004078294 -1.3452021886181074 -0.06989859966932103 2.097936652421344 -0.18381111289547333 1.6950816466847995 0.6448662205283444 0.917715203689803
0.769877529090486 -1.631284297096045 0.06538983835027803 -0.45337176873158097 -1.159709503151492 -0.588012882426574 -1.890941448309604 -0.2173346030999995
-0.40507126570890784 -1.389260886438795 -1.55159659726418 0.17633488796084842 0.1918275273661099 -0.4446779689693432 -0.5717796145250921 0.58910355228465
0.11585373523514049 1.1483724752765165 -1.3184881754370024 -0.7945101111180809 -0.26366539898945857 -0.26344802416429697 1.1954534480000183 0.5755610893518538
0.12283222120979981 1.394426794085891 -0.27176782673112354 1.1113297189201823 -2.322048131022931 -0.9209174112443664 -1.0330240699440278 1.0819538953649335
1.6425125858438356 -0.04642552929335321 -0.29497350224506086 -1.0122156254685934 0.8926790501809144 -0.9800592560594665 1.7072107425276177 1.2774794925817796
-0.1865953007843298 0.3241316224737326 -1.377016452943309 0.4443803260061947 0.31621106366276797 -2.764504838994265 0.08075194673747284 0.7513392107551835
-0.7707469327549141 -2.2966879419328174 -0.6125275307881815 0.19843809757280895 -0.5225878877359733 -0.7845549630200747 -1.9459061373236965 -0.21923092083286722
-1.4320747051268794 -1.0168849984697275 0.23134053031883822 -0.28869985203403314 -1.091014557126079 -1.271533295206164 2.0109511788112875 1.4668631578506193
-0.053379992632705785 -1.060555300041988 2.4404635953494265 -0.45749479532769105 0.050340579568322295 -0.335210985962359 0.398634368335043 -1.179367599442259
-1.7372898752048844 1.082629100933908 -1.5991493330931152 0.49734900777806684 -0.7541738423121307 -0.7396430222239296 -0.34556173439159726 -1.4522522724844742
1.347396183807608 -0.5321829161207562 -0.3303271801914689 0.6047472482537688 -1.3463430368273028 1.0596297876522647 -0.4178525387303491 0.05816000851793259
-1.591900383491233 1.6856395875863 0.14987335166153581 -0.4473397797638002 0.6840458539599787 0.5857754215895133 -0.42704396913543646 -0.3921283889289189
-3.01554736197967 0.7824272348329355 -0.11043657301810032 1.140112812737017 -2.085926664336374 -1.6623477225426362 0.21774691375169042 -1.8379238874241275
0.5744628972324607 0.44034379318968486 -1.5157384537751624 -0.9019683580139098 0.5818390581404805 -0.17861855324010414 -0.14823451666547535 -0.09957024678906727
-0.6458053918162955 -0.28594920217234227 0.26254135860498967 0.7615319739186608 -0.05400783860071045 0.052426924534485476 -1.6588972065642378 0.9085444346057933
00000000: 05c3 c105 ee2c f03f 3892 ac36 cf9e f23f
00000010: 438f 8915 99a1 0dc0 d3b6 b638 db59 f6bf
00000020: c593 fe39 e46a d7bf e4bf 03e6 da54 0340
00000030: 33d9 86a3 d433 e5bf e929 26ba 2e29 f4bf
00000040: a1de d38b 33ab fbbf 5f81 66ee 437f c2bf
00000050: be67 0f1a 0326 de3f 6895 22ed 8f3d 03c0
00000060: f423 def4 1480 d3bf 6b52 3ae3 3336 d8bf
00000070: f96f 83a1 a3e3 ca3f 1a3f 37d7 36d8 d6bf
00000080: 20e7 4bdf 1c9e d0bf 9a86 0e8c e510 e13f
00000090: 8d44 63b6 f74e febf 9d5f 046c bc63 ecbf
000000a0: 1051 5e96 ff77 edbf 1950 6b3b 180b f2bf
000000b0: 2573 c372 90c0 d53f 52cb 01e3 1b1c a2bf
000000c0: 1dd3 5c58 2fa7 edbf 127d ae2c 8486 d53f
000000d0: 289f 32b2 fbe3 c03f 0d1a 2db4 445a bdbf
000000e0: 5ee1 ae40 1415 fcbf f0cd 6564 92bf cabf
000000f0: 4c74 2e78 9de2 f63f e6b7 9643 85b8 c7bf
00000100: 611e 85cf 8e83 e23f 7501 ea25 7763 d4bf
00000110: bdca 4a70 6cf8 ffbf 1035 72b8 f597 f33f
00000120: cb00 5b70 940f ecbf a4b3 bf0f 59dc ec3f
00000130: 2a22 09e3 bdbe e8bf c58d cbf9 2081 c4bf
00000140: 7188 6a7d f266 d23f 5a47 3608 1bda e53f
00000150: 6cc0 b57f 91c9 e03f bb65 fcf8 16ee bb3f
00000160: 7399 ae1e 14fb bebf 1293 6746 4368 ab3f
00000170: defa 220f 5026 f03f e649 f73d c3dd e3bf
00000180: a3fa 9ee6 5522 fc3f d53d 8fd0 4259 d4bf
00000190: d651 e7d2 d553 f2bf 4f38 e51e 562f d83f
000001a0: e0d3 aa97 08c8 f03f 77fa d647 bd79 dfbf
000001b0: 26a7 378c 95e1 ea3f c9b3 03ec 72ed e33f
000001c0: 4fa1 b5e1 629b 0040 6271 765f c809 f83f
000001d0: da56 7d94 0c94 9ebf d63d c82a 3877 c23f
000001e0: 08dd 56df 632d f93f 6e3f 9c9c c5a5 be3f
000001f0: 5bd2 8d3f 3fa5 e8bf e6a8 b2b9 a1b3 e2bf
00000200: 6ab4 6a11 9bda c9bf 796e 701a 1872 df3f
00000210: 6829 49d0 8889 f33f f49b 8b03 4ed5 c2bf
00000220: 8dac 0dc9 00ee eebf 36af 5723 72d2 d2bf
00000230: 47e4 b9d5 8a34 ecbf 9c07 7f1e f506 7ebf
00000240: fbcd 5cb4 cc20 b9bf e85c 4e3d 511f db3f
00000250: 92b6 ba83 25a6 9c3f 2396 6536 3316 dd3f
00000260: 5d98 35a9 bc8e f5bf d194 a51c f352 00c0
00000270: 5f89 e118 9104 c13f e2a8 b6e5 4b07 c5bf
00000280: ed9c 0dca e702 f1bf 9128 805a 87f1 c73f
00000290: eb64 7280 1bc7 f5bf 5e60 2069 bfd2 c43f
000002a0: 14f3 e581 50ee e13f efdd 0c17 5568 f73f
000002b0: f5b2 41de 957e bdbf 5efb 7caf 475e 3d3f
000002c0: 9043 d2c9 c2e8 07c0 183a 66f3 6fc5 fabf
000002d0: 56a5 55de 29d7 f93f db82 4b2f a8cc d43f
000002e0: 5044 4aeb 8027 df3f 136a 56cc 5ad4 e2bf
000002f0: 12a2 0831 4ef7 e93f 80cb 6323 4214 c1bf
00000300: d686 9a11 810f e0bf 1cc7 e18b cc6f b43f
00000310: f2e8 d6d2 4d6a e7bf 7370 b6d6 6fde e93f
00000320: 0cfb 5a24 e334 d43f 4522 d49f 63f2 85bf
00000330: 9eed e200 af45 f33f d021 4d6e c93e f33f
00000340: 9ec8 84c9 694d fbbf acd6 d6ad 57fc f4bf
00000350: 9478 823e cf42 e33f 7e2e 3b4c c9f7 cb3f
00000360: 23a8 1489 7d01 983f 60cc bb2b a638 e6bf
00000370: 5f21 72e2 8149 f63f 40fe 0353 560e cbbf
00000380: 136b 3b53 2aec f73f 4035 37b4 f331 de3f
00000390: 3755 d265 3a23 d13f 7576 d835 ed90 df3f
000003a0: 5473 6a63 bf39 c7bf b838 d3fb 5662 febf
000003b0: 41b0 7ef1 8121 c93f 0742 3557 6a84 c3bf
000003c0: 157c a923 9a75 f7bf 0e9f 57d7 5288 e13f
000003d0: d7fb b506 f8de cd3f 3136 6d27 7983 b93f
000003e0: e999 4ac4 d547 0040 203c c9dc 97a7 fabf
000003f0: 73fd d436 e30f a4bf 0550 7f06 b3dc f5bf
00000400: d676 55b0 0643 e1bf 54f5 e9ba f285 f5bf
00000410: 9bad 9de7 dfe4 b1bf cbd5 f902 93c8 0040
00000420: 8f82 435f 1f87 c7bf 06fa c8ee 0d1f fb3f
00000430: 10dc ee7b bea2 e43f 4778 5c46 ec5d ed3f
00000440: 3ece 2b33 d6a2 e83f 0218 2890 bd19 fabf
00000450: 1286 3471 63bd b03f ab6f e805 0b04 ddbf
00000460: 4a56 4e8d 2b8e f2bf 34c3 7464 00d1 e2bf
00000470: ff3f f2d1 4b41 febf 0344 4dca 9ed1 cbbf
00000480: b238 b107 b0ec d9bf 92dd 8d9f 693a f6bf
00000490: 435a 1df4 56d3 f8bf f9c3 7740 2492 c63f
000004a0: 4147 41ee cd8d c83f ec66 7e95 9a75 dcbf
000004b0: c5f3 1cc3 044c e2bf d2a3 60b1 efd9 e23f
000004c0: ad51 f423 97a8 bd3f fe06 0fd1 bb5f f23f
000004d0: 59a2 9a0e 8718 f5bf d1fd f277 a06c e9bf
000004e0: ebc6 6fd6 e4df d0bf 75d0 fe19 55dc d0bf
000004f0: e9ce 70cb 9320 f33f 1bb9 f316 ff6a e23f
00000500: 8cba fdb4 ee71 bf3f 8e3d 5478 924f f63f
00000510: 2692 fae1 a464 d1bf 635c ddab 01c8 f13f
00000520: eed9 73f8 8d93 02c0 b591 73ca 2778 edbf
00000530: 253f 463f 4487 f0bf 83f4 45e3 ae4f f13f
00000540: 907b f746 bb47 fa3f f264 0744 16c5 a7bf
00000550: 4910 558a d8e0 d2bf 6734 fe02 0932 f0bf
00000560: 6d3e cba7 d390 ec3f 265c 9d3a a55c efbf
00000570: 6f93 2836 bc50 fb3f d130 1f56 8e70 f43f
00000580: 8a5d 3ad5 5ae2 c7bf 42f1 878f 92be d43f
00000590: 8120 7767 4208 f6bf d8ac cb2d ba70 dc3f
000005a0: 5828 4454 cd3c d43f b4e9 88b6 b41d 06c0
000005b0: 4d66 53da 28ac b43f beab 4c87 f80a e83f
000005c0: e096 b578 f5a9 e8bf 82c0 7ded 9d5f 02c0
000005d0: e050 1456 d399 e3bf a486 ad69 6b66 c93f
000005e0: 4093 e33b 0ab9 e0bf 23be 8202 131b e9bf
000005f0: 6141 4e79 6e22 ffbf 7ce3 9f41 c20f ccbf
00000600: 3f2e 7f2a c7e9 f6bf 2087 4334 2945 f0bf
00000610: e6b6 fa05 919c cd3f 5428 b6f1 0e7a d2bf
00000620: 1c10 25ae cb74 f1bf 2bf8 ea4b 3358 f4bf
00000630: ebc6 5692 6d16 0040 a6cf aa80 4578 f73f
00000640: b383 3c55 9f54 abbf 167a 94d5 08f8 f0bf
00000650: bdd5 08c7 1186 0340 0b73 0140 9847 ddbf
00000660: e3b4 d08d 3dc6 a93f c2f7 7dc7 1874 d5bf
00000670: 53e1 c3b9 3983 d93f 8210 598f b0de f2bf
00000680: 95d4 da77 f0cb fbbf 2358 63e4 7252 f13f
00000690: dbe1 709c 1d96 f9bf cfb5 c6ee 90d4 df3f
000006a0: 1e56 872e 3122 e8bf fa52 e5d7 27ab e7bf
000006b0: 2f80 fdf6 ae1d d6bf cacc fde0 6c3c f7bf
000006c0: 9457 034d ef8e f53f 5b50 8777 a407 e1bf
000006d0: 98be f99c 1424 d5bf dc11 b3e6 165a e33f
000006e0: efed 05ff 9e8a f5bf a957 3d5d 3ef4 f03f
000006f0: 606f 1993 18be dabf 4309 0a0d 26c7 ad3f
00000700: f35a 5989 6c78 f9bf d96a 5837 61f8 fa3f
00000710: 60cf f6cb 0c2f c33f 6943 1207 37a1 dcbf
00000720: ba1e 7721 b4e3 e53f dfe1 d018 acbe e23f
00000730: c501 593a b054 dbbf a01a 92ab a118 d9bf
00000740: 1eef 994b d71f 08c0 f06d 23d7 a409 e93f
00000750: 7322 653d 9245 bcbf 064c c7ee e63d f23f
00000760: ca6e a951 faaf 00c0 4969 eeec f998 fabf
00000770: 2429 af80 21df cb3f 8a61 d0e0 2268 fdbf
00000780: 5b1f 8c03 0062 e23f 1ec3 afbb 972e dc3f
00000790: 1910 04f7 7640 f8bf 3d4a f6be ecdc ecbf
000007a0: 39f6 c7f1 6c9e e23f b102 5006 f9dc c6bf
000007b0: 03b9 9b40 59f9 c2bf fb1a 9d89 6f7d b9bf
000007c0: 7bce ad11 70aa e4bf ad70 e9e1 fd4c d2bf
000007d0: dd92 4345 7acd d03f ded8 5a4d 785e e83f
000007e0: af0f 0959 eaa6 abbf 3d67 9cac b3d7 aa3f
000007f0: 12e8 19cc d78a fabf b907 33c7 cb12 ed3f
