MACE_models/mace02_com3_swa.model (torch, 458427 bytes, 51 tensors)

r_max f8 []
00000000: 0000 0000 0000 1040
4.0

weight f8 [48]
00000000: 0b26 1d4d 21ad e03f a6dc a708 83c9 f23f
00000010: 14ed 4973 ddb5 f7bf 9b9b 93a0 4f6c c8bf
00000020: 9102 bf72 cef5 f3bf 14ce 62fe d686 f33f
00000030: c4a6 ee09 34e3 f23f 7ca7 09d5 7e74 c0bf
00000040: 5f2a e9dd 597d 993f a94b e81f 57c5 f8bf
00000050: 8c74 dc62 625a d5bf 2721 9297 6657 acbf
00000060: 189c ff4a f843 de3f 9a4d 0211 a216 cc3f
00000070: ca6d 2893 186e b43f 2754 6b3c 46e8 e0bf
00000080: 94da 4831 2f2c d83f c74c 99c7 7eac f33f
00000090: 96f0 9e7b 74a5 d9bf 193d 4942 e42b f53f
000000a0: a3be f0f9 291a c13f 4331 d89b 3dff eebf
000000b0: c736 199e 891a febf e3cd 28d6 3741 f03f
000000c0: 52d7 f774 7734 dfbf 3865 aa14 b6e2 f23f
000000d0: 2549 2e78 c527 f33f c53c 079c f43f ecbf
000000e0: 7624 6b5a d648 e9bf fe63 cbf1 c270 f4bf
000000f0: 4172 9e67 094e 00c0 a49c 87db 3bca fa3f
00000100: 1eed a3b4 c81a 02c0 d404 ff8c 2e51 ddbf
00000110: 402b f7a1 0aaa e4bf a730 24b4 3609 0040
00000120: 0903 59e4 821a febf a24a c92b 135e e7bf
00000130: bef8 142e 6ef9 f7bf ad49 a14a 8f47 e63f
00000140: d8ed 0c65 4fec e6bf d8c9 ee31 b258 f63f
00000150: b252 0591 fd22 d2bf 7ea5 bfe1 238e e03f
00000160: 872a 38c6 9023 e53f dac0 eb7e 4778 00c0
00000170: 949b f05d 6e51 c73f c15e 3139 01b1 f5bf
0.5211340433244812 1.1741972292054839 -1.4819006446330762 -0.19080539074567757 -1.2475113374968354 1.2204198777152486 1.1804695499399012 -0.12855515863639855
0.02489223877845814 -1.5481787916548717 -0.33364162115487583 -0.055354314806267894 0.47289855312414053 0.21944070654408848 0.07980493157122406 -0.5283538036407024
0.3776967984480646 1.229613094027444 -0.40072357246732204 1.3232157315540631 0.13361096099969413 -0.9686573070371555 -1.8814788985941264 1.0159223905183061
-0.4875773088709724 1.1803494269609711 1.1972098059237137 -0.8828070685794037 -0.7901412740694826 -1.2775296635720674 -2.038103875658891 1.6743734908466559
-2.2630781281019514 -0.4580799462238023 -0.6457570231808418 2.0044988702339483 -1.8814724845726138 -0.730233750839336 -1.498396091468336 0.6962353189103873
-0.7163464521067295 1.3966543150423743 -0.2833856502741511 0.5173510941651072 0.6605914947006831 -2.0587301173874097 0.1821725805941382 -1.3557140573592934

output_mask f8 [16]
00000000: 0000 0000 0000 f03f 0000 0000 0000 f03f
00000010: 0000 0000 0000 f03f 0000 0000 0000 f03f
00000020: 0000 0000 0000 f03f 0000 0000 0000 f03f
00000030: 0000 0000 0000 f03f 0000 0000 0000 f03f
00000040: 0000 0000 0000 f03f 0000 0000 0000 f03f
00000050: 0000 0000 0000 f03f 0000 0000 0000 f03f
00000060: 0000 0000 0000 f03f 0000 0000 0000 f03f
00000070: 0000 0000 0000 f03f 0000 0000 0000 f03f
1.0 1.0 1.0 1.0 1.0 1.0 1.0 1.0
1.0 1.0 1.0 1.0 1.0 1.0 1.0 1.0

bessel_weights f8 [8]
00000000: 182d 4454 fb21 e93f 182d 4454 fb21 f93f
00000010: d221 337f 7cd9 0240 182d 4454 fb21 0940
00000020: 5e38 5529 7a6a 0f40 d221 337f 7cd9 1240
00000030: 75a7 bbe9 bbfd 1540 182d 4454 fb21 1940
0.7853981633974483 1.5707963267948966 2.356194490192345 3.141592653589793 3.9269908169872414 4.71238898038469 5.497787143782138 6.283185307179586

r_max f8 []
00000000: 0000 0000 0000 1040
4.0

prefactor f8 []
00000000: cd3b 7f66 9ea0 e63f
0.7071067811865476

p f8 []
00000000: 0000 0000 0000 1440
5.0

r_max f8 []
00000000: 0000 0000 0000 1040
4.0

atomic_energies f8 [3]
00000000: 7a18 469c 176a 25c0 bb72 1c16 796c 48c0
00000010: 87ab 5a17 8ea4 59c0
-10.707211383396714 -48.847445262804705 -102.57117256025786

weight f8 [256]
00000000: bbee c071 96d3 f3bf 3a00 b8e9 7f8a e0bf
00000010: 623e cc6b 9138 f6bf e58c a100 37f8 f7bf
00000020: a27d f2f8 722c e73f 9aa9 5a1d 9988 d43f
00000030: 3ecc 9264 16c4 f03f 8fbf 4af7 fac2 f7bf
00000040: 0f3e 9d7f f723 e03f 173c 0f54 a6b0 0240
00000050: fc5f f154 558c e33f 1199 64f9 e48f d7bf
00000060: 0f86 d114 ef5b f9bf c387 e87f a729 f1bf
00000070: bd36 32b8 34e4 983f 4433 fb1c 9c8e e63f
00000080: 5a54 bcf9 20e2 fd3f c492 ae78 1aae f2bf
00000090: 3023 1852 e8d1 cbbf b4aa 3ef5 e622 f03f
000000a0: dd9b 0ed9 d794 f6bf 4967 b6d9 a73a e2bf
000000b0: 3647 df79 2762 d7bf 19ae f70b 6595 e93f
000000c0: 4c84 4f34 cd36 bfbf 1e7f c9cb 3e7f f13f
000000d0: 3929 d7a9 b284 e4bf 1955 3263 b905 c2bf
000000e0: 2029 0750 90ea f43f 08f5 01fd 1592 eabf
000000f0: 11de cf00 af8c d0bf 7478 6cea 4566 e13f
00000100: 4d42 3517 8303 a8bf 3912 58a6 dd6c d6bf
00000110: 0df8 f906 66c3 febf 05ce addd 152b fb3f
00000120: 087a 2c82 edf9 e03f f43e 3484 8661 e5bf
00000130: 209c e262 12b0 e0bf 6389 4acb d56f eebf
00000140: 7a5f 43c7 e6dd d83f 337e f4c4 a0de e43f
00000150: cbbc 2625 52d7 f73f 85a0 9905 7588 ce3f
00000160: c252 a65c 2f0f e33f 715f 4add a290 d7bf
00000170: 9c2c f2c9 81db e7bf 43be ed64 f4cd e3bf
00000180: 6180 35f6 0ca0 0440 1b70 0129 5cee e83f
00000190: 3ac1 7f51 5e5b 703f 656f 27b8 9edf 0940
000001a0: 7021 c8b9 30aa d7bf d938 76ff 4390 af3f
000001b0: 0b3e d616 b438 c6bf 4fd8 3af7 9966 c33f
000001c0: f489 ba1b 707b e6bf 37a9 0692 c9a2 b1bf
000001d0: 7452 1d5e c1b6 9cbf d3b5 6040 67c0 ea3f
000001e0: 74ff 9a6d 6f38 ebbf 4bef f271 7b21 f93f
000001f0: 7a02 9a1e 3fbb c0bf ac86 f1f9 37bb 0240
00000200: ace6 d454 3d93 f33f ad81 ed9c 24ec ffbf
00000210: 0829 665f 4f6e a03f c563 a084 778c d23f
00000220: a6b6 402e b9dd f13f 644e 6b45 422f 0a40
00000230: c86a 0262 0469 dd3f 3aa1 713f 5391 ddbf
00000240: a625 6a47 2922 bcbf b1a5 840d 9d86 f7bf
00000250: e8f6 ee1e 5060 edbf c59c 15f3 7e87 efbf
00000260: 0866 6c58 c552 db3f 26db 507d c760 dabf
00000270: e668 0960 c478 f4bf 2c9f de9b 386e df3f
00000280: 616f e7ee 0ea3 fb3f 6dde 65eb b974 c1bf
00000290: 4f17 cf5f 1594 91bf 97be 2d7e 8c32 fcbf
000002a0: d8b0 4fd5 4f77 ee3f b294 e169 b737 0440
000002b0: a913 3007 436e f8bf 1b66 bf31 a0e7 c53f
000002c0: 9b1a 3a9e 0722 d53f 021e a760 ed79 ba3f
000002d0: 8b12 be84 3111 b9bf 4662 f464 95cf c9bf
000002e0: 50e9 87ac 8747 c63f b64f 9cba 29cb e03f
000002f0: 88a9 ffd8 ed27 e83f cb24 0092 b1c2 bfbf
00000300: de4d 2710 00ea c9bf 4362 d198 a539 00c0
00000310: 18f8 87f4 180e e13f 617c eb25 b9a2 b83f
00000320: 28df 399a 7f00 dbbf 44e7 8de7 7fe8 fe3f
00000330: 57b2 bb97 5fb9 e93f 3f77 8072 0e8f f53f
00000340: 7933 ece8 d072 eb3f b9d6 8906 3886 d63f
00000350: f5e4 19b4 ddf4 e83f 734b 8714 9b8a f4bf
00000360: d810 23f3 ef88 c83f 5bab d7fd d22e fe3f
00000370: c289 b734 c6dc c4bf 56a8 2e62 d77f eb3f
00000380: 4e72 efe4 16c1 dbbf eb8d a969 c6bf c13f
00000390: c918 850a e3f7 c03f 4861 d0f7 6b70 f33f
000003a0: 9790 cfe3 93b9 d7bf 9ec6 cc1b e26f c33f
000003b0: e995 e3fc 8011 efbf 0887 64e1 0d8e 0040
000003c0: 6f94 f262 c700 edbf 0736 be3b 3766 b6bf
000003d0: 9be6 ee09 76ea fb3f b667 d2e9 69c6 d03f
000003e0: af99 7539 fb5d c5bf c4a6 1673 8482 00c0
000003f0: f062 d33d 4eaf e6bf 5e1d 9344 7731 fe3f
00000400: f1cb 830a af25 e9bf 0176 ea0c e4fe edbf
00000410: 569a ffc5 4b71 dd3f 8a07 d319 cce3 fb3f
00000420: 291f 1d75 9cf8 e33f 246e 57dd a870 d93f
00000430: c277 ca85 e4f0 e83f 2c65 2154 1ecc c53f
00000440: e229 5bee 2e5c e13f 6e8f 7aef 68e0 b8bf
00000450: 4754 d6f1 c40b 0140 3567 86f7 bce0 d9bf
00000460: 69d5 0bb3 b62e 0040 1d16 fd84 2286 6ebf
00000470: 8be1 f270 d9b5 cdbf 4f28 9a04 adbe f7bf
00000480: 9618 89f4 ee8d e2bf b739 413d db35 e8bf
00000490: 60bb edcc 7744 e8bf b323 0e33 cffe d0bf
000004a0: 7966 cd88 e4a8 fb3f 5def 71c7 a0d7 e6bf
000004b0: b19a 0dfe 09fe d2bf 099c dc79 b651 7d3f
000004c0: 4d56 ccf7 4ed1 bc3f 4140 7560 6348 d8bf
000004d0: 4cd4 53d8 0311 c93f 26f3 0eff 92cf dfbf
000004e0: d9b7 b85b 698e f73f 1934 59a3 08d4 efbf
000004f0: 5d15 7e37 5d9a f23f 5fc9 7c53 7278 f23f
00000500: 7284 1bad 8e8e e93f f0ed e31f 94e0 cdbf
00000510: 664d d85c f210 f23f a4c1 b043 4b43 e63f
00000520: 6b6c 7d3d a043 e13f 0e97 c96f a317 03c0
00000530: 4fc8 57c1 6083 cbbf 83f0 f81c bab7 f03f
00000540: 8211 66c1 ae7a efbf 238e 5502 7b8e 0e40
00000550: d751 6da7 0217 bcbf e837 959a eb25 f63f
00000560: 7da2 ac38 36c2 f8bf 2e18 d870 ccc4 debf
00000570: d6a0 1968 c361 f33f 5770 ebcc 7698 ff3f
00000580: 9af7 41d9 2499 fbbf dcf8 816b 7409 ec3f
00000590: b071 79a5 1366 0440 2cb9 b8fa 89c3 e0bf
000005a0: 4465 2c14 bfc2 d53f 90b8 c8e2 9f77 e3bf
000005b0: c158 b5a0 9173 e13f 00d5 8c69 86cb d8bf
000005c0: a59f 91e2 36b6 f3bf aacd de22 fa92 d23f
000005d0: 2796 652f d5d1 ebbf 23dd 462c 39f0 f3bf
000005e0: 79b4 83a4 873b ddbf d245 c4ec 4d0a d03f
000005f0: e763 fbdb e95d e23f 1e13 fcce b501 ecbf
00000600: 1d9b 500a 5996 e93f 4264 46b8 eeeb e03f
00000610: 1aa3 e4e1 6c75 f73f 9508 e1ec a9be e5bf
00000620: 94f8 9941 160b 01c0 46cd 1c92 2b41 d7bf
00000630: 9c44 9b32 bf9d f33f 72f7 a1e5 884d edbf
00000640: e876 2d4f 0a6c e43f 1f44 12ba 4f94 e13f
00000650: ac21 8f97 7585 04c0 0a84 b257 e63f f23f
00000660: 66fb 067e 9980 f23f 3924 e255 7263 e2bf
00000670: 1e65 0db2 78a3 f93f 3f7a 91ed 7fbe e3bf
00000680: 9101 225b 08b9 e7bf b542 1f06 06d8 c1bf
00000690: b996 a64c 313a fd3f 955d 3056 9347 e4bf
000006a0: d31b dcce 5e46 ff3f fa88 f035 03b0 eabf
000006b0: cff3 3366 dc74 f43f 4e1f f784 3c0d ac3f
000006c0: 0dc2 d973 bc02 d9bf 87a7 1a55 bcd1 d7bf
000006d0: b085 51ab 10fd f43f 7300 0b19 6450 a83f
000006e0: 4269 7fab 9c86 0240 7d0f 04ee 5d6c f0bf
000006f0: 40af 16bd aa9f eebf 3921 05fd 7a39 f6bf
00000700: 340b c7e7 b268 e33f 4068 703d c27b c23f
00000710: 9891 e5da e21a f53f 9a7e 598c 46ef f63f
00000720: 23b7 bc7b 41b1 ea3f 8ec6 b7ec be86 f03f
00000730: 6d1c 3e2c 32c4 db3f 047c 3021 1c8b f6bf
00000740: 4fff d408 eb79 d03f 14e9 0d36 a7ae dc3f
00000750: bd20 55d0 2cb6 ed3f 4aad cdaa 228a db3f
00000760: 94b6 a1a1 572a e03f f9b2 afa3 32d0 ef3f
00000770: 5e77 fa6f b6c9 e63f c182 4767 25a5 d33f
00000780: a7fe d7a3 60ef f9bf 4aca f4c1 8397 dbbf
00000790: 4249 30f2 b7d2 febf c26c 6510 d998 60bf
000007a0: 39bc e0c8 b87d cfbf 4ead 24f2 a278 febf
000007b0: 9e63 a87b 2a5e 0040 2b0e de75 60ff e4bf
000007c0: 5220 8e0a 024d f1bf 4838 23c9 3dd2 fc3f
000007d0: 18da fdda fd33 c43f 4a2a bb4a 5f54 fc3f
000007e0: d083 fef2 0ee9 f23f 68c0 ae56 be72 e03f
000007f0: 2e5f 80f7 4f74 a6bf bb4f 6552 91c7 c5bf
-1.2391571467878026 -0.5169066967791942 -1.3888105593540776 -1.4980993294382696 0.7241759168863846 0.3208372866307855 1.0478729180001802 -1.4851026210635359
0.5043904774155993 2.336254746165206 0.6108805331268736 -0.3681576190450793 -1.5849448025913977 -1.0726695057314692 0.02430803655857149 0.7049084249534663
1.8677072291659642 -1.1675057138574383 -0.2173433686114321 1.0085210399508187 -1.4113386610786087 -0.5696601154515771 -0.36536585713939773 0.7994866594066848
-0.12192995574106752 1.0935657463487085 -0.6411984746166929 -0.14079968780121346 1.3072665334789875 -0.8303327504687852 -0.25858664588256014 0.5437345102871078
-0.046901794989598324 -0.3503946423009299 -1.9227047226445422 1.6980188998539927 0.530508760686474 -0.668154962740998 -0.521493142256876 -0.9511517496614882
0.3885437913827371 0.6521762701776822 1.4900685740683908 0.23853934071962982 0.5956036386074504 -0.3682028924026702 -0.7455452865846328 -0.618890950323426
2.5781497225835186 0.779096679772468 0.003993385726048177 3.2341894518885277 -0.3697625936770441 0.06164753430776821 -0.17360545268137204 0.15156864711542758
-0.7025681058478868 -0.06889018836105697 -0.028040906304641358 0.8359867341402442 -0.8506390705806397 1.5706743670588874 -0.13071431154459728 2.341415360148707
1.223447162030804 -1.9951521043768523 0.03209159888781882 0.28982341720398735 1.1166316801785938 3.2730756209728487 0.45953473635897213 -0.4619949454850204
-0.10989625924607668 -1.470364620976721 -0.9180069545907061 -0.9852900264494556 0.42692693362332124 -0.41215693700671563 -1.2794841529308143 0.491102363792822
1.7273091633023443 -0.13637470239676777 -0.01716645619651241 -1.7623410157065444 0.9520644346462417 2.527205302426034 -1.5269193917058408 0.17113115719875868
0.33020201160290136 0.10342296228110828 -0.09791860094817133 -0.2016474478666785 0.17405792164192713 0.524800171350299 0.7548741567855339 -0.12406453909365493
-0.20245362080332446 -2.0281478823565364 0.5329708839415188 0.0962329595163154 -0.4219054227937584 1.9317626042452085 0.8038785899676196 1.3474258873679472
0.8577656316061698 0.3519420684673196 0.779890872726496 -1.2838393022436463 0.19167899486467976 1.886431685993293 -0.16298749517507188 0.8593556325552167
-0.43366024357763855 0.13866501006405882 0.1325649072043176 1.2149467163308874 -0.3707017636027187 0.15185190541665333 -0.9708867015112307 2.069362412338595
-0.9063450748987075 -0.08749718864984156 1.7447414768234129 0.2621102126519149 -0.16693058305390937 -2.0637291899955432 -0.708899613145233 1.8870766333291935
-0.7858500676505839 -0.9373646023047401 0.46004003845010766 1.743114567638687 0.6240980422380505 0.3975011979616474 0.7794058430770223 0.17029170139248018
0.5425028472321254 -0.09717422339104839 2.130746735909756 -0.40434192821850284 2.022809408949503 -0.0037260698517538452 -0.2321121026523197 -1.4840517215511857
-0.5798258567890737 -0.7565742679960782 -0.7583579065811641 -0.26555232988226435 1.7287335723725887 -0.7138217826281835 -0.2967553120601379 0.007158005520785168
0.11256879377136748 -0.37941822452285484 0.1958317571913163 -0.4970443239979424 1.4722684462426427 -0.9946330252074659 1.1626865546871479 1.1544059048870492
0.7986520176892908 -0.23341609532495466 1.129137385058891 0.6957145998076624 0.5395051194167427 -2.3865421994586375 -0.21494683685847568 1.0448552257285264
-0.9837259080236864 3.819570558772982 -0.10972611033987022 1.3842578924554747 -1.5474149907915085 -0.4807616331094121 1.2113679949198306 1.9747226719546427
-1.7248886572483344 0.8761541461715541 2.54984216000431 -0.5238695046335002 0.34001137704907003 -0.6083526067138951 0.5453575266681342 -0.3874221831095639
-1.2319859361977958 0.2902207699327969 -0.8693643499106586 -1.2461482743800125 -0.45675841394297084 0.2506289302992545 0.5739640518687538 -0.8752087633771202
0.7996030045950168 0.5288003539200263 1.466168291468597 -0.6795243860763259 -2.130413544188807 -0.3633526732330278 1.2260124184433954 -0.9157146916402168
0.6381885096013464 0.5493544229703992 -2.565165695243385 1.1406005311657759 1.1563963816585896 -0.5746394803437688 1.6024100260895646 -0.6170043601994805
-0.7413369922579013 -0.13940501498156768 1.826707171837752 -0.6337372477891444 1.9546802597485466 -0.8339859059817905 1.2785305015852264 0.0547884857474502
-0.3907920008996662 -0.3721762496085081 1.311783475125008 0.047488334710124834 2.3157285116441537 -1.0264567658896049 -0.9569905942093797 -1.3890333064646951
0.6065306212334236 0.14440181732135393 1.3190640020994575 1.4334168894201071 0.8341376702062216 1.0328969237129146 0.433849852758107 -1.4089623733959806
0.2574412904977991 0.44815998343223495 0.9284881657595389 0.4303061168672754 0.5051687390202511 0.9941647717474488 0.7121231257512866 0.30695471845505656
-1.6209417724748307 -0.43112272206341073 -1.9264449558728107 -0.002026008561342247 -0.24602422531595083 -1.9044522722932302 2.0459794674647602 -0.6561739255998352
-1.081300774794745 1.801328454679167 0.15783665841054595 1.7705986899551527 1.181899022289361 0.5140067761440266 -0.04385614296205485 -0.17015282176236987

output_mask f8 [16]
00000000: 0000 0000 0000 f03f 0000 0000 0000 f03f
00000010: 0000 0000 0000 f03f 0000 0000 0000 f03f
00000020: 0000 0000 0000 f03f 0000 0000 0000 f03f
00000030: 0000 0000 0000 f03f 0000 0000 0000 f03f
00000040: 0000 0000 0000 f03f 0000 0000 0000 f03f
00000050: 0000 0000 0000 f03f 0000 0000 0000 f03f
00000060: 0000 0000 0000 f03f 0000 0000 0000 f03f
00000070: 0000 0000 0000 f03f 0000 0000 0000 f03f
1.0 1.0 1.0 1.0 1.0 1.0 1.0 1.0
1.0 1.0 1.0 1.0 1.0 1.0 1.0 1.0

output_mask f8 [144]
00000000: 0000 0000 0000 f03f 0000 0000 0000 f03f
00000010: 0000 0000 0000 f03f 0000 0000 0000 f03f
00000020: 0000 0000 0000 f03f 0000 0000 0000 f03f
00000030: 0000 0000 0000 f03f 0000 0000 0000 f03f
00000040: 0000 0000 0000 f03f 0000 0000 0000 f03f
00000050: 0000 0000 0000 f03f 0000 0000 0000 f03f
00000060: 0000 0000 0000 f03f 0000 0000 0000 f03f
00000070: 0000 0000 0000 f03f 0000 0000 0000 f03f
00000080: 0000 0000 0000 f03f 0000 0000 0000 f03f
00000090: 0000 0000 0000 f03f 0000 0000 0000 f03f
000000a0: 0000 0000 0000 f03f 0000 0000 0000 f03f
000000b0: 0000 0000 0000 f03f 0000 0000 0000 f03f
000000c0: 0000 0000 0000 f03f 0000 0000 0000 f03f
000000d0: 0000 0000 0000 f03f 0000 0000 0000 f03f
000000e0: 0000 0000 0000 f03f 0000 0000 0000 f03f
000000f0: 0000 0000 0000 f03f 0000 0000 0000 f03f
00000100: 0000 0000 0000 f03f 0000 0000 0000 f03f
00000110: 0000 0000 0000 f03f 0000 0000 0000 f03f
00000120: 0000 0000 0000 f03f 0000 0000 0000 f03f
00000130: 0000 0000 0000 f03f 0000 0000 0000 f03f
00000140: 0000 0000 0000 f03f 0000 0000 0000 f03f
00000150: 0000 0000 0000 f03f 0000 0000 0000 f03f
00000160: 0000 0000 0000 f03f 0000 0000 0000 f03f
00000170: 0000 0000 0000 f03f 0000 0000 0000 f03f
00000180: 0000 0000 0000 f03f 0000 0000 0000 f03f
00000190: 0000 0000 0000 f03f 0000 0000 0000 f03f
000001a0: 0000 0000 0000 f03f 0000 0000 0000 f03f
000001b0: 0000 0000 0000 f03f 0000 0000 0000 f03f
000001c0: 0000 0000 0000 f03f 0000 0000 0000 f03f
000001d0: 0000 0000 0000 f03f 0000 0000 0000 f03f
000001e0: 0000 0000 0000 f03f 0000 0000 0000 f03f
000001f0: 0000 0000 0000 f03f 0000 0000 0000 f03f
00000200: 0000 0000 0000 f03f 0000 0000 0000 f03f
00000210: 0000 0000 0000 f03f 0000 0000 0000 f03f
00000220: 0000 0000 0000 f03f 0000 0000 0000 f03f
00000230: 0000 0000 0000 f03f 0000 0000 0000 f03f
00000240: 0000 0000 0000 f03f 0000 0000 0000 f03f
00000250: 0000 0000 0000 f03f 0000 0000 0000 f03f
00000260: 0000 0000 0000 f03f 0000 0000 0000 f03f
00000270: 0000 0000 0000 f03f 0000 0000 0000 f03f
00000280: 0000 0000 0000 f03f 0000 0000 0000 f03f
00000290: 0000 0000 0000 f03f 0000 0000 0000 f03f
000002a0: 0000 0000 0000 f03f 0000 0000 0000 f03f
000002b0: 0000 0000 0000 f03f 0000 0000 0000 f03f
000002c0: 0000 0000 0000 f03f 0000 0000 0000 f03f
000002d0: 0000 0000 0000 f03f 0000 0000 0000 f03f
000002e0: 0000 0000 0000 f03f 0000 0000 0000 f03f
000002f0: 0000 0000 0000 f03f 0000 0000 0000 f03f
00000300: 0000 0000 0000 f03f 0000 0000 0000 f03f
00000310: 0000 0000 0000 f03f 0000 0000 0000 f03f
00000320: 0000 0000 0000 f03f 0000 0000 0000 f03f
00000330: 0000 0000 0000 f03f 0000 0000 0000 f03f
00000340: 0000 0000 0000 f03f 0000 0000 0000 f03f
00000350: 0000 0000 0000 f03f 0000 0000 0000 f03f
00000360: 0000 0000 0000 f03f 0000 0000 0000 f03f
00000370: 0000 0000 0000 f03f 0000 0000 0000 f03f
00000380: 0000 0000 0000 f03f 0000 0000 0000 f03f
00000390: 0000 0000 0000 f03f 0000 0000 0000 f03f
000003a0: 0000 0000 0000 f03f 0000 0000 0000 f03f
000003b0: 0000 0000 0000 f03f 0000 0000 0000 f03f
000003c0: 0000 0000 0000 f03f 0000 0000 0000 f03f
000003d0: 0000 0000 0000 f03f 0000 0000 0000 f03f
000003e0: 0000 0000 0000 f03f 0000 0000 0000 f03f
000003f0: 0000 0000 0000 f03f 0000 0000 0000 f03f
00000400: 0000 0000 0000 f03f 0000 0000 0000 f03f
00000410: 0000 0000 0000 f03f 0000 0000 0000 f03f
00000420: 0000 0000 0000 f03f 0000 0000 0000 f03f
00000430: 0000 0000 0000 f03f 0000 0000 0000 f03f
00000440: 0000 0000 0000 f03f 0000 0000 0000 f03f
00000450: 0000 0000 0000 f03f 0000 0000 0000 f03f
00000460: 0000 0000 0000 f03f 0000 0000 0000 f03f
00000470: 0000 0000 0000 f03f 0000 0000 0000 f03f
1.0 1.0 1.0 1.0 1.0 1.0 1.0 1.0
1.0 1.0 1.0 1.0 1.0 1.0 1.0 1.0
1.0 1.0 1.0 1.0 1.0 1.0 1.0 1.0
1.0 1.0 1.0 1.0 1.0 1.0 1.0 1.0
1.0 1.0 1.0 1.0 1.0 1.0 1.0 1.0
1.0 1.0 1.0 1.0 1.0 1.0 1.0 1.0
1.0 1.0 1.0 1.0 1.0 1.0 1.0 1.0
1.0 1.0 1.0 1.0 1.0 1.0 1.0 1.0
1.0 1.0 1.0 1.0 1.0 1.0 1.0 1.0
1.0 1.0 1.0 1.0 1.0 1.0 1.0 1.0
1.0 1.0 1.0 1.0 1.0 1.0 1.0 1.0
1.0 1.0 1.0 1.0 1.0 1.0 1.0 1.0
1.0 1.0 1.0 1.0 1.0 1.0 1.0 1.0
1.0 1.0 1.0 1.0 1.0 1.0 1.0 1.0
1.0 1.0 1.0 1.0 1.0 1.0 1.0 1.0
1.0 1.0 1.0 1.0 1.0 1.0 1.0 1.0
1.0 1.0 1.0 1.0 1.0 1.0 1.0 1.0
1.0 1.0 1.0 1.0 1.0 1.0 1.0 1.0

weight f8 [8, 64]
00000000: 2d25 2e4a 1f14 fd3f cbea 0165 d528 f2bf
00000010: 4930 44bf f508 01c0 aaa8 f4da 0288 ebbf
00000020: 64e6 d576 d680 ec3f c8d3 22ce 584d f4bf
00000030: 66a9 f641 3a1a ed3f 002a 084f 57d8 e53f
00000040: b8b6 d913 5930 ec3f cb1b 0da1 272a d2bf
00000050: afbf d822 aec4 eebf d2ac 81b4 0158 c5bf
00000060: 62b5 033e f3f4 d2bf 82ad 13c4 bc7d f9bf
00000070: b950 637a be70 eabf 04f8 9b52 a6cf f53f
00000080: c566 7dea 3885 f2bf a01d a0e1 d078 c1bf
00000090: eba9 453c 3ff2 b9bf 3bd7 257e c607 c83f
000000a0: 3b49 f9fb 3903 e5bf 30d6 c4ff 4839 f23f
000000b0: a261 682e 5462 a23f 2be2 1c0a 9011 efbf
000000c0: 898e 93ad 129d d6bf 58b0 b326 1ff8 e43f
000000d0: 11b9 3fdc 778a fe3f 2684 0087 4e31 fc3f
000000e0: 70ba be7e 2a71 e5bf e291 37fc 3027 f2bf
000000f0: 5a5d bcb6 e1b9 d5bf 6849 00a3 f083 d0bf
00000100: 2d4e 0b80 acd3 efbf 2ea1 1c38 0b30 02c0
00000110: 7de2 1be0 4f62 e4bf 9446 5d92 b483 d03f
00000120: 3223 6a3d e99b f43f 5f4f 2be7 1bf0 823f
00000130: a15a 5134 8a65 eb3f c3ae 087a 867b c5bf
00000140: c759 8f76 c062 bbbf c11c 6609 59b3 e0bf
00000150: 2367 00c1 79e0 05c0 e6ac cf44 5719 e1bf
00000160: 1784 69f9 ec02 c83f 31ef b880 ba28 febf
00000170: 3f19 8e14 d5be e83f 272c 07eb 95fd ea3f
00000180: c584 be58 aeef fb3f 431c b662 da13 f3bf
00000190: 99d3 2f91 c0ca 0240 38fe 3894 1f1f f43f
000001a0: c1ab d442 c0f3 dabf e02e 0390 3a22 b5bf
000001b0: 701f 4ca8 281d eebf 87ee 1d27 a637 f43f
000001c0: 2f9a ac87 00dc d83f d9a4 ccda bd9e febf
000001d0: 9fd1 a338 a12a e4bf 263a 9a54 ca29 e73f
000001e0: f795 68a3 45c1 01c0 d4e9 27cb dbe8 e0bf
000001f0: cf04 16f2 dc80 f3bf 803f 1edf c809 df3f
00000200: 239a 31ba 68e6 e7bf 0110 5847 15b4 04c0
00000210: 9cdc 4f32 8441 f4bf 5de1 cfc9 c5e7 fe3f
00000220: 2db3 525b 844d efbf f80e fe74 0667 cbbf
00000230: 7923 556e bcaf 0240 8270 c5f7 59e5 fc3f
00000240: b977 9755 1e18 e9bf 650d e391 cb22 f23f
00000250: c562 5375 e998 f83f f612 20ed dae3 f6bf
00000260: 30e2 894a 854c d83f d3c1 1026 0bc8 0c40
00000270: edf6 f453 6311 d6bf 5276 7799 c2d8 e7bf
00000280: d09a aacf 7cf7 e6bf 9d3e a0c8 2d31 b43f
00000290: 5200 454a 202b fd3f f9eb 5266 1185 f2bf
000002a0: 192c 2c96 6c4b f73f 8e24 eb3f 7135 cfbf
000002b0: d98a 36e4 7e81 f4bf 7333 6fd4 5c75 cb3f
000002c0: 3a6e fbf8 f241 ed3f 9438 6dad 6c42 d03f
000002d0: 9408 40c0 08ff e73f 7a42 a08e d1b5 f13f
000002e0: 7f2a 66e2 6098 e5bf 39d6 3209 c06f fc3f
000002f0: 1238 c36b 92ee cebf a84d 82f5 8440 e63f
00000300: 3412 5dbd 0e7a f1bf 8ecc e752 e2da 70bf
00000310: 6f6b 0efb 10e6 e0bf 9627 ac9c 0404 e2bf
00000320: efe8 050b 1068 dd3f 97f1 08a2 55bb ee3f
00000330: d23a 1fa4 bd8c e33f 7eff 7b2f 4069 d0bf
00000340: dca1 e26f f4e6 d3bf 8a5e 5575 b001 c1bf
00000350: 3913 23c3 37e8 dbbf 2ecc 1f27 7da0 fd3f
00000360: 744c fd0e c514 cabf 12be 8632 dd77 fdbf
00000370: e681 522b a803 f4bf dd4f eaab 1f23 e03f
00000380: b7b9 0f10 f762 e9bf 4e68 4640 e99e d1bf
00000390: 5f0c d36a ee11 e83f dd32 b29e d3b5 e1bf
000003a0: b6f3 e605 c87a fcbf 9632 8416 e836 d1bf
000003b0: 77c9 c128 d8e6 d9bf 96c8 618e 1a16 f93f
000003c0: 423b fe94 ab3b c73f 532b a7dc 710a debf
000003d0: c6e4 2446 68ad f0bf 50c7 47d6 284b eabf
000003e0: 4f03 070d 2e70 cf3f 073b a27a 0188 db3f
000003f0: 6501 4024 cc6f b53f 96ea 1835 9467 fabf
00000400: a9cc 3bea 01ea c83f a143 8c22 c7fc b73f
00000410: ea33 f93c de7b f53f a4ae 53fe bc13 e23f
00000420: d3a1 b859 61f5 f1bf caa3 ff50 97f2 d33f
00000430: 86ac 505e 1ef9 cbbf 7b46 13d6 bb97 d5bf
00000440: fca5 8c76 3e76 f03f 5953 644a e126 ccbf
00000450: f6c8 6e99 9b75 0440 3be3 09bf 2469 f4bf
00000460: 1bda a024 1332 b3bf ee01 8ccb 0941 fb3f
00000470: 3c2d fdea 9ac8 c63f 9196 17d0 7bba e5bf
00000480: 61a5 fb2e 8185 ba3f fade dc18 b1d1 e1bf
00000490: 10de 922e ac02 f6bf eb0a 82a1 967d c2bf
000004a0: 7726 4e32 0697 d8bf 9418 43e0 6d15 f33f
000004b0: 8ede 457e 9f9f ed3f 775b 83ae 70b7 e4bf
000004c0: 8595 f1c3 4e28 d83f abaa 35df f41d da3f
000004d0: 9b12 317d 9cdb d6bf fc72 dca6 5bb6 eb3f
000004e0: 664a 8de9 5212 eebf 1582 2728 a7fd e2bf
000004f0: b556 8ad7 ceb9 c4bf 7d67 58f1 3f14 f8bf
00000500: becc 65e9 a1d9 ff3f bb40 4294 94f3 a73f
00000510: 2552 8108 30a7 cdbf 39e3 1f85 21e7 f13f
00000520: 0e78 ecac b05c f13f bd9e aa38 4a50 e2bf
00000530: c894 efa8 c572 dc3f e149 0ff2 fefa 0440
00000540: b07e 1a84 bb05 e2bf 931d 24c9 bf84 9a3f
00000550: 52e7 94ad 50f1 febf 858d 6fec b44c ce3f
00000560: 41ac 97be cb50 e23f 7635 6a79 dd4b d63f
00000570: efa6 bec2 f274 d6bf 9b00 2265 6db6 b53f
00000580: 2f4e 2250 acfe d83f ea4e ec59 2cab e5bf
00000590: ec15 68ef 1e81 edbf 4d0b 9a5b 0037 a3bf
000005a0: ba24 fb2d ed5d f0bf acb0 0b1f 29e9 e1bf
000005b0: e0eb 95c8 e27f b1bf ca0d b1c2 3464 02c0
000005c0: 60d7 101d 9695 f2bf eacb 6e62 1aaa f33f
000005d0: fe28 d737 d2ee fe3f 8072 167d 6a43 eb3f
000005e0: 8da3 fa2e c226 f43f 9683 1016 abe8 c93f
000005f0: 4ee1 1b46 905e ee3f fc09 a2fb 8213 f03f
00000600: 3fbc 04de c72f f23f bd8c 40b3 1f97 d3bf
00000610: 463a 1e45 089f f03f 6106 755e e808 e0bf
00000620: 01f9 878d 5df9 de3f daef d379 9e4c de3f
00000630: d41c 6507 1532 d7bf 2230 2134 bfa1 ea3f
00000640: ee5c ddcd af74 d23f 8db7 9c44 a6db 01c0
00000650: e710 f1a1 b8d3 f4bf 606f 61a7 43ce f73f
00000660: 361a eae2 ff2b c2bf 93a5 fac8 73df d93f
00000670: 2ebe 2974 8966 e83f ce29 a216 0813 e7bf
00000680: ce22 5b9f 316a f03f b075 8dba 39cb a6bf
00000690: b1fe 1201 3c4f f6bf 0c04 dfb8 1583 ddbf
000006a0: 17a0 1c80 9b52 e13f 8a25 22ce 8dc2 e13f
000006b0: d7ac e142 dfcd ff3f 065a e90b 9701 db3f
000006c0: 94a0 c1cc d1c3 febf 075d f641 af2c cb3f
000006d0: dd3e 66cd 7528 cbbf 974f 1f6a 5517 ef3f
000006e0: 0971 e5da bc85 f3bf f664 746c e76b e0bf
000006f0: 2930 00a9 ba3d d6bf d4f1 623b e740 0140
00000700: eb94 5d95 ae5b e33f 4ccc 363c e618 0540
00000710: 2914 3636 ecd9 e8bf 2c8a 83f0 8037 01c0
00000720: 9da1 5d37 88a3 04c0 3755 1d6f 524c e9bf
00000730: 7e74 0575 8fcd e13f 7332 933e 851c e8bf
00000740: d685 32f5 2439 ddbf 85f1 cc43 6490 e23f
00000750: 3521 4620 e10f e9bf 1ca8 497b d64b e93f
00000760: 0a9f fd94 6129 debf 7b94 a905 9be9 a5bf
00000770: 435d b26e 690a ac3f 1d3b a5b6 bf99 ee3f
00000780: e7a5 9df8 07c4 f5bf fb89 ac81 2208 debf
00000790: 4410 0b15 8752 cabf 8e37 4a84 dda4 e93f
000007a0: 1891 cf07 882f f1bf b15f 2392 d2fd b03f
000007b0: 3d49 c6c3 b49f 04c0 9b64 5814 4770 0240
000007c0: bfac 0158 ddd3 f93f fc4b 5c73 64d5 f7bf
000007d0: b5fc c8be f6ab f03f 4210 5d80 c361 dbbf
000007e0: 112f a39b 4e5c eabf d9f5 38d7 f256 d3bf
000007f0: 273a 692b f3ed fb3f e40c a073 86b1 fd3f
1.817412652746792 -1.134969133911613 -2.129374975460483 -0.8603529240110863 0.8907272645003101 -1.2688835193814487 0.9094516075468106 0.6826588195411318
0.8809018504814139 -0.28382292487770816 -0.9615088158225172 -0.16674825013919886 -0.29620057159521285 -1.593197599339732 -0.8262627020253809 1.3631957270549728
-1.1575249824294798 -0.136499509972265 -0.10135264607894327 0.18773728522836017 -0.6566438599932448 1.138985632989158 0.035906439461715026 -0.9708938786998876
-0.35333697272128767 0.6552882915398284 1.9088057139848085 1.7620377801433817 -0.6700642085541642 -1.1345682003239905 -0.33947031827252305 -0.2580529777343572
-0.9945890904295475 -2.2734588989007056 -0.6370009781958995 0.2580386571254192 1.2880642317779345 0.009247034065459734 0.8561450025398082 -0.16783219298064553
-0.10697558302431452 -0.5218930419513513 -2.734607227158351 -0.5343433708161711 0.18758928469017697 -1.8849434879511586 0.7732949639765038 0.8434552755728689
1.746015879304012 -1.1923469406044809 2.3490001051636225 1.2575984754511307 -0.4211273815769197 -0.08255353942802968 -0.9410594260270795 1.2635861900334093
0.388427860731471 -1.913755278287047 -0.6302038294075379 0.7238513615027997 -2.2193711057941488 -0.5284251182450199 -1.218960710190277 0.4849722079170462
-0.7468761097523536 -2.587931210875468 -1.265995213061422 1.931585110023739 -0.9782125266698124 -0.2140815802814513 2.3358086223346928 1.8059940031589865
-0.7841941520416561 1.13349492060737 1.537332018188111 -1.4306287062365164 0.37967045096550844 3.59767751444472 -0.3448112792865306 -0.7452099797626011
-0.7177108818039759 0.07887540958494772 1.8230288411287074 -1.15748729677466 1.4559141031375076 -0.24381843205472759 -1.2816151537487512 0.21451912281772997
0.9143004286701804 0.2540542310351921 0.7498821024785394 1.1068893023804365 -0.6748508855683467 1.7772827491111356 -0.2416556383308835 0.695375899801026
-1.092299213124659 -0.004114994123017314 -0.5280842688983806 -0.5629904804238659 0.459476481213314 0.9603679814095355 0.6109302716739313 -0.25642399441857566
-0.31097136427208993 -0.1328640530507424 -0.43604845100735506 1.851681855038588 -0.20375884277254708 -1.8417636846242016 -1.25089280054828 0.5042875631065687
-0.7933306993198163 -0.2753241660772162 0.7521888815321168 -0.5534456347973805 -1.7799759131005266 -0.2689762325178803 -0.4047146223084818 1.5678964196963867
0.18150849127820307 -0.469387498361063 -1.0423357715611004 -0.8216747460521479 0.2456109584436725 0.4301761338801246 0.08373714337358747 -1.6502878259767946
0.19464134156405535 0.09370083421187171 1.342741239717038 0.5649094550439782 -1.122407293771279 0.3116815844537625 -0.21853999715071754 -0.33738609224119614
1.0288681631885757 -0.21993652470032535 2.5574256884511852 -1.2756698095747214 -0.07498283046957292 1.703378481965156 0.17799698328085778 -0.6790141166972764
0.10359961888356885 -0.5568471418000336 -1.375652486732978 -0.14445765386707107 -0.3842177859556623 1.1927317390668906 0.9257352319973096 -0.6473925980052248
0.37746018538594966 0.40807840154472313 -0.35715400911093703 0.86601049985947 -0.939736801296317 -0.5934634956611854 -0.16192040943558586 -1.5049437930633467
1.9906329266639626 0.04678024587440307 -0.23166466155329704 1.1189284515550766 1.0851294283706951 -0.5723010164992598 0.4445051336063668 2.6225565825381953
-0.5631997661730193 0.025897022868802088 -1.9339148312123666 0.23671590370859633 0.5723627779492589 0.34838044030114845 -0.3508879567913103 0.0848148700624755
0.3905440123137138 -0.6771451717672481 -0.9220118213567594 -0.0375290023630642 -1.02293127023067 -0.5597119909630428 -0.06835763356313818 -2.2989287576944877
-1.1615201125509529 1.2290290684729777 1.9333059483784036 0.8519794886702385 1.2594625315780121 0.2024129731881003 0.9490434045137961 1.0047635869419755
1.1366652176473193 -0.30609886651127366 1.0388262462544318 -0.5010873646608155 0.48397005864525516 0.4734264554715516 -0.3624317714897647 0.8322444933087392
0.2883719931027845 -2.2322507248235923 -1.3016897512289292 1.4878574884705458 -0.14196775989349114 0.40426344515670926 0.7625167149362306 -0.7210731927928522
1.025926229938864 -0.04451923753979814 -1.3943443338356867 -0.46112578443359165 0.5413339140113774 0.5549992586176569 1.987761746650724 0.42197204745517103
-1.9228075025839972 0.21230116577928745 -0.21217224625842493 0.9715983460141498 -1.2201508093485833 -0.5131718748336016 -0.3475176477811624 2.156691039998103
0.6049416463180511 2.6371578888152154 -0.7766018923581487 -2.1521014013426534 -2.579849655671025 -0.7905666513640089 0.5563428197452962 -0.7534815046470399
-0.4566128153329293 0.5801259350042051 -0.7831884031630013 0.7905075462306317 -0.4712757067668326 -0.04279789394494401 0.054766936075959304 0.9562681739133471
-1.36035916438629 -0.46924650824999475 -0.20564354445935085 0.8013751586711224 -1.0741043381795574 0.06637302463366158 -2.5779815001380073 2.3048230733371162
1.6142247617488434 -1.4895977503081204 1.0419833614867404 -0.4278420213270274 -0.8237679519456568 -0.30218192117521664 1.7455932327026262 1.855841113720822

weight f8 [64, 64]
00000000: 1244 5ddd 8662 f03f 9900 4ebb 13d0 e9bf
00000010: 8896 b78e 02e0 f4bf e1b4 bd6d 8a53 f5bf
00000020: b0f5 1fa6 7f55 f0bf 5c38 b6c8 de46 02c0
00000030: 3ebb 7196 c0e1 c33f 905f 6b15 d348 fabf
00000040: 50d5 1730 19f5 bf3f 141c 7354 e8b3 f9bf
00000050: a68f 7007 3f02 eb3f 3f25 fd41 c485 f93f
00000060: c6bb df2d 2a2a dc3f 114d c54f d69c d13f
00000070: 9b48 e35a e243 f33f f5ff f426 91bc e63f
00000080: 01fb ebcd ba8a ea3f ba3c 987c 3893 f63f
00000090: cf8a f59d 2def 06c0 cf3c c565 e317 dc3f
000000a0: 743e 6aa4 c924 e93f 7f14 2ff0 0a0f d0bf
000000b0: 5b79 8b50 0034 e0bf 9e91 0674 690f e43f
000000c0: 7100 46da 2f7e e03f 5b88 f146 f208 fc3f
000000d0: 09ac b151 0e2e e3bf 250b 911f dd27 ff3f
000000e0: 9418 ac0b d143 ec3f 162e eacc 17ca 02c0
000000f0: ff90 7a19 292b d93f 5bc5 eff2 3407 ea3f
00000100: 565d 3cae 1931 e03f de59 2479 f39c dd3f
00000110: da30 76bf f8a0 d9bf bd41 0ca2 5920 d53f
00000120: 0c9a 7c58 a178 9abf 4613 0804 dcd0 e0bf
00000130: 122a 06e3 8155 d73f 6859 7636 64f6 d2bf
00000140: 3fcf 3869 7973 d63f 47d8 a03d 6d42 f43f
00000150: 6524 f36a 27ac dbbf 35aa 6402 5678 f53f
00000160: 362e 4077 8ab3 0440 e2c3 1823 90cc c03f
00000170: 63e2 2442 584d f53f 330f bbfa 8691 f1bf
00000180: 53b5 52b4 c399 d13f 011a 22d3 57ca b63f
00000190: 1cd3 c715 6fb0 e0bf 53bd de22 0dce ddbf
000001a0: a69d e07a 4fbe e93f 7e10 2f5c caf7 0440
000001b0: fe32 640b 4979 a83f e68d dafd 00b3 ef3f
000001c0: 5578 5008 d4da 0240 5e77 5697 b744 e6bf
000001d0: 8dc5 2ab9 89ef e8bf acad 7c20 35c8 f1bf
000001e0: 24b7 73c8 5fe9 f3bf eeae a65e bb15 d23f
000001f0: e388 61ac 0d64 a83f 1830 6ec6 acf3 e13f
00000200: a372 025e a922 02c0 7f4b 1bb0 dd13 ccbf
00000210: a475 0608 3f31 dbbf 2321 e6b1 3e84 e43f
00000220: bc2f 6cfe 9789 06c0 ea04 b8cc 6be1 db3f
00000230: 9fab 62ff a367 bd3f ade4 e19e 774c fa3f
00000240: 000b b171 2db6 f4bf 62b6 ae51 6d75 cd3f
00000250: d8e1 dfbd 6749 d33f e234 2250 3957 f0bf
00000260: a146 8ab3 2ab2 e3bf 5a78 fd1b 1bde ee3f
00000270: 7fd5 e65f 333d 0140 3767 c3fe 5661 e9bf
00000280: 871b 0eae fb5f f63f c31c 8a4c 8b99 b1bf
00000290: 356e 2a80 6927 f0bf 8ab4 7e02 59fc 7abf
000002a0: 5a4b 983e 19bd c33f 4ec3 82ff 699e d63f
000002b0: d30b 580f bb9a a93f b278 d45e 027d f7bf
000002c0: b0b3 a352 1efd f0bf ffe7 535b 246b de3f
000002d0: 3eba d20c ab07 863f cad0 f057 c2ff ffbf
000002e0: 5cc7 2465 f741 d4bf 5340 86b5 f637 f53f
000002f0: 4caa c795 2fbb e43f 45f5 c6ba ac07 df3f
00000300: fdfd 63ad 4105 f1bf c535 cff6 6def f4bf
00000310: c92c 1884 9ee2 fcbf cebb 397d 7f5b ca3f
00000320: 05a3 ee80 c18a c23f 28a6 0544 40d3 e93f
00000330: fbbf e664 dc27 f43f f588 3207 b54d b1bf
00000340: f945 a1f6 0318 f7bf 79db 3df0 874e afbf
00000350: 5421 6e0b 8624 bc3f f5b4 5a04 91f8 b73f
00000360: 5f5d 6fb7 bb3e d33f 1767 62ad 28c2 ea3f
00000370: 6ccd ca9b 65b3 eabf fa27 2a78 9d6b f23f
00000380: dc96 a1f6 57c0 f73f 8344 2315 2e0f e8bf
00000390: f65f 4a76 c652 f23f 622b d5df f98e f6bf
000003a0: 48c9 0d43 b86c e6bf d6c7 07a7 c3c5 b03f
000003b0: 244b bcb6 932b f1bf 18bb 7247 118b e3bf
000003c0: ef11 4d89 0313 f03f e80c 9481 61a7 f33f
000003d0: fae8 4a81 db57 d93f 6cf1 a1b1 1a49 f93f
000003e0: 3a9c 7c9a 836a f2bf 8204 5fc8 c2da fd3f
000003f0: 9fac abc4 8202 f63f d93f 9599 5609 e2bf
00000400: d120 176e 9487 d5bf 979b 6e56 a63d f13f
00000410: f9f6 f84c 1e41 d53f 47ba b9ed f055 f5bf
00000420: d058 cf38 6585 ea3f d0dd 97c7 bd51 dbbf
00000430: a6c5 31d1 5b92 b9bf c73f 70f9 a98f ec3f
00000440: da2d a8e8 dd7a e73f 539e 9c38 0370 b93f
00000450: 4a96 ab11 f142 fbbf 9b9e 4005 62cb b33f
00000460: 16c5 67c9 e5e1 e4bf d52b 0dc8 178e debf
00000470: b71b 750c 881f 0840 51f0 ce04 62f8 a9bf
00000480: ec0b 5757 a408 dbbf d284 415d 8c2b ea3f
00000490: df1e 1932 5559 e23f 5006 8b5a 4c2a db3f
000004a0: 1782 b302 1d41 eabf d241 8eb7 3099 efbf
000004b0: ae19 d24e 2585 f5bf 71ce b675 c63f f9bf
000004c0: ea79 fcfc fc72 f7bf fc62 d2bc 9138 f93f
000004d0: 2953 c424 8fde fdbf c631 2ccb a4cc e13f
000004e0: d087 14a7 8047 e0bf dad8 e763 d9bf e43f
000004f0: abda d5c0 d6b9 fa3f 7be1 9260 3d24 f03f
00000500: 094c 902f 4d4f dcbf 2a20 31ec d8df 01c0
00000510: c2a4 4eab 5b12 d53f f115 3feb 5cf8 e7bf
00000520: 86ca f995 fc45 cebf 34d1 5ba9 b349 e6bf
00000530: 07d9 3d65 0876 d3bf 9be2 774d 1c16 f0bf
00000540: 3bde eafa 58c6 f1bf cba1 f299 a55b 01c0
00000550: 4e41 4192 69f5 9b3f 8934 fe14 3417 bcbf
00000560: b301 9dce e7f8 da3f 4cef b38d 3148 f53f
00000570: 0501 e805 0e0d ff3f 8ab4 e5ee 291e ecbf
00000580: 2f29 0575 0695 e2bf b913 4fd1 f854 f5bf
00000590: ce85 ab57 c7d2 f13f c6bf b9c8 c93d dcbf
000005a0: 0e93 b070 077d ecbf df71 d074 0ebe e53f
000005b0: cba0 ee30 f1d1 d9bf 5f05 8b71 2633 eebf
000005c0: dfad 4bb6 5e3c bb3f ce98 7956 5bdf 0140
000005d0: 907c 663f 6a90 e9bf 35f2 0ff3 42f2 f83f
000005e0: bb63 6ac2 052d f13f 84f5 fe82 b0d7 f23f
000005f0: 8105 f565 c806 c4bf 7410 5391 2c9f d0bf
00000600: eafa 93db 2e7f ebbf 869e d1e1 007b 0040
00000610: 9443 6323 6e34 7b3f 7c94 f5fa f040 f5bf
00000620: 647f 50fe 5f70 d73f 8dbc 3a1a d176 dabf
00000630: 5176 614d 046a cebf ecc0 f7af e37f d9bf
00000640: 0815 13a3 f6e1 e0bf 8939 3a2c 3d01 bbbf
00000650: 3d1e e56b 330e c43f 09e0 0539 d929 08c0
00000660: 605d 4e1b f83b f5bf 2ccf 5400 4342 e73f
00000670: a5be 75c7 3970 f93f 472f ac98 7bb2 c8bf
00000680: 7a73 b795 89ed f5bf 5e90 486f 9da5 ccbf
00000690: 76e3 8833 0515 58bf cd09 ab31 98f4 c33f
000006a0: 4d00 a849 37c4 e1bf 47d1 f01c b3d8 fa3f
000006b0: 06b8 d86a aed9 b4bf 7ee1 3c70 ea09 d13f
000006c0: 5147 c834 a07d f5bf 8b07 aefd 16f0 0940
000006d0: 4ed0 f31b 9c79 debf 2f2e 7747 b3ac c63f
000006e0: 4923 787a 9944 db3f 791d 9644 079f d4bf
000006f0: 7202 559f fcdb c0bf 3973 404d 4db2 f33f
00000700: 7e40 88c8 0cdb fdbf dedc 3cfb 5118 edbf
00000710: 445e 638a f4d0 d1bf 76cf 9fe1 996b f43f
00000720: c1e9 1c33 e3e5 cfbf 4730 f8cd 4315 f53f
00000730: dcf3 9044 b5d6 e33f d7a3 c954 a377 e23f
00000740: bc97 89b6 3d3c b8bf e88a cd9b 71c4 d43f
00000750: 5bb2 7b3f 3786 cb3f 2fab 296a 4497 c23f
00000760: a352 e140 59e0 0040 581b c8fd 33b2 fdbf
00000770: d02b 1a65 e73d fcbf 44b0 6188 3e83 d0bf
00000780: afb0 b256 bd0d c53f 0e66 417d 9c39 0540
00000790: 7364 d31c f8ca dbbf f5ae 12f4 b2ed f1bf
000007a0: 16d1 87ee 8f03 e7bf 18e5 b810 fd48 ebbf
000007b0: 24a2 0d8c 84ba edbf c555 8a70 2c46 e63f
000007c0: 5e0e 7a6c 189a f33f fde3 75e5 f02d e4bf
000007d0: 62ae d7ce caf0 e33f 89c4 fc1a f1bc 853f
000007e0: fcd7 167c 8494 dfbf a37a 1851 5515 f43f
000007f0: 46ab 9a1f c2ad dabf a5ed 9dfa 2332 b93f
1.0240543982547519 -0.8066500337881904 -1.3046899390114124 -1.3328956877479003 -1.0208736886264482 -2.284604614315908 0.15532691331778808 -1.642779430074345
0.124833654633979 -1.6064227389158576 0.8440241952234728 1.5951578691186368 0.4400735328662758 0.27519758024318813 1.2040732908540466 0.7105184327010635
0.8294347783956654 1.4109425417880588 -2.8667862263258495 0.43895802439233206 0.7857406817656298 -0.2509181352182352 -0.5063478062764192 0.6268813387037431
0.5154036772874077 1.7521841784696537 -0.599372062262206 1.9472323639935862 0.8832783916448244 -2.348678208252532 0.39325931060945146 0.8133797402244157
0.5059936907809213 0.46270453291199753 -0.40044993112020466 0.33009949517238707 -0.025850792909432527 -0.5254955366841407 0.36459395571060427 -0.2962885410173812
0.3507979896123636 1.2662174613337969 -0.4323824448043239 1.3418788999066582 2.587666446348318 0.13124276841838795 1.331382997870741 -1.0980291170280452
0.27501003846812927 0.08902501015300147 -0.5215373444940243 -0.4657013741043176 0.8044812583875014 2.620991439996998 0.04780033363394941 0.9906010587769145
2.3568497323567876 -0.6958883243384937 -0.7792404762787314 -1.1113787907623687 -1.2444761114269989 0.2825764107062544 0.04763834695110505 0.5609954715341727
-2.2669246048447618 -0.21935626124340143 -0.42488075050081364 0.6411431765164121 -2.8171844364896668 0.435633611603477 0.11486268029209022 1.6436687666266991
-1.2944769326283563 0.23014608848955037 0.30135530035434277 -1.0212948923320302 -0.6154988772052158 0.9646125361139284 2.154883145553583 -0.7931323028417187
1.3984333800342215 -0.06874914759292765 -1.0096220976328258 -0.006588313764877127 0.15420833164588538 0.3534188266012749 0.0500086265783676 -1.4680198387427876
-1.061796496210473 0.47528942984320105 0.010756813362914671 -1.9999411997969667 -0.3165262687426684 1.326163014487993 0.6478498387708185 0.48484342803915964
-1.0637833378858652 -1.3084544793122046 -1.8053269538821033 0.2059172975018257 0.14485949321285588 0.8070374802165974 1.2597316686114925 -0.06759196687429266
-1.4433631547911985 -0.06114601905476653 0.1099323060899498 0.09363657337481242 0.3007039347989657 0.8362010370649128 -0.8343990366760585 1.1512732213909644
1.4844588884383745 -0.7518530285689312 1.1452087994312001 -1.4099062674965457 -0.7007714566846426 0.06551764324083761 -1.0731389177423774 -0.6107260127517717
1.004642044384237 1.228364473500557 0.3959873926757066 1.580347722890191 -1.1510044130934731 1.8659084155081307 1.3756129915662212 -0.5636399268787456
-0.3364001345730801 1.077551210046044 0.33209950939986715 -1.3334817205574312 0.8287836179322543 -0.4268640946533795 -0.09988950593267151 0.8925371047825984
0.7337483924943016 0.09936542636989402 -1.7038431825871094 0.07732212665779985 -0.6525753911684287 -0.4774226621272509 3.0153962109793286 -0.05072313603111012
-0.4224024632387102 0.8178159543423595 0.5734048822859811 0.4244566806993122 -0.820448403621472 -0.9874499878952128 -1.3450062827047122 -1.5780701254087968
-1.4655732996249022 1.5763108611919838 -1.8668357311445993 0.5562309234824674 -0.5087283385548691 0.6484190894396094 1.670370820296436 1.0088475963985661
-0.4423401798714513 -2.2343004658214527 0.3292454884454622 -0.7490677446991737 -0.23651082346949098 -0.6964968021189066 -0.3040791500747137 -1.0053980852227713
-1.1109247018301989 -2.169749453274766 0.027303361465159263 -0.10972905647777699 0.42144198586540965 1.3301253829258313 1.9406872015679835 -0.8786821046793574
-0.580691555552482 -1.3332451034668635 1.1139596390352042 -0.4412712536059157 -0.8902623368236122 0.6794502526786877 -0.403438852105421 -0.9437439172399243
0.10638992262436585 2.2340609317644526 -0.7988787878311019 1.559145879232472 1.073491820751072 1.1776585690525687 -0.15645699480414169 -0.25971521560518984
-0.8592752731927622 2.060060276231357 0.006641798236345493 -1.3283548167321717 0.36623382411379724 -0.4135020023486014 -0.23761037615161 -0.39843074974397896
-0.5275834260034182 -0.10548765496989722 0.15668337601003826 -3.0204338507574033 -1.327140909828664 0.7268385893316682 1.5898988524822155 -0.19294686274258252
-1.3704925392441667 -0.2238041680694804 -0.001469855384256228 0.15590193200303162 -0.5552021444891665 1.6779051905151208 -0.08144655331190628 0.2662302108833713
-1.3431703626451574 3.242231351731737 -0.4761724732372884 0.17714539517906888 0.42606198272601553 -0.32220632264985444 -0.13171346454511795 1.2310307519575885
-1.865978988007583 -0.9092187792765818 -0.2783786155173156 1.2762697995612746 -0.2492031097006713 1.3176916166003296 0.6199594821151737 0.5771042495736037
-0.09466920572739829 0.3244899770271972 0.21503344154133938 0.1452413099644558 2.109545237423235 -1.8560066140505196 -1.7651132535272502 -0.2580105144359133
0.16448179944325633 2.6531305108626446 -0.4342632562161903 -1.1205319913960328 -0.7191848429488654 -0.8526597334486352 -0.9290182814993995 0.6960661123327375
1.2251209485410963 -0.6306080323839748 0.6231435813801449 0.010614284168328563 -0.4934397899445455 1.2552083175466258 -0.4168553646692782 0.098421333966988
