MACE_models/mace02_com2_swa.model (torch, 458427 bytes, 51 tensors)

r_max f8 []
00000000: 0000 0000 0000 1040
4.0

weight f8 [48]
00000000: 328f 86fa 919c e5bf 4c39 1dcb e976 f6bf
00000010: e282 b810 c545 e1bf 3ee1 a6e4 3d49 b9bf
00000020: ab18 522a b0f8 a0bf 28c2 9f2e 56b9 e4bf
00000030: 23e7 1f8a 535c db3f 53b7 7725 3f8a e33f
00000040: 3f7c 107d 4dc9 f03f 5cc5 9d0e 3c01 de3f
00000050: b5b3 f8da f0d0 dabf 5c85 5ec4 5eb0 d23f
00000060: 6a35 af0f add5 dabf f094 3e9b 8ca8 c4bf
00000070: e2c8 a9e6 1062 c03f 6752 94ea f13a f23f
00000080: e1ab dc92 05d2 aebf cdad cf6e 6a88 d43f
00000090: 312a 476b 05eb dd3f 1488 eba4 750c f33f
000000a0: c07b 110e d202 ec3f e45c d914 ad3e f83f
000000b0: 78c6 e095 26c5 fbbf 9187 6e8e a2c0 efbf
000000c0: 009e 8c93 01b9 c2bf c837 5222 fa39 d1bf
000000d0: 4e6a 8f34 71b8 e73f a0c9 a0fc 149d ed3f
000000e0: 87c8 950b 72b8 c2bf af79 b21d 38cd fcbf
000000f0: 9372 dd3d ae17 01c0 4c5d 0f36 65d7 d3bf
00000100: dbfb e852 bc61 ed3f f70c f009 ae51 dbbf
00000110: 689b 1ba4 6d24 eabf c0d8 5a36 279f e13f
00000120: 8759 c0da a07b fb3f 2a74 4ffe df73 e13f
00000130: 2f9b 60e3 c7ba f5bf 7805 0f8f c19f f83f
00000140: f551 2ba4 1909 f3bf 3a6d f9f7 637e d7bf
00000150: 47d0 9d16 4211 f73f 6750 62f6 5ac9 f1bf
00000160: de49 c516 e90a d73f 2304 96af c7c7 f93f
00000170: 9536 44ed 8613 e8bf 3afe c36d c521 b2bf
-0.6753625767782749 -1.4040315565249157 -0.5397668196274845 -0.0987738307220569 -0.03314733997926685 -0.6476241026521778 0.4275101517556427 0.6106258136548867
1.0491461644485438 0.46882535388347946 -0.4190027368920782 0.29201478172952533 -0.41929174930267854 -0.16139371471687225 0.12799273741581546 1.1393908656365512
-0.06019608896016116 0.32082615682039944 0.46746955372205706 1.1905418817700637 0.8753443026324632 1.51530178207559 -1.7356325010881886 -0.9922650129194485
-0.14627093987040496 -0.2691636405150999 0.741264917999908 0.9254250463621254 -0.1462538296287372 -1.8001023445172952 -2.136562808342498 -0.3100216892175538
0.9181806201303248 -0.426860341744216 -0.8169468121749164 0.5506778775805046 1.7176826996779668 0.5453948943137494 -1.3581007844856676 1.5390029514531687
-1.1897217190609102 -0.3670892640709159 1.4417134173827593 -1.111659014165548 0.36004092429825885 1.6112744196727895 -0.752383674059916 -0.07082780771087807

output_mask f8 [16]
00000000: 0000 0000 0000 f03f 0000 0000 0000 f03f
00000010: 0000 0000 0000 f03f 0000 0000 0000 f03f
00000020: 0000 0000 0000 f03f 0000 0000 0000 f03f
00000030: 0000 0000 0000 f03f 0000 0000 0000 f03f
00000040: 0000 0000 0000 f03f 0000 0000 0000 f03f
00000050: 0000 0000 0000 f03f 0000 0000 0000 f03f
00000060: 0000 0000 0000 f03f 0000 0000 0000 f03f
00000070: 0000 0000 0000 f03f 0000 0000 0000 f03f
1.0 1.0 1.0 1.0 1.0 1.0 1.0 1.0
1.0 1.0 1.0 1.0 1.0 1.0 1.0 1.0

bessel_weights f8 [8]
00000000: 182d 4454 fb21 e93f 182d 4454 fb21 f93f
00000010: d221 337f 7cd9 0240 182d 4454 fb21 0940
00000020: 5e38 5529 7a6a 0f40 d221 337f 7cd9 1240
00000030: 75a7 bbe9 bbfd 1540 182d 4454 fb21 1940
0.7853981633974483 1.5707963267948966 2.356194490192345 3.141592653589793 3.9269908169872414 4.71238898038469 5.497787143782138 6.283185307179586

r_max f8 []
00000000: 0000 0000 0000 1040
4.0

prefactor f8 []
00000000: cd3b 7f66 9ea0 e63f
0.7071067811865476

p f8 []
00000000: 0000 0000 0000 1440
5.0

r_max f8 []
00000000: 0000 0000 0000 1040
4.0

atomic_energies f8 [3]
00000000: 7a18 469c 176a 25c0 bb72 1c16 796c 48c0
00000010: 87ab 5a17 8ea4 59c0
-10.707211383396714 -48.847445262804705 -102.57117256025786

weight f8 [256]
00000000: 153e 10a2 42a4 f83f 1199 c5b8 ba1d e2bf
00000010: 9142 f5ae e925 e9bf 573a 0f52 f007 ec3f
00000020: 26e8 d559 6c77 e2bf f32d fff2 c428 e0bf
00000030: 94a1 c2cd e6db f83f 6425 1a19 9b9b ec3f
00000040: 87c2 046a 8538 c13f 060b 3683 94d2 c43f
00000050: f16d f387 1c72 e63f 3301 2c05 00da f0bf
00000060: 13b9 a4b5 62ef d5bf b34c 2c5f 0362 02c0
00000070: 2781 97bd 7b73 f6bf 6221 0a97 81c4 fabf
00000080: eedd 9233 1bb3 d73f 7bb2 260f f759 f03f
00000090: 912d a047 030f ed3f 5716 450d 7d89 eebf
000000a0: b813 769b 3d88 f8bf b3ea d9a4 1386 f03f
000000b0: 31a8 6981 8325 cabf 7a68 a2b9 9c96 f73f
000000c0: 726a ae5d 0d76 e83f a812 b003 3ba9 f6bf
000000d0: a5f1 d80d 04c6 e73f 00d9 93b9 288d f03f
000000e0: d051 92b2 4434 a3bf a118 31ac 5733 ef3f
000000f0: 56f8 8500 2a34 fbbf 5275 58f9 3103 c83f
00000100: 58be 0fec 5bf4 f0bf 7688 00ed 910a e0bf
00000110: c331 db4d 0847 fcbf 4e6d 7efa a8f6 0440
00000120: 1900 a704 a294 e13f d541 21b8 5412 f13f
00000130: cf8f f0e8 dede e1bf 43f6 3519 d666 a4bf
00000140: 03a2 d02a 03ac e13f 2718 2b5d 8dcf d6bf
00000150: f6a9 ef22 f294 ff3f b7d7 6a1b 1aaf d7bf
00000160: 4aa7 87fe ac6a eabf 1ece e498 6d99 e7bf
00000170: 12cc 25a2 11e7 ad3f a2e9 e333 54f0 ebbf
00000180: a3a8 a35b 14d6 e6bf 2f34 7b55 b7c5 e53f
00000190: 323b cbe2 fa44 f03f 4fab f19f 5345 f33f
000001a0: 4af3 a225 4bbe e5bf 6ab3 d08a 7bae d5bf
000001b0: bb02 9300 e12e bfbf 1192 4cd2 29e5 01c0
000001c0: 5d09 3457 16ea e73f a86b f7d1 03ac 0040
000001d0: 9f86 598c d74e f13f 579b 75c5 9bbe f6bf
000001e0: 0f2b 902f 3695 d73f 9836 bd51 3dae efbf
000001f0: be74 c421 57d4 ea3f 9320 67f2 f458 d7bf
00000200: 5cc0 6c6a 043c ebbf 9e9d 1f0b 802b e53f
00000210: dfdd 4265 f217 e9bf 2aa0 7d3d 5344 d93f
00000220: aa72 8cd3 435f f0bf 1fd7 a2c0 1cee 743f
00000230: 6cf3 d158 8002 d23f 3717 91ea 25e4 0040
00000240: 8509 ec3e 2f27 fb3f 11a7 1521 6404 e53f
00000250: c720 c418 8a78 d63f 0e7e d4c4 0007 e63f
00000260: b4d5 cd03 7060 d0bf 2d16 bfd0 a422 eabf
00000270: b30a 812c 4b65 0040 d686 a7ba 7b1d f2bf
00000280: c765 6d33 54f2 e73f dce7 48d6 ddbb d1bf
00000290: 42fa 8beb 34d3 f6bf 36e1 2e3c 3de7 d8bf
000002a0: d157 53df b7e8 d4bf a4dc 15a9 7a13 d63f
000002b0: fdc7 4dd1 438c ec3f 2047 5a49 0b74 e93f
000002c0: 9952 d670 c853 e3bf d4ad 9152 9555 e63f
000002d0: 8401 2f73 ccf7 bd3f f693 fa63 ab1a 06c0
000002e0: 672e 4ad9 3f3e f43f 6d2c e389 9512 ecbf
000002f0: bda9 69e7 87f8 f8bf 9e4d 6398 16f7 a9bf
00000300: c50b 19a2 d3a8 ecbf 429f dcc6 a242 cabf
00000310: 9ba1 b90c 8965 c0bf 8b41 7c55 6922 de3f
00000320: 5a96 0b00 69f7 ec3f 0eae 429f 7d5d e1bf
00000330: 8075 d82c a7ac e93f 2f09 ae36 5073 f7bf
00000340: 484b 4de8 65b8 f0bf 13eb 05ba 2a1d c73f
00000350: d1dc 7102 2e65 e83f 8def 8814 203b e03f
00000360: 1b1a 4ee2 a82e f3bf 2cff 7582 b14e fa3f
00000370: 009e 9838 5aa8 01c0 e6e8 0e34 3653 d03f
00000380: b84f 9d5e 97ac f73f 3601 3f64 c118 ecbf
00000390: c2ef 9f33 d24d e33f b623 74d8 795b c63f
000003a0: b58d fe5e a35a d0bf a1d7 3a35 921d f43f
000003b0: d470 0305 929c e6bf b35f ede2 75ff ae3f
000003c0: b1f5 765a ad3d febf 9de9 f222 f379 df3f
000003d0: f629 e9c5 112d edbf 3bed 0dc0 c65b ccbf
000003e0: 73ff 4aea b2bf e33f 3e93 bc18 a2bb cbbf
000003f0: 4b53 ac31 7b89 bdbf 1c03 3391 d904 fcbf
00000400: d5f6 2438 6c52 ec3f 1dd0 eeba 98b0 d93f
00000410: 28db 801d 289a c43f 63bc 150e cd44 06c0
00000420: 35f4 9b8a cda1 ebbf b491 2a15 0729 fa3f
00000430: b36d 0b4e 67b6 dc3f 92b3 e75e 07d0 f23f
00000440: c42f 431f 2cad c93f 5e88 6058 bb1c aebf
00000450: dfb7 8b21 0a9b fbbf 7791 4775 58bb f9bf
00000460: 6305 8640 8099 f2bf 7aa5 fb7f 17a2 f93f
00000470: 1eb0 315c 4686 f73f a9c4 3a13 71a3 f23f
00000480: cd1c 4481 1cec e1bf 21b7 68fe 6fc5 c23f
00000490: d207 89f6 3a1b f43f 9a7b ab4e f44d b2bf
000004a0: 3de8 74ad 3166 f1bf 48f8 68e3 56f9 f2bf
000004b0: cd07 1636 865f bbbf 84a6 6237 2adf e53f
000004c0: 5a5a 92b8 802a debf aee6 c1d1 1f57 f3bf
000004d0: 4c4a 59b2 b8b7 e1bf ad19 9ccd e10e dd3f
000004e0: 6cae b786 d203 d3bf 2caf 402c ce67 0040
000004f0: c164 9a70 4165 e5bf 5e3e cfd9 9c87 f53f
00000500: 94b6 8bd1 f4b6 ebbf 1f08 365e 7c24 ddbf
00000510: e811 1b36 0dc7 cd3f a8d0 d406 e3c9 e43f
00000520: eb93 7205 c0ed fabf 8f3d 075e ba4a 04c0
00000530: 791b 980d 3dc6 fb3f 3240 f54d b597 d9bf
00000540: e7b5 3643 4c0c ef3f 9f2d a67f 537c d7bf
00000550: 536d 772e 6952 da3f 3467 2040 93f3 febf
00000560: 6e47 4e40 c527 f23f ccd1 564b cf07 fdbf
00000570: eed7 c23e 0aa1 bf3f 935c e491 b547 ed3f
00000580: 75e5 a4da 3dca 94bf e3c9 ab14 1c2b cbbf
00000590: c31c 239d 73af e33f 409d 401f d394 da3f
000005a0: b28a 35c0 6a26 f83f 61bd d0f4 c0b5 f2bf
000005b0: beb7 2cb5 9a15 b4bf f4f6 2950 2567 f6bf
000005c0: 2c33 3968 4ad5 883f 9f74 f2e6 ed5a f23f
000005d0: dabd 964b e21c dd3f 1f6e 850f d719 e2bf
000005e0: da01 e4f7 501e f23f d058 b563 8385 d23f
000005f0: 8355 5ba6 e9b4 dcbf a0b0 97ae 00c1 f23f
00000600: 7db4 4ac1 004f e33f 0868 0220 aece e03f
00000610: ade2 0b45 4158 ec3f cad8 62f5 ed02 f33f
00000620: 41a6 67d1 cd96 e83f ec8d 95b3 3649 ea3f
00000630: 89ed 4b1d dd72 f4bf e9e1 1c8b ee87 eebf
00000640: 04bc c334 ca1d d9bf 50d0 3f11 ef2b c0bf
00000650: 69e4 1144 c666 ebbf cf92 64f8 c926 e73f
00000660: 883c d995 77cf ecbf 92d0 4839 0b6a fa3f
00000670: 0e69 6aa8 91bc e43f 251e 4470 0176 ffbf
00000680: d59d c02f c3f1 ea3f 0651 fdf3 54d2 f6bf
00000690: 2d82 e00c d2ac e43f 67d9 b109 33fd b5bf
000006a0: 2cbf 86f3 da5d e1bf 5e82 6192 f6ec b63f
000006b0: d52e a63c c9ae e2bf 2e42 42fd f911 f13f
000006c0: 5cd4 8d52 1296 e43f 18bd 03f7 28b0 dd3f
000006d0: 2d3e 7eb0 5cec ef3f 6dfd 662e ee9e c1bf
000006e0: cd10 db35 2358 a93f 30b8 2c4d c15d e0bf
000006f0: f092 46fc 4b78 d7bf c323 96b9 b4e2 03c0
00000700: 455a 9ff7 1f00 0340 f619 6411 c5c0 fabf
00000710: b525 ab49 5c09 8ebf 022e ac34 78c3 fe3f
00000720: a1bf 4316 79a0 ea3f faeb 936e 4cf6 fb3f
00000730: f377 f664 9d72 e4bf 9e4b 4066 ab30 e3bf
00000740: 24e2 7e12 774c dbbf 7da4 a521 d918 fabf
00000750: 09ca 8c87 012f e7bf 4af0 22a2 c52d f0bf
00000760: 2388 382a 383d fabf ccf8 b7b6 b1e0 f43f
00000770: b6ca e346 a317 c9bf 3c46 da82 2b3a c93f
00000780: 88a6 df93 b9aa df3f ff93 fc26 d248 c73f
00000790: 52ef 01c9 fd3b fb3f a172 7315 ddff e73f
000007a0: ce6b 767f 0d42 f23f 68f0 d44b e3ad f9bf
000007b0: e5b2 067c 1c2f f2bf 1a76 826b ce9b eb3f
000007c0: 36ba 50b0 0b71 e7bf 6ee0 3b65 1cec e23f
000007d0: 2986 6d26 739a e8bf 0bb9 642a 4e1e f53f
000007e0: 491a 96f4 0fc1 b53f 932f b927 12ae dbbf
000007f0: 454b 861e 1384 fbbf e8e4 6154 380f c1bf
1.5401026087382708 -0.5661290749383473 -0.7858780305051188 0.8759690859531685 -0.5770780329323812 -0.5049767251998091 1.5536869084845408 0.8939948549533878
0.13453738857926487 0.1626763954810359 0.7014296202937073 -1.053222675516804 -0.34273593653314655 -2.2978579936403434 -1.403194180100465 -1.6729751491530682
0.37030677830213576 1.021964129623625 0.9080826186122285 -0.9542832621743383 -1.533261878271544 1.0327335776807274 -0.20426982707005117 1.4742705584854137
0.7644106702530975 -1.4163160461477364 0.7429218550164945 1.034462666427828 -0.03750815086201309 0.9750173915024513 -1.70023536877081 0.1875975101001282
-1.059657976260402 -0.5012902859637183 -1.7673419038065823 2.620439488394971 0.5493936625352972 1.0669753258299484 -0.5584559011081128 -0.03984707887410057
0.5522476040105747 -0.3564179811331791 1.9738637318320094 -0.3700623767612074 -0.8255219432150878 -0.7374790178495834 0.05840354065266963 -0.8730870259744743
-0.7136327543096467 0.6803852719837148 1.0168408259521127 1.2044254539311685 -0.6794791922653556 -0.338774571954494 -0.12180906547565488 -2.2368961743943676
0.7473251059712244 2.0839916614181284 1.081748531571442 -1.421535273862636 0.36848215718116334 -0.9900194736926151 0.8384204539794593 -0.36480449363853856
-0.8510763243302892 0.6615600793128811 -0.7841732003934644 0.3947952366347659 -1.0232580436342382 0.005109894098657169 0.28140267061080837 2.1114004445579684
1.6970665414706627 0.6567860265906537 0.35110714357916745 0.688354858812035 -0.25588608142364966 -0.8167289807394745 2.0494597889786177 -1.1321980754077479
0.7483311657371637 -0.2770914642929918 -1.426564140419615 -0.38911372067697714 -0.3267039948381099 0.34493891250844855 0.8921221816983685 0.7954155380886938
-0.6039774135447998 0.6979471790959288 0.11706235706424734 -2.763022214016469 1.2651976096994078 -0.8772685711968627 -1.5606764831123734 -0.05071325884059806
-0.8956087270711285 -0.20515856466340138 -0.12809861298889022 0.4708503088777653 0.9052014351734201 -0.5426624403530143 0.8023258090867529 -1.465652669518544
-1.045019061498083 0.18057760317955082 0.7623510406255268 0.5072174454758042 -1.198891529087297 1.6442122551088216 -2.2072033330512113 0.25507884105503675
1.4796365447882476 -0.8780219037944679 0.6032496460243169 0.17466662472750522 -0.25553211476127596 1.2572195128718493 -0.706612596313358 0.06054275889499596
-1.890057900788957 0.49181822216964993 -0.9117516389317746 -0.2215507924810057 0.6171507431063062 -0.21666361053316935 -0.11537904703830042 -1.7511840507360779
0.8850613686151642 0.40140360121881874 0.1609544891413972 -2.7835942364104524 -0.8635013301096764 1.6350165201957738 0.44863302823588497 1.1757882792692027
0.20059730078207683 -0.0588129563696078 -1.725351458585912 -1.6082386571152634 -1.162475826306342 1.6020731925330822 1.4702819444019108 1.1649027587084595
-0.5600721859672376 0.14665031359020822 1.256648028400822 -0.07150198860789062 -1.087449719967949 -1.185873878784621 -0.10692633457622876 0.6834918100114042
-0.4713441660364076 -1.2087705796861132 -0.5536769374251178 0.4540333278568152 -0.29710829883581513 2.0506862122764655 -0.668610305717401 1.3456085689721458
-0.866083535450985 -0.45535191726969687 0.23263707296258862 0.6496443875717164 -1.683044453887528 -2.5364882799110045 1.7358980685255274 -0.3998845349606227
0.9702512085693201 -0.3669632669995852 0.41127996003861717 -1.9344666008896185 1.1347095977730208 -1.8144066756186588 0.12355102569821927 0.9150035714582309
-0.020302740545252235 -0.21225310334518985 0.6151674336514578 0.41533353855125554 1.5093791492624118 -1.1693734706021461 -0.07845465586862496 -1.400182068958597
0.012125569635054477 1.1471995374079496 0.4548879373714648 -0.5656543067120231 1.1324014361599581 0.28939900147578346 -0.4485420345857493 1.172119791032891
0.6033939147215645 0.5252295136626808 0.8857733105242765 1.1882152161975221 0.7684086885394167 0.821437216520676 -1.2780429024122404 -0.9540932385489757
-0.3924432292250801 -0.126340754911896 -0.8562957124223775 0.7234849788115642 -0.9003255774240566 1.6508896100686212 0.6480186738365619 -1.9663099656480736
0.8420120175041413 -1.4263505488243609 0.6460962535384788 -0.08589476572692477 -0.5427069431661713 0.08955327104332286 -0.5838361916116478 1.066888798992419
0.6433192837126955 0.4638769542934411 0.9976027915126388 -0.13766267076241992 0.04950056106966514 -0.5114447123830868 -0.36671733509346804 -2.485696267980957
2.375060972738796 -1.6720629386269343 -0.014666291235147047 1.922722059013609 0.8320889887672714 1.747631484932525 -0.6389910671166475 -0.5996911046116684
-0.4265420609113184 -1.631066447671656 -0.7244880340061296 -1.0111748059707844 -1.639946141171557 1.3048569810339812 -0.19603386842171283 0.19708770646370677
0.4947952217176881 0.1819098177303715 1.7021463252885565 0.7499833506550041 1.1411261538512352 -1.6049530946902681 -1.1365017742893369 0.862769327144352
-0.7325495189341555 0.5913221337532499 -0.7688537359756015 1.3198987632745822 0.08497714730592877 -0.4324994457172064 -1.719744796024956 -0.13327697868570643

output_mask f8 [16]
00000000: 0000 0000 0000 f03f 0000 0000 0000 f03f
00000010: 0000 0000 0000 f03f 0000 0000 0000 f03f
00000020: 0000 0000 0000 f03f 0000 0000 0000 f03f
00000030: 0000 0000 0000 f03f 0000 0000 0000 f03f
00000040: 0000 0000 0000 f03f 0000 0000 0000 f03f
00000050: 0000 0000 0000 f03f 0000 0000 0000 f03f
00000060: 0000 0000 0000 f03f 0000 0000 0000 f03f
00000070: 0000 0000 0000 f03f 0000 0000 0000 f03f
1.0 1.0 1.0 1.0 1.0 1.0 1.0 1.0
1.0 1.0 1.0 1.0 1.0 1.0 1.0 1.0

output_mask f8 [144]
00000000: 0000 0000 0000 f03f 0000 0000 0000 f03f
00000010: 0000 0000 0000 f03f 0000 0000 0000 f03f
00000020: 0000 0000 0000 f03f 0000 0000 0000 f03f
00000030: 0000 0000 0000 f03f 0000 0000 0000 f03f
00000040: 0000 0000 0000 f03f 0000 0000 0000 f03f
00000050: 0000 0000 0000 f03f 0000 0000 0000 f03f
00000060: 0000 0000 0000 f03f 0000 0000 0000 f03f
00000070: 0000 0000 0000 f03f 0000 0000 0000 f03f
00000080: 0000 0000 0000 f03f 0000 0000 0000 f03f
00000090: 0000 0000 0000 f03f 0000 0000 0000 f03f
000000a0: 0000 0000 0000 f03f 0000 0000 0000 f03f
000000b0: 0000 0000 0000 f03f 0000 0000 0000 f03f
000000c0: 0000 0000 0000 f03f 0000 0000 0000 f03f
000000d0: 0000 0000 0000 f03f 0000 0000 0000 f03f
000000e0: 0000 0000 0000 f03f 0000 0000 0000 f03f
000000f0: 0000 0000 0000 f03f 0000 0000 0000 f03f
00000100: 0000 0000 0000 f03f 0000 0000 0000 f03f
00000110: 0000 0000 0000 f03f 0000 0000 0000 f03f
00000120: 0000 0000 0000 f03f 0000 0000 0000 f03f
00000130: 0000 0000 0000 f03f 0000 0000 0000 f03f
00000140: 0000 0000 0000 f03f 0000 0000 0000 f03f
00000150: 0000 0000 0000 f03f 0000 0000 0000 f03f
00000160: 0000 0000 0000 f03f 0000 0000 0000 f03f
00000170: 0000 0000 0000 f03f 0000 0000 0000 f03f
00000180: 0000 0000 0000 f03f 0000 0000 0000 f03f
00000190: 0000 0000 0000 f03f 0000 0000 0000 f03f
000001a0: 0000 0000 0000 f03f 0000 0000 0000 f03f
000001b0: 0000 0000 0000 f03f 0000 0000 0000 f03f
000001c0: 0000 0000 0000 f03f 0000 0000 0000 f03f
000001d0: 0000 0000 0000 f03f 0000 0000 0000 f03f
000001e0: 0000 0000 0000 f03f 0000 0000 0000 f03f
000001f0: 0000 0000 0000 f03f 0000 0000 0000 f03f
00000200: 0000 0000 0000 f03f 0000 0000 0000 f03f
00000210: 0000 0000 0000 f03f 0000 0000 0000 f03f
00000220: 0000 0000 0000 f03f 0000 0000 0000 f03f
00000230: 0000 0000 0000 f03f 0000 0000 0000 f03f
00000240: 0000 0000 0000 f03f 0000 0000 0000 f03f
00000250: 0000 0000 0000 f03f 0000 0000 0000 f03f
00000260: 0000 0000 0000 f03f 0000 0000 0000 f03f
00000270: 0000 0000 0000 f03f 0000 0000 0000 f03f
00000280: 0000 0000 0000 f03f 0000 0000 0000 f03f
00000290: 0000 0000 0000 f03f 0000 0000 0000 f03f
000002a0: 0000 0000 0000 f03f 0000 0000 0000 f03f
000002b0: 0000 0000 0000 f03f 0000 0000 0000 f03f
000002c0: 0000 0000 0000 f03f 0000 0000 0000 f03f
000002d0: 0000 0000 0000 f03f 0000 0000 0000 f03f
000002e0: 0000 0000 0000 f03f 0000 0000 0000 f03f
000002f0: 0000 0000 0000 f03f 0000 0000 0000 f03f
00000300: 0000 0000 0000 f03f 0000 0000 0000 f03f
00000310: 0000 0000 0000 f03f 0000 0000 0000 f03f
00000320: 0000 0000 0000 f03f 0000 0000 0000 f03f
00000330: 0000 0000 0000 f03f 0000 0000 0000 f03f
00000340: 0000 0000 0000 f03f 0000 0000 0000 f03f
00000350: 0000 0000 0000 f03f 0000 0000 0000 f03f
00000360: 0000 0000 0000 f03f 0000 0000 0000 f03f
00000370: 0000 0000 0000 f03f 0000 0000 0000 f03f
00000380: 0000 0000 0000 f03f 0000 0000 0000 f03f
00000390: 0000 0000 0000 f03f 0000 0000 0000 f03f
000003a0: 0000 0000 0000 f03f 0000 0000 0000 f03f
000003b0: 0000 0000 0000 f03f 0000 0000 0000 f03f
000003c0: 0000 0000 0000 f03f 0000 0000 0000 f03f
000003d0: 0000 0000 0000 f03f 0000 0000 0000 f03f
000003e0: 0000 0000 0000 f03f 0000 0000 0000 f03f
000003f0: 0000 0000 0000 f03f 0000 0000 0000 f03f
00000400: 0000 0000 0000 f03f 0000 0000 0000 f03f
00000410: 0000 0000 0000 f03f 0000 0000 0000 f03f
00000420: 0000 0000 0000 f03f 0000 0000 0000 f03f
00000430: 0000 0000 0000 f03f 0000 0000 0000 f03f
00000440: 0000 0000 0000 f03f 0000 0000 0000 f03f
00000450: 0000 0000 0000 f03f 0000 0000 0000 f03f
00000460: 0000 0000 0000 f03f 0000 0000 0000 f03f
00000470: 0000 0000 0000 f03f 0000 0000 0000 f03f
1.0 1.0 1.0 1.0 1.0 1.0 1.0 1.0
1.0 1.0 1.0 1.0 1.0 1.0 1.0 1.0
1.0 1.0 1.0 1.0 1.0 1.0 1.0 1.0
1.0 1.0 1.0 1.0 1.0 1.0 1.0 1.0
1.0 1.0 1.0 1.0 1.0 1.0 1.0 1.0
1.0 1.0 1.0 1.0 1.0 1.0 1.0 1.0
1.0 1.0 1.0 1.0 1.0 1.0 1.0 1.0
1.0 1.0 1.0 1.0 1.0 1.0 1.0 1.0
1.0 1.0 1.0 1.0 1.0 1.0 1.0 1.0
1.0 1.0 1.0 1.0 1.0 1.0 1.0 1.0
1.0 1.0 1.0 1.0 1.0 1.0 1.0 1.0
1.0 1.0 1.0 1.0 1.0 1.0 1.0 1.0
1.0 1.0 1.0 1.0 1.0 1.0 1.0 1.0
1.0 1.0 1.0 1.0 1.0 1.0 1.0 1.0
1.0 1.0 1.0 1.0 1.0 1.0 1.0 1.0
1.0 1.0 1.0 1.0 1.0 1.0 1.0 1.0
1.0 1.0 1.0 1.0 1.0 1.0 1.0 1.0
1.0 1.0 1.0 1.0 1.0 1.0 1.0 1.0

weight f8 [8, 64]
00000000: e174 3183 9b7c edbf ebe1 636d e860 e23f
00000010: 6300 2d73 e18f edbf de31 f23b 6407 e4bf
00000020: 30e6 63cf 1927 eebf 441f 6153 5571 efbf
00000030: 32e3 99fe 683f c6bf 34a2 177b e7a8 efbf
00000040: 965e 2ef7 1a77 e83f 5bca 5fe6 d902 d2bf
00000050: 4a0f 4e45 4129 aabf d07a b7ff dd8c f1bf
00000060: 9271 3b8b 10ab ddbf 4b2d ac28 f934 f03f
00000070: 2799 4c30 dd70 e93f 28f9 6364 fbc5 e73f
00000080: 94f1 5e81 646c fcbf 5bb8 8ca3 28cd edbf
00000090: c2ab 2328 4027 fd3f 24b4 d627 8afe f3bf
000000a0: 3e07 aff8 02a9 e4bf db34 947e e8bf f13f
000000b0: 2dc2 82c3 7ee9 f83f 45c2 c89f 27c5 fa3f
000000c0: 59b6 297a e40a c2bf 2f22 a9a4 303c 85bf
000000d0: 225e e63d 1378 f1bf 417c 9af7 94e0 e5bf
000000e0: d192 9fb8 1aa1 ff3f b275 d8ef 5e4c e73f
000000f0: a5ee 2aa2 160c d83f 3a1c 767d 50e4 e63f
00000100: 2bfa 8ac6 851b dfbf d6b5 8bb6 88e0 dbbf
00000110: b480 5b21 9938 dfbf 8217 e8dc d51c f2bf
00000120: 55a9 fd50 0819 bb3f 4047 c4c4 3df8 d3bf
00000130: 4e27 b3d4 eedc f53f 98a9 2026 e3c8 fd3f
00000140: 1f65 a63e 7cb7 f0bf 16e6 8405 40f8 e63f
00000150: a995 9ed2 e2e8 c23f 3168 63ea 9905 e4bf
00000160: a78b a941 f921 e43f 8e35 3fed 62ae c3bf
00000170: 235d 8b92 b0ea d9bf 538a 7b93 eb5a e2bf
00000180: 831e bbc0 fa03 ec3f 6749 85fc 9ca6 b1bf
00000190: ad81 d5a4 a307 d3bf 063d 6d40 8727 05c0
000001a0: 9cd8 e5d4 f916 eb3f 613c 5013 ed3e efbf
000001b0: 8a86 74c8 d319 e2bf 74a2 0f69 ce9f fdbf
000001c0: 626d 7b75 eb9d f73f b9c7 43a1 9c45 cabf
000001d0: ecfc 8960 b85c f73f b066 6bdd 4aff f4bf
000001e0: ff29 a558 e9be e43f 0345 16be 02f7 f0bf
000001f0: 1dec 4278 78ea ea3f 55ef afa6 d249 75bf
00000200: 3f6b 94ab 03e1 ff3f 7fa0 6e16 b316 c2bf
00000210: 1ee2 dd93 8fa8 e4bf e01e 2b9a b31a f53f
00000220: 6721 ea11 f447 f2bf 8408 e6aa bcf6 e7bf
00000230: 7aa2 1a7c df28 f93f 6c04 521f 3a42 f13f
00000240: 781e 832c d8cb f73f d1e8 02a2 3697 fe3f
00000250: 47ed 258a 8973 f33f 6725 d3ad a989 e0bf
00000260: c792 049b 26a2 d5bf ae0d 6384 ea31 e53f
00000270: f086 033e 914f adbf f7b3 11b6 da6e fbbf
00000280: d3c0 eb61 cf79 f2bf 508e 4fbb f2e5 c3bf
00000290: 0be3 ee3c 4d97 f5bf 6345 0867 ab99 db3f
000002a0: e5a6 2fc4 00d4 a7bf 72bd 2741 4105 f6bf
000002b0: 6ba5 dbaa 74a1 dabf c205 2f98 b897 cebf
000002c0: 832f 3bf6 9412 b4bf 31a5 4b6f aab2 cc3f
000002d0: a9db cbb6 644b ecbf 26ca 5d26 a884 f0bf
000002e0: 77e0 feb1 1439 e2bf 52ec aa85 ada0 a83f
000002f0: 779e 9a15 b855 e8bf b298 2b3b 6721 f03f
00000300: e1a0 e6c7 1049 f2bf ee9d ba34 29aa f43f
00000310: a34f 621b 9d00 f03f f15b 072d 4d01 0340
00000320: 9306 ee0f 395f fcbf e6d8 e5c8 5ece e03f
00000330: 1193 8c91 9b62 dabf cb39 5ea3 ea2b c3bf
00000340: 4ab0 f510 3474 f93f dcfe 5c50 37a3 cfbf
00000350: d594 aec6 fa9a fdbf b16d 355a 6c18 b6bf
00000360: 1973 93d7 0239 f53f 8564 b26c 2782 fc3f
00000370: 3091 dde1 5444 9c3f 606b bba6 6690 f6bf
00000380: 33a9 f605 99ac c8bf 0fbd 2d85 aed4 e03f
00000390: bdf9 daba f880 ca3f 322c 413a 65de e63f
000003a0: 8611 de4d 5185 d23f 2156 87c0 bf96 c53f
000003b0: e0f9 ebfa 01ab e83f 2e43 3a65 f99e d33f
000003c0: 90b1 4b9e 39db a43f 18ca 2ad2 fbb8 f63f
000003d0: 0cc1 59b4 2ef9 fc3f 5624 c0da f66b 0340
000003e0: f2cb 001a c199 e2bf 469b 2cf2 3ac7 d4bf
000003f0: 911f 2e25 700b f5bf 22af e2a4 1383 f83f
00000400: 7ed3 668f 62e9 ba3f 89ba 12ad 66b2 acbf
00000410: 1d57 e747 f4a1 efbf c0fd bb4e aab6 a0bf
00000420: 42c6 5453 9de1 eebf 06b3 dc79 c8f5 fabf
00000430: c4ce fed5 2034 ecbf 71a8 a28b 9f31 b8bf
00000440: fb2e c462 14aa dc3f 71d7 9e5f 05d6 f93f
00000450: e048 34b3 b3ea 05c0 20c6 0e89 aea4 c93f
00000460: 5946 05f8 c6d3 e5bf 5ced f32b fc49 e33f
00000470: 9585 9977 d230 d6bf 2ecd 1bae 8d47 ea3f
00000480: b3d8 292a e2d6 e73f 61fc 6351 402a e0bf
00000490: 1264 e646 29f2 c3bf b2de c3de f96c d53f
000004a0: fdfe 66c7 9fb1 c3bf 7d2d 9250 31ea e2bf
000004b0: 2a5b ed51 03fc cb3f 75f7 6190 161d e9bf
000004c0: 3faf 8de3 44ac f9bf be77 9907 3dec d83f
000004d0: cdba 501b 37ac ebbf b50b 9ba7 1bcb d8bf
000004e0: d967 fe2b f1b9 d8bf 463d 2fba 4803 f83f
000004f0: 3649 8572 9717 e3bf 8e40 6835 029a 02c0
00000500: e00c 3c15 8a55 fdbf dba5 eeda 92b0 c83f
00000510: 5eb7 e9ee 19d5 ef3f 8d2d e708 f5a4 f43f
00000520: 8979 e7dc 6b19 ed3f a53d e418 b3ec 9bbf
00000530: af1d c0e9 4166 f53f 66a0 6e7b 028c ce3f
00000540: d20f 0be6 90ec f43f a8a8 6bee 067f ea3f
00000550: 9047 43c9 2b54 e23f 9f79 7538 22cd 05c0
00000560: 16a7 9804 6d6e e0bf 8a9c 1c22 8fb0 c53f
00000570: 1d2c 711a a334 e43f 8c33 8747 9d14 ffbf
00000580: a08a 7349 fdf0 db3f e8cf da18 ffac b8bf
00000590: af0a bcbd 0b55 e03f ce10 ca57 ce60 cc3f
000005a0: af72 709f 8b55 cd3f d928 fea5 901b c8bf
000005b0: 78fc f83d 9651 e2bf fac9 0d81 832c c1bf
000005c0: 34f4 8ab8 37f3 d23f 6927 ffe5 978b 0440
000005d0: f455 7568 631f e43f 2917 6896 be4b eebf
000005e0: d366 8afd 0772 f8bf 7978 07f2 0f83 e63f
000005f0: 511e ca49 0d1f f1bf 8d97 1e49 18ee fa3f
00000600: 2c78 2775 c9cb d6bf 3089 f17d 87c1 d8bf
00000610: f8a1 f26c d360 c6bf 1b2d 1000 abae c4bf
00000620: 9d64 130a 0fea f13f ad6f 2be7 8f0c e13f
00000630: c6ce 1d31 fb13 e03f 2d37 f35c e3ab e5bf
00000640: 9f54 9b0b c364 ed3f cd2f c2bb bdcd efbf
00000650: cb53 5811 fad0 d43f 3cea 66aa 580d e33f
00000660: dad4 f165 d239 e8bf de5a 7341 135a 04c0
00000670: 1c8a 1b65 dcc6 f83f c496 6453 1e35 e03f
00000680: 76e6 4497 0230 cebf a544 e2d7 a2f1 d43f
00000690: 3268 f5c2 1cad e4bf 801a 41ff b173 ee3f
000006a0: 4ced e686 40ef fe3f fbd3 3dc4 ef06 e2bf
000006b0: a130 9153 3032 ecbf ec83 710d 3ed3 f1bf
000006c0: 9aaf 8526 9704 abbf 23e2 25b9 ff01 0640
000006d0: 7139 9222 c1cf b83f 26e3 2e31 58d1 ddbf
000006e0: a667 7a49 e0d1 b43f 86d9 4c56 e602 d93f
000006f0: 1fb4 f8b8 4e48 eabf 797d 9bc5 c38a b9bf
00000700: 5a3e 5283 c28c cd3f 4578 78b2 c51f ef3f
00000710: 14a5 e0d9 a160 e6bf 55c1 a4af c1a7 af3f
00000720: f6ad 432d b889 f0bf 87b1 15dc 754b f23f
00000730: add8 d7fd 5ff5 f1bf a56d 6e7a 21d2 b1bf
00000740: 22e5 59f3 e3f9 733f f0a4 9fca 06e0 e73f
00000750: 35c3 4a68 a747 f5bf 50f4 4273 ff38 ebbf
00000760: 9d5a 0694 f248 a1bf 857f 3ecd 6364 f7bf
00000770: ceca 498c 0900 cf3f 5ce6 19ad 9b82 f7bf
00000780: d378 0b25 337c efbf d293 4a10 8ac6 d93f
00000790: 3bdf c384 cad6 af3f 7e79 3053 b0ee f63f
000007a0: 2cd5 c8e7 60a0 fcbf f0c5 1415 f7ed eb3f
000007b0: 8abd 74f7 75ba d03f 43f4 b5c4 2829 f5bf
000007c0: 4001 9703 1fb8 e1bf 5aaa 5d8a 1b44 f1bf
000007d0: f8f5 4c09 5d34 e6bf 0814 e64f 5a40 f43f
000007e0: 6c2d 4399 b6cc e43f ec5b 0b15 46ca e23f
000007f0: 9eb5 7497 7396 cabf 85b6 8ad7 3bec e5bf
-0.9214608728758799 0.5743295799757652 -0.923813557579717 -0.6259022875615832 -0.9422730494108631 -0.9825846317771512 -0.17381012374587496 -0.9893681911608554
0.7645392253643475 -0.28142402169684083 -0.05109600039489111 -1.0968914021429335 -0.4635659560861082 1.0129329289219011 0.7950273459762557 0.7429177246811252
-1.7764630368757013 -0.9312937921838612 1.8220826690619423 -1.2496434742163354 -0.6456312996963118 1.1093525833596718 1.557005656923262 1.6731334916659233
-0.14095741238581885 -0.010368709588093853 -1.0918152254070113 -0.6836647830967949 1.9768321239327415 0.7280726131900137 0.3757378181141838 0.7153704119126651
-0.48605484379723646 -0.4355794699357295 -0.48782947785913255 -1.1320398930706408 0.10585071542087594 -0.3120264455366062 1.366438704355875 1.8615447511061571
-1.0447962233795989 0.7178039653583166 0.14773211750177254 -0.6256837442299511 0.6291471750704333 -0.15375935158082793 -0.4049493247125204 -0.5735986595648889
0.8754857792163907 -0.06894856610350573 -0.2973412618357781 -2.644300940831843 0.8465546758805149 -0.9764314057555447 -0.5656527438297456 -1.8515152076671741
1.4760546292444237 -0.20524938463455358 1.4601367732100767 -1.312327256126462 0.6483046275473611 -1.0603053498528545 0.8411218975883262 -0.005197356086679002
1.99243514083237 -0.14131773562735714 -0.6455762756368733 1.31901893827483 -1.142566747645185 -0.7488692605841298 1.5724787566961411 1.0786687110378592
1.4872667063481497 1.9119173363274522 1.2157073398983174 -0.5168045420661372 -0.33802189959014267 0.6623432717973878 -0.05724767572406886 -1.7145640480114233
-1.154738790992316 -0.15545496126206837 -1.349438894291043 0.4312542444395914 -0.04653932947969767 -1.3762829346777292 -0.41610447583533156 -0.23900515967220143
-0.07840853702071908 0.22420244631147448 -0.884203297638 -1.0323869227110065 -0.5694678760983284 0.04810087448773771 -0.7604637548401588 1.0081550895061295
-1.1428382691029173 1.2915432033277017 1.0001498288811284 2.3756354825850328 -1.7732477781541192 0.5251916812692599 -0.41226853574544103 -0.14977772690731536
1.590869966744338 -0.2471684591673612 -1.850336814977074 -0.08631016924248659 1.326418726056721 1.7817758794756469 0.027604414258705023 -1.4102541459057747
-0.19276726523578133 0.5259621239801237 0.20706090091512222 0.7146478784355905 0.2893870602058758 0.16866299534619691 0.7708749676528974 0.3065780151892338
0.04073505456276216 1.4201620301870488 1.8108355565019023 2.4277169313323084 -0.5812688358186036 -0.3246600499136786 -1.315292496905361 1.5320011559333087
0.10512367249505236 -0.056048592211813526 -0.9885198025101293 -0.032643625365377016 -0.9650408389627005 -1.685005641960005 -0.8813633136364492 -0.09450719031397782
0.4478808369174058 1.6147512183356094 -2.7396005630808844 0.2003381890513518 -0.6821017116692004 0.6027813776449125 -0.3467298667875068 0.821234550529345
0.7449808906083234 -0.5051576223048749 -0.1558276745024903 0.3347763705673784 -0.15385815845910847 -0.5910879682209466 0.21862832546568117 -0.784800798413683
-1.604557885056195 0.3894188474858956 -0.864772370672506 -0.3873967301153088 -0.38634900375620657 1.5008017800171998 -0.5966298329097188 -2.3251995251121746
-1.833383639285607 0.192888600254533 0.9947633425015103 1.2902727458739236 0.909353190854561 -0.02727012481142101 1.337465203368861 0.23864775683364597
1.3077553735793015 0.8280062348033157 0.5727747851290008 -2.725162926755004 -0.5134797181865192 0.1694506565629335 0.631425429958998 -1.9425328058307256
0.4365838258073982 -0.09638971669011165 0.5103815751793571 0.22170428549373472 0.22917313847655893 -0.18834121804349627 -0.5724593363191977 -0.1341709499498192
0.2960948278594657 2.5681608170024686 0.6288315811349876 -0.9467461526516888 -1.5278396514826695 0.7034988143093549 -1.0700810320285152 1.6831286293249577
-0.35618816796147956 -0.386812088958453 -0.17482989139286054 -0.1615804434116875 1.1196432488998547 0.5327834620506927 0.5024391135507009 -0.6772324386053917
0.9185500361151248 -0.9938648860129377 0.32525493329859206 0.5953791931309023 -0.7570583335024381 -2.543982039769033 1.5485500287546818 0.5064841870086743
-0.2358401526087623 0.3272482975235767 -0.6461318786416597 0.9516229615627054 1.9334111470805793 -0.5633467514841181 -0.8811265594645371 -1.1140728497632564
-0.0527693972133811 2.750976034611328 0.09692008108161133 -0.4659023742965921 0.08132745546245576 0.39080198695901236 -0.8213266003346041 -0.09977363180541045
0.23085814869090165 0.9726284490350358 -0.6992959266109744 0.06182675618254289 -1.033622910322149 1.1434229466495667 -1.1224059978244825 -0.06961259116217507
0.00487698596190825 0.7460969884388344 -1.3299936365039688 -0.8507077456666909 -0.0337596708006249 -1.4620092408513028 0.24218863821041342 -1.469386745621157
-0.9839111064464084 0.4027428778738883 0.062185600954704566 1.4332736253341802 -1.7891549161989344 0.8727984821072692 0.26138066449762987 -1.322548645402336
-0.5537257261385449 -1.0791278271596156 -0.6938920194294829 1.2657111283344893 0.6499894135862809 0.5871916209242705 -0.20771641631419596 -0.6850871286203107

weight f8 [64, 64]
00000000: 1e18 9c86 56c8 ef3f 0efd 72a9 cc98 f23f
00000010: af05 8c44 8fab 0dc0 bd30 fbdc f8e8 f5bf
00000020: dd3b 30c7 94bc d7bf 18a6 f095 ed9b 0340
00000030: 7d22 7d20 06ce e6bf e1d8 ac37 5e78 f4bf
00000040: 9757 d43e 95d7 fbbf be0a fafa 11ed c2bf
00000050: 96ee 084b ff08 de3f 3b2b e3a9 0f41 03c0
00000060: 6a25 0170 3d08 d4bf a7b1 438d 3170 d8bf
00000070: 9413 ced8 ed50 cb3f ac23 4999 c2bb d6bf
00000080: 38dc 5f8c f9bd cebf 54b2 0fc9 1276 e13f
00000090: 4268 9599 766d febf b143 e192 dd92 ebbf
000000a0: b9be f80b 7239 ecbf 6818 c3bd 8f05 f2bf
000000b0: bfb7 c153 1600 d53f e064 14ab 99d5 a2bf
000000c0: b678 a777 16f7 edbf 4bd6 9dac 509d d73f
000000d0: 1714 1203 be1f c03f c66c d630 2290 bdbf
000000e0: 7198 9726 5166 fcbf 3bea 8e27 4fc4 c9bf
000000f0: a914 01de 90f0 f63f 04ae 67c0 dcc1 c2bf
00000100: f5fe b731 5c01 e23f 0ba1 c1dc ffca d2bf
00000110: 94fe fe72 9d12 00c0 e6fc ee21 5d04 f43f
00000120: 9ecd 9b94 6408 ebbf c555 d8a4 e2b6 ec3f
00000130: c6f0 ece0 b90e e9bf 3dd6 baf4 6872 c7bf
00000140: 7ad1 e8a2 8118 d33f 309b e81f 4469 e53f
00000150: ed97 bf81 8e2c e13f f14b ab05 58e4 be3f
00000160: 40b5 9c24 11c5 b8bf 292c 721f 5488 b13f
00000170: 0ac1 8d15 295b ef3f 1a0f fca3 299d e4bf
00000180: 1181 92e6 7e97 fc3f 7a00 10ea a3d1 d3bf
00000190: 13ac 67ab 1055 f2bf 17b6 1c2e 3bf5 d53f
000001a0: 0a51 2d2b 4c82 f03f daf4 46d1 b71c debf
000001b0: 36d1 9bd3 7691 ea3f e6f9 347b 8ec9 e33f
000001c0: cb83 0f91 f9de 0040 57c4 f6b5 3af6 f73f
000001d0: 8bfe dbb4 59e5 9ebf be12 790e ca2e c03f
000001e0: 7603 12b4 9872 f93f 22d3 bfae e4bf bd3f
000001f0: ed2f 7cab c0f4 e8bf ac88 ddf7 8f6b e3bf
00000200: ed5c f943 d924 cabf b748 be4f 6fdd dd3f
00000210: 44b2 bca3 4a9e f33f 0f0c f1db 292c bebf
00000220: 82d2 4beb cced eebf e046 00c4 5229 d2bf
00000230: 2ce7 8752 b818 ecbf c005 a80b a9df 70bf
00000240: d1e2 6323 7006 bbbf ce5f 7aa8 a649 db3f
00000250: 90dd 0e9e 6fd3 963f 7654 f2a6 507f dc3f
00000260: 9fe9 66f5 7778 f5bf d07a dbbf e090 00c0
00000270: 6499 64c1 09b2 c23f 0189 4409 b20b c5bf
00000280: 5eb4 11fa 3b1e f1bf 5f8c 8ba5 f0ca c43f
00000290: dcd5 4980 cdfb f5bf a410 7a10 32a4 c53f
000002a0: c134 5d17 aa00 e23f 8d55 837e 3b45 f73f
000002b0: c4b7 6204 7cac c1bf c5a3 62e8 5331 823f
000002c0: e9f0 3bd9 37f0 07c0 df0d a203 1ea1 fabf
000002d0: c557 b73a 2ea0 f93f 9e47 37ce dcef d43f
000002e0: 9f18 c81f ae41 df3f ede4 955b 068d e2bf
000002f0: 260e 1ba8 fef7 e93f 2872 41a6 9526 c0bf
00000300: 7c33 e8f1 8c6d e0bf 5b69 a9ac c46d b93f
00000310: 4a25 1568 ed1d e7bf f595 c49c fe8f ea3f
00000320: eb0d 8d64 9d05 d53f eb49 7cb3 dc36 92bf
00000330: 4d01 1fc0 9fff f23f 3c88 4ecb 8f45 f33f
00000340: b1ff 5598 782c fbbf cc8a 5b82 aca2 f4bf
00000350: a104 64f3 83a9 e33f c0ee bb5a 8117 cd3f
00000360: 56de 6430 e713 a43f 9dd5 5a11 a1b7 e6bf
00000370: 6418 0d1d 871a f63f cf4f 3234 4e93 cbbf
00000380: 850b 1651 05b7 f73f e811 9c04 2086 de3f
00000390: ae05 aabb 923a ce3f f6f6 cfef 0d99 df3f
000003a0: 111d 3759 32df c7bf c84e edeb bba3 febf
000003b0: bb6f b231 e28c c83f 9517 7382 0cdc c3bf
000003c0: bff2 b16d f33d f7bf 0e63 8f01 ea63 e13f
000003d0: 8fc9 aa18 6d9c ce3f 846e cb1a 5455 b83f
000003e0: 8be1 916f fe61 0040 58c3 f0a1 74f0 fabf
000003f0: 9762 d8d4 e11b a7bf 7d86 0362 aa06 f6bf
00000400: 1559 648f 3f78 e1bf a2cf 3cd8 c6d4 f5bf
00000410: b687 9906 3639 adbf e862 c3c1 ccdd 0040
00000420: 9b1d 2b2a cbf5 c8bf 0fa9 16b3 3712 fb3f
00000430: 778a 1651 d681 e43f 7298 f133 c890 ed3f
00000440: 15c2 eb99 4bad e83f 6a68 4eb6 ce36 fabf
00000450: 3b72 1c63 4d92 ae3f c292 d979 54f5 ddbf
00000460: 11c1 a85e 975d f2bf 2900 756c 1d84 e3bf
00000470: 4970 ef07 1c1c febf ac4e 8dd9 3c32 cabf
00000480: 38b3 abc5 be9f dabf d68c 254f fe8b f6bf
00000490: 5820 4930 c91f f9bf 88e4 5258 d17e c83f
000004a0: 7fed 23ef 9a4c c93f 55b4 44e1 1969 dcbf
000004b0: deb0 11df fcb7 e2bf f01a 5be6 23df e23f
000004c0: 2e35 2342 2c02 be3f 6574 d650 d54a f23f
000004d0: 5695 5264 1a4d f5bf ae59 c1f1 b13f e9bf
000004e0: e6a4 f3a8 692a d1bf cbc7 3a71 ae3e d0bf
000004f0: 35c7 36c1 7f1d f33f 902e 97cc ec1e e23f
00000500: 8e2b d1a7 1f24 bc3f 03f2 5a58 7063 f63f
00000510: 36eb e039 483c d0bf a1a6 a833 8f04 f23f
00000520: c353 c4d5 7792 02c0 6fc3 8f37 a76f edbf
00000530: 64db 031e 6ad7 f0bf c0ce 06ad d525 f13f
00000540: 1eb2 3400 e05c fa3f db18 31d6 1375 a3bf
00000550: 8661 dda4 b624 d2bf ce17 d163 9b01 f0bf
00000560: 3948 266b d8da ec3f d11b 149e 4fe3 efbf
00000570: e7f2 4054 9146 fb3f 226d cdf2 cc41 f43f
00000580: ce5b 5d3d 5122 cabf be13 b218 dabc d43f
00000590: 45ba cdf8 e353 f6bf f421 c648 6d5b dc3f
000005a0: 2a6f 7efb 22bc d33f 8562 6fa9 083f 06c0
000005b0: a448 c2ec a018 b63f 4374 5585 e2ed e73f
000005c0: 871c a384 6c82 e8bf 57fc c77e fe60 02c0
000005d0: b6ed 029b 3266 e3bf ef64 bba7 46d3 c83f
000005e0: 6295 dde4 994b e0bf 6156 8bf9 a894 e9bf
000005f0: 6efd f300 d32d ffbf 21a0 76ed c090 cbbf
00000600: 39b1 8ad3 f030 f7bf e0bd 883d e75a f0bf
00000610: 0f63 d7e3 1b4c ce3f 9117 cf84 a941 d1bf
00000620: 9ecc 031b ee9a f1bf 9aca 26da 3781 f4bf
00000630: ea2a 152b 480e 0040 6eac edee e47c f73f
00000640: fe65 9397 0833 a6bf b91b b09f 7c0e f1bf
00000650: f2df 6027 1175 0340 e920 563f 330c ddbf
00000660: 1d57 e620 c8a0 ac3f 001e e9a8 dd17 d6bf
00000670: 7148 3832 baa8 d93f d8dd f8df 3dbe f2bf
00000680: eafe fdf3 e2ca fbbf af5a 90ea bb3c f13f
00000690: f483 73e1 b38a f9bf d705 91ee a312 e03f
000006a0: c918 54ce d2c6 e7bf a79b 9f73 0d99 e7bf
000006b0: 6d7f e266 90f4 d5bf 1454 d873 7836 f7bf
000006c0: b990 505a d2c4 f53f 89f7 fd36 1664 e1bf
000006d0: d734 f363 c999 d4bf 1b85 cad7 3e93 e33f
000006e0: 1e4e b30c 3473 f5bf 8f49 2560 6811 f13f
000006f0: 55a7 fa1c 3656 dabf a7ac 0677 9393 af3f
00000700: d30e 83ef 386b f9bf 1540 a34a 2b44 fb3f
00000710: 4108 0bb1 c976 c33f 978b 1b50 d7f5 dbbf
00000720: 4a57 fa3e a309 e63f 9128 0b73 23d8 e23f
00000730: a287 77a1 c7b7 dbbf b498 8c13 c49e d8bf
00000740: 8312 1be5 142e 08c0 75aa fc5e a867 e93f
00000750: 1659 21f8 55e9 b9bf 3451 6752 836e f23f
00000760: bdd6 05fa ecc2 00c0 0838 d11a 01b2 fabf
00000770: f82e 0a39 cc61 cb3f 9e60 fc5e f980 fdbf
00000780: ece5 53bc 3b41 e23f f1f8 d3cc 3776 dd3f
00000790: e7fe d351 e86e f8bf 8883 6cea 6a87 ecbf
000007a0: 1497 05f0 aff6 e23f 3638 165e 1bed c7bf
000007b0: 9f18 2a91 c8c3 c2bf 14ef 57d5 b9d7 b7bf
000007c0: 05a3 7b77 98b2 e4bf 4a0f bf5f 83e3 d0bf
000007d0: f064 46c5 60d3 d13f dd6b 0b07 c6d5 e83f
000007e0: 2a0a efb6 cc74 a6bf b1a4 54cc dfba a83f
000007f0: f78d 2c88 5886 fabf 02f5 13cc 2d38 ed3f
0.9932053212257903 1.1623045558079101 -3.708769355319155 -1.3693779594496356 -0.37088508083337307 2.4511367525162875 -0.7126494059130689 -1.2793867277919662
-1.740132565906128 -0.14785980944369287 0.46929914786935834 -2.4067681572390973 -0.3130029290956232 -0.38184775157312817 0.21340725980931252 -0.355209970181529
-0.2401725707456721 0.5456632544497304 -1.9017244338379133 -0.861677920222169 -0.88201238954749 -1.1263577854711233 0.328130323213255 -0.03678589070677574
-0.936412080478269 0.3689767537792689 0.12596869611675807 -0.11548055355381157 -1.7749797351366647 -0.20130338126712552 1.433731906131735 -0.1465412082173857
0.5626660319394136 -0.2936401038955558 -2.0090893730228547 1.251065380623737 -0.8447745230209198 0.8973248691206029 -0.7830476182057502 -0.18317901563357167
0.2983707514679491 0.6690998671736903 0.536689046301715 0.12067175043493684 -0.09675700324870196 0.06848645942425037 0.979877988907931 -0.6441848948311162
1.786986256287552 -0.30967042787234045 -1.145767850447332 0.3430927229227065 1.0318109213449724 -0.47050280987953175 0.830256856249014 0.6183540731797705
2.1088744480952974 1.4976145847288274 -0.030171777404574256 0.12642789560972817 1.5904776605604787 0.11620930925694187 -0.7798770284002764 -0.606880172836346
-0.2042495328812274 0.466640308260263 1.226145400617626 -0.11786138171832782 -0.9665283771160633 -0.28377217426996815 -0.8780175792628362 -0.0041195491162410725
-0.10556698669450816 0.4263703007977683 0.022290939352129835 0.44527069381121664 -1.3419112764373506 -2.070741175542345 0.14605829184547325 -0.16441941692853138
-1.0698814171148778 0.16244323809869152 -1.3739752780214678 0.16907335094959308 0.5625811058358964 1.4544024412074095 -0.13807630743161614 0.008883147744500062
-2.9922940226953085 -1.6643352643885618 1.6016065877533816 0.3271400464847093 0.48838379958795913 -0.579714945676782 0.8115227969469216 -0.1261775075717122
-0.5133728718516148 0.09933118071913809 -0.7224032433379446 0.8300774633286766 0.3284677011435792 -0.017787407355237688 1.1874082092982292 1.20448283592897
-1.6983571959135413 -1.2897152988522746 0.6144428018307232 0.22727982454659035 0.03921434846637044 -0.7099156702958457 1.3814765105066948 -0.21543290661486345
1.4821828048158932 0.4769363446251007 0.2361625114754537 0.4937167016904448 -0.18649892193045806 -1.9149741378686702 0.19179942537891556 -0.1551528584442933
-1.4526247296300168 0.5434465437384419 0.2391487474865923 0.09505201009909042 2.0478485790628773 -1.6837049794960048 -0.04513459895332977 -1.3766273335135388
-0.5459287453293508 -1.3644474455622704 -0.05707711058199953 2.1083006990196402 -0.19500102576260478 1.6919476504941178 0.640849264502619 0.9239235891843818
0.7711542135494392 -1.6383807298029986 0.05970994791843905 -0.468098753923453 -1.1478494355797617 -0.6098773115445556 -1.8818626699421819 -0.2046581327691589
-0.4160000734689677 -1.4091780749957272 -1.5702602277906603 0.19137017071424034 0.19765030552649063 -0.44391486166825206 -0.5849594456499536 0.5897387980592992
0.11722065558133885 1.1432698400233445 -1.3313239973880022 -0.7890252801687916 -0.2682136678618704 -0.2538257699735566 1.1947019145413382 0.5662750240239394
0.10992620322319466 1.399277062547413 -0.25367932941633187 1.1261131303712448 -2.321517629674845 -0.9198795399844196 -1.0525914356673747 1.07173698032868
1.6476745613136994 -0.03800260533948726 -0.28349081134867793 -1.000392331990486 0.9017145245327419 -0.9964979255172414 1.704728440395394 1.2660645946951452
-0.20417228218386047 0.3240266076248267 -1.395481082810549 0.44308025461989975 0.30835794982862075 -2.780778239928909 0.08631330280539601 0.7477886776138195
-0.7659208860940375 -2.2973604111462396 -0.6062253024642164 0.19394763174094673 -0.5092286558180315 -0.7993969797050334 -1.948687556956283 -0.21535503001109738
-1.4494484198904287 -1.0221931842496517 0.23669766068521667 -0.2696327015840945 -1.1003247313754296 -1.2815474053901768 2.0069735875925874 1.467991765321837
-0.04335810518541548 -1.0660368192491048 2.4321616245688285 -0.45386964020919024 0.05591416741951447 -0.34520665640999937 0.4009232988765979 -1.1714457272445227
-1.737032845587175 1.0773276484157284 -1.5963629538239248 0.5022754344465125 -0.7430204419950083 -0.73743317206105 -0.3430520062192873 -1.450798466224346
1.360552170554952 -0.5434676240981712 -0.32188639412636405 0.6117243017835422 -1.34062581025217 1.066749930924377 -0.4115119250296762 0.061672790793943215
-1.5886773448882436 1.7041428485426924 0.1520626177280651 -0.4368799478817719 0.6886764745747567 0.5888840910859178 -0.43309202926877266 -0.3846903029356199
-3.022500791443521 0.7939035277571082 -0.10121667201869786 1.1519807070627168 -2.095178559592425 -1.6684580848263995 0.21392205033441036 -1.843987818754648
0.5704630544925613 0.460340452220307 -1.527077026024864 -0.8915304735747762 0.592613190453195 -0.18692342847902105 -0.14659983718974431 -0.09313546618062346
-0.6468012174273957 -0.2638863024733281 0.2785264898789839 0.7760954034414415 -0.043859860735683334 0.04830073708792194 -1.6577992743776784 0.9131077752969363
