MACE_models/mace02_com1_gen1_swa_compiled.model (torch, 544254 bytes, 51 tensors)

r_max f8 []
4.0
00000000: 0000 0000 0000 1040

weight f8 [48]
0.9953812074955465 0.02902964126399501 0.7398676246673893 0.5424121007004242 0.4464977445760908 0.406938326052738 0.4830852086236243 -1.097618480273679
-0.4508589389327185 0.03864658439317748 -0.9491521475337231 0.3409348253815217 1.0114645916140086 1.1828485413981138 1.2714520304114043 0.6513432913861871
-1.563105425580955 -0.8952982191588266 1.459024503861523 -0.5369559201412591 -1.0546941196238082 0.28995338281793864 -1.3981942968337187 0.07569496427142554
-0.47407513203590324 0.48985181657581683 -0.5035686331310685 0.04710660099054321 -0.2051536068655008 1.4432843210280426 -0.8743710922635578 1.3590281348916906
0.5966460333572396 -0.07720174447125966 0.3110216190345539 -1.169041266539618 0.10620724453434631 1.5446682339430429 -0.3108586045119414 -1.7241010830155596
-0.5919951744151025 -0.436881735012278 -0.37277206398431134 -0.499103226842244 0.38534077221506846 -0.7326489459447548 1.6977787556620878 1.037969279324657
00000000: 33e2 a7b0 29da ef3f c6b6 5f3f f2b9 9d3f
00000010: b919 6ade feac e73f bdd0 2e9f 705b e13f
00000020: e64a ac46 6b93 dc3f f1ab 780c 470b da3f
00000030: 4311 0e39 deea de3f b72b 4465 d88f f1bf
00000040: 81d1 7473 dfda dcbf 1140 2430 7cc9 a33f
00000050: 7bbc 1253 745f eebf d930 454d e0d1 d53f
00000060: e4b4 e07e f52e f03f b8d1 9697 f2ec f23f
00000070: e5cb 9015 de57 f43f 2120 dfe2 cdd7 e43f
00000080: 3620 b1d5 7a02 f9bf d088 6e73 48a6 ecbf
00000090: aa5d 0214 2a58 f73f 39cf 8c2e be2e e1bf
000000a0: 9415 f1f0 06e0 f0bf cd53 24a2 988e d23f
000000b0: 30ac a5fb 005f f6bf 7185 04c4 be60 b33f
000000c0: c23a fc38 3f57 debf a513 056f bb59 df3f
000000d0: 0cdc 52f7 3b1d e0bf a136 5c3d 5b1e a83f
000000e0: f566 1230 7942 cabf f451 da4c b117 f73f
000000f0: 79df ba15 d9fa ebbf 4e42 1b49 94be f53f
00000100: cad6 116c b917 e33f d4bd b257 7ec3 b3bf
00000110: 658d 8638 c7e7 d33f ac64 779d 64b4 f2bf
00000120: 1390 dfe1 6530 bb3f 8249 bf09 f6b6 f83f
00000130: 6fc6 037d 1be5 d3bf d7cc 6804 eb95 fbbf
00000140: f715 30dd 9ff1 e2bf fc3c 06cf def5 dbbf
00000150: cd33 eb5b 7fdb d7bf 7964 27a9 4ef1 dfbf
00000160: a6a9 9e57 6ca9 d83f d102 c933 dc71 e7bf
00000170: 8b98 760e 1a2a fb3f c43b cfac 859b f03f

output_mask f8 [16]
1.0 1.0 1.0 1.0 1.0 1.0 1.0 1.0
1.0 1.0 1.0 1.0 1.0 1.0 1.0 1.0
00000000: 0000 0000 0000 f03f 0000 0000 0000 f03f
00000010: 0000 0000 0000 f03f 0000 0000 0000 f03f
00000020: 0000 0000 0000 f03f 0000 0000 0000 f03f
00000030: 0000 0000 0000 f03f 0000 0000 0000 f03f
00000040: 0000 0000 0000 f03f 0000 0000 0000 f03f
00000050: 0000 0000 0000 f03f 0000 0000 0000 f03f
00000060: 0000 0000 0000 f03f 0000 0000 0000 f03f
00000070: 0000 0000 0000 f03f 0000 0000 0000 f03f

bessel_weights f8 [8]
0.7853981633974483 1.5707963267948966 2.356194490192345 3.141592653589793 3.9269908169872414 4.71238898038469 5.497787143782138 6.283185307179586
00000000: 182d 4454 fb21 e93f 182d 4454 fb21 f93f
00000010: d221 337f 7cd9 0240 182d 4454 fb21 0940
00000020: 5e38 5529 7a6a 0f40 d221 337f 7cd9 1240
00000030: 75a7 bbe9 bbfd 1540 182d 4454 fb21 1940

r_max f8 []
4.0
00000000: 0000 0000 0000 1040

prefactor f8 []
0.7071067811865476
00000000: cd3b 7f66 9ea0 e63f

p f8 []
5.0
00000000: 0000 0000 0000 1440

r_max f8 []
4.0
00000000: 0000 0000 0000 1040

atomic_energies f8 [3]
-10.707211383396714 -48.847445262804705 -102.57117256025786
00000000: 7a18 469c 176a 25c0 bb72 1c16 796c 48c0
00000010: 87ab 5a17 8ea4 59c0

weight f8 [256]
2.104181228334535 -0.17560941274333108 0.455597697168221 -0.27105109617960726 0.17373508834851784 0.635782992947047 0.8027318356024555 0.3621578904747383
0.7447159479460086 0.566411361438175 -0.2655788564330644 0.7665303590976497 -0.15328951039576297 0.043159280848661184 -2.6284308615363776 -2.177927317898869
-0.2519078123048551 -0.7182452876459752 0.4358334255599035 0.15196834330041636 -0.3123975164721293 -1.2629876683705936 -0.26795362186654337 -0.19786916326856838
-0.34592755722916657 -0.39661775258939624 0.0653916915268755 0.3220490991020409 1.9408804511597255 -0.1982897793255514 0.12485522316656689 -0.126318036083413
0.8332666815894342 -1.0168210648416132 -0.02300398130934912 -1.577859091301526 1.1656892438048774 -0.22300651990753484 1.0077111575476518 -0.9956461517351266
1.6823421274571337 0.10325528171125564 -1.2792254109248835 -0.32124903423292295 -1.1330765161347305 -1.6661542080473288 -2.5223349367871575 -0.20178732754534573
-0.8891841474903368 1.4344694800345072 -0.4915340868161595 1.263398489126442 1.6859401800747176 0.20376838683028548 0.3576178792896074 -0.19265397704666218
0.7527435019607754 -1.3515808971393681 -0.6877450997388438 0.7070601987670361 -0.9074656771002328 0.8366365900121866 -2.145213415999305 -0.17412710956513294
0.7159675012873465 0.0804385177743957 1.521732922610696 1.0550742196816683 1.6708224917836296 -0.6981076879868672 -1.2159783950704388 0.4243937234841223
0.6827404688936968 0.1414697748182009 0.054952411691671844 -0.029781010316937417 1.582145859517502 0.14607278289717698 0.43984137515470745 -0.7905998574249761
-0.03568590528311075 1.3180041923924175 0.6765372983343503 0.5317593208139492 0.622357815033 1.0202499178407238 -0.4072665602853284 -0.5675993245812612
1.4427737556771156 -0.901192793073627 -0.6879425241443127 -2.1035839789617805 0.42389342273278346 -0.44652066819677466 -0.7912882054957318 1.0788643036115457
0.9204940327627057 -0.37106611653213084 -0.6750087120813647 1.1388281418779658 -0.4899878703568342 -1.0974150200819115 1.7495824231154278 0.5848233433702275
-1.5377334731382089 -0.6149289705060587 0.19336221295814385 1.0180242798521766 -0.6116670348137573 1.624415982530591 0.5901186538668883 -1.4082262279885427
-1.1387796993443604 -0.8663987403316153 -0.8071612908492026 1.8293270295194093 0.6993306274785447 -1.7881627677123941 -0.6195719604761588 -1.3760004540660828
0.2379086550017182 -1.9833003348747837 1.1671542884915476 1.4237723832967593 0.2134846955621854 0.8182845061209846 0.5520084679688709 0.7236209089309238
-0.981207365446128 -0.3487441253945246 0.5917660431767316 -1.1613542861794963 -0.9717071677927924 -0.5133870422251083 1.117002469728219 0.969271598172783
0.4298342780365525 -0.9537421066010414 2.5264591842100614 -2.0122418943526625 -0.3689102160060431 1.0624185149283425 0.7367330052654095 -0.21773497949835746
-0.3172697866711557 -0.30607780139311075 0.1218927272158113 0.8461035140119145 -0.5363948107610107 0.9313979318005713 0.5003096771609702 -0.384350120150841
0.6205364726929183 -1.7807591239210478 0.09296188273038357 -0.10565724481817122 -2.610474154340192 0.5128613860884436 0.9673848770486412 1.1769910767470657
0.3404926915456346 1.5356438957402816 -0.8421543729593008 0.22866037451795967 -0.545430705479769 -0.8395590253272756 -1.8286781141101467 -0.023629950491551213
-0.1537761943186358 0.39736196996529055 -0.6635119340536932 -0.5631413476150481 -0.11693053829297197 -0.16626764225392868 -0.4558108972528372 -0.4385756681564869
1.9774172959541065 -2.0952580975962274 1.0608658609832198 -0.9345019582559273 -0.9520204337226065 0.09272677369215979 2.116464402714229 -0.6233298516548745
-0.7434301178627049 2.262851515970893 -0.8850205749546016 -0.042281541433072986 0.5745646047797394 2.769043593391733 -1.6091275467885864 -1.2432304008806114
0.3861185429113459 0.23334888427032605 -0.377030034607931 1.0607731055299967 -1.4093350954804114 -0.07127508343204678 0.1648125878584089 -0.3893824827730883
0.9511932599478914 0.09610910403894213 -0.3561463646024253 -0.0786398203895652 -0.517924833391822 -3.016309448059712 0.5364875816823503 -0.024287739728631692
-1.5528058368922049 -0.8181442925154886 1.4333999568031721 1.0419295300429343 -0.6572448447319117 -0.07128631663875648 1.4416612427304618 0.3489609216667649
-0.374030359814404 1.179909310039691 -0.8291739359641006 0.6752829405304378 -0.9692535041084124 0.5499058533156042 -0.6757007508256175 -0.052184163105076724
0.22703426755156508 3.146617412302512 1.1381918612899746 -1.2099646883028008 1.4111583940218206 0.6755255696869289 -0.43110391429725303 0.49347216279324263
-0.6396747511728041 0.13719996878618743 -0.2085997449065546 -1.4559215311557416 0.0483120694522371 0.6289727433820355 -1.0790034051383834 1.1820448172806801
-0.9020967199676281 -0.3692438880082492 0.19399639371076696 -1.4856214401291192 0.052152790810961074 0.8779026639771166 0.7307203287086937 -0.42695058611632963
0.5993761818571304 -0.19758737724544986 -1.0999591282590966 -1.3183593867375787 -0.2922758954058761 -0.23640246890682512 -1.514450184360588 -0.4779921302228854
00000000: 766e c4f7 5cd5 0040 8c1a 4d86 5e7a c6bf
00000010: 611b 5e3e 8328 dd3f 2fba 68b2 e658 d1bf
00000020: 69f1 4f8d f33c c63f 27f0 4193 5558 e43f
00000030: eadb abac faaf e93f 51f3 e449 982d d73f
00000040: 9c9b 278a b6d4 e73f a9b6 2eb8 0a20 e23f
00000050: dde6 b875 3eff d0bf b7e5 f6ac 6a87 e83f
00000060: 9f1d fc9c fd9e c3bf 231b 8727 f918 a63f
00000070: 4bc4 70c2 0607 05c0 6d86 5b28 656c 01c0
00000080: 5933 ddf1 411f d0bf 2942 9e8a ddfb e6bf
00000090: d123 52e1 b1e4 db3f d654 40dc b273 c33f
000000a0: d85c 2627 52fe d3bf a972 ae8e 3235 f4bf
000000b0: 4ebd b0f2 2626 d1bf a30c 90d8 c653 c9bf
000000c0: 7267 4556 ad23 d6bf 429b 186d 2f62 d9bf
000000d0: afbd 8988 82bd b03f ad5e 16d3 739c d43f
000000e0: f4d3 f2a8 d80d ff3f 59ca aa3a 8f61 c9bf
000000f0: 2c35 3c0c 83f6 bf3f 3dc5 ef7c 302b c0bf
00000100: f3bc 48e3 1eaa ea3f d80e 362a e644 f0bf
00000110: a315 9b0d 5b8e 97bf 9e61 ad2c e93e f9bf
00000120: 010e b7c3 a9a6 f23f e818 e646 7a8b ccbf
00000130: 18b4 17bc 951f f03f 61e6 8251 55dc efbf
00000140: 83c8 2194 dfea fa3f e8cf 162a f06e ba3f
00000150: 0f27 8210 b577 f4bf 2eba f91b 588f d4bf
00000160: e8a0 4ad7 1421 f2bf 367f 9a50 91a8 fabf
00000170: f978 78f0 bd2d 04c0 daf9 46ca 2ad4 c9bf
00000180: e2f6 3250 3274 ecbf bcbb fd44 96f3 f63f
00000190: 04a8 ef62 4b75 dfbf 74d2 8955 e136 f43f
000001a0: a5ee 0669 9cf9 fa3f 4687 b21e 1515 ca3f
000001b0: 1ce1 001a 36e3 d63f 3f0c 6eb1 e2a8 c8bf
000001c0: 5d56 668a 7916 e83f 73ca 714a 13a0 f5bf
000001d0: 5b9a eb02 0202 e6bf e93e c0b5 3ca0 e63f
000001e0: 776a ac75 f509 edbf 5ca8 1719 bac5 ea3f
000001f0: 7942 c5a6 6529 01c0 d2f1 7610 cc49 c6bf
00000200: 4ee5 60ad 34e9 e63f b803 2e63 9e97 b43f
00000210: 42c0 fd9e 0459 f83f f22a 4681 95e1 f03f
00000220: 561c 7a5d b0bb fa3f 2bac 1fef e556 e6bf
00000230: 8a85 f7c2 a574 f3bf 7a7c bf4a 4429 db3f
00000240: 75bb 318a 02d9 e53f 6cbb 1b7c ae1b c23f
00000250: 6da7 1af6 b822 ac3f 108f 69c5 e97e 9ebf
00000260: 5b12 422d 7850 f93f cd85 b050 83b2 c23f
00000270: 8ce5 6d70 5c26 dc3f e399 7b12 984c e9bf
00000280: 8cfc 3c48 6c45 a2bf ab0f 6590 8b16 f53f
00000290: ecd8 5b8c 31a6 e53f 93a6 871f 2c04 e13f
000002a0: 8e41 bfef 5aea e33f 27f6 ed93 f152 f03f
000002b0: 7383 4bc3 a710 dabf d2dc 090f c629 e2bf
000002c0: 9d90 02ef 9915 f73f 468c b444 92d6 ecbf
000002d0: ca47 570a a003 e6bf 423e 50d6 23d4 00c0
000002e0: 9f1d e8e0 1121 db3f 6d2a b96c cb93 dcbf
000002f0: fc11 8aa4 3b52 e9bf 9f55 4d37 0743 f13f
00000300: 8d20 dce6 af74 ed3f c630 ca18 8cbf d7bf
00000310: 01f2 dcde ab99 e5bf c115 92db a338 f23f
00000320: 76a2 a715 f65b dfbf 8241 560d 038f f1bf
00000330: c2fe 8e23 4afe fb3f d8cc b671 dfb6 e23f
00000340: 587d 116a 8e9a f8bf 91f7 3585 7fad e3bf
00000350: 39fd 77ce 17c0 c83f 1cfc c7d3 d349 f03f
00000360: cb1f d2be c692 e3bf f818 019d 9bfd f93f
00000370: 42c5 e383 40e2 e23f a048 a939 1888 f6bf
00000380: 1b86 e00f 7138 f2bf e4a2 e0d9 89b9 ebbf
00000390: 4b6c 59ea 43d4 e9bf 5498 576b ec44 fd3f
000003a0: 7a91 c39f ea60 e63f 45fe f38f 509c fcbf
000003b0: 4970 7893 88d3 e3bf 6ceb 570d 1904 f6bf
000003c0: 1078 5572 ca73 ce3f c0ed c621 99bb ffbf
000003d0: 4a51 a7f9 a9ac f23f 2852 f38c c5c7 f63f
000003e0: d06b d16c 7753 cb3f d99e 13fd 622f ea3f
000003f0: db52 a1a9 0daa e13f 70ec 5109 e727 e73f
00000400: 20ef 25fd 0c66 efbf 7a76 4fe1 d251 d6bf
00000410: f379 4a57 bfef e23f a45d 633b e894 f2bf
00000420: b8ae 5ea1 3918 efbf 1e81 91a9 aa6d e0bf
00000430: fb8a 50fb 3ddf f13f 0d00 e3de 4504 ef3f
00000440: 1079 b7a1 6782 db3f 846d 952a 0e85 eebf
00000450: 70e3 963b 3036 0440 1016 3f47 1219 00c0
00000460: 0400 3a98 399c d7bf 8f83 848e aaff f03f
00000470: 98f5 6f18 5193 e73f aa01 1264 bdde cbbf
00000480: 96bc 70ef 254e d4bf a9f5 c058 c796 d3bf
00000490: d51c 039d 5c34 bf3f 7bc7 36ad 4713 eb3f
000004a0: 07ce 3e73 252a e1bf dfa7 1409 03ce ed3f
000004b0: fdea a870 8902 e03f f4bc 103f 3199 d8bf
000004c0: fa1e 064e 6fdb e33f 52b6 7447 fd7d fcbf
000004d0: 7301 1a96 59cc b73f d35a 146b 5a0c bbbf
000004e0: 188e ff45 40e2 04c0 ed31 1448 5c69 e03f
000004f0: 6334 3221 d1f4 ee3f e4ff 6498 f4d4 f23f
00000500: 05cb addb a1ca d53f cd1a 6855 ff91 f83f
00000510: 0a65 41ba edf2 eabf 4a0e 393f be44 cd3f
00000520: 55a2 4818 2b74 e1bf fef3 9ae3 aadd eabf
00000530: 7e39 70fb 4342 fdbf 54ed 4422 7332 98bf
00000540: a93d c036 f0ae c3bf 2334 6be6 606e d93f
00000550: b485 2861 7d3b e5bf 2306 e100 4105 e2bf
00000560: c13a dfe5 28ef bdbf 218c ee12 4248 c5bf
00000570: 6420 3778 012c ddbf e36b e3ad 9f11 dcbf
00000580: a8ae 8a51 80a3 ff3f fcd6 6ead 16c3 00c0
00000590: 5dda 257b 4ef9 f03f b23a 98a6 70e7 edbf
000005a0: 69cb 7e8e f376 eebf f2ae 781c f1bc b73f
000005b0: 4172 86e3 84ee 0040 8f4d ef71 51f2 e3bf
000005c0: a39d 62f5 2dca e7bf 5e64 46e5 511a 0240
000005d0: bcf2 36ab 1652 ecbf b6e9 5b1b eda5 a5bf
000005e0: 0dfb 5e4f d562 e23f ca86 d653 0027 0640
000005f0: 86cb c886 fcbe f9bf 9acd 928f 45e4 f3bf
00000600: e1bc 8b8c 2ab6 d83f cbe3 3f51 60de cd3f
00000610: 4d0d 1095 4221 d8bf a1a4 4b38 edf8 f03f
00000620: 2f18 03f5 a28c f6bf 6e3d 5c78 153f b2bf
00000630: 4c16 6931 9418 c53f 1c53 4981 a4eb d8bf
00000640: b6db f4d8 2c70 ee3f 40f3 b132 9b9a b83f
00000650: 1ea1 231f 1acb d6bf 098b bc40 bd21 b4bf
00000660: 3088 a619 d792 e0bf 1942 10d9 6621 08c0
00000670: 7725 4101 e82a e13f 521c 509f e2de 98bf
00000680: c1d6 e7ee 4ad8 f8bf 296b 78f0 3c2e eabf
00000690: 43eb 08cb 34ef f63f 3b56 844c beab f03f
000006a0: 32d2 3257 2608 e5bf 6ea2 9dee d13f b2bf
000006b0: 4202 1761 0b11 f73f 6d02 8930 6055 d63f
000006c0: 6a4b c708 1df0 d7bf c3dc ad95 e8e0 f23f
000006d0: 462a 35c7 9788 eabf 89ff 23f8 ea9b e53f
000006e0: a3ba b5ec 1f04 efbf e3d2 fb28 d498 e13f
000006f0: afb7 552e 579f e5bf 1795 cff3 e1b7 aabf
00000700: d046 1a79 750f cd3f 52e8 f6bf 452c 0940
00000710: 5d05 4dab 0836 f23f b034 d9ee 035c f3bf
00000720: 2bcb fcd2 1a94 f63f 1e59 adcc e79d e53f
00000730: fc64 45df 3497 dbbf 41bc 2b44 0c95 df3f
00000740: f7a6 0b2f 3778 e4bf 6b75 79c1 c48f c13f
00000750: 9fee 297d 65b3 cabf d0b2 1d60 744b f7bf
00000760: 1150 990c 5cbc a83f fbd6 5c72 8b20 e43f
00000770: d078 1513 9943 f1bf 7107 8ad3 a7e9 f23f
00000780: e9df c2f0 f9dd ecbf 8192 cf1d b1a1 d7bf
00000790: b1cc 43b3 dfd4 c83f b174 b9fc 1ac5 f7bf
000007a0: f73d db45 c5b3 aa3f b84b db53 c717 ec3f
000007b0: 4f70 4a99 0f62 e73f b42b 188d 2853 dbbf
000007c0: b67c 62f5 162e e33f 4d91 af0d 8b4a c9bf
000007d0: abf3 2cbe 6e99 f1bf ab99 2603 0018 f5bf
000007e0: c759 0bf5 a5b4 d2bf 1701 53a4 6f42 cebf
000007f0: 93ff d31d 303b f8bf e15e c34d 6c97 debf

output_mask f8 [16]
1.0 1.0 1.0 1.0 1.0 1.0 1.0 1.0
1.0 1.0 1.0 1.0 1.0 1.0 1.0 1.0
00000000: 0000 0000 0000 f03f 0000 0000 0000 f03f
00000010: 0000 0000 0000 f03f 0000 0000 0000 f03f
00000020: 0000 0000 0000 f03f 0000 0000 0000 f03f
00000030: 0000 0000 0000 f03f 0000 0000 0000 f03f
00000040: 0000 0000 0000 f03f 0000 0000 0000 f03f
00000050: 0000 0000 0000 f03f 0000 0000 0000 f03f
00000060: 0000 0000 0000 f03f 0000 0000 0000 f03f
00000070: 0000 0000 0000 f03f 0000 0000 0000 f03f

output_mask f8 [144]
1.0 1.0 1.0 1.0 1.0 1.0 1.0 1.0
1.0 1.0 1.0 1.0 1.0 1.0 1.0 1.0
1.0 1.0 1.0 1.0 1.0 1.0 1.0 1.0
1.0 1.0 1.0 1.0 1.0 1.0 1.0 1.0
1.0 1.0 1.0 1.0 1.0 1.0 1.0 1.0
1.0 1.0 1.0 1.0 1.0 1.0 1.0 1.0
1.0 1.0 1.0 1.0 1.0 1.0 1.0 1.0
1.0 1.0 1.0 1.0 1.0 1.0 1.0 1.0
1.0 1.0 1.0 1.0 1.0 1.0 1.0 1.0
1.0 1.0 1.0 1.0 1.0 1.0 1.0 1.0
1.0 1.0 1.0 1.0 1.0 1.0 1.0 1.0
1.0 1.0 1.0 1.0 1.0 1.0 1.0 1.0
1.0 1.0 1.0 1.0 1.0 1.0 1.0 1.0
1.0 1.0 1.0 1.0 1.0 1.0 1.0 1.0
1.0 1.0 1.0 1.0 1.0 1.0 1.0 1.0
1.0 1.0 1.0 1.0 1.0 1.0 1.0 1.0
1.0 1.0 1.0 1.0 1.0 1.0 1.0 1.0
1.0 1.0 1.0 1.0 1.0 1.0 1.0 1.0
00000000: 0000 0000 0000 f03f 0000 0000 0000 f03f
00000010: 0000 0000 0000 f03f 0000 0000 0000 f03f
00000020: 0000 0000 0000 f03f 0000 0000 0000 f03f
00000030: 0000 0000 0000 f03f 0000 0000 0000 f03f
00000040: 0000 0000 0000 f03f 0000 0000 0000 f03f
00000050: 0000 0000 0000 f03f 0000 0000 0000 f03f
00000060: 0000 0000 0000 f03f 0000 0000 0000 f03f
00000070: 0000 0000 0000 f03f 0000 0000 0000 f03f
00000080: 0000 0000 0000 f03f 0000 0000 0000 f03f
00000090: 0000 0000 0000 f03f 0000 0000 0000 f03f
000000a0: 0000 0000 0000 f03f 0000 0000 0000 f03f
000000b0: 0000 0000 0000 f03f 0000 0000 0000 f03f
000000c0: 0000 0000 0000 f03f 0000 0000 0000 f03f
000000d0: 0000 0000 0000 f03f 0000 0000 0000 f03f
000000e0: 0000 0000 0000 f03f 0000 0000 0000 f03f
000000f0: 0000 0000 0000 f03f 0000 0000 0000 f03f
00000100: 0000 0000 0000 f03f 0000 0000 0000 f03f
00000110: 0000 0000 0000 f03f 0000 0000 0000 f03f
00000120: 0000 0000 0000 f03f 0000 0000 0000 f03f
00000130: 0000 0000 0000 f03f 0000 0000 0000 f03f
00000140: 0000 0000 0000 f03f 0000 0000 0000 f03f
00000150: 0000 0000 0000 f03f 0000 0000 0000 f03f
00000160: 0000 0000 0000 f03f 0000 0000 0000 f03f
00000170: 0000 0000 0000 f03f 0000 0000 0000 f03f
00000180: 0000 0000 0000 f03f 0000 0000 0000 f03f
00000190: 0000 0000 0000 f03f 0000 0000 0000 f03f
000001a0: 0000 0000 0000 f03f 0000 0000 0000 f03f
000001b0: 0000 0000 0000 f03f 0000 0000 0000 f03f
000001c0: 0000 0000 0000 f03f 0000 0000 0000 f03f
000001d0: 0000 0000 0000 f03f 0000 0000 0000 f03f
000001e0: 0000 0000 0000 f03f 0000 0000 0000 f03f
000001f0: 0000 0000 0000 f03f 0000 0000 0000 f03f
00000200: 0000 0000 0000 f03f 0000 0000 0000 f03f
00000210: 0000 0000 0000 f03f 0000 0000 0000 f03f
00000220: 0000 0000 0000 f03f 0000 0000 0000 f03f
00000230: 0000 0000 0000 f03f 0000 0000 0000 f03f
00000240: 0000 0000 0000 f03f 0000 0000 0000 f03f
00000250: 0000 0000 0000 f03f 0000 0000 0000 f03f
00000260: 0000 0000 0000 f03f 0000 0000 0000 f03f
00000270: 0000 0000 0000 f03f 0000 0000 0000 f03f
00000280: 0000 0000 0000 f03f 0000 0000 0000 f03f
00000290: 0000 0000 0000 f03f 0000 0000 0000 f03f
000002a0: 0000 0000 0000 f03f 0000 0000 0000 f03f
000002b0: 0000 0000 0000 f03f 0000 0000 0000 f03f
000002c0: 0000 0000 0000 f03f 0000 0000 0000 f03f
000002d0: 0000 0000 0000 f03f 0000 0000 0000 f03f
000002e0: 0000 0000 0000 f03f 0000 0000 0000 f03f
000002f0: 0000 0000 0000 f03f 0000 0000 0000 f03f
00000300: 0000 0000 0000 f03f 0000 0000 0000 f03f
00000310: 0000 0000 0000 f03f 0000 0000 0000 f03f
00000320: 0000 0000 0000 f03f 0000 0000 0000 f03f
00000330: 0000 0000 0000 f03f 0000 0000 0000 f03f
00000340: 0000 0000 0000 f03f 0000 0000 0000 f03f
00000350: 0000 0000 0000 f03f 0000 0000 0000 f03f
00000360: 0000 0000 0000 f03f 0000 0000 0000 f03f
00000370: 0000 0000 0000 f03f 0000 0000 0000 f03f
00000380: 0000 0000 0000 f03f 0000 0000 0000 f03f
00000390: 0000 0000 0000 f03f 0000 0000 0000 f03f
000003a0: 0000 0000 0000 f03f 0000 0000 0000 f03f
000003b0: 0000 0000 0000 f03f 0000 0000 0000 f03f
000003c0: 0000 0000 0000 f03f 0000 0000 0000 f03f
000003d0: 0000 0000 0000 f03f 0000 0000 0000 f03f
000003e0: 0000 0000 0000 f03f 0000 0000 0000 f03f
000003f0: 0000 0000 0000 f03f 0000 0000 0000 f03f
00000400: 0000 0000 0000 f03f 0000 0000 0000 f03f
00000410: 0000 0000 0000 f03f 0000 0000 0000 f03f
00000420: 0000 0000 0000 f03f 0000 0000 0000 f03f
00000430: 0000 0000 0000 f03f 0000 0000 0000 f03f
00000440: 0000 0000 0000 f03f 0000 0000 0000 f03f
00000450: 0000 0000 0000 f03f 0000 0000 0000 f03f
00000460: 0000 0000 0000 f03f 0000 0000 0000 f03f
00000470: 0000 0000 0000 f03f 0000 0000 0000 f03f

weight f8 [8, 64]
0.6434081466836685 -0.12400720050640103 1.1325768068064876 -1.9367462048280355 0.5825724252601738 2.0753551727784174 -0.0855245020535081 0.37762201462169354
-1.6781707168673132 0.9489303217606427 -0.47195815286952075 0.7242109582834984 1.2730935054099082 0.09587880085875479 -1.5490477826726428 1.3054231009330033
-0.5816771912065974 -1.8405653199407719 -1.1051485656312925 0.45464983274460713 0.07929603481490932 0.5840028206531657 0.20379534720464249 0.9896473480815758
0.28362649852579563 0.21952391829348344 0.3520019506890909 -0.8245452943469855 1.5416605187195478 -0.0014001756373068623 1.8312985351823585 -0.23439133002276014
0.8004630857664015 0.8514531403802482 -0.08306523639967457 0.38986851733252925 1.205994759950352 0.8004478488005343 0.048471949065346694 0.1598515100976676
-1.151175615304601 1.43425758612363 -0.40167973453556877 -0.5764185615402613 -0.9385039707026962 1.1458152828520245 0.7616666564128773 -1.8777715235702415
0.5170125556618572 0.8476031275838996 -0.13142319438271458 -0.8162604028908362 -1.2895998904617296 1.1832903841237608 -1.1510602476550988 -0.017604302514223853
1.126432798835005 -1.7901295086391849 0.5550830892266003 1.2719420420794658 0.7361293967839893 1.5789202927979114 1.4425862866842152 -2.4266750878271703
-0.1913101446606808 0.6124780669917204 0.23470552164207586 -0.6526067682821121 0.9966042798938429 0.6863092834428952 0.5390791918529907 0.3340238896056101
-0.00973336875847753 0.9633128992023462 0.11284472816088952 0.7372959914398897 1.0551697724958613 0.4729464416845473 2.045892609440013 -0.623742642439909
1.7897128901993697 1.1591899682617748 -1.2484145061175522 0.821271461889058 -1.1417050699472966 -0.5808813812984723 -0.3554277789257754 0.715925964531908
0.8725625828198957 -0.4834286013627612 2.6734034071820405 1.2900626545291942 0.47257608750586033 -0.41490369508580105 0.33517397795956444 0.5214083291098667
0.21697725158538447 -0.45217624509494747 -0.647949131702698 -1.7134042428370397 0.19269095468364 1.9485114998655177 -0.5414358879109612 0.18797803941694266
-1.2209160555954361 0.1803292261038464 1.4371267850199498 -0.03392912542638671 -0.6344491938809939 -0.08794603901203883 -0.029971547384683012 0.06555031290869708
-0.275811609933261 0.2177892075435875 0.18095115956891553 0.6719048545883534 -0.5718080171901606 0.033925559539952604 0.4792857940929895 -0.01161857494120665
0.3450881501810292 -0.3401600202967567 -0.06814775614299706 -0.1734894806682063 0.5291028629294005 -0.14887988830060425 0.04437114695287333 0.2833908867765619
-1.3896689960357758 1.8766238725374031 -0.4946403834065087 -1.2387887581711707 0.7140691453391254 -0.028246848531342954 -1.136538022380367 0.8695453620614777
1.7478568593524613 -2.729361755180146 1.195010187507583 0.6855845045906517 0.8873279612068616 1.5072745830961243 0.24893999527692198 0.7646793633185925
0.6089666932032533 -0.8085740360221405 0.31344842845527116 -0.7156097656948204 0.4084478060971064 -0.019061083440911203 0.16810790033404951 0.4027361216812301
-0.34819542989029045 0.12663071961764027 -0.5963277617057662 0.03255722719727676 0.18874161394235506 0.8519617974658741 -1.2124154499125952 -0.027407583012469233
0.5060226739617509 0.173093903598568 0.2285354846691306 0.5299225181858999 -0.26207798009655603 -0.09836877013267886 0.08664085481711942 0.383989505327373
-1.138630275362429 0.3584501457952368 -0.7744793617275453 1.2067668406573149 -0.13176872594264694 1.9287952262055414 -0.379856901942442 1.1168497382987026
2.545695632000304 0.08673257791238029 0.06347966545656045 1.203332052397529 -0.7602147481604283 1.6966404373288204 0.9203459568262923 -0.27661812574777006
-1.1550194773755764 -0.26983607538670557 -0.8529827145902195 -1.3219809853026452 0.11574268098114335 -0.29847482533847675 1.4926726767178666 2.788378944568528
-1.1632513329391898 0.14257276229689167 -1.5611523341882327 2.8774342064940215 -0.641614405323134 0.6716507736693672 -1.5667838817377915 -0.7203934467648468
-1.3529351655452375 -0.5243728108876757 -1.865069217181447 -0.7360817654910202 -2.10660534031057 0.7679206906099857 -2.2216389670661165 0.04153450410627066
0.3189823991597088 0.7785788013338433 -1.7229766163838014 -1.4363077748517543 0.4383566858450894 0.14232447335115864 -0.4023834112436083 1.3094328037932823
-0.30012582715175196 -0.2720370000330753 -1.3158283407997897 0.6060557992508971 -1.93168962803093 -1.0593144485285875 -0.2363623253000075 0.1907384534250135
1.0760145239469507 -1.4008676853531654 1.4115142202954378 -1.2981028993969947 0.6651304366686671 1.702445704789283 0.22810161205132423 2.0030450149095924
-1.648423225567952 0.9587364188014998 0.2883067662750906 0.4575218837566059 -0.33649837731959603 -0.9268950543097866 0.13709199026416488 0.44270091858208316
-0.15047846075543356 0.4886565150739608 -2.9451998718375045 -1.031567923129677 0.7685838198374094 0.25902552582395627 1.0243252760525636 0.09464266348307912
0.04141160995638457 1.6362341765935287 0.2991692128843792 0.19889954556779893 -0.17426137170951475 -1.0450998806350265 -0.006432779212553435 0.5548890850425124
00000000: fe8f 7fae cc96 e43f e1bc a496 efbe bfbf
00000010: 5412 97db 081f f23f 6b37 a696 e9fc febf
00000020: 3a67 41ed 6ea4 e23f 8457 15d0 539a 0040
00000030: a595 530b efe4 b5bf 0c30 c386 f52a d83f
00000040: becc a089 c9d9 fabf 87a1 441f a35d ee3f
00000050: 25ee e9f7 8f34 debf 3270 a775 bc2c e73f
00000060: d5c4 a74b 975e f43f a16b 115a 838b b83f
00000070: 3753 e853 e6c8 f8bf d733 5f55 03e3 f43f
00000080: 9af7 217c 199d e2bf 1ec2 f49e f472 fdbf
00000090: 2fb9 2943 b0ae f1bf fc46 b19c fb18 dd3f
000000a0: f885 3bb4 be4c b43f 6744 efae 26b0 e23f
000000b0: 6613 a947 f715 ca3f 01ac 52ea 30ab ef3f
000000c0: 4fa0 dcc1 ef26 d23f 1a51 e118 5c19 cc3f
000000d0: 569f 9530 3387 d63f d84f 29d0 ac62 eabf
000000e0: 29f5 5638 a4aa f83f ba71 8924 c3f0 56bf
000000f0: 8d22 5db1 ff4c fd3f 0cf4 74fc 8800 cebf
00000100: b6b3 e0c2 649d e93f 294f 00a8 1a3f eb3f
00000110: 8967 c569 c343 b5bf eab9 eb14 9bf3 d83f
00000120: 6825 5229 c14b f33f 230f 98ce 449d e93f
00000130: 21a1 04b8 50d1 a83f 17f8 0aa8 0376 c43f
00000140: 9bf9 3a1f 376b f2bf e70d 2715 b8f2 f63f
00000150: 6df5 d2ea 1eb5 d9bf dced d356 0572 e2bf
00000160: f3b1 aa7a 3908 eebf f5b3 f167 4255 f23f
00000170: 3ce7 77c0 925f e83f 2c82 3127 5a0b febf
00000180: c00c 46ea 5d8b e03f aab9 1e98 901f eb3f
00000190: 4da1 e7a8 79d2 c0bf 1af3 ed22 ce1e eabf
000001a0: 3e55 a77e 33a2 f4bf acb9 d7e5 c1ee f23f
000001b0: 0e78 7626 be6a f2bf 021a 45be dc06 92bf
000001c0: a135 0266 de05 f23f 8a5b f3d6 5ea4 fcbf
000001d0: 0a4f 599c 3dc3 e13f 5e38 12e6 df59 f43f
000001e0: 54f7 993c 5f8e e73f a4ec c8ec 4143 f93f
000001f0: f377 af5b d514 f73f 8fe2 e1a0 d469 03c0
00000200: aef6 5acf d97c c8bf 43e5 679a 6b99 e33f
00000210: d658 d29d d40a ce3f ff6f dd96 27e2 e4bf
00000220: 7153 a6a8 2ee4 ef3f 7e82 eae2 3ef6 e53f
00000230: 7ace 5e01 2340 e13f 7515 7cbc a560 d53f
00000240: 8405 fba3 16ef 83bf dd72 bc92 75d3 ee3f
00000250: af1e fa60 64e3 bc3f 5f99 56c3 ed97 e73f
00000260: 4c8f 09b3 f9e1 f03f 65dc f226 c144 de3f
00000270: 3762 c5f1 fc5d 0040 0dcd 4c21 b3f5 e3bf
00000280: c72c cafb a9a2 fc3f d291 b8c7 0a8c f23f
00000290: b207 3a7d 81f9 f3bf a073 be16 db47 ea3f
000002a0: d39d 1189 6c44 f2bf 2608 f18c 9496 e2bf
000002b0: 34df a427 54bf d6bf 98b2 8091 dde8 e63f
000002c0: 8097 9d5d 08ec eb3f 0e76 3384 7ef0 debf
000002d0: 0ae5 5653 2163 0540 c0e6 efbc 18a4 f43f
000002e0: 3e65 2dc6 af3e de3f 3e84 583a c88d dabf
000002f0: 959e 738e 7d73 d53f b971 2c85 60af e03f
00000300: 1f81 c41b e9c5 cb3f 0e7f 2da2 74f0 dcbf
00000310: 564f 44d1 ffbb e4bf ef00 3d91 1a6a fbbf
00000320: d2f5 4ce2 18aa c83f 40d6 fc64 1a2d ff3f
00000330: 65aa ee5a 7153 e1bf 5bbb d415 aa0f c83f
00000340: 7619 1f46 df88 f3bf 6583 5030 0715 c73f
00000350: 65dc dda7 78fe f63f 402a 2d88 285f a1bf
00000360: 6728 5665 684d e4bf 1394 5eb1 a183 b6bf
00000370: e597 4f7f dcb0 9ebf b977 2fc2 e7c7 b03f
00000380: 4b4f 21bd e5a6 d1bf c225 e949 84e0 cb3f
00000390: 59c9 4258 6829 c73f 2f61 0f9c 3e80 e53f
000003a0: db83 ad53 404c e2bf 44f8 71e1 b05e a13f
000003b0: 1f46 c452 9eac de3f 3a59 30bb 7acb 87bf
000003c0: 23f0 d09b ec15 d63f 7733 a588 2ec5 d5bf
000003d0: 9011 ee9f 2172 b1bf 96c1 d53e e734 c6bf
000003e0: 4d0e 9020 69ee e03f d340 a405 7f0e c3bf
000003f0: 3be2 18a2 d0b7 a63f 3a25 ac87 1323 d23f
00000400: 2bd2 a38e 153c f6bf 6a0e f7c0 a606 fe3f
00000410: 3fc2 8023 30a8 dfbf 4cf6 2f29 14d2 f3bf
00000420: 0b0e 4a89 a7d9 e63f bef4 a0ea bdec 9cbf
00000430: 0d8c 4c7e 422f f2bf 2c29 8ecb 50d3 eb3f
00000440: 2621 10c1 38f7 fb3f 769d ab9d bbd5 05c0
00000450: d9b5 9b00 c31e f33f 0a8f 3bea 4ef0 e53f
00000460: e8b6 c69b fd64 ec3f 95d6 07f4 cb1d f83f
00000470: 37bd 3009 44dd cf3f 8324 2cdb 4078 e83f
00000480: dd28 f5b7 a77c e33f a483 23a8 d6df e9bf
00000490: cbab 4cff 890f d43f 7270 8b73 46e6 e6bf
000004a0: 64d7 5344 0224 da3f 6829 05a8 bf84 93bf
000004b0: ef25 1147 8f84 c53f 0a7b e2b9 6dc6 d93f
000004c0: 97b5 ff7b d548 d6bf 749e b677 6f35 c03f
000004d0: 0524 47f5 1d15 e3bf 061a 1f44 57ab a03f
000004e0: 026a a369 af28 c83f 71d5 3163 4543 eb3f
000004f0: b4a2 28be 0d66 f3bf 98c8 cdc2 bb10 9cbf
00000500: f767 7676 5631 e03f bbe1 8be7 f027 c63f
00000510: 0291 5098 a640 cd3f 8bb7 a011 20f5 e03f
00000520: 780d 61b8 e2c5 d0bf a8e7 aa1a b22e b9bf
00000530: 04e0 ef55 182e b63f a9d9 d8b7 4893 d83f
00000540: 78ac 2e61 d437 f2bf 62f7 5be1 d8f0 d63f
00000550: 117f 41f1 88c8 e8bf 9a53 28bf ea4e f33f
00000560: ae95 4730 ccdd c0bf 54bd 1362 58dc fe3f
00000570: b32b c052 934f d8bf 19a0 c8d4 9dde f13f
00000580: 4217 e8ab 955d 0440 66a6 a131 1b34 b63f
00000590: 96d1 180f 3440 b03f 466a 341c d940 f33f
000005a0: 3926 29e1 ad53 e8bf ef5f 7671 7025 fb3f
000005b0: 6164 325d 7973 ed3f b951 e482 1cb4 d1bf
000005c0: 4723 19b4 f57a f2bf f147 c487 fe44 d1bf
000005d0: 45fc e667 a24b ebbf 82f0 9c88 d526 f5bf
000005e0: 36bc 90f5 4fa1 bd3f 3784 6027 361a d3bf
000005f0: 212d a2be fce1 f73f f036 be9e 994e 0640
00000600: 2009 006e ad9c f2bf bdc9 ae03 d33f c23f
00000610: b199 b6de 7afa f8bf ad44 aa39 fc04 0740
00000620: d12b f0ee 1a88 e4bf e7c6 67c3 297e e53f
00000630: 816b bff9 8b11 f9bf 8f72 c38e 760d e7bf
00000640: 9400 1a58 9fa5 f5bf b892 357d a9c7 e0bf
00000650: 5321 c9d1 52d7 fdbf 6fe8 be58 fb8d e7bf
00000660: eab3 91e6 53da 00c0 93ee 8269 ce92 e83f
00000670: a88b 98a6 eac5 01c0 5c82 95b1 0244 a53f
00000680: 0dff 1827 356a d43f c0ce 2217 1eea e83f
00000690: 3642 b2ed 4f91 fbbf 3ba9 7fdc 1dfb f6bf
000006a0: b901 6c33 090e dc3f e158 3b37 b037 c23f
000006b0: 3ea1 ef59 a6c0 d9bf b2a0 c9cf 6ff3 f43f
000006c0: 704f 13f5 4235 d3bf a66a 9ce0 0d69 d1bf
000006d0: 1f29 ae04 a20d f5bf 09ae aa21 cf64 e33f
000006e0: dca4 2662 33e8 febf d9c4 09b5 f3f2 f0bf
000006f0: 0ec4 95e4 1e41 cebf 1c68 c61d 1e6a c83f
00000700: 79f8 6501 5b37 f13f 4dd7 e93b f469 f6bf
00000710: 2220 60ef 8f95 f63f c20b bc8b 07c5 f4bf
00000720: b11d 22a0 bf48 e53f fc91 14b5 373d fb3f
00000730: ca70 f601 6f32 cd3f c99e fb76 3c06 0040
00000740: bc7f 3c08 f15f fabf 3d92 87ff f7ad ee3f
00000750: 6b7d 1739 9e73 d23f 8717 fcdd 0948 dd3f
00000760: b5a9 6f7d 3089 d5bf adb5 22d1 1fa9 edbf
00000770: a533 5df7 3a8c c13f 7807 ce3b 3655 dc3f
00000780: 8337 d9d1 e042 c3bf 5c14 cef9 2546 df3f
00000790: c5cd 4df3 c48f 07c0 1a1d d75d 4d81 f0bf
000007a0: 3bf7 4d18 3d98 e83f e18e 8fcc df93 d03f
000007b0: 7aca 91e6 a263 f03f 2656 7768 803a b83f
000007c0: 3cf0 df0c e733 a53f 2e11 51e3 032e fa3f
000007d0: fbbd 53a0 9625 d33f 2294 b351 8a75 c93f
000007e0: 5167 3956 324e c6bf 5718 06a7 bab8 f0bf
000007f0: 53e4 7105 4259 7abf 4d47 25c1 a6c1 e13f

weight f8 [64, 64]
-0.28976478961196606 0.004454880631310456 -0.25239252617026964 -0.21337941849643696 0.9460154085321046 -0.3605466484012396 0.27982408025765504 2.0298216694130975
-0.18889760772405687 0.4843431028334566 1.7878065023128342 -0.6390065274514168 -0.9988380791408101 0.41642172431328117 -0.17000094584756187 1.785088499656616
-0.551726277652369 -0.22271580160414 0.04259548834863215 -0.3919394788478806 0.4730656936707234 0.4734347545925489 2.2633620282222586 1.0004838567777352
1.2692393559082893 -1.339968730649081 0.5144293275757007 1.0660192808466213 -1.323001050706785 -0.16952767020232792 0.4917446712160307 0.6277568669721334
-1.9543013681920367 -1.8698404967231073 0.8783932044029178 -1.6108947239151192 0.24191933195329468 0.33437595723122443 0.9285344759917812 0.6774308928724124
0.806144911735305 -0.788788576235805 1.5624962686765584 0.4331103080977111 1.8260978637513943 -1.1963068494541564 -0.5747375192009887 -0.37867554606804915
0.3299305306478109 0.36726165615424333 -2.2149732174497805 -0.28293759783472844 -0.627061595991856 -0.9518152496387442 -0.3748738560920783 0.07371711434077229
-0.4455121726163345 -1.5540761905844145 0.5730738537790306 -0.8572344263939534 -0.1834567338752204 1.3930735190203218 0.8731452463357403 1.21895194233784
1.3324122040649888 -0.1636500653141615 0.7586157563906952 -0.6283350529146564 1.1644758983121979 0.9216960279683281 -1.4083287580713277 1.484732702490314
-0.9252929569735215 -0.264320018841767 0.1421671793421069 -0.122564719225525 0.29054504403701853 0.6350237782492264 0.8070022910541699 0.7744564585322496
-0.8010423645957613 -0.470263186853765 1.9105044174045334 1.0351316023752983 2.058043424915467 -0.40083347357331695 -0.35445307528610004 0.2057835955240035
0.36201813384854575 0.20969576929313039 -0.00283910005736756 -0.5440559012741013 0.8725817308289345 -0.8666916786900057 -0.14170740132836826 0.8264680474703353
0.26549633318634963 -0.61316675767763 2.0863221131396377 0.11222490766851118 -0.9942865286750883 0.9154454929325109 -0.15922581937756922 0.07310947000508539
0.8199566486285776 1.183330478511177 -0.588338205903619 0.26123189549154446 -1.1160492940463194 -1.0057508834034925 1.3042319463606984 -0.8532731781057056
-0.617358086534144 -0.7005485766665355 -1.0886815211422853 -0.3217575452893917 -0.8638877527219093 0.6502197130665981 -0.08657584601135045 0.3251591972360819
1.1491759344964405 -0.7455299898204626 0.9845717337818165 1.4381207891917358 1.302998705823155 0.10622598268937672 1.4149948105572254 1.229028538283281
0.23443519706350868 -1.0447162512959807 -0.29921744754480384 0.10035009530786991 0.3826844851395321 0.3352424604999707 -1.160901766594598 -0.10972617349408226
-1.0035378564736537 1.068567947799172 -0.7951766954067148 0.9117201016173178 -0.018591727774233183 -0.04446189521409347 -1.4138888622534873 1.8334393644675129
-0.4398166902148717 -0.3570066298707312 -0.903652906997435 -0.6786425266086233 -0.1633995930303232 -0.38992151653737456 0.49674595823527357 0.03226052830428071
0.11908739763389815 -0.8640726993294231 1.5477119258646315 0.2786778671141818 -0.8517693292770709 2.965830563831998 -1.7974286991083925 -1.202087969615348
1.6330599968424493 -0.2368963444193437 -1.1076833855650976 -0.19412737341076744 -0.48481955126186127 0.6599706770198936 1.304950679423031 -0.4290583177496546
2.0913837723192534 -0.01723377522196185 0.3548436674355124 1.6035182063379438 -0.25870608244319127 -1.4672252549552705 -0.15730270653307643 -0.503476073598772
0.11085805903981917 0.3302981714726301 -0.8254868530719521 -0.2881383823406172 2.448255898673669 1.0709560415580275 -1.34587260162223 -1.5949253645222727
-0.1682880648831958 -0.16250368829285045 -0.9894666430690129 -0.9188174562792726 -2.6316537700359235 -2.2321280266003463 -0.4576388189734333 -1.428563206933314
-1.7460567773415854 1.7509724076301414 -0.004193102492175189 2.0893554483432433 -1.3576072971321143 0.9628826376050932 0.7004602680347747 -1.2653437831965169
0.7656109729708358 0.10235088898384927 -0.2838689411109649 -0.33839768818592814 -0.8544226014309552 -0.10132541613474354 1.1265707415591188 -0.12095386913496728
-0.41240949499122476 0.552853986863975 -1.0318345393818273 0.6299965101144047 0.7584321723603126 -0.7413685724478067 -0.7522196514998603 -1.0411855102117058
0.5039184954258403 0.8934465492393424 -1.2211191815300808 0.7527793059446507 1.1027148143469883 -1.6215708765485435 1.749371865039544 -0.598321833655674
0.0921426686797404 0.5169024729669123 -1.1162754766422802 0.0686280872718264 0.34164568159134495 -1.993468169385406 1.5289759523948863 -1.5418702820852705
-0.6566773129787901 0.1688661593811177 -1.1180010076424645 0.7631291852132609 0.022218226367236027 -0.7578110685665866 -0.37326069811628104 -1.0752346906769303
0.7635766688512241 -0.11801764096840668 0.7923573846409339 -0.11114674930840639 -1.9374814168917869 -0.559434269779964 0.7067685795799794 -0.822179195214454
0.8833461632669295 0.007533505679038415 0.12235756138233482 -0.8997694231260883 0.5949792965612467 -0.07277038813519142 1.1626894665707281 -1.9269272480594575
00000000: 129b ba9d 818b d2bf cfad e7e9 473f 723f
00000010: 12fe 69fb 3227 d0bf f574 0a4c 0450 cbbf
00000020: fc09 251b c245 ee3f 0035 e43f 3213 d7bf
00000030: 0cc1 5542 a3e8 d13f 24bb b624 133d 0040
00000040: c5d5 bbfb cb2d c8bf 849f ad36 7aff de3f
00000050: 0628 b0fd da9a fc3f 17b3 2ad1 bd72 e4bf
00000060: 7d18 7d46 7bf6 efbf 023f d14d a7a6 da3f
00000070: fc27 5a4b 97c2 c5bf 9eda 67f5 b88f fc3f
00000080: 308b dbdd bda7 e1bf 329a 188e f381 ccbf
00000090: 823c d46a 13cf a53f 766d ea52 8915 d9bf
000000a0: 4c38 cb54 b546 de3f 36f2 f048 c14c de3f
000000b0: 5bc8 118d 5d1b 0240 c594 505c fb01 f03f
000000c0: 5cc1 46ed cd4e f43f 96ce 3c0d 8370 f5bf
000000d0: 194f 417e 3476 e03f 5044 c23b 6a0e f13f
000000e0: 9cbf 5526 032b f5bf 039e a42b 15b3 c5bf
000000f0: 5cba 36a4 be78 df3f f482 af91 9516 e43f
00000100: 0b9b ee82 d144 ffbf 2198 62de ddea fdbf
00000110: b90d be10 cc1b ec3f ed3a c88b 39c6 f9bf
00000120: 8a39 8171 36f7 ce3f 8d1d 386a 6a66 d53f
00000130: 79fb f2ee 8db6 ed3f a6fc 458d 83ad e53f
00000140: 9aad f769 f0cb e93f 9784 4c8a c13d e9bf
00000150: d367 6116 fcff f83f 12c5 354c 14b8 db3f
00000160: 26b9 c164 b237 fd3f af2e a6a6 1224 f3bf
00000170: d013 18f0 3f64 e2bf c50f 8a5b 383c d8bf
00000180: bd64 c5f1 941d d53f 2677 9008 3781 d73f
00000190: 9eb3 d3e0 43b8 01c0 c992 604c a61b d2bf
000001a0: 4e9a eb7a e310 e4bf 180a 2141 4575 eebf
000001b0: e39d 02ea eefd d7bf a5c5 3ff3 1fdf b23f
000001c0: 21da d67c 4583 dcbf 51d6 e0fe 7edd f8bf
000001d0: 518e 85fa 9e56 e23f 53c1 4be4 766e ebbf
000001e0: 57ce 1ca0 827b c7bf cbda 5175 074a f63f
000001f0: 906f b54c cef0 eb3f 87c9 7bc0 d380 f33f
00000200: a901 9475 8f51 f53f 799c 413f 7cf2 c4bf
00000210: f4b4 fd8c 9446 e83f 375d e61c 521b e4bf
00000220: a2b2 c37a b1a1 f23f 2944 1fab 887e ed3f
00000230: 21ec 5ebc 8388 f6bf 28f6 0714 77c1 f73f
00000240: 0074 adf9 ff9b edbf a19f 2683 9eea d0bf
00000250: 9961 ebbc 8832 c23f be90 b7c4 6660 bfbf
00000260: 14d9 893d 4a98 d23f b968 f862 1d52 e43f
00000270: d0fd fb77 f6d2 e93f c34d 32e9 58c8 e83f
00000280: 17c7 d498 23a2 e9bf 982d 03c4 ca18 debf
00000290: 27db 7914 6d91 fe3f b220 b427 e68f f03f
000002a0: fe13 9e78 df76 0040 2fed 0871 41a7 d9bf
000002b0: da81 94f3 5baf d6bf f818 6aea 1d57 ca3f
000002c0: a40f 5c1b 4e2b d73f 7c9d 9c9b 4fd7 ca3f
000002d0: 32d8 af3c 0642 67bf d460 e5eb e768 e1bf
000002e0: 48ea 9f85 30ec eb3f 970b f62f f0bb ebbf
000002f0: 053b 27d7 7723 c2bf bf5e 621e 6d72 ea3f
00000300: 1592 0f55 e4fd d03f 6b08 67e4 0f9f e3bf
00000310: d1d9 e6a5 c9b0 0040 b49d 3b84 c5ba bc3f
00000320: 6f69 70fb 31d1 efbf b04d ad58 544b ed3f
00000330: 35e6 73fb 8261 c4bf d021 b35e 4db7 b23f
00000340: 8eeb bfb9 153d ea3f 6f0c 99f0 ebee f23f
00000350: c9fc 2aa5 aad3 e2bf c0ba f3fb 05b8 d03f
00000360: fd71 2a81 56db f1bf fc41 023d 8e17 f0bf
00000370: 3248 4051 22de f43f 5d93 508d 034e ebbf
00000380: abba f2be 65c1 e3bf 0959 41d9 e46a e6bf
00000390: e50c 9150 3d6b f1bf 5896 90f5 ac97 d4bf
000003a0: 8c60 abed f7a4 ebbf c4bc 5a92 99ce e43f
000003b0: 3506 3eab d529 b6bf 70d8 8785 68cf d43f
000003c0: ff32 004e 0663 f23f 4aea 8eb5 61db e7bf
000003d0: e015 a594 9c81 ef3f 616b d4f1 8a02 f73f
000003e0: 37da c32b 15d9 f43f dce6 a241 a031 bb3f
000003f0: e2a5 3599 d1a3 f63f 2270 1cd4 19aa f33f
00000400: 94a4 35f8 f801 ce3f c0a7 4e63 28b7 f0bf
00000410: e63d e6ef 6026 d3bf cb6e 7f39 8bb0 b93f
00000420: cc18 1711 e77d d83f 11fd 04cb 9c74 d53f
00000430: 5e47 16bb 0d93 f2bf 341c acb6 0317 bcbf
00000440: f5a2 1db6 7d0e f0bf d79e 55b4 da18 f13f
00000450: ae05 aa65 1672 e9bf 6eab 71a2 cf2c ed3f
00000460: 91dc 10bb b509 93bf 2db5 b9a3 b5c3 a6bf
00000470: 04eb 78ed 499f f6bf 5264 d983 c455 fd3f
00000480: 344d 2de7 f425 dcbf 76ff ef55 32d9 d6bf
00000490: 73a8 4f80 b9ea ecbf e0ae 2e88 70b7 e5bf
000004a0: 725a 1f22 47ea c4bf 4b39 6260 79f4 d8bf
000004b0: 889a 428f afca df3f be81 09b4 7384 a03f
000004c0: 1d0e 34fe 827c be3f e18f 1fca 7ba6 ebbf
000004d0: fb7b 9394 6dc3 f83f e7f6 57b1 dbd5 d13f
000004e0: 5463 9fc0 b141 ebbf db15 e95f 05ba 0740
000004f0: 78ff 7898 44c2 fcbf 7d9b 4698 c03b f3bf
00000500: c681 ed84 0321 fa3f 2859 e991 9e52 cebf
00000510: c731 b536 12b9 f1bf 4b60 0770 2ad9 c8bf
00000520: c663 4895 4807 dfbf 4ed2 43d3 7a1e e53f
00000530: 063d b0f6 13e1 f43f 51f0 b304 b175 dbbf
00000540: 6ef8 4b6a 27bb 0040 9219 dc13 bba5 91bf
00000550: a701 b536 c2b5 d63f 5a31 ecb4 02a8 f93f
00000560: 94aa d7f4 a38e d0bf d15e 5e30 c179 f7bf
00000570: 6ce0 10be 7e22 c4bf 5c9b cdda 791c e0bf
00000580: a1f5 129a 3161 bc3f b4d3 19f1 9a23 d53f
00000590: 8e1a a767 636a eabf d504 38f8 db70 d2bf
000005a0: 0957 4830 0796 0340 2220 5fcd a222 f13f
000005b0: 73cc 88b5 b188 f5bf d4f1 8275 d084 f9bf
000005c0: 747f 7d9b 768a c5bf e43c 59bd ebcc c4bf
000005d0: acdb 0ef3 b5a9 efbf 0ed4 b6dd f366 edbf
000005e0: 5d98 e57d a00d 05c0 38de 55f0 65db 01c0
000005f0: d0bd 3754 f449 ddbf 6ac2 e017 65db f6bf
00000600: 9d42 3a3b d9ef fbbf 7584 afa4 fb03 fc3f
00000610: 7ba6 2961 c92c 71bf 45d4 42fd ffb6 0040
00000620: e8e4 df6d c2b8 f5bf 94cd cc3f efcf ee3f
00000630: 826a eba6 2b6a e63f 4f6a 701f d93e f4bf
00000640: 96ca 4b95 e27f e83f e9f3 e6f8 aa33 ba3f
00000650: dbfd 9aa2 e82a d2bf 7d3c f3c6 4ea8 d5bf
00000660: 877e 4311 6e57 ebbf 7764 8d64 76f0 b9bf
00000670: b707 ba0a 6f06 f23f a664 4230 d5f6 bebf
00000680: 1905 63cb ea64 dabf 5668 21d8 fab0 e13f
00000690: 6573 18ef 6482 f0bf d422 f170 ee28 e43f
000006a0: 67b2 108c 1345 e83f d641 9e95 4ab9 e7bf
000006b0: 9e36 53f2 2e12 e8bf 86da 3623 b2a8 f0bf
000006c0: 2783 36ae 1920 e03f fc9f b637 1d97 ec3f
000006d0: 2d0a 5344 b489 f3bf 4b69 84a0 c416 e83f
000006e0: def5 064a b8a4 f13f b5c0 ae4d f4f1 f9bf
000006f0: a832 4e5a 6dfd fb3f 7b15 81d4 7325 e3bf
00000700: 9faf 8b74 a996 b73f 44a9 130e 778a e03f
00000710: 2416 98ac 43dc f1bf 3466 6b3e 9c91 b13f
00000720: 0149 50d9 85dd d53f 7309 12e1 3ee5 ffbf
00000730: fb80 fe7c af76 f83f 42b0 432c 80ab f8bf
00000740: 239c e823 8003 e5bf 04b5 f803 689d c53f
00000750: ca82 4b06 55e3 f1bf 90a6 a3e5 8d6b e83f
00000760: 6057 7dee 5fc0 963f 2a4a 81ff fc3f e8bf
00000770: daa8 d2d6 80e3 d7bf a6b6 7f4a 2934 f1bf
00000780: 538c 9656 386f e83f d574 4f74 6736 bebf
00000790: 65dc b8df fd5a e93f cf18 5605 1d74 bcbf
000007a0: 0887 a283 ecff febf 47ee 9eb2 e2e6 e1bf
000007b0: 445d e423 d99d e63f cbb9 5cbe 4a4f eabf
000007c0: cae9 482c 5f44 ec3f ec4e 4008 74db 7e3f
000007d0: 5b31 8e3c d352 bf3f 038e c83e e9ca ecbf
000007e0: 6de2 9005 120a e33f 676a 2885 14a1 b2bf
000007f0: 0c33 2545 609a f23f 84fc 82aa b1d4 febf
