MACE_models/mace02_com1_gen1_swa_compiled.model (torch, 543486 bytes, 51 tensors)

r_max f8 []
4.0
00000000: 0000 0000 0000 1040

weight f8 [48]
0.9300983460961894 0.04804614836008641 0.7472612486996022 0.24714471934078167 0.3904912137385794 0.3797608585619311 0.4713804808791595 -1.1632390381955238
-0.3914285739233787 -0.0030008686548523384 -0.9890057999356682 0.296264711476804 1.225792225570788 1.1764707104290102 1.2596915338447467 0.6661101230119505
-1.5839702363671093 -0.7239687929135867 1.4446001236678503 -0.5845592507788824 -1.0362859004306721 0.1984449888169032 -1.3902507174354177 0.117481338931656
-0.47560278386377913 0.44387691909174715 -0.5180239321823983 0.021862302160272747 -0.33457860313935184 1.4113656220672357 -0.8211553530245864 1.2892177094474186
0.5574526370401442 0.03404448131375277 0.18870108058440463 -1.266141901632591 0.15194404456100716 1.561580795144062 -0.2950463533397068 -1.6659011814567504
-0.5275126876106299 -0.46227766510047824 -0.5150326003236145 -0.48348846318525157 0.22356374790409894 -0.7816071864217567 1.76055590176891 0.9553716741805596
00000000: 927f 519b 5dc3 ed3f 1788 cf37 8199 a83f
00000010: 0874 176c 90e9 e73f 1150 792b 70a2 cf3f
00000020: 9c7b 18dc cefd d83f 92c2 f47c 004e d83f
00000030: d051 5609 192b de3f 2faf a789 a09c f2bf
00000040: 1422 ee6e 2a0d d9bf 9609 6e17 4795 68bf
00000050: 7de5 c87d efa5 efbf a81c b043 00f6 d23f
00000060: 0c48 084f d89c f33f 69e9 9ff3 d2d2 f23f
00000070: 8a94 4e4f b227 f43f 1fde 3b2d c650 e53f
00000080: c68b b02c f157 f9bf 326e 1c9a c02a e7bf
00000090: 2f37 ef04 151d f73f 0e6d 159a b5b4 e2bf
000000a0: 8a7d 3a86 a094 f0bf 1c08 8338 a566 c93f
000000b0: b002 4a89 773e f6bf 8e0c 9acc 4113 be3f
000000c0: 1937 a5a8 4670 debf d1b0 bcbc 7a68 dc3f
000000d0: 6099 e8ec a693 e0bf 62b0 2c43 1263 963f
000000e0: 3831 9b5f bc69 d5bf bba3 571e f494 f63f
000000f0: 3fa1 4597 e746 eabf d702 b8bf a2a0 f43f
00000100: 0c01 a5e9 a6d6 e13f d925 b43b 476e a13f
00000110: 7539 ea64 5b27 c83f 34b7 b902 1e42 f4bf
00000120: 2f12 1b07 e772 c33f 6849 d324 3cfc f83f
00000130: 7d7a 9919 0ae2 d2bf 9297 4bff 87a7 fabf
00000140: 3368 b049 62e1 e0bf 63c7 510f f595 ddbf
00000150: c070 d8a5 257b e0bf e3ee 5798 79f1 debf
00000160: 9cde e8a4 bc9d cc3f 2b00 0013 ed02 e9bf
00000170: 3f09 4eaa 3c2b fc3f 2e2b 049e 6792 ee3f

output_mask f8 [16]
1.0 1.0 1.0 1.0 1.0 1.0 1.0 1.0
1.0 1.0 1.0 1.0 1.0 1.0 1.0 1.0
00000000: 0000 0000 0000 f03f 0000 0000 0000 f03f
00000010: 0000 0000 0000 f03f 0000 0000 0000 f03f
00000020: 0000 0000 0000 f03f 0000 0000 0000 f03f
00000030: 0000 0000 0000 f03f 0000 0000 0000 f03f
00000040: 0000 0000 0000 f03f 0000 0000 0000 f03f
00000050: 0000 0000 0000 f03f 0000 0000 0000 f03f
00000060: 0000 0000 0000 f03f 0000 0000 0000 f03f
00000070: 0000 0000 0000 f03f 0000 0000 0000 f03f

bessel_weights f8 [8]
0.7853981633974483 1.5707963267948966 2.356194490192345 3.141592653589793 3.9269908169872414 4.71238898038469 5.497787143782138 6.283185307179586
00000000: 182d 4454 fb21 e93f 182d 4454 fb21 f93f
00000010: d221 337f 7cd9 0240 182d 4454 fb21 0940
00000020: 5e38 5529 7a6a 0f40 d221 337f 7cd9 1240
00000030: 75a7 bbe9 bbfd 1540 182d 4454 fb21 1940

r_max f8 []
4.0
00000000: 0000 0000 0000 1040

prefactor f8 []
0.7071067811865476
00000000: cd3b 7f66 9ea0 e63f

p f8 []
5.0
00000000: 0000 0000 0000 1440

r_max f8 []
4.0
00000000: 0000 0000 0000 1040

atomic_energies f8 [3]
-10.707211383396714 -48.847445262804705 -102.57117256025786
00000000: 7a18 469c 176a 25c0 bb72 1c16 796c 48c0
00000010: 87ab 5a17 8ea4 59c0

weight f8 [256]
2.0974683366206586 -0.2742033408768451 0.4515299847030165 -0.28976600982281486 0.22559084063940663 0.7016158211429668 0.890395098406389 0.3758660334594206
0.6352693125706518 0.691224180385122 -0.24879603498899944 0.6342264329342661 -0.2078975649845852 0.0008632801172117229 -2.566386485101904 -2.154225693064973
-0.25185460527867193 -0.7793382345569029 0.42777439614225904 0.1609415861802374 -0.26357837657279815 -1.1636760334306766 -0.11095639995455683 -0.19651198113453125
-0.36837237659411937 -0.26043568078403817 0.011929844681295345 0.13497988217009646 1.8116049222925312 -0.22128297715271733 0.11378732628651185 -0.11314535326934848
0.7797819142174187 -0.9919164551001057 -0.08760825806489374 -1.7509975817182173 1.0579576923448106 -0.23910267523450898 0.7798320111222138 -0.9523892456579045
1.6389588963814652 0.027412883380167404 -1.2544551843170044 -0.26825078517367773 -0.96372578330563 -1.7544669898909178 -2.4028419781071806 -0.304451371693097
-0.9075417875647784 1.3460046555304481 -0.8358802624853764 1.2161917008200949 1.6536509652328995 0.19277556128703616 0.5493861933954086 -0.07960481199654533
0.6502487398646003 -1.2601920292822422 -0.7719785093285814 0.5438323700912173 -1.1456919583878236 0.6720538698113103 -2.131939527732749 -0.5766514773164118
0.7106083510912822 -0.011702164563022798 1.4802794909548582 1.0380401112573994 1.7340802831258855 -0.6236633598233671 -1.0891191956840858 0.41806269084950787
0.5933022046262949 0.2748020254924077 0.051884349747229996 -0.1770651404365324 1.498961227168345 0.10211703743464237 0.48141188550382097 -0.8072928433348836
-0.040122006374363674 1.2059184267812062 1.1126692259290731 0.5499594798401537 0.680844794732181 1.0718308356439814 -0.6182110528241794 -0.736010715004548
1.420818711044702 -0.8929505887196709 -0.5442487596906972 -2.076821517775779 0.8024470393237563 -0.2666874271012134 -0.6924387030722847 1.41331771271515
0.9110308681758977 -0.46909951798044014 -0.786043471725101 1.1094043485111913 -0.4307452174402595 -1.0442998813044855 1.8927795059076538 0.5579431467827473
-1.6342110470724354 -0.4821371053944933 0.15188647231517663 0.8054292506916176 -0.7359886408032765 1.5567783172005436 0.613903266468617 -1.4896104385425846
-1.1271317038460478 -0.662883968863904 -0.9376024038864765 1.8378018450151148 0.6515357794059282 -1.8318310141289194 -0.5612894292420176 -1.2783416603517705
0.3120858222838711 -2.0749721485947266 1.0658990079143258 1.470291063009209 -0.005645586465072832 0.773951936001523 0.4041574251534081 0.5262993474492302
-0.9176052715198739 -0.21591388714810164 0.5086417728163865 -1.0931927039205571 -0.9579830003769038 -0.5565261317812353 1.3569940187878395 1.00548015942907
0.4530434930484635 -0.9158694892883328 2.456086212647978 -2.0183925762797035 -0.5481743155545558 1.0799584957207682 0.6848403196474582 -0.3333252560376555
-0.3523490647882184 -0.22919438525707464 -0.060816937619997666 0.7141623997212545 -0.6377431767921182 0.8294056517944598 0.46783263761355304 -0.4475814185481824
0.6149064735100024 -1.8872333837426765 0.08105837263238547 -0.029820607706961766 -2.6032273064741993 0.42130376444554213 0.9643302814429024 1.0017488118918116
0.37769991249604923 1.6489291225694898 -0.7813153962182202 0.32189237501575646 -0.3898579514386044 -0.8405129783202477 -1.7653301919213384 -0.03982551150372815
-0.03275225783539024 0.36191134175278505 -0.6297113835532816 -0.5113076387160878 -0.24912309612172265 -0.07006627610511253 -0.6040056566933732 -0.4368637068450444
1.9227973779069267 -2.1439103227249516 0.7423298530100699 -1.0049971532221689 -1.04049579446973 0.05484587397350581 2.265155436714515 -0.5347970989252244
-0.8598188298639582 2.303165181087437 -0.9751714944862425 -0.14547202227122483 0.22113371011679528 2.4749205958217946 -1.6009355761122128 -1.469912538283819
0.36239118286376665 -0.026257442815334434 -0.4585394493071658 1.0159000217737193 -1.4320038557969539 -0.05129240699135388 0.20618346931981005 -0.33841030406342637
0.7651338311239744 0.24199120177594274 -0.33161201781430294 -0.17702701335515586 -0.5621236889399234 -3.07698651188975 0.6421906405652741 -0.041460781994041365
-1.688603204731469 -0.763746935137111 1.2386882889087854 0.842309318410401 -0.7297443197532949 -0.11104960790528186 1.4216754740431703 0.40592135951695035
-0.5108639376135904 1.1063204885154752 -0.8821704414007132 0.6942702334175541 -0.8994943922873189 0.3363208302300559 -0.598566132197032 -0.24572469541670247
0.21958055088319536 3.006038173642777 1.2284313689031938 -1.213566213768295 1.4881150202120608 0.7324067548574927 -0.42495670999912266 0.4557938548520632
-0.7489641131680607 0.2571053592559865 -0.12835880651331558 -1.5320831327381677 0.13567145144109255 0.6064279541741119 -0.9620650317604911 1.339221154134199
-0.9616592180677943 -0.4145514770963831 0.27649472563511746 -1.5793028720735425 0.0016451621125889977 0.8709640507598477 0.4798504644696465 -0.43233400317849435
0.595772700074497 -0.2708714297207838 -1.0243398244528918 -1.2840999678178435 -0.12332933161525422 -0.2248209538612496 -1.4447093135840228 -0.4142001947001361
00000000: 3273 b17a 9dc7 0040 8347 612b 8c8c d1bf
00000010: 1b9f 5d05 dee5 dc3f 229c ebbb 868b d2bf
00000020: 2565 6921 29e0 cc3f 8c49 c505 a373 e63f
00000030: 9392 85dc 1d7e ec3f 44ab 5868 300e d83f
00000040: 5596 344f 2054 e43f 10ac 1e2c 821e e63f
00000050: 167c d368 8cd8 cfbf dfc3 763b 954b e43f
00000060: 1b6f 432d 639c cabf 9678 73ef b749 4c3f
00000070: c645 33a3 f587 04c0 0056 1fae da3b 01c0
00000080: 6935 41c7 621e d0bf 8037 bebc 56f0 e8bf
00000090: 53d1 5fdc a760 db3f 2ef1 9ae0 bb99 c43f
000000a0: 3807 d4d6 77de d0bf 8494 abc2 6a9e f2bf
000000b0: 1e33 167d a367 bcbf 875b 1ffa 4d27 c9bf
000000c0: b02d 8ebb 6993 d7bf bf73 eb6a faaa d0bf
000000d0: ce2a 05a6 ac6e 883f 7fed c451 0547 c13f
000000e0: 004e 6871 55fc fc3f de26 0427 0053 ccbf
000000f0: bd8f 198d 2a21 bd3f cf78 fc07 18f7 bcbf
00000100: 566f 7233 f9f3 e83f 579d e093 c7bd efbf
00000110: 1b8d 3fab 7e6d b6bf 63ad 4d0a 1604 fcbf
00000120: efc2 920b 65ed f03f 7b58 429d ea9a cebf
00000130: 259a 0443 62f4 e83f bd35 e502 f979 eebf
00000140: 7625 b7f6 2c39 fa3f 3272 6d76 1f12 9c3f
00000150: e806 6f99 3f12 f4bf 08a0 5c57 052b d1bf
00000160: 5d82 3374 d7d6 eebf 8de3 77fa 4b12 fcbf
00000170: 0a69 0b37 0539 03c0 703a 299b 217c d3bf
00000180: e402 2b13 950a edbf b745 7c2d 3c89 f53f
00000190: 0be4 d7f6 87bf eabf d505 cb6d 8575 f33f
000001a0: 43c9 eab6 5a75 fa3f 1212 999d deac c83f
000001b0: 133b b05a 9294 e13f bf1f 2120 fb60 b4bf
000001c0: 397a ff71 d6ce e43f 5727 071e bf29 f4bf
000001d0: acfe 5846 0cb4 e8bf c888 8124 1367 e13f
000001e0: e80d 4917 c154 f2bf 9aac ff1d 7781 e53f
000001f0: 744b a54f 360e 01c0 4c73 88cc ed73 e2bf
00000200: 0a73 86b9 4dbd e63f d988 b9f0 4df7 87bf
00000210: 4773 298c 39af f73f 7496 9cf2 cf9b f03f
00000220: 26a0 8af7 cabe fb3f 77f4 c4dc 0cf5 e3bf
00000230: 278b ee3f 086d f1bf da16 3804 8ac1 da3f
00000240: e777 b0e7 54fc e23f 2353 173c 5b96 d13f
00000250: 305a ade2 9590 aa3f ffe0 b70d 12aa c6bf
00000260: a48f 8ac4 befb f73f 266d 2598 5724 ba3f
00000270: 4041 09cc 73cf de3f b461 0dcd 57d5 e9bf
00000280: 9da1 7422 df8a a4bf 6fb4 ca1e 714b f33f
00000290: 9818 0a3f 7ecd f13f 783c 819f 4499 e13f
000002a0: 80d9 e005 7bc9 e53f caf6 1e17 3826 f13f
000002b0: 81fa bc8b 62c8 e3bf 4d67 ce57 668d e7bf
000002c0: bcb5 9766 acbb f63f 7ed6 ef1c 0d93 ecbf
000002d0: cd52 f85f 7c6a e1bf f5ce 9399 549d 00c0
000002e0: a55c d569 a5ad e93f b4dc 6924 6811 d1bf
000002f0: 86c3 0536 7528 e6bf 6781 af08 f39c f63f
00000300: 71c8 0e35 2a27 ed3f 16e7 12fc b905 debf
00000310: 4065 89a3 4427 e9bf 0155 2ec6 1ec0 f13f
00000320: e01d 7463 5491 dbbf 0eb6 d6ca 73b5 f0bf
00000330: 3d99 c629 d348 fe3f fdb1 0e96 abda e13f
00000340: 2802 9f7b ba25 fabf 86e0 f696 55db debf
00000350: 0535 a613 0471 c33f 06cb 5e90 13c6 e93f
00000360: 3448 cf0c 388d e7bf d4f8 7761 90e8 f83f
00000370: 347d 8c76 18a5 e33f 4121 55c1 71d5 f7bf
00000380: 45db e440 bb08 f2bf 5305 ea70 5836 e5bf
00000390: 22fd aac1 d600 eebf e1e4 4de8 a267 fd3f
000003a0: 581d 1790 61d9 e43f 2fb7 9709 2e4f fdbf
000003b0: 4aeb c53f 15f6 e1bf ff33 8562 1674 f4bf
000003c0: a349 10d0 36f9 d33f 049a 72ff 8a99 00c0
000003d0: 434b 3d1e ec0d f13f 2c9c f3eb 4f86 f73f
000003e0: ec65 bf93 d31f 77bf 7aad b9d9 36c4 e83f
000003f0: 8f0b de1a b7dd d93f 316b a6ba 71d7 e03f
00000400: f614 faba 055d edbf 8fd3 06f6 10a3 cbbf
00000410: e506 741c cb46 e03f 9e08 f9a1 b77d f1bf
00000420: abc4 17f7 cba7 eebf 56d5 ebe3 0fcf e1bf
00000430: 6afb 385c 3fb6 f53f 4365 185d 7216 f03f
00000440: a0c2 9322 aafe dc3f 3cb9 fc87 cd4e edbf
00000450: 27d6 3b87 10a6 0340 54e2 cc01 ab25 00c0
00000460: 4c0c badc a48a e1bf 6587 428f 8247 f13f
00000470: d0c6 fb3e 36ea e53f 2234 6774 3355 d5bf
00000480: 4da9 8217 e38c d6bf 1a90 8dda 3d56 cdbf
00000490: 86d4 3dcc 6523 afbf cabd da1a 6bda e63f
000004a0: a837 f260 6468 e4bf 8164 b2b8 7d8a ea3f
000004b0: e74d a34d f8f0 dd3f 018d bd88 2ca5 dcbf
000004c0: 715f 3a57 50ad e33f e681 f1a1 1b32 febf
000004d0: 60e8 85d3 3dc0 b43f b09a 641b 4b89 9ebf
000004e0: 08e3 8ad6 68d3 04c0 2b6b 7e10 a4f6 da3f
000004f0: 2adf aa2d cbdb ee3f 701d 1ec3 2907 f03f
00000500: 91d8 f740 3c2c d83f 19ba ed80 0362 fa3f
00000510: 10cb 5325 8900 e9bf 7390 e179 e299 d43f
00000520: 4feb e0c3 6ef3 d8bf fbf7 3779 7be5 eabf
00000530: ca18 0fdf ca3e fcbf b0f3 e86a 0264 a4bf
00000540: bddb 8b68 e7c4 a0bf dc4c 3830 8e29 d73f
00000550: ddf7 c87c 9826 e4bf ea60 4fd6 a15c e0bf
00000560: 33b2 42ff 43e3 cfbf f188 6c0c ddef b1bf
00000570: f71a c3ab 0354 e3bf ee5c 6d31 93f5 dbbf
00000580: ea1d ef2e c7c3 fe3f a648 8d74 ba26 01c0
00000590: 44ba 3089 2ac1 e73f d998 1ae5 7714 f0bf
000005a0: ecf7 0deb dea5 f0bf 3ed0 1226 c214 ac3f
000005b0: 0f5d 48d0 091f 0240 fe24 3cce 0e1d e1bf
000005c0: a405 58c7 a283 ebbf a173 d0dd e16c 0240
000005d0: 57ea 99d9 9a34 efbf 85a6 11c5 d39e c2bf
000005e0: f454 7f02 1c4e cc3f f402 5a2b a3cc 0340
000005f0: 5c7a 669f 6e9d f9bf b38c 7e02 c384 f7bf
00000600: 738d b0c9 6a31 d73f 917e ac28 3be3 9abf
00000610: e1ce acd8 b558 ddbf 8961 9861 2041 f03f
00000620: 134d 06e0 7ce9 f6bf a539 1f95 ff42 aabf
00000630: e529 da4c 3864 ca3f bd3c 25b1 83a8 d5bf
00000640: 76b3 b7f1 f97b e83f 9211 c654 91f9 ce3f
00000650: a445 de9c 2139 d5bf be39 6f38 d2a8 c6bf
00000660: 1fb9 89d1 eafc e1bf 9065 b61a ab9d 08c0
00000670: f9cd e062 d38c e43f c244 76fd 583a a5bf
00000680: 15e1 43cb 8404 fbbf 27b1 9a69 9d70 e8bf
00000690: abd2 accf aad1 f33f 050a f6ab 32f4 ea3f
000006a0: 8607 79c2 105a e7bf b1d2 2f42 bf6d bcbf
000006b0: c3a6 28c8 2ebf f63f dbe1 f794 9dfa d93f
000006c0: 6c32 1854 ff58 e0bf 6f19 d11c 7db3 f13f
000006d0: dc0b 6a81 bd3a ecbf 78ab 6335 7637 e63f
000006e0: d8e6 b976 a8c8 ecbf 5e4e b3cd 4786 d53f
000006f0: 61f1 4829 7427 e3bf af30 5125 e873 cfbf
00000700: 37c4 702a 371b cc3f 1c96 f2bd 5d0c 0840
00000710: 9c1d ada6 a7a7 f33f 5da5 fa67 c46a f3bf
00000720: 73f4 07b2 51cf f73f fd6f 6f4a e06f e73f
00000730: 035e eaa0 7d32 dbbf 27ac 13fd b92b dd3f
00000740: 20e7 7d96 83f7 e7bf e95e 6809 6a74 d03f
00000750: 8d6b 10b6 0f6e c0bf 8ad1 5d9a 6983 f8bf
00000760: 365d 789f ae5d c13f 1ddb d198 db67 e33f
00000770: 182b 019b 3cc9 eebf 58e2 3129 736d f53f
00000780: 82f0 6f8d e9c5 eebf 1fcc 28eb 0288 dabf
00000790: faa2 07ef 16b2 d13f 488e a016 d344 f9bf
000007a0: 798f 175e 4ff4 5a3f d82a 4000 f0de eb3f
000007b0: ce85 f7b8 deb5 de3f d86c 263d 5cab dbbf
000007c0: 366d d5e8 9110 e33f ee93 041f f555 d1bf
000007d0: b33f e027 b263 f0bf 1a28 6968 ac8b f4bf
000007e0: 74d0 ecd5 8292 bfbf 5911 25da eec6 ccbf
000007f0: aa1e 6183 871d f7bf 7ff8 8e88 4182 dabf

output_mask f8 [16]
1.0 1.0 1.0 1.0 1.0 1.0 1.0 1.0
1.0 1.0 1.0 1.0 1.0 1.0 1.0 1.0
00000000: 0000 0000 0000 f03f 0000 0000 0000 f03f
00000010: 0000 0000 0000 f03f 0000 0000 0000 f03f
00000020: 0000 0000 0000 f03f 0000 0000 0000 f03f
00000030: 0000 0000 0000 f03f 0000 0000 0000 f03f
00000040: 0000 0000 0000 f03f 0000 0000 0000 f03f
00000050: 0000 0000 0000 f03f 0000 0000 0000 f03f
00000060: 0000 0000 0000 f03f 0000 0000 0000 f03f
00000070: 0000 0000 0000 f03f 0000 0000 0000 f03f

output_mask f8 [144]
1.0 1.0 1.0 1.0 1.0 1.0 1.0 1.0
1.0 1.0 1.0 1.0 1.0 1.0 1.0 1.0
1.0 1.0 1.0 1.0 1.0 1.0 1.0 1.0
1.0 1.0 1.0 1.0 1.0 1.0 1.0 1.0
1.0 1.0 1.0 1.0 1.0 1.0 1.0 1.0
1.0 1.0 1.0 1.0 1.0 1.0 1.0 1.0
1.0 1.0 1.0 1.0 1.0 1.0 1.0 1.0
1.0 1.0 1.0 1.0 1.0 1.0 1.0 1.0
1.0 1.0 1.0 1.0 1.0 1.0 1.0 1.0
1.0 1.0 1.0 1.0 1.0 1.0 1.0 1.0
1.0 1.0 1.0 1.0 1.0 1.0 1.0 1.0
1.0 1.0 1.0 1.0 1.0 1.0 1.0 1.0
1.0 1.0 1.0 1.0 1.0 1.0 1.0 1.0
1.0 1.0 1.0 1.0 1.0 1.0 1.0 1.0
1.0 1.0 1.0 1.0 1.0 1.0 1.0 1.0
1.0 1.0 1.0 1.0 1.0 1.0 1.0 1.0
1.0 1.0 1.0 1.0 1.0 1.0 1.0 1.0
1.0 1.0 1.0 1.0 1.0 1.0 1.0 1.0
00000000: 0000 0000 0000 f03f 0000 0000 0000 f03f
00000010: 0000 0000 0000 f03f 0000 0000 0000 f03f
00000020: 0000 0000 0000 f03f 0000 0000 0000 f03f
00000030: 0000 0000 0000 f03f 0000 0000 0000 f03f
00000040: 0000 0000 0000 f03f 0000 0000 0000 f03f
00000050: 0000 0000 0000 f03f 0000 0000 0000 f03f
00000060: 0000 0000 0000 f03f 0000 0000 0000 f03f
00000070: 0000 0000 0000 f03f 0000 0000 0000 f03f
00000080: 0000 0000 0000 f03f 0000 0000 0000 f03f
00000090: 0000 0000 0000 f03f 0000 0000 0000 f03f
000000a0: 0000 0000 0000 f03f 0000 0000 0000 f03f
000000b0: 0000 0000 0000 f03f 0000 0000 0000 f03f
000000c0: 0000 0000 0000 f03f 0000 0000 0000 f03f
000000d0: 0000 0000 0000 f03f 0000 0000 0000 f03f
000000e0: 0000 0000 0000 f03f 0000 0000 0000 f03f
000000f0: 0000 0000 0000 f03f 0000 0000 0000 f03f
00000100: 0000 0000 0000 f03f 0000 0000 0000 f03f
00000110: 0000 0000 0000 f03f 0000 0000 0000 f03f
00000120: 0000 0000 0000 f03f 0000 0000 0000 f03f
00000130: 0000 0000 0000 f03f 0000 0000 0000 f03f
00000140: 0000 0000 0000 f03f 0000 0000 0000 f03f
00000150: 0000 0000 0000 f03f 0000 0000 0000 f03f
00000160: 0000 0000 0000 f03f 0000 0000 0000 f03f
00000170: 0000 0000 0000 f03f 0000 0000 0000 f03f
00000180: 0000 0000 0000 f03f 0000 0000 0000 f03f
00000190: 0000 0000 0000 f03f 0000 0000 0000 f03f
000001a0: 0000 0000 0000 f03f 0000 0000 0000 f03f
000001b0: 0000 0000 0000 f03f 0000 0000 0000 f03f
000001c0: 0000 0000 0000 f03f 0000 0000 0000 f03f
000001d0: 0000 0000 0000 f03f 0000 0000 0000 f03f
000001e0: 0000 0000 0000 f03f 0000 0000 0000 f03f
000001f0: 0000 0000 0000 f03f 0000 0000 0000 f03f
00000200: 0000 0000 0000 f03f 0000 0000 0000 f03f
00000210: 0000 0000 0000 f03f 0000 0000 0000 f03f
00000220: 0000 0000 0000 f03f 0000 0000 0000 f03f
00000230: 0000 0000 0000 f03f 0000 0000 0000 f03f
00000240: 0000 0000 0000 f03f 0000 0000 0000 f03f
00000250: 0000 0000 0000 f03f 0000 0000 0000 f03f
00000260: 0000 0000 0000 f03f 0000 0000 0000 f03f
00000270: 0000 0000 0000 f03f 0000 0000 0000 f03f
00000280: 0000 0000 0000 f03f 0000 0000 0000 f03f
00000290: 0000 0000 0000 f03f 0000 0000 0000 f03f
000002a0: 0000 0000 0000 f03f 0000 0000 0000 f03f
000002b0: 0000 0000 0000 f03f 0000 0000 0000 f03f
000002c0: 0000 0000 0000 f03f 0000 0000 0000 f03f
000002d0: 0000 0000 0000 f03f 0000 0000 0000 f03f
000002e0: 0000 0000 0000 f03f 0000 0000 0000 f03f
000002f0: 0000 0000 0000 f03f 0000 0000 0000 f03f
00000300: 0000 0000 0000 f03f 0000 0000 0000 f03f
00000310: 0000 0000 0000 f03f 0000 0000 0000 f03f
00000320: 0000 0000 0000 f03f 0000 0000 0000 f03f
00000330: 0000 0000 0000 f03f 0000 0000 0000 f03f
00000340: 0000 0000 0000 f03f 0000 0000 0000 f03f
00000350: 0000 0000 0000 f03f 0000 0000 0000 f03f
00000360: 0000 0000 0000 f03f 0000 0000 0000 f03f
00000370: 0000 0000 0000 f03f 0000 0000 0000 f03f
00000380: 0000 0000 0000 f03f 0000 0000 0000 f03f
00000390: 0000 0000 0000 f03f 0000 0000 0000 f03f
000003a0: 0000 0000 0000 f03f 0000 0000 0000 f03f
000003b0: 0000 0000 0000 f03f 0000 0000 0000 f03f
000003c0: 0000 0000 0000 f03f 0000 0000 0000 f03f
000003d0: 0000 0000 0000 f03f 0000 0000 0000 f03f
000003e0: 0000 0000 0000 f03f 0000 0000 0000 f03f
000003f0: 0000 0000 0000 f03f 0000 0000 0000 f03f
00000400: 0000 0000 0000 f03f 0000 0000 0000 f03f
00000410: 0000 0000 0000 f03f 0000 0000 0000 f03f
00000420: 0000 0000 0000 f03f 0000 0000 0000 f03f
00000430: 0000 0000 0000 f03f 0000 0000 0000 f03f
00000440: 0000 0000 0000 f03f 0000 0000 0000 f03f
00000450: 0000 0000 0000 f03f 0000 0000 0000 f03f
00000460: 0000 0000 0000 f03f 0000 0000 0000 f03f
00000470: 0000 0000 0000 f03f 0000 0000 0000 f03f

weight f8 [8, 64]
0.7613428030479248 -0.01331073665203616 1.0713251314219916 -2.0487029636709195 0.7995516529891736 2.1960393935542264 0.15181943883645413 0.4264661997677619
-1.5516225029380883 1.1016937980684565 -0.27351769234227835 0.7059745594631889 1.2118970769302833 0.23608084945426533 -1.6263965079131215 1.43914541984698
-0.6094620821308364 -1.9646369859929054 -1.261557866990277 0.37184903879008246 0.21955628777109673 0.6722336209727671 0.11864988103287764 0.884823992638712
0.4502886937363665 0.24231218194271745 0.5141800686488246 -0.930529152686136 1.7865662677215108 0.08829944580005215 1.9291678714939122 -0.2553385255154195
1.026516556888363 0.6626433898615902 -0.12348484107705346 0.6549703860123322 1.3726005889239241 0.8469567205346302 -0.5543814573528877 0.3566885389568534
-0.9437418158486196 1.4061000683297102 -0.3135168978264019 -0.7858458821444639 -0.9077859804606992 1.4121971555348125 0.7873720658189356 -1.99571547866017
0.6195768156840316 1.1761637222698063 -0.1287379692686169 -0.8438027422069106 -1.3935333944331567 1.1256477561473284 -1.2935385649708357 0.2158156128553074
1.1961686238009135 -1.989582343445912 0.3714668196710383 1.5625488158382714 0.3998405819753382 1.8007014173803608 1.5789637616254033 -2.599721657322354
-0.11000413649934505 0.6228527490565242 0.3300870908268756 -0.6980307256573297 1.1027749101152429 0.6783646004551627 0.7017293303407548 0.3880987950966837
0.17609657395507386 0.916901656602753 0.17348065747537242 0.6675609657907344 0.97976509444804 0.5476876602707428 2.014090783525795 -0.5859202992357873
1.7522764255525018 1.0819414606108313 -1.4046051413444327 0.8153393864842603 -1.026181269931901 -0.5216140568094951 -0.3303320500535832 0.651470196676618
0.9906638396050494 -0.49090772895024976 2.767551315973146 1.238248095310395 0.6117810201887746 -0.42327716189961584 0.30981963461886175 0.5261876397102713
0.2960821940447877 -0.48834762686265315 -0.7140143735209177 -1.5886778939634738 0.18307386632719536 2.1052323329074523 -0.9994761110091903 0.19912118161978853
-0.8199267066519579 0.19431452859928372 1.4620098694815 -0.09194426536720378 -0.6744262793251231 -0.028765853825463164 0.024306546744360624 0.02300576725979085
-0.33034823145127296 0.39089299290055646 0.1639599856384579 0.6783008613654017 -0.576129353098917 -0.038027484107857855 0.43247615091849306 0.13026668255928128
0.39536470893646086 -0.49484599733249923 -0.2170026879025065 -0.09759739431372493 0.2734506771926973 -0.03986868445798906 0.12526820502642008 0.2511685249332309
-1.4496845083543266 1.8752395331878753 -0.5330416909271546 -1.2524169547660575 0.6386395626510226 0.07345368098375836 -1.2270466004374612 0.865309914016891
1.74999957313097 -2.8901531639402567 1.1604295596046896 0.6917511573507052 0.8922054605319706 1.592830322906007 0.28378094604801696 0.7791012218225198
0.5862351208327009 -0.8122531026448313 0.20880429765937608 -0.8372701426005664 0.43403217002403416 -0.013843192351306126 0.23004198796449044 0.4569038960955217
-0.3620484484658177 0.06447877285561579 -0.5147663176956723 0.0027602720143415963 0.1510216154456848 0.9329280047850019 -1.1966805383217238 -0.04399868074756565
0.5469785186104529 0.13547939811637627 0.32446012411273306 0.5486443984262598 -0.21425399342078574 0.012070756795831998 0.20340709359046694 0.3088334415148685
-1.2457255161978018 0.47088136731449315 -0.7952884498574978 1.2526151615136851 -0.19823297301546045 1.830162801452051 -0.42399155640587943 1.0785625278774604
2.6030892810742476 -0.024476845870371137 0.0713818454636761 1.297694523477382 -0.7266483800008637 1.6126032030794528 0.9925213403829553 -0.4018194009544315
-1.1231546602899656 -0.17316231289669393 -0.7767261215832915 -1.5202251941119729 0.02300320766309512 -0.333059232207758 1.470403769747732 2.923630014229386
-1.3231374588428444 0.16061681345609388 -1.5887994102902863 2.8707742293261855 -0.8361182202648881 0.8317300042631661 -1.7779645815090408 -0.8309532437932496
-1.4499471647045368 -0.49450957020308667 -1.8932417992126545 -0.4548825491055574 -1.9944151976552484 1.025303917820559 -2.0718179588344685 0.1064808848675659
0.4062626518331708 0.9009319782804546 -1.7060145616462588 -1.4543226119501755 0.4138444482131501 0.1534722274461681 -0.37290198595475693 1.4610929440336795
-0.2747391028954164 -0.3181801185012849 -1.3096741877353166 0.5720949174784602 -2.1045744205614834 -0.9408215361774319 -0.11398385230694963 0.13789491928905726
1.19229910603327 -1.4961579476866458 1.6445844820432178 -1.2777130513102934 0.7877265429988866 1.6325885071852844 0.5844632155035889 2.023358325369058
-1.8534159211812826 1.083393357152832 0.28900549450637925 0.44044608200391594 -0.3052182662762751 -1.0426169273721093 0.12089044228204478 0.3242927576949529
-0.0130548590889743 0.42558704109115914 -2.866312496295459 -0.9018524991454065 0.6445699218762494 0.13467171817671109 1.12266155691322 -0.029902017408071174
0.013872059071359551 1.8457036847568409 0.4004793913741278 0.15512880685041713 -0.11598770859305431 -0.9908452288996242 -0.08062179641959516 0.6506699288706609
00000000: 8658 0495 eb5c e83f 6d6c d9d4 a842 8bbf
00000010: 1972 2dd2 2524 f13f a07a 2161 be63 00c0
00000020: c5a3 2159 ed95 e93f 3858 001a 7d91 0140
00000030: e58d 59c2 d16e c33f 3086 36e3 384b db3f
00000040: 43b5 1d1e 72d3 f8bf 8f8f 0ead 89a0 f13f
00000050: cb32 df59 5081 d1bf 177a 96f5 5797 e63f
00000060: 7989 7830 ee63 f33f 9c19 cfb3 e537 ce3f
00000070: 220c 3d58 b805 fabf 3fe5 0659 bd06 f73f
00000080: a3ed dc9f b680 e3bf e79f 3531 276f ffbf
00000090: 91c1 4b4d 572f f4bf 92c1 29e9 5fcc d73f
000000a0: c5d3 cda1 6b1a cc3f b230 2b15 f082 e53f
000000b0: 57e3 b5ae d65f be3f 642e e367 7a50 ec3f
000000c0: decc 56ab 87d1 dc3f 51e5 6ee8 1504 cf3f
000000d0: 6d41 63c2 2974 e03f 935e d812 e5c6 edbf
000000e0: be02 c082 c695 fc3f 8355 f7df ca9a b63f
000000f0: ecf6 4821 dfdd fe3f 7dd8 1f66 7757 d0bf
00000100: 6c35 0aa0 9c6c f03f 28b7 0be9 5f34 e53f
00000110: ae4a fad9 b39c bfbf d2af 7874 84f5 e43f
00000120: a460 fe08 2cf6 f53f 545b fafa 441a eb3f
00000130: f3dc 9a2e 7ebd e1bf 8e5f 6b2a fcd3 d63f
00000140: cdff 5d09 2233 eebf 5012 06c9 627f f63f
00000150: e618 ba2d a910 d4bf 3d37 7043 a625 e9bf
00000160: 6b12 3b2f 950c edbf 806b 680b 5c98 f63f
00000170: c03d 0fe7 2632 e93f 7176 8f5a 73ee ffbf
00000180: a620 17c2 92d3 e33f 433f 1e0d 91d1 f23f
00000190: 8b8e e15b 7c7a c0bf bbb8 c19b 6e00 ebbf
000001a0: a396 2fac e94b f6bf 377f b738 a702 f23f
000001b0: d6a1 8a7e 55b2 f4bf cd01 9793 d89f cb3f
000001c0: b99e fbb5 8123 f33f a7c9 9c4b 54d5 ffbf
000001d0: bd51 82c4 1cc6 d73f c9dc e62f 3300 f93f
000001e0: dea6 ccf3 fc96 d93f e526 184a accf fc3f
000001f0: 0301 5c81 6f43 f93f 2d38 47de 3acc 04c0
00000200: f97c b028 3b29 bcbf a77c 6de3 68ee e33f
00000210: c0b9 fb9a 2520 d53f e6a4 4988 4456 e6bf
00000220: 7cb5 dc4d f7a4 f13f 4c02 b7ad 29b5 e53f
00000230: 06a4 8e11 9174 e63f 2daa 2354 9cd6 d83f
00000240: 5d8f 0921 558a c63f ba39 9824 4257 ed3f
00000250: df32 2c3b 9d34 c63f 4009 85d0 a85c e53f
00000260: 7855 cd53 3c5a ef3f a023 a945 a886 e13f
00000270: b058 f3a0 db1c 0040 baf7 68ed dbbf e2bf
00000280: e0cb 5401 5309 fc3f ee28 58d9 a14f f13f
00000290: 7ee2 9d3d 4379 f6bf 37e6 02a0 4217 ea3f
000002a0: 1401 220d 3d6b f0bf 6e2e 64f6 0fb1 e0bf
000002b0: e53f f309 2924 d5bf b16e a106 d8d8 e43f
000002c0: 0bdf 0da7 84b3 ef3f 257a 4c40 086b dfbf
000002d0: f5d9 c0f1 f123 0640 3914 1b3c ddcf f33f
000002e0: 16c7 40ca b593 e33f bc29 e017 f916 dbbf
000002f0: 0430 96bb 15d4 d33f 75ae 0376 87d6 e03f
00000300: 236b 16bb 02f3 d23f 5b13 9d67 1641 dfbf
00000310: 3eae e4ab 34d9 e6bf 6d38 e782 396b f9bf
00000320: 8854 50e6 f66e c73f e98d a20c 84d7 0040
00000330: 1c5e 3d53 b5fb efbf 24ba 7f89 cd7c c93f
00000340: 17fd c5ee d63c eabf be5c bc68 4cdf c83f
00000350: e7a2 fd75 6464 f73f 0f90 cecc a889 b7bf
00000360: ad75 a86b e694 e5bf 8401 b0c5 cb74 9dbf
00000370: 8305 62bd d0e3 983f 9b31 00e8 d28e 973f
00000380: 5dfa 97e8 6c24 d5bf b094 2f0b 6404 d93f
00000390: 37bc 150c a4fc c43f 8b37 0d02 a4b4 e53f
000003a0: 5f6a 3ad3 a66f e2bf 4350 2fa1 5678 a3bf
000003b0: 3fac 1f73 b0ad db3f 0fde ac22 94ac c03f
000003c0: 67fa b7c7 a74d d93f a45f c68b 8eab dfbf
000003d0: e3b9 d77b bec6 cbbf 6f94 c090 24fc b8bf
000003e0: e525 e744 3780 d13f ed61 c30f ab69 a4bf
000003f0: a396 e8dd c908 c03f bfdb 1726 2513 d03f
00000400: 0e65 0e62 e831 f7bf ea54 332b fb00 fe3f
00000410: 31f9 bd72 ad0e e1bf 6cd1 5a5c e609 f4bf
00000420: 8492 703c bc6f e43f 5797 9845 dccd b23f
00000430: 00c0 b89d fba1 f3bf 846d b36a 9eb0 eb3f
00000440: 9cc8 698d ffff fb3f 446f 3c9f 081f 07c0
00000450: 6d05 fd95 1e91 f23f 6353 b952 d322 e63f
00000460: 9184 4977 f28c ec3f b055 0fa6 3b7c f93f
00000470: 6044 a08e 7729 d23f 2d0b 80af 65ee e83f
00000480: 23c7 f727 70c2 e23f ffe3 fd37 fafd e9bf
00000490: e20a db66 19ba ca3f c25f 0cc1 eaca eabf
000004a0: a091 eadd 2ec7 db3f 2f68 5ed3 d159 8cbf
000004b0: fad4 810f 0472 cd3f bd4b c9d6 e93d dd3f
000004c0: 4b9b 6e41 cd2b d7bf 227a b34c ae81 b03f
000004d0: 70ba 7236 f778 e0bf 0bfc f2c0 b59c 663f
000004e0: e305 aa21 ad54 c33f 265f c2d4 8bda ed3f
000004f0: a89f fd7d 9a25 f3bf 4281 c1bd fe86 a6bf
00000500: 4b7c 2118 d980 e13f 5a86 1890 6357 c13f
00000510: 06e6 7a65 f4c3 d43f ebfa 8bb2 7e8e e13f
00000520: 5bcc 63c3 ac6c cbbf 6f96 688d 8db8 883f
00000530: 746b 5f5f 3e09 ca3f 57eb cd56 edc3 d33f
00000540: e3cb fde0 7dee f3bf 3456 3a9a eb22 de3f
00000550: 9dc8 60c3 0073 e9bf f2cc 1232 b60a f43f
00000560: 6a8d 0bb4 b25f c9bf 107a 29ca 5848 fd3f
00000570: edc6 227b ad22 dbbf e7cb fec7 ca41 f13f
00000580: a141 1679 20d3 0440 2104 1752 7510 99bf
00000590: e06b cba3 1446 b23f df89 2855 5bc3 f43f
000005a0: 6171 791a b440 e7bf e46a 2a04 39cd f93f
000005b0: 2ddc 301d bcc2 ef3f 97d8 7fb8 68b7 d9bf
000005c0: edb9 6405 71f8 f1bf 2040 65c3 2e2a c6bf
000005d0: e4c5 44bd f0da e8bf 4142 34a7 d752 f8bf
000005e0: 55e0 7622 278e 973f eaa4 7dab d750 d5bf
000005f0: bab4 6f1a c686 f73f fac0 0522 9863 0740
00000600: 237b 1d2f 922b f5bf e7a6 7d7c 178f c43f
00000610: 259d 31ee b86b f9bf 9c3e a97a 58f7 0640
00000620: d113 74ff 7ac1 eabf 1031 ed3d 889d ea3f
00000630: 4871 30fd 8a72 fcbf a01b d341 2b97 eabf
00000640: b357 55cc fb32 f7bf 9533 e577 0ba6 dfbf
00000650: e69d b0e9 b74a febf a77c fbb1 cb1c ddbf
00000660: d731 09e9 1fe9 ffbf e3ff b714 a567 f03f
00000670: 17ad 434b 1593 00c0 28c4 27ce 5442 bb3f
00000680: c66b cd10 3500 da3f 0653 d44c 6fd4 ec3f
00000690: cb53 ccec d54b fbbf 818c 82c9 e744 f7bf
000006a0: ad39 ad6c 6d7c da3f 55df dc5a faa4 c33f
000006b0: 2581 924a a0dd d7bf fca7 b0fe a260 f73f
000006c0: 7790 7751 5395 d1bf bcd3 cc24 105d d4bf
000006d0: 19d1 cbeb 6cf4 f4bf c8e3 1800 9a4e e23f
000006e0: 4f7a 221d 2bd6 00c0 4825 28c4 351b eebf
000006f0: 8031 eeb5 0b2e bdbf 97c6 506c 8aa6 c13f
00000700: 2a68 373a a813 f33f 186f ef50 43f0 f7bf
00000710: d027 5ed1 3750 fa3f 21cd 903d 8371 f4bf
00000720: 25e2 8b4b 0e35 e93f e9fa 6220 151f fa3f
00000730: 7ab1 8933 ecb3 e23f 3c65 5c7d d62f 0040
00000740: c9bf f573 97a7 fdbf 0dcd da45 9455 f13f
00000750: ae3a d1e6 107f d23f fbeb 76c3 4430 dc3f
00000760: 5519 f331 b288 d3bf 831b 5516 8fae f0bf
00000770: 7517 0010 adf2 be3f 5249 2869 36c1 d43f
00000780: 7f6f ba86 81bc 8abf c1a0 c56d d13c db3f
00000790: 15a4 fd3e 35ee 06c0 07a7 b4c5 f9db ecbf
000007a0: 5533 ce19 51a0 e43f e4ee a140 ec3c c13f
000007b0: 16b3 f6f6 6bf6 f13f db89 686b a29e 9ebf
000007c0: 313e 5140 f468 8c3f 7c32 4296 0088 fd3f
000007d0: 9420 2b50 74a1 d93f 8286 0bc0 42db c33f
000007e0: 5128 25d7 5eb1 bdbf 4bb0 b00d 01b5 efbf
000007f0: cc88 f74a a1a3 b4bf 2faf 1fbe 49d2 e43f

weight f8 [64, 64]
-0.013717548369561844 -0.10365429214822436 -0.020631769200240617 -0.39847835034267426 1.1261451248698737 -0.5384704412216986 0.006162754386627964 2.2472710913780105
-0.3941704340131163 0.7227128628348956 1.6641397546113703 -0.6333116247599644 -0.9737469932710011 0.7240234679925713 -0.053842758257345656 2.0118534882165697
-0.6561841964314339 -0.17855047667788493 0.19937868718232876 -0.32560737175829124 0.833346745269089 0.4994258998548336 2.2572180512764475 1.0541116263107881
1.100659998850918 -1.2256198216948124 0.5022619762040279 1.1032561595558381 -1.4385478657302828 -0.23466892031044898 0.438610116772039 0.43294266719452046
-1.755299186265211 -1.8284970651482928 0.9196368445965709 -1.4550966414552884 0.007460873161171884 0.6157176707811067 1.0693582554297982 0.8467509582148797
0.6510149207341027 -0.49972810222361136 1.7049327100794136 0.4903712170926571 1.875491504492343 -1.0756349581781262 -0.2817290076780308 -0.17559837826383456
0.21315516904512158 0.3902948947879995 -2.1577668254473052 -0.3413459400934058 -0.5411030638055175 -1.0539591899115066 -0.22819850297792355 0.37556506668537193
-0.22929962320634437 -1.4153030481026485 0.724443144492281 -0.9256595015791621 -0.2804245466275614 1.512408393744895 0.9207467115771742 1.0165129181604589
1.2965021825454779 -0.05574814052839318 0.6953040422067994 -0.652069766114513 1.1070788103028801 0.9003565086060962 -1.4154117095082002 1.4522208532673673
-0.8688660060246893 -0.2758911024525566 0.22331571431690325 -0.02316213498226083 0.2846618192390824 0.6096132684586248 0.7055584573341993 0.7676773298637816
-0.8153160343860344 -0.42454626851535815 1.8933227908015486 0.9417361962125693 2.0326255837244327 -0.46136234694637146 -0.4089503644853577 0.22059041082650202
0.355612417329481 0.12132815205053517 -0.07039644573746975 -0.5443509130638096 0.8955445498875395 -0.8629310117648668 -0.1873067042292485 0.9637102642124796
0.371832481627022 -0.6793562881395961 2.014125444000032 0.1599527368292095 -0.7460366351346407 0.8861080313888029 -0.11011517144839368 -0.07822618408751619
0.8431072449697437 1.2134346195149266 -0.6563916404062773 0.2512556775555563 -1.0377146532599542 -1.0762290688499871 1.3314731920537488 -0.9157581505206335
-0.6400872423863347 -0.6922176859458447 -1.0269499370185902 -0.4093652697503428 -0.9897814938639646 0.5738989233810959 -0.11807566181894172 0.23709727167030475
1.0923430530208418 -0.7986628952449432 0.9666602710528318 1.5030293052245287 1.3135128071210342 0.08398001238254087 1.4438344105966114 1.0824584528763255
0.47914522760532674 -1.1703301521668434 -0.05462220095488584 -0.10297672000814519 0.5462891031634841 0.14555192304831618 -1.557917512516262 -0.1694881003462754
-1.2282624846702868 1.4408281153414724 -0.9947749007354684 0.839478188248794 -0.06800524415466853 0.11439127075640365 -1.4172608865069731 2.127868434464348
-0.48176592417275665 -0.4239092979213186 -0.8153668611094744 -0.6332383701408202 0.07392588836089765 -0.4585340995913881 0.5428341754765637 0.04590896768992956
-0.061510063009773346 -0.8143148847226819 1.4682460860336108 0.2647071579414157 -0.9402627975739963 3.0037089699974913 -1.8136640288173063 -1.3375174217219166
1.7459102795749293 -0.22602713807184519 -0.9903312419003415 -0.06335445562938863 -0.9163173450295665 0.7527598314407996 1.4195590820898385 -0.48442866787274064
1.8463582084616885 0.036211263013100715 0.5304463962840618 1.6977147102747143 0.021328979035356615 -1.2635351541955278 0.013756525937390759 -0.25511988641184136
-0.23392820742375142 0.3239886594869394 -0.7929925160597067 -0.25608861847480696 2.303716258971675 0.9008407624191525 -1.1376833658231524 -1.2725515853873903
-0.007224298556329881 0.0022599772131597245 -0.9095326246681747 -1.0193341128937832 -2.627632077832281 -2.352061851350616 -0.4677481183239449 -1.561994345192423
-1.8945585675242371 1.8075445367591214 -0.1822384616306764 2.2844818458984273 -1.5323712298083518 1.1137937526513764 0.8769709254534874 -1.305201269348595
0.9414878923421621 -0.02988566056797103 -0.31456161072465016 -0.435842795854079 -0.8549999014191708 -0.22749140815471944 1.1452770412666446 -0.2790701542311005
-0.2758523111923368 0.6006071666057703 -0.9603143401344282 0.6679403529278605 0.40988274149398113 -0.7292360694108276 -0.7628787140478963 -1.018076434890976
0.5811161616942704 0.8410698051020382 -1.0975628158446855 0.7395572824147677 1.2006094699315553 -1.704105737397373 1.8074392601213958 -0.44287430865391925
-0.014615580605911033 0.49038894475666744 -1.1081003852712166 0.03091482175986798 0.42294008050147053 -2.1806228369232312 1.3608586610779336 -1.657736641698986
-0.5000528161939317 0.1313388662657766 -1.2534104664293697 0.5803178706966545 0.06833591692463203 -0.7781881602613222 -0.6435629219334847 -1.2523120316439196
0.8396596326705493 -0.23893695496381592 0.790080728410347 -0.053767132475466724 -1.7288751599002492 -0.30880489828996593 0.47993833587971085 -1.1410275591337087
0.8432354331908632 -0.010273103737712452 -0.0006121053520956606 -0.8020108250359144 0.6272290044268227 -0.10197225101250906 1.0967347457521768 -1.7305718977452407
00000000: bd4d 072d f217 8cbf fcdc dd72 1689 babf
00000010: 6e05 e597 7e20 95bf 37b1 b856 ab80 d9bf
00000020: e8da 1dc0 b004 f23f c91d dd5c 263b e1bf
00000030: 9799 b3c8 1d3e 793f e0b7 1544 69fa 0140
00000040: c5bb c8a0 163a d9bf f8c7 c8b9 7620 e73f
00000050: 0478 e001 51a0 fa3f 56a9 90bd 1644 e4bf
00000060: 4bac 5574 ef28 efbf 2d11 9243 332b e73f
00000070: b3f7 ae2b 4791 abbf 98de 41a4 4618 0040
00000080: cc66 faff 75ff e4bf 1824 02f5 bdda c6bf
00000090: 94d7 7ba6 3d85 c93f bc74 424d c0d6 d4bf
000000a0: ba14 25cb c6aa ea3f 6db8 a90c 98f6 df3f
000000b0: b362 7156 c80e 0240 4d69 1527 a4dd f03f
000000c0: 0d48 b1a8 4d9c f13f 1b23 b887 239c f3bf
000000d0: 9a42 3ab5 8712 e03f 3572 46ee efa6 f13f
000000e0: b4ac 50c4 4a04 f7bf 357d 0f95 a109 cebf
000000f0: f2c2 ce2a 3012 dc3f bc2e 2929 55b5 db3f
00000100: 9b45 7b99 b415 fcbf 694d 7a23 8641 fdbf
00000110: 1fa5 773f aa6d ed3f 511e 796a 1348 f7bf
00000120: 3b20 a1e3 4a8f 7e3f 6c5f 728b f5b3 e33f
00000130: 2375 ec66 171c f13f 5d77 2c77 9518 eb3f
00000140: 245a 383e 1dd5 e43f d552 fc93 8bfb dfbf
00000150: 69bf 7a85 6747 fb3f ec02 14f5 3d62 df3f
00000160: f786 3b61 0302 fe3f 38f3 7c00 cd35 f1bf
00000170: 7cf2 931a d907 d2bf e6d8 eff5 017a c6bf
00000180: c5d5 0228 ab48 cb3f 0641 3a70 97fa d83f
00000190: f384 dd40 1b43 01c0 18b5 54a4 9cd8 d5bf
000001a0: 55ec 595f b750 e1bf 33d1 bf4f 04dd f0bf
000001b0: cca6 a4c9 9b35 cdbf 42c2 bb0f 4209 d83f
000001c0: fd03 54a7 b059 cdbf d77a 18cf 14a5 f6bf
000001d0: e6fb ac63 a32e e73f 0374 d0ac 009f edbf
000001e0: 47b4 30cc 79f2 d1bf 9048 d524 d332 f83f
000001f0: c7f3 c3ce c176 ed3f 025f b70c a343 f03f
00000200: 719b 9312 79be f43f b2b7 c330 058b acbf
00000210: fbc0 4143 ee3f e63f ae82 056a c1dd e4bf
00000220: ff86 4545 98b6 f13f 8f86 e673 b8cf ec3f
00000230: 2769 abbf 86a5 f6bf 13a4 f5ee 4b3c f73f
00000240: 046e 0f15 c0cd ebbf a5a1 9227 33a8 d1bf
00000250: ed44 d6fc 9b95 cc3f c073 0491 d0b7 97bf
00000260: 6c4f 0335 e637 d23f 4a99 67af f381 e33f
00000270: c454 7554 ef93 e63f 50a8 340c d090 e83f
00000280: 2ef5 f2a6 1117 eabf 1663 ba1c c42b dbbf
00000290: c239 b4d6 0c4b fe3f 5728 86f2 b322 ee3f
000002a0: f2df b833 d142 0040 e063 efef f586 ddbf
000002b0: 96b8 4926 3e2c dabf d9cf 277c 4e3c cc3f
000002c0: f0d2 9e95 5ac2 d63f 5123 249d 5c0f bf3f
000002d0: 4273 3260 8005 b2bf 8404 259b 526b e1bf
000002e0: c318 3c0b 4da8 ec3f 567f 477f 219d ebbf
000002f0: ba3a 7e84 aaf9 c7bf 7b96 73e8 b6d6 ee3f
00000300: dc6d 0b77 1acc d73f 5187 fc65 49bd e5bf
00000310: 452c 00cd ed1c 0040 b727 cbce 5479 c43f
00000320: 65ad b038 88df e7bf 1136 f13a ff5a ec3f
00000330: 810e 2a04 8230 bcbf 1cc5 5896 a106 b4bf
00000340: 7e4d 850b bcfa ea3f bb69 6a6b 3a6a f33f
00000350: 4635 9d0a 2901 e5bf 9344 82b1 9214 d03f
00000360: c14d 25ae 7a9a f0bf 9271 dbf8 3b38 f1bf
00000370: fcf1 75d5 b64d f53f 9702 7109 e44d edbf
00000380: 335b 943d 987b e4bf da34 5bb4 a526 e6bf
00000390: 55fc a10e 636e f0bf 4a8a 6c63 0a33 dabf
000003a0: b89d 4a3d 4aac efbf 9134 6446 615d e23f
000003b0: ea45 f7e1 343a bebf 8ebb e511 3459 ce3f
000003c0: 05cc 8bb5 3c7a f13f ef61 f37c a58e e9bf
000003d0: 0876 5085 e1ee ee3f 3be7 ed74 680c f83f
000003e0: 5864 5701 2604 f53f 4b60 b3ce b67f b53f
000003f0: 4fa1 651c f219 f73f 071f 66f4 bf51 f13f
00000400: d45b a6be 50aa de3f cc44 111c acb9 f2bf
00000410: 873a 79ed 70f7 abbf 6930 afac ae5c babf
00000420: 5bf2 0749 337b e13f ff63 ae06 72a1 c23f
00000430: e0f7 e1e9 3aed f8bf 9932 063c c9b1 c5bf
00000440: 5700 2990 f6a6 f3bf 75c8 28c8 a10d f73f
00000450: a34b 312c 32d5 efbf 207c 875c 01dd ea3f
00000460: cdcd 99ab ca68 b1bf 10bd d80e bf48 bd3f
00000470: 9f28 57c0 19ad f6bf 83b8 c1e2 df05 0140
00000480: 968c 29be 40d5 debf 6cb6 c276 5421 dbbf
00000490: c0a2 563e 7c17 eabf 2478 4a1d 7d43 e4bf
000004a0: 397a d698 ceec b23f e521 7668 9f58 ddbf
000004b0: bd55 dac6 e55e e13f 5d8a a455 6181 a73f
000004c0: dff5 003a 3f7e afbf 2df5 d016 de0e eabf
000004d0: e7e8 9f9b ef7d f73f fb07 984a f6f0 d03f
000004e0: 9c39 a701 a216 eebf 83ba 8691 9807 0840
000004f0: 1d3b 9b92 c404 fdbf 9203 02ab 7866 f5bf
00000500: 8264 089e 3fef fb3f 6d76 030f 75ee ccbf
00000510: b568 0525 cbb0 efbf 74ee fb62 ff37 b0bf
00000520: ec1a b5c0 7852 edbf 8dfb 38c9 9b16 e83f
00000530: d80c 8595 83b6 f63f 7287 7019 e100 dfbf
00000540: a5b4 a0e7 ae8a fd3f edb7 c65c 488a a23f
00000550: 7646 8ab8 6af9 e03f 9516 69e6 d629 fb3f
00000560: 4bdc a78d 43d7 953f 95db 49a3 7037 f4bf
00000570: cbb4 0fa8 612c 8c3f 90ad 2c5c e253 d0bf
00000580: f89a 3f08 5cf1 cdbf bb5c 31ee 3abc d43f
00000590: ce5f 4ed7 3160 e9bf 1789 4e84 c163 d0bf
000005a0: de5f 3cca 026e 0240 91ce af01 b0d3 ec3f
000005b0: 499e 1679 f333 f2bf 8163 1b0d 5f5c f4bf
000005c0: 775c 93e0 3997 7dbf e517 0c07 8483 623f
000005d0: 0a09 b329 e41a edbf 2d37 6949 314f f0bf
000005e0: 6fae 81f7 6305 05c0 c9c2 cdcd 05d1 02c0
000005f0: 64e1 bdcd 95ef ddbf da36 52c8 edfd f8bf
00000600: a7f8 fda4 1c50 febf 331a f7d1 b3eb fc3f
00000610: 3578 6304 9753 c7bf 0284 036b 9e46 0240
00000620: 12bb d5b1 9784 f8bf 4507 e265 19d2 f13f
00000630: dab2 8b54 2510 ec3f 67cc e8b9 1ae2 f4bf
00000640: d610 6637 ab20 ee3f dd00 09bb 589a 9ebf
00000650: d6ec a805 c721 d4bf 85fd 982e d9e4 dbbf
00000660: c9b6 d5c0 285c ebbf ff9f 123f 701e cdbf
00000670: 1d99 d104 0e53 f23f 8c95 6d10 49dc d1bf
00000680: e836 c673 90a7 d1bf 8914 4a85 2c38 e33f
00000690: e53a 9823 e5ba eebf 9c1f 7072 c45f e53f
000006a0: 8b55 7ad2 843b da3f e1db a5e1 e655 e7bf
000006b0: dace f49e 8069 e8bf d3f5 0a84 0a4a f0bf
000006c0: 12ed b4eb 8098 e23f 861f 5239 0bea ea3f
000006d0: cebc f506 9e8f f1bf 99ae af08 74aa e73f
000006e0: 99fb 8946 b235 f33f 4dc3 b060 0444 fbbf
000006f0: 33a5 fb6d 45eb fc3f 730f fa7b 0d58 dcbf
00000700: 302c b705 c6ee 8dbf 8930 0350 8862 df3f
00000710: 4acc 3678 c7ba f1bf af63 ae91 22a8 9f3f
00000720: 99f8 7a45 7311 db3f d9f7 cb62 ea71 01c0
00000730: deed 3cbb 13c6 f53f f3a5 57db 1686 fabf
00000740: 9c6b 7ac3 6e00 e0bf b711 a743 b6cf c03f
00000750: b573 1c22 f80d f4bf caa5 7dc8 f691 e23f
00000760: 205e 5570 767e b13f fd9d 4edb eae6 e8bf
00000770: abeb d344 1198 e4bf 69c4 4457 7809 f4bf
00000780: 9bec c2e0 7dde ea3f 930d b073 7c95 cebf
00000790: 121d 3761 5748 e93f 81e5 2997 5d87 abbf
000007a0: a536 eaff 78a9 fbbf 2a00 c09e 75c3 d3bf
000007b0: 27cd 2c48 4fb7 de3f 1506 251d a641 f2bf
000007c0: c542 0ce0 c8fb ea3f 20b6 a7a4 100a 85bf
000007d0: 07cc 063c b60e 44bf c026 129b 12aa e9bf
000007e0: fcb4 a38f 4212 e43f 28bf 327b da1a babf
000007f0: 9347 96bb 398c f13f 5614 8328 6cb0 fbbf
